model_params_101000/-0.0_V3_0.95g_0.0rm_100bz_0.0td_0.25tds_Nonelb_Noneup_64n_50000e_10md_5.0rz_11s.pth (torch, 22928 bytes, 4 tensors)

rnn.weight_ih_l0 f4 [64, 9]
0.35271174 -0.23297499 -0.16916156 1.1624478 -0.24592607 -0.034682687 -0.6625932 0.01190842
-0.22760847 -0.4526253 -0.5076938 0.06332372 -0.6673166 0.4359453 -0.21922694 0.06580827
0.13917668 -0.15053731 -0.065582685 0.32053146 -0.11165424 0.3283009 0.17420755 0.3994894
0.32874766 -0.15605459 -0.02577549 0.40792108 0.14578626 -0.16358493 0.73391664 -0.34778622
-0.06950701 0.50367796 -0.0415261 0.3546307 -0.024249282 0.26642194 -0.09978523 0.36317605
0.017169375 0.10052723 -0.33625358 0.5317953 0.3324477 -0.2846175 -0.33406836 -0.101314895
-0.47756997 -0.012826841 0.08395949 -0.07324817 -0.20194647 0.52542573 0.6738356 -0.3823303
-0.12620242 1.6999449 0.033364672 -0.31169435 -0.5690237 -0.23702352 0.4266722 -0.26311424
0.03195196 -0.7914297 0.058316145 0.32540423 0.0131216375 0.27723724 0.03337894 0.44487435
0.2885235 -0.34385946 -0.021846388 0.2428345 -0.5258826 -0.059904505 -0.07494605 0.21468788
-0.13681707 0.1259537 -0.079678476 -0.13878533 -0.15287088 -0.22313279 0.36416212 0.119553246
0.39112177 0.47969434 0.078192994 0.61063397 -0.91962904 -0.9675696 0.29286805 -0.16247502
0.667615 0.1921892 -0.038654 -0.03832172 -0.007916771 0.5374694 0.69918734 -0.54016095
0.29541793 0.44083408 -0.25762585 -0.54222274 -0.071640186 0.38327423 0.31713533 -0.072992325
-0.19235055 0.14896052 -0.6066578 -0.31709236 -0.5163546 -0.33387733 0.37344086 -0.13312428
-1.0413808 0.28365037 -0.45893782 -0.085107744 0.2554767 -0.4763034 1.5718695 1.3970906
-0.028391464 -0.34024 0.48948178 0.395922 1.2705783 0.29466876 0.21546529 -0.19957839
-0.56549877 0.45609087 -0.53616315 0.62594754 0.25754952 -0.41143706 -0.10563443 0.07593803
0.4737496 0.39667454 -0.7070931 0.26902878 0.17414151 -0.0014762458 -0.01803393 0.29957628
0.070586495 -0.5127439 -0.11503154 0.1996006 -0.3842914 -0.13304192 0.14134069 0.019173011
0.1357674 -0.43114564 -0.70931983 0.5990904 -0.13721654 -0.3088491 0.57322216 0.43848145
0.18123235 0.16946064 -0.40134737 -0.13035065 0.22265999 -0.4720819 -0.7055593 0.44951227
0.561982 0.17715342 0.09296173 0.2687345 0.16890296 -0.2621873 -0.2253178 -0.40703794
0.51839143 -0.3277475 0.032735817 0.7863481 -0.19612625 0.35665867 0.1657122 0.26888373
0.09550452 -0.29736245 -0.4071907 -0.16670747 0.3150054 -0.37511545 -0.9738132 0.40621835
-0.22724979 -0.87047863 -0.15867738 -0.16308789 -0.49020517 -0.37876588 -0.73780656 0.23277101
-0.22452663 -0.31617528 -0.03501932 -0.22115129 0.153634 -0.27924913 -0.053329434 -0.05044905
-0.078304686 -0.17834316 -0.753673 -0.5348779 -0.41872707 -0.07776069 0.2823562 -0.3519576
-0.30223846 0.42904574 0.11421027 0.5555272 -0.98319894 0.1914505 -0.4456637 -0.22645156
0.32162613 0.20969117 0.7872264 0.3442938 0.019187398 1.0607802 -0.48925862 0.7056533
0.56219155 0.18807761 -0.26014692 0.7534523 -0.5024269 -0.0064860354 1.232176 -0.0087102745
0.58294797 0.22833534 0.11771986 -0.4133277 0.51705545 0.19260667 0.6454716 0.89099216
00000000: a296 b43e ff90 6ebe b038 2dbe 17cb 943f
00000010: 0bd4 7bbe 6f0f 0ebd b59f 29bf 891b 433c
00000020: 3212 69be 81be e7be 39f8 01bf deaf 813d
00000030: 43d5 2abf 3934 df3e 077d 60be 7cc6 863d
00000040: 5584 0e3e 7426 1abe 3750 86bd b31c a43e
00000050: faaa e4bd 0e17 a83e 7763 323e e089 cc3e
00000060: 9d51 a83e c6cc 1fbe 1f27 d3bc 08db d03e
00000070: fe48 153e cf82 27be f6e1 3b3f 0911 b2be
00000080: b159 8ebd 0af1 003f 4617 2abd 2892 b53e
00000090: 6ea6 c6bc 7568 883e 335c ccbd 36f2 b93e
000000a0: caa6 8c3c 38e1 cd3d 6e29 acbe bd23 083f
000000b0: 9636 aa3e 63b9 91be 020b abbe 2f7e cfbd
000000c0: 0d84 f4be ac27 52bc f4f2 ab3d 2303 96bd
000000d0: 0ecb 4ebe 4d82 063f 7d80 2c3f ccc0 c3be
000000e0: 353b 01be cb97 d93f 65a9 083d 6796 9fbe
000000f0: 8aab 11bf 4bb6 72be c774 da3e e9b6 86be
00000100: 0fe0 023d 239b 4abf e9dc 6e3d 629b a63e
00000110: 23fc 563c 0af2 8d3e 5bb8 083d 92c6 e33e
00000120: 5ab9 933e 590e b0be 32f7 b2bc 9ba9 783e
00000130: 3ea0 06bf 6d5e 75bd 517d 99bd 24d7 5b3e
00000140: c619 0cbe 02fa 003e 782e a3bd be1d 0ebe
00000150: 2f8a 1cbe ec7c 64be 7573 ba3e 55d8 f43d
00000160: 1d41 c83e 7f9a f53e a623 a03d 8252 1c3f
00000170: cf6c 6bbf a4b2 77bf cdf2 953e da5f 26be
00000180: d1e8 2a3f 3fcd 443e a853 1ebd 3cf7 1cbd
00000190: 58b5 01bc 9897 093f f1fd 323f fd47 0abf
000001a0: 0541 973e 01b5 e13e 89e7 83be 1ccf 0abf
000001b0: 17b8 92bd 853c c43e 905f a23e 007d 95bd
000001c0: 8bf7 44be 1b89 183e ed4d 1bbf ee59 a2be
000001d0: d12f 04bf f8f1 aabe a433 bf3e bb51 08be
000001e0: f74b 85bf 9f3a 913e e6f9 eabe f84c aebd
000001f0: d8cd 823e 0ade f3be 0533 c93f ddd3 b23f
00000200: 3795 e8bc f033 aebe 5b9d fa3e 4ab6 ca3e
00000210: 4fa2 a23f d3de 963e efa2 5c3e 475e 4cbe
00000220: 87c4 10bf be84 e93e fd41 09bf 193e 203f
00000230: 88dd 833e e1a7 d2be dd56 d8bd 6685 9b3d
00000240: 4f8f f23e ed18 cb3e 0e04 35bf 24be 893e
00000250: 2752 323e 977e c1ba e4bb 93bc 1062 993e
00000260: a78f 903d 2f43 03bf a895 ebbd 1a64 4c3e
00000270: d8c1 c4be 243c 08be 9dbb 103e b810 9d3c
00000280: 9c06 0b3e 1fbf dcbe fc95 35bf fd5d 193f
00000290: 7e82 0cbe 7821 9ebe b0be 123f a480 e03e
000002a0: f994 393e 1787 2d3e 677d cdbe a47a 05be
000002b0: fb00 643e b8b4 f1be 899f 34bf 7926 e63e
000002c0: 0dde 0f3f b567 353e b862 be3d 9297 893e
000002d0: e6f4 2c3e 6a3d 86be b6b9 66be 4767 d0be
000002e0: 4db5 043f 85ce a7be fe15 063d 1c4e 493f
000002f0: 52d5 48be f79b b63e 75b0 293e 21ab 893e
00000300: e097 c33d e43f 98be 4d7b d0be 5db5 2abe
00000310: 6348 a13e 220f c0be d24b 79bf dafb cf3e
00000320: 2bb4 68be b0d7 5ebf 537c 22be 8300 27be
00000330: 2cfc fabe 9aed c1be e4e0 3cbf 865b 6e3e
00000340: 4fea 65be bae1 a1be 6b70 0fbd 7c75 62be
00000350: 3b52 1d3e bef9 8ebe f76f 5abd aaa3 4ebd
00000360: 355e a0bd 979f 36be b7f0 40bf c2ed 08bf
00000370: 6563 d6be ff40 9fbd fe90 903e c933 b4be
00000380: 00bf 9abe e2ab db3e 13e7 e93d 0837 0e3f
00000390: edb2 7bbf 9a0b 443e 082e e4be ebe2 67be
000003a0: 2eac a43e 48b9 563e ab87 493f 4747 b03e
000003b0: e42e 9d3c a5c7 873f 1b80 fabe b2a5 343f
000003c0: c9eb 0f3f 6b97 403e fa31 85be 40e2 403f
000003d0: 0d9f 00bf cf88 d4bb f1b7 9d3f 8ab5 0ebc
000003e0: 143c 153f bdd0 693e 1c17 f13d b09f d3be
000003f0: bf5d 043f af3a 453e a03d 253f 1018 643f

rnn.weight_hh_l0 f4 [64, 64]
0.3060718 0.09635232 -0.38095698 -0.10370862 0.05022564 0.04311733 0.11193038 -0.049619876
0.30988023 -0.18732236 0.15665913 -0.3992925 0.29844266 0.11528803 0.24305427 0.3441967
0.13257225 -0.027919723 -0.18465538 0.007455058 0.10041842 0.122817144 0.5240881 0.37584504
-0.4757306 -0.06513179 -0.16646598 -0.02420891 0.02894587 0.18428423 -0.023150837 -0.065495364
-0.05054448 0.095678486 0.17636836 0.22249751 -0.015622706 0.1604295 -0.14249097 -0.1548837
-0.12359592 0.5178384 -0.4047901 -0.15867737 -0.2960532 -0.18135661 -0.096289545 -0.05708623
0.28823858 0.214602 0.23520808 0.17402157 -0.06500599 0.19074762 -0.011496709 0.12387855
0.32659695 -0.23321342 0.15663956 0.060278397 0.07847747 0.0683841 -0.27859196 -0.30625868
-0.0815283 0.41810226 -0.09171639 -0.28942615 -0.1306693 -0.016838215 0.19247834 -0.10711777
0.08757304 0.22209914 0.14481652 -0.066361636 -0.2552792 -0.20319727 0.018475307 -0.25422826
0.048540268 -0.28958812 -0.0541001 -0.09928722 -0.004837636 -0.0748987 0.06198926 0.03046078
0.17639264 -0.07411255 0.37504938 0.0030667547 0.26757446 0.03722754 -0.16240701 -0.59225154
-0.2555435 0.16392271 0.3765204 -0.20857906 0.300361 0.15760155 -0.019787367 0.42595676
-0.34063026 -0.17321624 -0.05217084 -0.1320988 0.06717351 -0.10115663 -0.12925631 -0.2336382
-0.0739088 0.45466447 0.19476233 0.08066156 -0.07339963 -0.2692246 -0.09463465 -0.25204557
0.41863897 -0.3263786 -0.017388754 -0.16912067 0.29296586 -0.21589504 -0.3510843 -0.087630466
0.40794957 -0.041981403 0.084368244 0.14021231 0.14808343 0.22863951 0.21721555 0.08403582
0.3888674 0.20780484 0.18585321 0.11931854 0.27826425 0.24896508 -0.04274272 -0.03122498
0.3156948 -0.0033941916 -0.07627917 0.079741515 0.08503654 -0.36198583 0.12023301 -0.2770004
-0.403052 -0.17113018 -0.21748395 0.10585873 -0.36449265 -0.05184817 0.014982858 -0.2413683
0.23554493 -0.33663064 0.17431052 0.18106145 -0.14412065 0.26175067 0.19263501 -0.16783175
0.2961545 0.43049887 -0.37630346 0.55110097 -0.14687195 0.03436215 0.09003646 -0.020847097
0.13524589 0.19065309 -0.10546624 0.121450655 0.040957633 -0.13629046 0.31013843 0.00021914931
-0.34594557 0.1020782 0.0029466029 0.27232635 0.27292502 -0.2757189 -0.16195482 0.014549535
0.11716458 0.17980051 0.052014973 -0.07395608 0.17742641 -0.15207736 -0.15682484 -0.012005975
0.11016984 0.01798037 0.08516854 0.04271753 0.3703528 -0.34395194 -0.18201952 0.447355
0.37499323 0.07124301 -0.18076654 -0.09529599 -0.3146703 -0.014796444 0.24109371 -0.14728972
-0.017053204 -0.03756068 0.18671793 0.03172397 0.19780016 0.2314117 0.15024304 0.51745176
-0.0849683 -0.17223123 0.022596464 0.19084197 -0.025553716 -0.07907919 -0.033316325 0.091282815
0.22129762 0.110163674 0.16111289 -0.095985785 0.07671911 -0.33240476 0.25399518 0.24645379
-0.2491601 -0.10497116 0.052862514 0.067552105 -0.09138636 -0.38806522 -0.0020442447 -0.15279594
0.17998496 0.21573776 -0.12352704 0.0748078 0.042670324 -0.0068498505 -0.030384425 -0.19229202
00000000: 71b5 9c3e 5d54 c53d cb0c c3be 2f65 d4bd
00000010: 67b9 4d3d cc9b 303d c13b e53d 363e 4bbd
00000020: 9fa8 9e3e 6fd1 3fbe 406b 203e 1170 ccbe
00000030: 7acd 983e 211c ec3d 38e3 783e 8d3a b03e
00000040: 05c1 073e e7b7 e4bc 4d16 3dbe 8f49 f43b
00000050: 2ca8 cd3d 8e87 fb3d a32a 063f c36e c03e
00000060: f692 f3be d163 85bd 0f76 2abe c451 c6bc
00000070: e41f ed3c 01b5 3c3e d3a6 bdbc 6f22 86bd
00000080: bb07 4fbd 15f3 c33d e899 343e 63d6 633e
00000090: 61f6 7fbc a147 243e 27e9 11be d599 1ebe
000000a0: dc1f fdbd 0f91 043f a640 cfbe 527c 22be
000000b0: 4994 97be 8cb5 39be 7433 c5bd 40d3 69bd
000000c0: 0294 933e a0c0 5b3e 63da 703e b632 323e
000000d0: dc21 85bd 5853 433e b15c 3cbc 0ab4 fd3d
000000e0: b737 a73e 80cf 6ebe 1f66 203e 7be6 763d
000000f0: ccb8 a03d f70c 8c3d 9ba3 8ebe f0cd 9cbe
00000100: 4ff8 a6bd 8011 d63e cdd5 bbbd aa2f 94be
00000110: 2cce 05be 4cf0 89bc 0b19 453e 9060 dbbd
00000120: 7e59 b33d f56d 633e c84a 143e 9ce8 87bd
00000130: f5b3 82be f212 50be 8759 973c 352a 82be
00000140: 29d2 463d e544 94be 1198 5dbd 1957 cbbd
00000150: 0885 9ebb 7d64 99bd 73e8 7d3d e388 f93c
00000160: 46a0 343e 52c8 97bd 7906 c03e 9bfb 483b
00000170: 85ff 883e e87b 183d 064e 26be cc9d 17bf
00000180: 99d6 82be 5bdb 273e 48c7 c03e c095 55be
00000190: ebc8 993e 4d62 213e 1e19 a2bc 0117 da3e
000001a0: 1767 aebe 995f 31be 17b1 55bd e844 07be
000001b0: 4492 893d 352b cfbd c45b 04be da3e 6fbe
000001c0: 7f5d 97bd c8c9 e83e c76f 473e e331 a53d
000001d0: 8c52 96bd cfd7 89be d0cf c1bd 1e0c 81be
000001e0: d957 d63e 191b a7be dc72 8ebc f82d 2dbe
000001f0: 9fff 953e 9713 5dbe 52c1 b3be 9a77 b3bd
00000200: c4de d03e b1f4 2bbd 42c9 ac3d d193 0f3e
00000210: 2fa3 173e 7a20 6a3e c16d 5e3e f91a ac3d
00000220: a119 c73e cbca 543e 4e50 3e3e 475d f43d
00000230: a778 8e3e b4f0 7e3e fe12 2fbd 87cb ffbc
00000240: c0a2 a13e 1671 5ebb 4138 9cbd 854f a33d
00000250: a327 ae3d 3556 b9be b93c f63d ffd2 8dbe
00000260: d55c cebe c03c 2fbe 1db4 5ebe 76cc d83d
00000270: c89e babe bf5e 54bd a97a 753c 4029 77be
00000280: b132 713e da5a acbe 757e 323e 2c68 393e
00000290: 5d94 13be 2f04 863e 1d42 453e 16dc 2bbe
000002a0: 90a1 973e 596a dc3e d9aa c0be f414 0d3f
000002b0: 9a65 16be 53bf 0c3d 0965 b83d 88c7 aabc
000002c0: e67d 0a3e 903a 433e affe d7bd 1fbb f83d
000002d0: 31c3 273d ba8f 0bbe 77ca 9e3e 72cb 6539
000002e0: c71f b1be 600e d13d cb1b 413b 5c6e 8b3e
000002f0: d4bc 8b3e 072b 8dbe 7cd7 25be 2c61 6e3c
00000300: fcf3 ef3d a01d 383e a70d 553d 4976 97bd
00000310: 45af 353e 2bba 1bbe b196 20be b5b4 44bc
00000320: baa0 e13d 924b 933c d86c ae3d 94f8 2e3d
00000330: e29e bd3e 781a b0be 5363 3abe b70b e53e
00000340: 1dff bf3e dbe7 913d dd1a 39be 8b2a c3bd
00000350: 771c a1be c96c 72bc 45e1 763e 1ed3 16be
00000360: 29b3 8bbc 3ad9 19bd fc32 3f3e fef0 013d
00000370: 208c 4a3e 30f7 6c3e 50d9 193e b877 043f
00000380: dc03 aebd 625d 30be 381c b93c 146c 433e
00000390: 0756 d1bc 45f4 a1bd b376 08bd 7cf2 ba3d
000003a0: d89b 623e 7e9d e13d c7fa 243e 3294 c4bd
000003b0: e91e 9d3d f530 aabe a80b 823e 625e 7c3e
000003c0: d323 7fbe 1ffb d6bd 5d86 583d c258 8a3d
000003d0: c628 bbbd 7cb0 c6be bcf8 05bb 8a76 1cbe
000003e0: fa4d 383e 5cea 5c3e bffb fcbd d534 993d
000003f0: 14c7 2e3d b674 e0bb c2e8 f8bc 33e8 44be

actor.weight f4 [3, 64]
0.112388 0.04903294 0.06340709 -0.28244904 -0.25608933 -0.030655252 -0.20598145 -0.1387702
0.25501534 -0.08031319 0.20741075 -0.044314176 0.03336504 -0.16573653 -0.0061345776 0.112958446
-0.026403414 0.29559332 -0.025353026 0.13105774 0.00828015 -0.0441216 0.022888955 0.11186299
0.21371783 0.026222646 -0.3115832 -0.26127684 -0.2963638 -0.004759199 -0.09867319 0.013121937
0.014257554 -0.13780189 -0.21041358 0.1038449 0.1098046 0.14444245 0.23222433 0.05593472
0.28398418 0.118793115 -0.30467162 -0.18012196 -0.1103223 0.056403212 0.33914077 0.19592161
0.23596516 -0.24999037 -0.13807821 -0.13868082 -0.033775743 0.113615006 0.17714818 -0.009276574
0.14068983 -0.012200969 -0.03063528 0.023605464 0.07147704 -0.016858008 -0.09806408 0.070588015
0.18544114 -0.046854243 0.1367459 0.143882 0.3595793 0.14589816 0.27300376 -0.26203278
0.37430152 0.011462478 -0.4355818 0.12748154 0.1509224 -0.42150697 -0.3867788 0.16683887
0.19228852 0.040268466 -0.06628898 -0.0717257 0.04320501 -0.094517544 0.04816201 0.11447668
0.020301586 -0.20373552 0.07312138 0.33068937 -0.08536168 0.2715535 0.032840323 0.11480064
-0.20542341 -0.13349827 -0.022524092 0.14408173 -0.14344822 0.12393499 0.035594735 -0.013935017
0.11835129 0.3407183 -0.043617774 0.003733583 -0.0068559297 0.045057192 0.032031965 -0.024275348
-0.17494865 0.014682258 -0.055883884 0.25308716 -0.085540794 0.20151205 0.052095063 -0.012195365
0.019500867 0.17160393 0.044794314 0.0590659 0.05193548 -0.13588208 -0.24473448 0.083787024
-0.21839765 0.0150652705 -0.102148265 0.05413036 -0.1402546 -0.06945308 -0.08320436 0.26829764
-0.39642167 0.023048496 0.14020723 -0.06471612 -0.23357677 0.4390621 0.28706864 -0.1696922
-0.13655265 -0.16564918 0.03596526 -0.028757244 -0.012244819 0.06274278 -0.042096294 -0.08813604
-0.1451755 0.10875991 0.14195539 -0.012258835 0.21818507 -0.12758069 -0.025538087 -0.091664545
0.04435037 0.14603215 0.0971538 -0.18880816 0.079743005 -0.19143614 -0.13094763 0.024673957
-0.27415195 -0.25263175 0.24465987 0.09327981 0.07529526 -0.08302765 -0.2568852 -0.104898855
0.010452047 0.14909512 0.09003375 -0.08631737 0.10190622 -0.1438228 -0.14127733 -0.026488751
-0.079819046 -0.071934596 -0.013414241 -0.07143012 -0.049496602 0.10511914 0.1971813 -0.1141701
00000000: ae2b e63d c4d6 483d 94db 813d 299d 90be
00000010: 241e 83be b920 fbbc cdec 52be c619 0ebe
00000020: 5f91 823e 3e7b a4bd 7c63 543e c882 35bd
00000030: c8a9 083d d6b6 29be 9104 c9bb c256 e73d
00000040: f94b d8bc 0258 973e 26b1 cfbc 0034 063e
00000050: 77a9 073c dab8 34bd 9e81 bb3c 6c18 e53d
00000060: d9d8 5a3e e0d0 d63c d587 9fbe 14c6 85be
00000070: ffbc 97be 0ef3 9bbb 2b15 cabd 65fd 563c
00000080: 8498 693c f01b 0dbe a876 57be a3ac d43d
00000090: 3ce1 e03d b9e8 133e 37cc 6d3e ce1b 653d
000000a0: 6066 913e ce49 f33d ebfd 9bbe e471 38be
000000b0: a8f0 e1bd 0e07 673d dca3 ad3e ad9f 483e
000000c0: daa0 713e 7afd 7fbe 6064 0dbe 5802 0ebe
000000d0: 6f58 0abd fcae e83d 5566 353e c5fc 17bc
000000e0: ff10 103e 93e6 47bc d7f6 fabc 3f60 c13c
000000f0: 8e62 923d ce19 8abc d2d5 c8bd 7390 903d
00000100: 48e4 3d3e 3cea 3fbd 1e07 0c3e ce55 133e
00000110: c71a b83e 5466 153e 26c7 8b3e 2929 86be
00000120: 73a4 bf3e 1ecd 3b3c 9404 dfbe 858a 023e
00000130: 678b 1a3e c3cf d7be df07 c6be cfd7 2a3e
00000140: 48e7 443e 8cf0 243d 84c2 87bd ece4 92bd
00000150: bdf7 303d 6a92 c1bd 8745 453d c072 ea3d
00000160: 834f a63c 0ba0 50be a9c0 953d 1e50 a93e
00000170: 1bd2 aebd 0f09 8b3e 9383 063d 991c eb3d
00000180: 845a 52be c5b3 08be 7284 b8bc 298a 133e
00000190: 17e4 12be a1d1 fd3d c9cb 113d b34f 64bc
000001a0: 2962 f23d a172 ae3e 8da8 32bd 21af 743b
000001b0: b5a7 e0bb e48d 383d f333 033d 18dd c6bc
000001c0: bd25 33be da8d 703c 80e6 64bd a494 813e
000001d0: 0330 afbd 2d59 4e3e a261 553d 11cf 47bc
000001e0: 48c0 9f3c f1b8 2f3e 3e7a 373d 16ef 713d
000001f0: 4cba 543d ac24 0bbe ad9b 7abe 8898 ab3d
00000200: a2a3 5fbe 53d4 763c 1c33 d1bd ccb7 5d3d
00000210: e79e 0fbe 6b3d 8ebd 0c67 aabd 4f5e 893e
00000220: c8f7 cabe 33d0 bc3c 7c92 0f3e e389 84bd
00000230: c02e 6fbe bfcc e03e a9fa 923e cbc3 2dbe
00000240: 75d4 0bbe f09f 29be 4f50 133d 5094 ebbc
00000250: 7e9e 48bc 497f 803d 2a6d 2cbd ab80 b4bd
00000260: e3a8 14be 84bd de3d c15c 113e 48d9 48bc
00000270: e86b 5f3e 83a4 02be 4035 d1bc 9fba bbbd
00000280: bca8 353d 7489 153e 92f8 c63d ed56 41be
00000290: 4d50 a33d d607 44be 2317 06be 0a21 ca3c
000002a0: a55d 8cbe f358 81be 1e88 7a3e 7c09 bf3d
000002b0: 6734 9a3d 670a aabd 7586 83be 36d5 d6bd
000002c0: 103f 2b3c 64ac 183e 9d63 b83d 29c7 b0bd
000002d0: 35b4 d03d 4946 13be 01ab 10be f0fe d8bc
000002e0: 2b78 a3bd 7252 93bd 68c7 5bbc f449 92bd
000002f0: f3bc 4abd b448 d73d e5e9 493e 03d2 e9bd

critic.weight f4 [1, 64]
-0.16562167 0.003263033 -0.061105333 0.059385106 0.02366954 -0.08139856 -0.054855958 0.03137084
-0.1252072 -0.05630186 0.004320081 -0.07208208 -0.13540295 0.16116072 0.14978118 -0.12345567
-0.010274253 -0.016531391 0.079938635 0.046104718 0.04434484 0.03342641 -0.049003914 -0.08598655
-0.03461742 -0.08172709 0.04731861 -0.17439571 0.21773358 -0.08440119 0.021529209 -0.022466613
0.13806982 0.121496774 0.06437601 -0.07577951 -0.07626851 -0.0038875602 -0.10392346 0.0006392744
-0.00619012 -0.23566931 0.00074933935 0.1430671 0.046541974 0.038778838 -0.116060965 -0.015868057
-0.018604837 0.08000164 -0.03917208 0.11672689 -0.118181385 -0.015963694 -0.021269415 0.046201337
-0.022022398 0.02376966 -0.034221653 -0.06658872 -0.046154898 0.01675773 0.19839332 -0.020414
00000000: ba98 29be 9cd8 553b 9649 7abd cc3d 733d
00000010: a0e6 c13c 4ab4 a6bd a4b0 60bd b67e 003d
00000020: 5136 00be c79c 66bd 778f 8d3b c59f 93bd
00000030: 12a7 0abe 5107 253e 3d60 193e 54d6 fcbd
00000040: 5755 28bc d76c 87bc deb6 a33d 4dd8 3c3d
00000050: efa2 353d 22ea 083d 54b8 48bd b719 b0bd
00000060: ffca 0dbd 8860 a7bd 29d1 413d ca94 32be
00000070: 8df5 5e3e 88da acbd 065e b03c e70b b8bc
00000080: 2d62 0d3e 4dd3 f83d 92d7 833d 4a32 9bbd
00000090: aa32 9cbd 70c6 7ebb d3d5 d4bd fb94 273a
000000a0: 7dd6 cabb 4c53 71be 506f 443a 2f80 123e
000000b0: cca2 3e3d 8fd6 1e3d 5fb1 edbd bafd 81bc
000000c0: 2c69 98bc e6d7 a33d e772 20bd 820e ef3d
000000d0: 1509 f2bd 4bc6 82bc 323d aebc 9d3d 3d3d
000000e0: 5168 b4bc 97b8 c23c 012c 0cbd ab5f 88bd
000000f0: eb0c 3dbd 8247 893c 9e27 4b3e 433b a7bc
