model_params_101000/-1.0_V3_0.25g_0.0rm_100bz_0.0td_1.0tds_Nonelb_Noneup_64n_50000e_10md_5.0rz_33s.pth (torch, 22920 bytes, 4 tensors)

rnn.weight_ih_l0 f4 [64, 9]
0	0xbed33b00	-0.4125595
1	0x3f317a60	0.69327354
2	0x3e4af89a	0.19821396
3	0xbddc4e9e	-0.107571825
4	0x3f412cb2	0.75458825
5	0x3f17e909	0.5933996
6	0xbb490d94	-0.003067826
7	0xbe9e9e9e	-0.3098039
8	0xbf0132c2	-0.50468075
9	0x3e6e280f	0.23257469
10	0x3e04d30e	0.12971136
11	0x3f83333c	1.025001
12	0xbf8711a2	-1.0552256
13	0x3f143131	0.5788756
14	0x3c96a47c	0.01838898
15	0xbe2dbcbf	-0.16966532
16	0xbd938555	-0.072031654
17	0x3e9bf6d2	0.30461746
18	0xbe644aae	-0.22294113
19	0xbe9edc0b	-0.31027254
20	0xbf3b0cdf	-0.73066515
21	0xbea34650	-0.31889582
22	0xbe030b53	-0.12797289
23	0xbec94af4	-0.39314997
24	0x3ecff3f3	0.40615806
25	0xbea8fae1	-0.33003905
26	0xbf11e841	-0.56995016
27	0x3d67d20d	0.056596804
28	0xbf0d3b52	-0.5516864
29	0x3d522dfb	0.05131338
30	0xbe98a67d	-0.2981452
31	0x3f005a50	0.50137806
32	0x3ad66a0c	0.0016358509
33	0xbf1e336d	-0.6179722
34	0xbed1a7b3	-0.40948257
35	0x3d6cc426	0.05780425
36	0xbed02d14	-0.40659392
37	0xbea5b47c	-0.3236426
38	0xbdf6fe6f	-0.12060248
39	0xbfc7d95a	-1.5613205
40	0x3d27b86a	0.040947355
41	0x3d4ff5f1	0.050771657
42	0xbeb9a631	-0.36259606
43	0xbe85840e	-0.26077312
44	0xbc9953b9	-0.01871668
45	0x3eec4bff	0.4615173
46	0xbef78b4e	-0.4834847
47	0x3e027583	0.1274014
48	0xbceeb977	-0.02914117
49	0x3ea40a8d	0.320393
50	0xbe999c70	-0.30002165
51	0x3e13e862	0.14444116
52	0xbf554bc9	-0.83318764
53	0xbefa6d6e	-0.48911613
54	0xbe57c8f3	-0.2107275
55	0x3e60e950	0.21964002
56	0xbcfceb18	-0.03087382
57	0xbe1de83a	-0.15420619
58	0x3e00c53f	0.12575243
59	0x3f1960e1	0.5991345
60	0x3ea283d5	0.31741205
61	0xbe3781ec	-0.17920655
62	0xbd669a72	-0.056299634
63	0x3d8a28ac	0.06746039
64	0x3d1a5efc	0.03768824
65	0x3e6f00fa	0.23340216
66	0xbd7e95e3	-0.062154662
67	0x3e9c69c6	0.3054945
68	0x3f0401e5	0.5156539
69	0x3ea9e8be	0.3318538
70	0x3d81e30f	0.06342136
71	0x3ebe7b5c	0.3720349
72	0xbe499d4a	-0.19688907
73	0x3ea72225	0.32643238
74	0xbf16fbfc	-0.5897825
75	0x3ed5b01a	0.41735917
76	0xbe2818bc	-0.16415685
77	0x3e8093b4	0.2511269
78	0xbde9ac27	-0.114097886
79	0x3e430c56	0.19047675
80	0x3efdc230	0.49562216
81	0x3e5c17da	0.21493474
82	0xbe04c799	-0.12966765
83	0xbec8f524	-0.39249527
84	0xbf28a8f1	-0.65882784
85	0x3eec2295	0.46120134
86	0xbe00d40c	-0.1258089
87	0xbf63314a	-0.88747084
88	0xbeadd428	-0.33950925
89	0xbdef8d5e	-0.116968855
90	0x3e2086b9	0.15676393
91	0x3e4befd7	0.1991571
92	0xbefaf382	-0.49013907
93	0x3f4c825e	0.79886425
94	0x3edeafdb	0.43493542
95	0x3e2ea4ce	0.17055055
96	0x3d8ecc74	0.0697259
97	0xbe88debb	-0.2673243
98	0xbf022141	-0.5083199
99	0xbcdacd59	-0.026709246
100	0xbdeef583	-0.116679214
101	0x3df757bb	0.1207728
102	0x3f4511ce	0.7698029
103	0x3dad4b33	0.08461609
104	0xbd8d2f03	-0.068937324
105	0xbf327ab3	-0.69718474
106	0xbcdfd56d	-0.027323449
107	0x3e083f68	0.13305438
108	0xbf8272e8	-1.0191317
109	0xbe916193	-0.28394756
110	0xbd949674	-0.07255259
111	0x39b6090b	0.00034720483
112	0xbe813c5f	-0.25241372
113	0xbdc3614b	-0.095400415
114	0xbe195914	-0.14975387
115	0xbeca1cdc	-0.39475143
116	0xbdc79db7	-0.097468786
117	0xbe460dbc	-0.19341177
118	0xbedef34a	-0.4354499
119	0xbb77bf37	-0.0037803182
120	0x3e7ce765	0.24697645
121	0x3e75e022	0.24011281
122	0xbf83d081	-1.0298005
123	0x3eb10e23	0.34581098
124	0xbe56944c	-0.20955008
125	0x3e8449c3	0.25837526
126	0xbe2f2957	-0.17105614
127	0x3f1efc28	0.6210351
128	0xbe6d20d8	-0.2315706
129	0xbdaa6183	-0.0831938
130	0x3cfb9fa0	0.030715764
131	0x3ece81a8	0.40333295
132	0x3e64cb5e	0.22343203
133	0xbeb4902f	-0.35266253
134	0x3ea6a054	0.32544196
135	0x3eb5316f	0.35389277
136	0x3f195e70	0.59909725
137	0xbea2562b	-0.31706366
138	0x3e7b3666	0.2453247
139	0x3c921bb7	0.017835481
140	0xbeb8dae8	-0.36104512
141	0x3dc5517a	0.09634681
142	0x3eb80d61	0.35947707
143	0xbe1dcefe	-0.15410993
144	0xbf25c555	-0.6475423
145	0x3ee3aef5	0.4446942
146	0x3eee134a	0.4649909
147	0xbeb2fa1d	-0.34956446
148	0xbe959906	-0.2921831
149	0x3d305618	0.043050855
150	0x3e8f95e4	0.28044045
151	0xbec0b6e5	-0.37639537
152	0x3efac0a4	0.48975098
153	0xbf16c0d2	-0.5888797
154	0xbf246bcf	-0.64227
155	0xbea785fe	-0.32719415
156	0x3f6253db	0.88409203
157	0xbe77c4cc	-0.24196166
158	0xbeca3609	-0.3949435
159	0x3d2079a5	0.03917851
160	0xbccb066e	-0.02478334
161	0xbe36a32a	-0.1783568
162	0x3ea75b2b	0.32686743
163	0xbf084105	-0.5322421
164	0x3f261dda	0.648893
165	0xbecf4c37	-0.40487835
166	0x3e6b11de	0.22956035
167	0xbee3ffbb	-0.44531044
168	0xbdb5f6cc	-0.088849634
169	0xbd39471c	-0.04523383
170	0x3e876808	0.26446557
171	0xbed480f6	-0.4150464
172	0x3cb19047	0.021675242
173	0x3eb303a3	0.34963712
174	0xbd9c0589	-0.07618243
175	0xbefcf202	-0.49403387
176	0x3ede41ae	0.43409485
177	0x3bc7ea0e	0.0061008995
178	0x3def8bf1	0.116966136
179	0x3f2921cf	0.6606721
180	0x3f46e4b7	0.7769274
181	0x3c2bc0f1	0.010483013
182	0x3df4e8bf	0.11958455
183	0xbd9e86c6	-0.0774055
184	0x3ea065ed	0.31327763
185	0x3dcfdc19	0.10149402
186	0x3e0a278c	0.13491648
187	0x3e4b6765	0.1986366
188	0xbe45a582	-0.19301417
189	0x3e745bfb	0.23863213
190	0xbed2966f	-0.41130397
191	0x3c331b86	0.010931855
192	0x3f66069e	0.8985385
193	0xbe5eec82	-0.21769908
194	0x3f0aa2b1	0.541545
195	0xbe8fcc9b	-0.2808579
196	0x3f222571	0.6333838
197	0x3d94afca	0.072600916
198	0xbe1d648e	-0.1537039
199	0x3e45f445	0.19331463
200	0x3e47e7ca	0.19522014
201	0x3e06fe52	0.13182953
202	0xbe22dbd6	-0.15904173
203	0xbe9aa073	-0.30200538
204	0x3d8d5512	0.069009915
205	0x3eda0d0f	0.42588088
206	0xbcabc267	-0.020966722
207	0xbf07dd1b	-0.53071755
208	0x3e00df37	0.1258515
209	0x3e06667c	0.13125032
210	0xbebed136	-0.3726899
211	0xbf295e0a	-0.6615912
212	0x3f4ef6e7	0.80845493
213	0x3cec1889	0.028820293
214	0x3d995072	0.07486047
215	0xbef7fe20	-0.4843607
216	0xbf932a2c	-1.1497245
217	0x3f8868d3	1.065699
218	0x3bb87daa	0.0056302147
219	0xbf8b39c5	-1.0877005
220	0x3f0a5e34	0.5404999
221	0xbede26d6	-0.43389004
222	0x3f1c0017	0.6093764
223	0x3f32458b	0.69637364
224	0xbd790004	-0.06079103
225	0xbc889bb8	-0.016675815
226	0xbc30e720	-0.010797292
227	0xbe10a854	-0.14126712
228	0x3f4a7b72	0.7909461
229	0x3f048eec	0.5178058
230	0x3ed1391b	0.4086388
231	0xbd0c97ed	-0.034324575
232	0x3e0f0d6b	0.13969962
233	0x3e8e8fb0	0.27844
234	0xbe708437	-0.23487936
235	0xbee9cb23	-0.45662794
236	0xbe138a1f	-0.14408158
237	0xbe6460ef	-0.22302602
238	0x3e7d3997	0.24729
239	0x3e841705	0.25798813
240	0x3e398d94	0.18120414
241	0x3eca73ca	0.39541465
242	0xbef71326	-0.48256797
243	0xbe2c6891	-0.16836764
244	0xbe697559	-0.22798671
245	0xbd042da2	-0.03227008
246	0x3ec690df	0.38782403
247	0xbf2b317d	-0.6687239
248	0xbeeb086a	-0.45904857
249	0xbe973db0	-0.2953925
250	0xbe9c916e	-0.30579704
251	0x3ebf0902	0.3731156
252	0x3dd6f1e8	0.10495359
253	0xbe5b1a67	-0.2139679
254	0x3dd8570e	0.10563479
255	0xbeefdd2b	-0.46848425

rnn.weight_hh_l0 f4 [64, 64]
0	0xbe07ee9c	-0.13274616
1	0xbe910973	-0.28327522
2	0x3ddbd946	0.10734801
3	0xbe14838d	-0.14503308
4	0x3d8d848b	0.06910046
5	0x3e5dc29e	0.21656272
6	0x3da871bf	0.0822482
7	0x3ec4d380	0.38442612
8	0xbf095af8	-0.5365443
9	0xbc0fbbef	-0.008772834
10	0x3c49258f	0.012277021
11	0x3d04e400	0.032444
12	0xbdd53702	-0.104108825
13	0x3db15ba8	0.0866006
14	0xbd96bb01	-0.07359887
15	0xbd5e3863	-0.054252993
16	0xbdfed5ec	-0.12443146
17	0x3e1e3911	0.15451457
18	0x3ec38cfe	0.38193506
19	0xbe32870f	-0.17434333
20	0x3e4d873c	0.20071119
21	0xbe53ba79	-0.20676602
22	0x3e681519	0.22664298
23	0x3e076b9d	0.13224645
24	0xbd668026	-0.056274556
25	0x3e1dab79	0.15397443
26	0x3d93c6c9	0.0721565
27	0xbe583f75	-0.21117957
28	0xbe12eaa1	-0.14347316
29	0xbe5ebc7b	-0.21751587
30	0x3dc5e436	0.096626684
31	0xbe315b7d	-0.17320056
32	0xbeb61952	-0.35566193
33	0x3e5bef8a	0.21478096
34	0x3e3be348	0.1834842
35	0x3e82d2a4	0.2555133
36	0xbe3fa9df	-0.18717144
37	0x3d19017a	0.037354924
38	0x3dfc86de	0.123304114
39	0xbd914b9d	-0.070945
40	0x3da343ae	0.07971893
41	0xbd2094c0	-0.03920436
42	0x3e2199c5	0.15781315
43	0xbe05c3a1	-0.13062908
44	0xbdcb85de	-0.099376425
45	0xbebffb9b	-0.37496647
46	0xbe8fe597	-0.2810485
47	0x3e2d7eef	0.16942953
48	0x3dcd00ac	0.10009894
49	0xbc592dd2	-0.013255553
50	0x3e5cf2ac	0.21576947
51	0xbd60581c	-0.054771528
52	0x3dc853de	0.097816214
53	0xbe5aba74	-0.21360189
54	0x3e5d9f11	0.2164271
55	0xbd6d1297	-0.057879057
56	0x3e0006d1	0.125026
57	0xbe3550cc	-0.17706603
58	0x3e56b0d4	0.20965892
59	0x3d9aafbc	0.0755305
60	0xbe46762e	-0.1938102
61	0xbe348696	-0.17629465
62	0x3cf88cf8	0.030340657
63	0xbea09932	-0.3136688
64	0xbd94442e	-0.07239567
65	0x3ed770ce	0.4207825
66	0xbe3b56d1	-0.18294837
67	0x3ec2b7ff	0.38031003
68	0xbe2a5ae6	-0.16636238
69	0x3f077be9	0.52923447
70	0x3d988a1b	0.074482165
71	0xbe89f1a6	-0.26942176
72	0x3dda610f	0.10663044
73	0x3d8804b7	0.06641524
74	0xba95409d	-0.0011387054
75	0x3da8c2dc	0.082402915
76	0xbd9f3576	-0.07773869
77	0xbcd68302	-0.026185516
78	0xbec237a3	-0.37933072
79	0x3dfce89b	0.123490535
80	0x3e903dc8	0.28172135
81	0xbef439fe	-0.47700495
82	0x3c8c30d6	0.01711313
83	0x3de02a66	0.10945587
84	0xbe03f901	-0.12887956
85	0xbe022460	-0.12709188
86	0xbdc7e497	-0.09760397
87	0x3e251e15	0.16124757
88	0x3db9309e	0.09042476
89	0xbcd513e1	-0.026010456
90	0xbe1a9281	-0.1509495
91	0xbe9b9486	-0.30386752
92	0xbe59fee8	-0.21288645
93	0x3db8a548	0.090159
94	0xbda78e6b	-0.08181461
95	0xbe899727	-0.26873133
96	0x3d86f339	0.0658936
97	0xbd3d3d0b	-0.046200793
98	0x3dbfd08e	0.093659505
99	0x3e9493b3	0.29018936
100	0x3f000905	0.5001376
101	0xbdf48084	-0.11938575
102	0xbd5abf47	-0.053405073
103	0x3e047846	0.12936506
104	0xbe6aba19	-0.22922553
105	0x3e804117	0.2504966
106	0xbdf224bd	-0.118234135
107	0x3e401497	0.18757854
108	0xbcaff955	-0.021481195
109	0xbd0f6674	-0.035009816
110	0xbb5cc55d	-0.0033686974
111	0xbe6a8e3a	-0.22905818
112	0xbe08ca04	-0.13358313
113	0x3e9fc20d	0.31202736
114	0x3eafb758	0.34319568
115	0x3e9b5ef6	0.30345887
116	0x3e43295b	0.19058745
117	0xbe27ae6f	-0.16375135
118	0x3e17c72c	0.14822072
119	0xbd9d1527	-0.0767005
120	0x3b9659c6	0.0045883385
121	0x3cb7d635	0.022441009
122	0x3ce0735e	0.027398761
123	0xbe07674f	-0.13223003
124	0x3e635ac8	0.22202599
125	0xbf16305f	-0.5866756
126	0xbb4d436c	-0.0031320704
127	0xbe4196cf	-0.18905185
128	0xbe5abdd5	-0.21361478
129	0xbdd50cb4	-0.104028136
130	0xbdc2779b	-0.09495469
131	0xbe960c6e	-0.29306358
132	0xbd9bba10	-0.07603848
133	0x3e95c238	0.2924974
134	0x3e27372c	0.1632964
135	0xbd95c834	-0.07313576
136	0x3e2abcaa	0.16673532
137	0xbdd277e5	-0.10276774
138	0x3e5bf4d3	0.21480112
139	0xbdc3f162	-0.095675245
140	0xbe7a0deb	-0.24419372
141	0xbdf9760f	-0.12180721
142	0xbdcbf141	-0.09958125
143	0xbb9bc74d	-0.004753983
144	0x3da96c4b	0.08272608
145	0x3e05fec6	0.1308547
146	0xbdd6f7e4	-0.104965
147	0xbde19df5	-0.11016456
148	0x3e33fb8d	0.17576428
149	0x3dfc9619	0.12333316
150	0x3c72189e	0.014776377
151	0xbe9ae8c6	-0.30255717
152	0x3db51005	0.08840946
153	0x3e25c3f8	0.16188037
154	0xbe6c610f	-0.230839
155	0x3e49b0b9	0.1969632
156	0xbe1f10f7	-0.15533815
157	0x3e8c911a	0.27454454
158	0xbdb22cc4	-0.086999446
159	0xbe8c066c	-0.2734865
160	0xbd42a79a	-0.04752312
161	0x3e0c03e3	0.13673358
162	0x3ddb324e	0.10702954
163	0xbcc4d8cd	-0.02402916
164	0x3e84a353	0.25905856
165	0xbdeaea55	-0.114704765
166	0xbc84ba86	-0.016202223
167	0x3ba59930	0.0050536618
168	0x3dbf63f0	0.093452334
169	0x3e0e6888	0.13907063
170	0x3dfaff61	0.12255741
171	0xbd54a4da	-0.051915027
172	0x3e458311	0.19288279
173	0x3e6a0375	0.22852881
174	0xbe396a29	-0.18106903
175	0x3e0ece20	0.13945818
176	0xbe7fa126	-0.24963817
177	0x3ec6f990	0.38862276
178	0xbe2bbac9	-0.16770472
179	0x3e2971ae	0.16547272
180	0xbbe994a8	-0.007128317
181	0xbde66aa0	-0.11250806
182	0xbd90b2f3	-0.07065382
183	0xbd1d01de	-0.03833186
184	0x3d8e77dc	0.06956455
185	0xbe89debd	-0.26927748
186	0x3e7a2d46	0.24431333
187	0x3d2307b1	0.039802257
188	0xbe4dfd2a	-0.20116106
189	0xbe2a5da3	-0.16637282
190	0x3ddb1123	0.10696628
191	0xbe3f6f56	-0.18694815
192	0xbe0ffb9b	-0.14060824
193	0xbbda1d63	-0.006656335
194	0xbdf20c20	-0.11818719
195	0xbeb46f48	-0.3524115
196	0xbe91af57	-0.28454086
197	0x3e1af4a2	0.15132383
198	0x3d3336dd	0.043753494
199	0x3e1cf268	0.15326846
200	0x3df9de8c	0.122006506
201	0x3dfd04f9	0.12354464
202	0xbe034fcf	-0.12823413
203	0x3dfc55d7	0.1232106
204	0xbe49c7bf	-0.19705103
205	0x3dd57925	0.10423497
206	0x3e3e1566	0.1856285
207	0x3e6dea00	0.23233795
208	0x3e4e97c0	0.20175076
209	0xbb8babd1	-0.0042624255
210	0xbde18e50	-0.11013472
211	0x3d791464	0.06081046
212	0x3ce1c3c9	0.027559178
213	0xbdad2387	-0.08454042
214	0xbd61e51f	-0.055150148
215	0xbe02ac93	-0.12761144
216	0x3a9d3b37	0.0011995797
217	0xbea7cdd8	-0.32774234
218	0x3e6f2b9b	0.23356478
219	0x3c094d9b	0.008380319
220	0xbc48a6b1	-0.012246774
221	0x3cac3a3a	0.021023858
222	0x3b8c262f	0.004277013
223	0xbe3c8f8f	-0.18414138
224	0x3d018f1f	0.03163063
225	0xbe032be4	-0.12809712
226	0x3e8552d9	0.2603977
227	0xbd8804ce	-0.066415414
228	0xbe9723f1	-0.2951961
229	0x3e45426f	0.19263624
230	0xbee28ebf	-0.44249532
231	0xbde4ca22	-0.11171366
232	0x3dc040ce	0.093873605
233	0xbeb21a2c	-0.34785593
234	0xbd9c3a89	-0.07628352
235	0x3e25569c	0.1614632
236	0x3e2a0e26	0.1660696
237	0x3d6b1f67	0.057402994
238	0x3c517b36	0.012785723
239	0xbdaf3c39	-0.085564084
240	0x3da44584	0.080210716
241	0x3df55f34	0.11981049
242	0x3dd0beb6	0.10192625
243	0x3cfd89b9	0.03094946
244	0xbec35f4b	-0.3815864
245	0x3e1a3738	0.15060127
246	0xbbd4d1c8	-0.0064947344
247	0xbd680a97	-0.056650724
248	0x3d749764	0.05971469
249	0x3d5190fb	0.051163655
250	0xbdfca402	-0.123359695
251	0xbdb3c16e	-0.08777128
252	0x3e9cd941	0.30634502
253	0x3d8b9e1f	0.068172686
254	0xbec2a11a	-0.38013536
255	0x3cbcf0fb	0.023064127

actor.weight f4 [3, 64]
0	0xbe4bfefb	-0.19921486
1	0x3cbbcfa9	0.022926169
2	0x3e9349ce	0.28767246
3	0x3cb25942	0.021771077
4	0xbd562dbe	-0.052289717
5	0x3d9b6059	0.07586736
6	0xbd32e9ca	-0.04367999
7	0xbedba8d2	-0.42902237
8	0x3d5a7143	0.05333067
9	0x3eb85e99	0.36009672
10	0x3d2f9a91	0.042872015
11	0x3e1f1a83	0.15537457
12	0x3e69c73c	0.22829908
13	0xbd3a3860	-0.04546392
14	0xbe977a78	-0.29585624
15	0xbe4f98f3	-0.20273189
16	0x3e017b55	0.12644704
17	0x3e852869	0.26007393
18	0x3e0a8809	0.13528456
19	0x3d92d84a	0.0717016
20	0xbd1100a0	-0.035400987
21	0xbb8c5390	-0.0042824224
22	0x3e2fb55a	0.17159024
23	0x3e9372f0	0.28798628
24	0x3dba3c82	0.09093572
25	0xbdb2930e	-0.08719455
26	0x3e1e9452	0.15486267
27	0x3e9ae16a	0.30250102
28	0xbd3dd85f	-0.046348926
29	0xbe2afcd0	-0.16698003
30	0xbd3d933f	-0.046283003
31	0xbea3d97d	-0.32001868
32	0xbe181790	-0.14852738
33	0xbe5c5a47	-0.21518813
34	0x3e0d5b6e	0.13804409
35	0x3d15fe1c	0.03661929
36	0x3ebbcb64	0.36678612
37	0x3ea8bd8f	0.32957122
38	0x3e381158	0.17975366
39	0x3e2b7fff	0.16748045
40	0x3e678f76	0.2261332
41	0x3ebe325f	0.37147805
42	0xbe3ec2f4	-0.18629056
43	0x3d74f5b8	0.05980465
44	0x3e32e27c	0.1746921
45	0xbdfecb3d	-0.124411084
46	0x3dfb697e	0.122759804
47	0x3cc8bfa4	0.024505444
48	0x3e8e8d48	0.27842164
49	0x3d5c2dfb	0.053754788
50	0x3d1ebbcc	0.038753316
51	0x3ca9d1fb	0.02073001
52	0xbc919ad5	-0.017774025
53	0xbd5f0dc6	-0.054456495
54	0x3d2638f8	0.040581673
55	0xbd02a375	-0.031894166
56	0xbe17b443	-0.14814858
57	0xbe574652	-0.21022919
58	0x3cf6081e	0.030033167
59	0xbe874b0c	-0.26424444
60	0x3eb15c0b	0.34640536
61	0x3bd4f848	0.006499324
62	0xbcdff8ca	-0.027340312
63	0x3e52ebe2	0.20597795
64	0x3cf6ae62	0.03011245
65	0xbe38d581	-0.18050195
66	0x3c15be8e	0.00913967
67	0x3dcdd566	0.10050468
68	0xbe8c9a6f	-0.27461573
69	0xbdfaeb6b	-0.12251934
70	0x3e0c5b62	0.13706735
71	0xbe2635de	-0.16231486
72	0x3bf44dec	0.007455578
73	0x3dafe373	0.08588304
74	0x3d402aaf	0.046915706
75	0x3e801a52	0.2502008
76	0x3e8318c9	0.25604847
77	0xbe184224	-0.1486898
78	0xbd965a8a	-0.07341488
79	0xbe6bb630	-0.23018718
80	0x3cece5a5	0.028918097
81	0x3e3cd57e	0.18440816
82	0x3e4c98ca	0.1998016
83	0x3dbe5cfb	0.09295078
84	0x3d0a7459	0.033802364
85	0xbb12843b	-0.0022356648
86	0xbe26c1a0	-0.162848
87	0x3d801513	0.062540196
88	0xbe124b89	-0.14286627
89	0x3d3a5102	0.04548741
90	0x3e20c402	0.15699771
91	0x3dec98d4	0.11552587
92	0xbdd102b0	-0.10205591
93	0x3b69a694	0.0035652267
94	0x3e13e07d	0.14441104
95	0xbd5fac05	-0.05460741
96	0xbe8a6792	-0.27032143
97	0xbe203995	-0.15646966
98	0x3e6aa7be	0.22915551
99	0x3ebdab4a	0.37044746
100	0x3da5ccfe	0.0809574
101	0x3e7e2148	0.24817383
102	0x3f022693	0.5084011
103	0x3e36e814	0.17861968
104	0x3e8c9c34	0.27462924
105	0x3dc971ad	0.09836135
106	0xbe86632b	-0.26247534
107	0xbe5e54af	-0.21711992
108	0x3da56529	0.080759354
109	0xbd040532	-0.032231517
110	0x3d0de9e7	0.034646895
111	0x3c24acf8	0.010051005
112	0x3e55f88e	0.20895597
113	0xbea61b7f	-0.32442853
114	0x3e4b5a21	0.198586
115	0xbe6978d8	-0.22800004
116	0x3d2dd28d	0.042437125
117	0xbec8fafa	-0.3925398
118	0x3d3495a5	0.044088025
119	0x3df88c6b	0.121361576
120	0xbd5b851c	-0.05359374
121	0xbdca7c0a	-0.0988694
122	0x3e0742ff	0.1320915
123	0xbdd82d5e	-0.10555528
124	0x3e223b69	0.15842976
125	0x3dcfb2e3	0.10141542
126	0xbcb63e18	-0.022246405
127	0x3e1d1c20	0.1534276
128	0x3d2defa1	0.042464856
129	0x3c0c5687	0.008565552
130	0xbdb0b6d1	-0.086286195
131	0xbdc708b5	-0.097184576
132	0x3deeb6c6	0.11655955
133	0x3de10bd5	0.10988585
134	0xbd90a67c	-0.070630044
135	0x3e8fd1cb	0.28089747
136	0x38a4740f	7.841747e-05
137	0xbe2a679c	-0.16641086
138	0xbd5b78bc	-0.05358194
139	0xbe56423e	-0.20923707
140	0xbe6e6bce	-0.23283312
141	0x3df4dcfb	0.11956211
142	0x3e1a95cf	0.1509621
143	0x3e681e01	0.22667696
144	0xbe18549b	-0.14876024
145	0xbe445327	-0.19172345
146	0xbe4c9337	-0.19978033
147	0xbc00a35c	-0.007851448
148	0xbd818ee7	-0.063260846
149	0x3bef551f	0.0073038484
150	0x3d229027	0.039688256
151	0xbe2963c7	-0.16541968
152	0xbdcebf29	-0.10095055
153	0x3b3f9d9a	0.0029238225
154	0xbe1fa621	-0.15590717
155	0xbe44023d	-0.19141479
156	0x3d6dbde8	0.058042437
157	0x3e0b46f0	0.1360128
158	0xbd33f9b2	-0.0439393
159	0x3de5a0e4	0.11212328
160	0x3e97570e	0.29558605
161	0x3e172a60	0.14762259
162	0xbe738b22	-0.23783544
163	0xbe6c6c89	-0.23088278
164	0xbe5163e1	-0.20448257
165	0xbe7a0b08	-0.2441827
166	0xbeac7734	-0.33684695
167	0xbe03a58d	-0.12856121
168	0xbe89e78c	-0.2693447
169	0xbe2a18fc	-0.16611093
170	0x3e7126de	0.23549983
171	0x3bb405a0	0.0054938346
172	0xbd914fb7	-0.070952825
173	0xbcd11854	-0.025524296
174	0xbe4e72a3	-0.20160918
175	0xbde3ec0e	-0.11129008
176	0xbe1a4c7b	-0.15068237
177	0x3e15e477	0.14637934
178	0xbe1e413c	-0.15454572
179	0x3be723d9	0.007053834
180	0xbaf18baa	-0.0018428464
181	0x3e766a6e	0.24064037
182	0xbe03b6ef	-0.12862752
183	0x3cb2a0d9	0.021805214
184	0x3d8b35d5	0.06797377
185	0x3e3891c0	0.18024349
186	0xbe2b32a4	-0.16718537
187	0x3e4b6c20	0.19865465
188	0xbe66f34a	-0.22553745
189	0xbe1b3acd	-0.1515915
190	0x3d9eba4a	0.077503756
191	0xbe80e885	-0.25177398

critic.weight f4 [1, 64]
0	0xbb711936	-0.0036788709
1	0xbb9831e8	-0.004644621
2	0xbd128edf	-0.035780784
3	0x3aed8b4b	0.0018123178
4	0xbbb787c6	-0.0056009023
5	0x3c7a5dfd	0.015281198
6	0xbd03b784	-0.032157436
7	0x3c4ad64e	0.012380196
8	0x3bacc8fc	0.0052729826
9	0x3b96027b	0.0045779324
10	0x3c054917	0.008135102
11	0xbbfa48b8	-0.0076380633
12	0x3ca93ba1	0.020658316
13	0x3c4935ff	0.01228094
14	0x3cf477ad	0.029842222
15	0xbbbfc01d	-0.005851759
16	0x3c7d417a	0.015457505
17	0xbc9640c0	-0.018341422
18	0xbbd7639e	-0.0065731546
19	0xb9a07adc	-0.00030609115
20	0xbc823bc8	-0.015897647
21	0xbd444776	-0.047919713
22	0xbaacfeab	-0.0013198456
23	0xbd37f115	-0.044907648
24	0xbd52ab72	-0.051433034
25	0xbb51dc02	-0.0032022004
26	0xbc5aa499	-0.013344907
27	0xbbb0d28d	-0.0053961934
28	0xbbb5f03d	-0.0055523203
29	0x3d4ff11b	0.050767045
30	0x3d192cf4	0.037396386
31	0x3bb7df63	0.0056113466
32	0xbc8c21c2	-0.01710594
33	0xbcdaef7e	-0.026725527
34	0x3c9f66ef	0.019458262
35	0xbda60796	-0.08106916
36	0xbe42b87d	-0.19015689
37	0x3b4df588	0.0031426866
38	0xbda90f21	-0.08254839
39	0xbc5cfb57	-0.013487658
40	0xba0469e1	-0.00050511776
41	0x391bc18f	0.00014854058
42	0x3c318280	0.010834336
43	0x3b6320e5	0.0034657058
44	0x3bd9fea8	0.006652672
45	0xbbd140f8	-0.0063859187
46	0xbd106ad0	-0.035258114
47	0xb9961dc5	-0.0002863241
48	0xba36444c	-0.0006952926
49	0x3cb1801f	0.021667538
50	0xbc60edee	-0.013728602
51	0x3afb5fe9	0.0019178364
52	0x3bbb036a	0.005707194
53	0x3ddd8884	0.10817054
54	0x3be0de73	0.0068624555
55	0xbca7f5ab	-0.020502886
56	0x3d45ae49	0.048261914
57	0x3bc4ea63	0.0060093864
58	0xbd0efc8a	-0.03490881
59	0x3c212669	0.009835818
60	0x3ab0f90c	0.0013501956
61	0x3c4ce04a	0.012504647
62	0xbaadd535	-0.0013262393
63	0xbbf6748f	-0.007521219
