model_params_101000/-2.0_V3_0.95g_0.0rm_20bz_0.0td_1.0tds_Nonelb_Noneup_64n_50000e_10md_5.0rz_26s.pth (torch, 22912 bytes, 4 tensors)

rnn.weight_ih_l0 f4 [64, 9]
0.6676803 -0.634723 -0.3615216 1.0073714 -0.40909827 0.33286998 0.27461442 0.031263974
-0.08064193 -0.8094906 0.24445593 0.5246154 0.34880266 -1.1924778 -0.3065526 -0.291064
0.2618235 0.28339797 0.117860824 0.13719481 -0.40328956 0.189304 0.049254384 -0.22075665
0.3663605 -0.023022233 -0.109906934 -0.20398481 -0.6199216 -0.35632694 0.30432242 -0.16033734
-0.27288014 -0.20133443 -0.2599506 -0.50453854 -0.18654993 0.09649984 0.05288624 0.32957032
0.4223807 -0.2773877 0.28185964 0.13983403 0.20965014 0.31092462 -0.63826954 -0.34024474
0.97574574 0.0029005168 -0.61961895 -0.44458988 0.085279256 0.0029319224 -0.7918054 0.6970653
0.17204782 -1.4591278 0.41385207 -0.42004982 0.03315909 -1.0548728 -0.02888479 0.32046765
-0.033985455 -0.6583819 -0.19848968 -0.14388114 0.07137367 -0.2043339 0.3501101 0.27874407
0.06814399 -0.44661906 -0.20524564 0.4433512 -0.3495694 0.14222787 0.07917519 -0.028682817
-0.790625 0.20804822 -0.26982567 -0.38751423 0.26945242 -0.17104046 -0.042454027 0.12082743
0.6602948 0.014017748 0.37609792 -0.008721747 -0.26303598 -0.9965443 0.17553587 -0.26951373
-0.40375015 0.028558139 0.58740515 -0.11582785 0.52652204 0.04163791 0.11459293 0.1626749
0.96036464 0.07459451 -0.36548316 0.08777201 0.20574388 0.027034067 0.2538917 -1.1536175
0.2336021 -0.4282662 0.032929204 0.0012617053 0.51293385 0.19049717 -0.6890024 0.22563708
-0.727985 0.33011836 -0.0014697992 -0.059838355 0.45843837 0.24144909 0.011424736 0.11553695
0.085905604 0.13136278 0.41645283 -0.020890066 0.22318022 0.05414198 -0.22114304 -0.736502
-0.48066926 -0.17237215 -0.63886625 0.45742327 -0.2657774 -0.20912464 0.5556487 -0.2510615
1.1423018 -0.36513498 0.4666115 0.3901331 -0.6544262 -0.124221876 0.32553664 -0.13801853
0.5579396 -0.09988466 -0.1275208 -0.3228404 -0.26162252 0.031469215 -0.010696694 -0.07902612
-0.4161953 0.10830577 0.4615519 -0.007948602 0.5009756 0.83440983 -0.33868366 0.0103334505
0.2790542 -0.58000445 -0.2670992 0.65053034 -0.6552221 0.12451629 0.8931739 0.101285785
0.5511794 0.35021842 0.11123218 0.19107501 -0.08054149 0.058684096 0.4934458 -0.037742447
-0.064499885 -0.36583588 -0.054884277 -0.2745671 0.5886049 0.08303596 -0.17948559 -0.12454976
1.061198 -0.4549527 0.0014649334 -0.44840893 -0.01697177 0.007859396 0.46953478 0.23300728
0.08927583 -0.09729836 0.5086816 -0.3577602 -0.39797854 0.05411344 0.5459173 0.1799149
-0.36446905 -0.6481676 -0.61267185 0.020766458 0.11508504 0.17940445 -0.15534353 0.37691113
0.31972972 -0.32322177 -0.21691637 0.3118494 -0.1305218 0.2006462 -0.46320817 0.23647289
-0.32914323 -0.19729272 -0.20672031 0.7816629 -0.36470896 0.31956556 -0.053621575 0.014373223
0.36122772 -0.023398755 0.020172272 -0.2733524 -0.2899199 -0.6243549 0.29330152 0.26686427
0.0396388 -0.037849 -0.46000585 0.27148986 0.14575176 -0.20656148 -0.723968 0.09954355
0.40283847 -0.4771812 0.26431683 0.27687365 -0.36285722 0.18774194 -0.5047609 0.28327236
00000000: 19ed 2a3f 357d 22bf 5c19 b9be 8cf1 803f
00000010: 5475 d1be ef6d aa3e 439a 8c3e a70e 003d
00000020: 9927 a5bd c73a 4fbf a852 7a3e 324d 063f
00000030: 4396 b23e 1da3 98bf 76f4 9cbe 5706 95be
00000040: bb0d 863e 8a19 913e 0461 f13d cc7c 0c3e
00000050: f87b cebe e8d8 413e f7be 493d 080e 62be
00000060: 9a93 bb3e 1f99 bcbc e316 e1bd 65e1 50be
00000070: 2fb3 1ebf 7c70 b6be 26d0 9b3e 792f 24be
00000080: f2b6 8bbe 9d2a 4ebe 3f18 85be 7029 01bf
00000090: f206 3fbe b5a1 c53d 3e9f 583d 71bd a83e
000000a0: 4842 d83e c305 8ebe e84f 903e a730 0f3e
000000b0: 87ae 563e 8331 9f3e a265 23bf 8f34 aebe
000000c0: 79ca 793f 9916 3e3b 599f 1ebf 49a1 e3be
000000d0: e4a6 ae3d 7f25 403b c2b3 4abf df72 323f
000000e0: 4e2d 303e b3c4 babf 6be4 d33e c510 d7be
000000f0: d3d1 073d 1206 87bf cc9f ecbc 5614 a43e
00000100: 5534 0bbd b78b 28bf e140 4bbe 9455 13be
00000110: 5c2c 923d e83c 51be a241 b33e 8bb7 8e3e
00000120: 148f 8b3d 41ab e4be ea2b 52be eefe e23e
00000130: c3fa b2be 2fa4 113e 9a26 a23d 3af8 eabc
00000140: 6666 4abf 980a 553e 9726 8abe 4468 c6be
00000150: abf5 893e 3b25 2fbe 46e4 2dbd 5f74 f73d
00000160: 1409 293f b2aa 653c e88f c03e a9e5 0ebc
00000170: a7ac 86be 871d 7fbf adbf 333e b4fd 89be
00000180: 57b8 cebe c2f2 e93c 2f60 163f 2737 edbd
00000190: 26ca 063f 838c 2a3d b3af ea3d 4094 263e
000001a0: 75da 753f 02c5 983d 9c20 bbbe d0c1 b33d
000001b0: 86ae 523e 8c76 dd3c 18fe 813e bda9 93bf
000001c0: 6435 6f3e b545 dbbe c6e0 063d ce5f a53a
000001d0: a24f 033f b111 433e 7662 30bf 680d 673e
000001e0: 3a5d 3abf 4605 a93e 47a6 c0ba 1019 75bd
000001f0: 6fb8 ea3e 6e3e 773e d12e 3b3c a39e ec3d
00000200: 47ef af3d f783 063e 4e39 d53e a521 abbc
00000210: 5b89 643e fbc3 5d3d 5273 62be 658b 3cbf
00000220: 481a f6be 5382 30be bd8c 23bf 6233 ea3e
00000230: fa13 88be c524 56be fe3e 0e3f 228b 80be
00000240: f236 923f f9f2 babe b4e7 ee3e 87bf c73e
00000250: 7a88 27bf 0a68 febd bdac a63e bb54 0dbe
00000260: 21d5 0e3f 5490 ccbd d094 02be 564b a5be
00000270: 63f3 85be dde5 003d 3041 2fbc 72d8 a1bd
00000280: 8d17 d5be 6acf dd3d 8850 ec3e da3a 02bc
00000290: f03f 003f e29b 553f f267 adbe a24d 293c
000002a0: 31e0 8e3e 2c7b 14bf 3ac1 88be 2889 263f
000002b0: a3bc 27bf 6602 ff3d 0ba7 643f ec6e cf3d
000002c0: 181a 0d3f d44f b33e b2cd e33d 2ba9 433e
000002d0: f0f2 a4bd bc5e 703d eea4 fc3e d397 1abd
000002e0: 8418 84bd d74e bbbe 56ce 60bd 0f94 8cbe
000002f0: d0ae 163f c20e aa3d 12cb 37be f213 ffbd
00000300: 56d5 873f 8fef e8be 0203 c03a db95 e5be
00000310: 6208 8bbc b2c4 003c dd66 f03e 7699 6e3e
00000320: 3fd6 b63d 5d44 c7bd f538 023f 582c b7be
00000330: d8c3 cbbe 0ea6 5d3d 3cc1 0b3f 9d3b 383e
00000340: b09b babe 50ee 25bf 10d8 1cbf 6b1e aa3c
00000350: b5b1 eb3d cdb5 373e 6012 1fbe 7ffa c03e
00000360: 9db3 a33e 537d a5be 531f 5ebe b9aa 9f3e
00000370: 82a7 05be 3376 4d3e 9f29 edbe f325 723e
00000380: 7685 a8be 1a07 4abe 7dae 53be 0f1b 483f
00000390: 22bb babe 199e a33e 4ca2 5bbd ab7d 6b3c
000003a0: d7f2 b83e bfae bfbc 5240 a53c d9f4 8bbe
000003b0: 6270 94be b9d5 1fbf 9e2b 963e 6fa2 883e
000003c0: 4b5c 223d 8e07 1bbd e385 ebbe b800 8b3e
000003d0: f33f 153e da84 53be f855 39bf 7ddd cb3d
000003e0: d840 ce3e 1851 f4be 8954 873e 62c2 8d3e
000003f0: 6cc8 b9be 6c3f 403e 0338 01bf 1309 913e

rnn.weight_hh_l0 f4 [64, 64]
-0.2247977 -0.1344489 0.39805993 0.21932106 -0.14889391 0.08117416 -0.054973368 0.022511892
-0.006551756 0.15971878 -0.14467718 -0.0012574996 -0.12757401 0.15252344 0.26731747 -0.21355176
-0.06054399 0.22189236 -0.17601076 0.14812773 -0.21865773 -0.029057123 -0.10030087 -0.06293055
-0.11641932 0.18001127 -0.24833687 0.20131959 -0.40628535 0.11513408 -0.07102518 0.042562883
0.030979298 0.10250182 0.20119806 -0.40685636 0.1532222 -0.07290097 -0.061094016 -0.44225734
0.08212258 -0.15453269 0.3939661 -0.07652197 -0.09703322 0.14166902 -0.14545171 -0.15288132
0.037641373 0.32790795 0.010901203 -0.026987659 0.33423433 0.059499826 -0.0053732255 0.17917626
-0.1561663 0.056045216 -0.1462107 0.28272423 0.09995263 0.002721186 -0.018570898 0.050198115
0.19257914 -0.07850058 0.02112667 -0.23222765 0.020948136 0.08549088 0.12969354 0.002434776
0.19687118 0.13460183 0.33001006 -0.06520998 0.11110746 -0.06054332 0.03061034 0.28237942
-0.15260242 -0.058280036 0.054301955 0.22508678 -0.10613783 -0.34244567 0.094333716 0.062825955
0.16001002 0.41279635 0.11611223 -0.034586433 -0.08850967 0.17793137 -0.027136238 0.20804124
0.027719418 -0.17078535 0.006632416 0.33508885 0.10698877 -0.15634228 -0.048877615 -0.22488242
-0.055349734 0.35668004 -0.14276929 0.02373391 0.07451878 0.004363427 0.07744163 -0.1724276
-0.07902914 -0.24295211 0.2718318 0.32011515 -0.081650645 -0.18218292 0.022236256 -0.13370785
0.29634857 0.12803072 0.13366297 0.08299048 -0.2031458 0.029423214 -0.15917999 -0.07291532
0.10508379 0.071016766 0.10020557 -0.11949677 0.052465934 -0.10352694 -0.08737929 -0.29506117
-0.11420117 0.12174597 0.17519833 -0.07553716 -0.006532361 0.19338602 -0.35295868 -0.23614079
-0.3894002 -0.08980892 0.10826342 -0.05302609 -0.37598628 -0.09140281 0.28818575 0.22548889
0.040314864 0.36792773 0.13581137 -0.05145167 0.07788432 0.17000379 0.19829012 -0.15386432
0.23650189 -0.32680792 0.3490834 -0.13513869 0.16404457 -0.19112375 -0.49789938 -0.00815614
0.16875856 -0.07508689 0.24369815 0.004742911 0.021950392 0.22533803 -0.21671213 0.04598531
0.0013864985 -0.059903778 -0.12405749 -0.22873954 0.116589464 -0.07015921 -0.3027515 -0.076967925
0.31331134 0.06488531 -0.15462033 0.14578201 0.18966767 0.04083062 -0.10024963 -0.18338078
0.02610227 -0.16506004 0.19029044 0.20719275 0.009248327 -0.043201096 -0.016331227 -0.16367446
-0.15560976 0.22068529 -0.14713074 0.090468004 -0.44766936 -0.5032289 -0.24126032 -0.14431556
-0.14441174 -0.24137141 0.07154011 0.27603108 0.013622362 0.07221254 -0.044982124 -0.055565756
-0.046353877 -0.017898899 0.16077471 0.024679985 0.18293914 -0.062587835 -0.29131263 0.028188948
-0.3976119 -0.09401458 0.15196653 -0.26652586 0.273377 0.15469971 0.26840755 -0.11398581
0.17802429 -0.016392902 -0.3925056 -0.3919458 -0.06362812 0.13481978 0.029154617 0.050877776
0.00920289 0.04137802 0.051736977 -0.1784656 0.14293939 -0.12752958 -0.44355372 0.2413957
-0.10616461 -0.21123585 -0.04461118 0.2606069 -0.01791949 -0.01470864 0.2688235 0.16572052
00000000: 5e31 66be f9ac 09be 83ce cb3e b395 603e
00000010: a577 18be a33e a63d c12b 61bd dc6a b83c
00000020: 1db0 d6bb 528d 233e 4126 14be afd2 a4ba
00000030: c3a2 02be 1b2f 1c3e d6dd 883e 50ad 5abe
00000040: fafc 77bd c037 633e 2a3c 34be ccae 173e
00000050: d0e7 5fbe 3409 eebc 8b6a cdbd bbe1 80bd
00000060: 416d eebd e054 383e 054c 7ebe b926 4e3e
00000070: a204 d0be 6bcb eb3d a675 91bd 6b56 2e3d
00000080: 4cc8 fd3c 79ec d13d dd06 4e3e 7a4f d0be
00000090: 48e6 1c3e 1b4d 95bd b83d 7abd 8e6f e2be
000000a0: e22f a83d d13d 1ebe edb5 c93e 8db7 9cbd
000000b0: 5ab9 c6bd af11 113e 4bf1 14be ec8c 1cbe
000000c0: d72d 1a3d 8de3 a73e f69a 323c 3915 ddbc
000000d0: c320 ab3e 17b6 733d e211 b0bb fb79 373e
000000e0: 0fea 1fbe ab8f 653d 42b8 15be 3bc1 903e
000000f0: f7b3 cc3d ed55 323b ff21 98bc 8a9c 4d3d
00000100: 7733 453e e9c4 a0bd d711 ad3c 16cd 6dbe
00000110: 6d9b ab3c d815 af3d 62ce 043e c390 1f3b
00000120: 9998 493e 10d5 093e 14f7 a83e cf8c 85bd
00000130: 4f8c e33d 46fc 77bd 89c2 fa3c 0994 903e
00000140: cf43 1cbe 0cb7 6ebd ba6b 5e3d 267d 663e
00000150: ca5e d9bd 0a55 afbe 0932 c13d e5aa 803d
00000160: abd9 233e 0b5a d33e 40cc ed3d 81aa 0dbd
00000170: 8f44 b5bd a433 363e d14c debc c308 553e
00000180: d513 e33c 5be2 2ebe bd54 d93b c490 ab3e
00000190: ee1c db3d 3118 20be e533 48bd 9447 66be
000001a0: 67b6 62bd c49e b63e 1d32 12be 9e6d c23c
000001b0: 4d9d 983d 14fb 8e3b b899 9e3d dc90 30be
000001c0: 08da a1bd 70c8 78be 8a2d 8b3e 22e6 a33e
000001d0: 7438 a7bd 298e 3abe cf28 b63c b6ea 08be
000001e0: 00bb 973e 7c1a 033e f2de 083e eaf6 a93d
000001f0: 7405 50be f408 f13c 1400 23be a154 95bd
00000200: 2c36 d73d 3d71 913d 9438 cd3d b9ba f4bd
00000210: 85e6 563d ef05 d4bd eaf3 b2bd 4212 97be
00000220: 4ee2 e9bd f355 f93d 3167 333e 3ab3 9abd
00000230: 6a0d d6bb fc06 463e 00b7 b4be e4ce 71be
00000240: 775f c7be bded b7bd 36b9 dd3d e331 59bd
00000250: 4681 c0be 6531 bbbd 158d 933e 8fe6 663e
00000260: 3321 253d 0661 bc3e 2312 0b3e fcbe 52bd
00000270: d081 9f3d 7915 2e3e 910c 4b3e 9c8e 1dbe
00000280: 8d2d 723e 5e53 a7be 0fbb b23e cc61 0abe
00000290: 4dfb 273e f2b5 43be abec febe 55a1 05bc
000002a0: 0bcf 2c3e 28c7 99bd 028c 793e 6c6a 9b3b
000002b0: 4fd1 b33c 03bf 663e c9e9 5dbe 185b 3c3d
000002c0: 2bbb b53a aa5d 75bd da11 febd b33a 6abe
000002d0: 75c6 ee3d a2af 8fbd 3f02 9bbe 5ca1 9dbd
000002e0: 586a a03e 97e2 843d cb54 1ebe e147 153e
000002f0: 3e38 423e 023e 273d ae4f cdbd 2cc8 3bbe
00000300: 6ed4 d53c 8005 29be 7fdb 423e 562a 543e
00000310: 4c86 173c a2f3 30bd 11c9 85bc 479a 27be
00000320: 2a58 1fbe 53fb 613e 71a9 16be 4a47 b93d
00000330: eb34 e5be 9cd3 00bf f20c 77be 75c7 13be
00000340: ace0 13be 112a 77be 9f83 923d f253 8d3e
00000350: 5430 5f3c 2be4 933d 2d3f 38bd eb98 63bd
00000360: 90dd 3dbd b6a0 92bc 20a2 243e ae2d ca3c
00000370: 6654 3b3e 0d2e 80bd ee26 95be 82ec e63c
00000380: c993 cbbe b78a c0bd 1d9d 1b3e 1476 88be
00000390: 12f8 8b3e 9a69 1e3e b76c 893e 6471 e9bd
000003a0: 004c 363e 684a 86bc 7ef6 c8be 1fad c8be
000003b0: 764f 82bd 320e 0a3e aad5 ee3c 3765 503d
000003c0: b8c7 163c 007c 293d 27ea 533d b0bf 36be
000003d0: b45e 123e 1d97 02be 7919 e3be 6f30 773e
000003e0: d56c d9bd 364e 58be 36ba 36bd 456e 853e
000003f0: e5cb 92bc 82fc 70bc 3ca3 893e a4b2 293e

actor.weight f4 [3, 64]
-0.41514385 0.056494787 0.3579981 0.13384065 -0.0071491566 0.01829425 0.053408917 -0.07214851
-0.31400907 -0.733261 -0.14863732 -0.1627447 0.045159798 0.280175 -0.18103719 0.06835011
-0.24550387 -0.22467504 -0.0369472 -0.1725635 -0.07348611 0.07863271 0.13805273 0.06975777
0.15362523 -0.046370644 0.22500508 -0.17070112 -0.027159583 0.3647719 0.27770817 -0.77572507
0.3935066 0.17119229 -0.2400339 0.011849949 -0.66584396 0.18441446 0.04323077 -0.117882356
-0.27367616 0.19453257 0.068746686 -0.1433271 -0.3864445 0.066612795 -0.031719945 0.14109196
-0.22043537 -0.16319256 0.2994341 0.14975603 0.0090014255 -0.11936886 0.00891947 0.1327227
0.06874199 0.355082 0.18502527 0.18558852 0.4612463 0.08053696 0.21100008 0.31619492
0.15409014 0.14225544 0.07816663 0.27707562 0.12827142 0.32709116 -0.23432648 -0.3086137
0.086722486 -0.0026852738 -0.13093482 -0.43084556 -0.29414773 -0.044026934 0.07797923 0.16468754
-0.101272635 -0.041355506 0.21120219 0.083524704 -0.22516625 0.3322074 0.12525086 0.015239288
-0.07752124 -0.20814179 -0.09956856 -0.25032878 -0.108073995 -0.23444426 0.13026613 -0.13044564
0.16902037 0.08196672 -0.08808939 -0.6560877 -0.15746167 0.075468674 0.16166085 -0.4420485
-0.37102377 -0.06702304 -0.075330794 -0.48923543 0.02636579 -0.019904302 -0.05425374 0.03491607
0.0780803 -0.60985935 -0.12949139 -0.2288975 -0.0021962181 0.19910488 -0.12390507 0.02065559
0.18594319 -0.21811876 0.11003503 -0.11868007 0.12367797 0.002242076 0.13116612 -0.2850966
0.18342702 -0.0988568 -0.22884732 -0.25744477 -0.065623485 -0.21537913 0.0321797 0.28195533
0.07363769 0.3773863 0.10718613 0.30736423 0.1714055 -0.07950683 0.069722824 -0.07510127
0.16596462 0.07595697 -0.13475555 0.0028710172 0.20565416 -0.17749111 -0.104686804 -0.0911207
-0.0696136 0.20556438 -0.1082013 0.25327617 0.021228347 -0.043687057 -0.16806805 0.3964258
-0.22978875 -0.10747516 0.25798333 0.32043695 0.33306405 -0.1490449 -0.117831215 0.26323086
0.35161453 -0.12383987 0.0111022685 0.2990283 0.18443263 -0.0732097 0.06784864 -0.057221763
0.034730252 0.3785512 -0.08321221 0.070296675 -0.04988905 0.0142567055 0.027954768 -0.052839797
-0.13458115 -0.019368444 -0.09955759 0.013342474 -0.23233868 -0.04782555 -0.19926195 -0.022127299
00000000: bc8d d4be 1467 673d 874b b73e 860d 093e
00000010: 7943 eabb d3dd 953c 4fc3 5a3d 99c2 93bd
00000020: ccc5 a0be feb6 3bbf 6234 18be 8ca6 26be
00000030: 7bf9 383d 1973 8f3e d061 39be 24fb 8b3d
00000040: 5e65 7bbe 3711 66be f255 17bd 7cb4 30be
00000050: e37f 96bd 300a a13d b25d 0d3e 29dd 8e3d
00000060: ef4f 1d3e 25ef 3dbd bb67 663e 46cc 2ebe
00000070: c67d debc 62c3 ba3e c42f 8e3e eb95 46bf
00000080: b279 c93e 084d 2f3e 72cb 75be 4a26 423c
00000090: c074 2abf 25d7 3c3e bf12 313d 4e6c f1bd
000000a0: 481f 8cbe 8c33 473e 10cb 8c3d 57c4 12be
000000b0: 0edc c5be 4a6c 883d c6ec 01bd 697a 103e
000000c0: cfb9 61be f31b 27be 6d4f 993e a559 193e
000000d0: b77a 133c a977 f4bd f822 123c 76e8 073e
000000e0: 9ac8 8c3d 4fcd b53e 4477 3d3e eb0a 3e3e
000000f0: 7a28 ec3e 90f0 a43d 6810 583e 4de4 a13e
00000100: cec9 1d3e 69ab 113e d315 a03d dbdc 8d3e
00000110: 9559 033e 7e78 a73e 48f3 6fbe 9d02 9ebe
00000120: 8f9b b13d 6bfb 2fbb c713 06be ca97 dcbe
00000130: 889a 96be 9655 34bd 93b3 9f3d daa3 283e
00000140: 0768 cfbd 6464 29bd 6345 583e 000f ab3d
00000150: fb91 66be 1717 aa3e c341 003e 35ae 793c
00000160: 75c3 9ebd 1f23 55be 9aea cbbd 182b 80be
00000170: e655 ddbd 2812 70be 7c64 053e 8b93 05be
00000180: ad13 2d3e 2bde a73d 3668 b4bd 5df5 27bf
00000190: a23d 21be 528f 9a3d 6c8a 253e 2e54 e2be
000001a0: d4f6 bdbe 6043 89bd 0847 9abd 117d fabe
000001b0: 12fd d73c 590e a3bc 2b39 5ebd 2704 0f3d
000001c0: 90e8 9f3d be1f 1cbf 6499 04be 1b64 6abe
000001d0: 6dee 0fbb 26e2 4b3e f1c1 fdbd e935 a93c
000001e0: e467 3e3e 865a 5fbe 0c5a e13d 890e f3bd
000001f0: e04a fd3d cbef 123b 6950 063e 2ef8 91be
00000200: 4bd4 3b3e 6f75 cabd f456 6abe cdcf 83be
00000210: 9b65 86bd 598c 5cbe dcce 033d 735c 903e
00000220: 5bcf 963d c738 c13e 6784 db3d d85e 9d3e
00000230: ec84 2f3e 7ad4 a2bd d7ca 8e3d b2ce 99bd
00000240: a1f2 293e 548f 9b3d 5cfd 09be ad27 3c3b
00000250: 0197 523e 3bc0 35be 0966 d6bd 7d9d babd
00000260: 9391 8ebd 787f 523e a598 ddbd 6aad 813e
00000270: 12e7 ad3c 33f1 32bd 081a 2cbe 53f8 ca3e
00000280: be4d 6bbe f01b dcbd 6416 843e 5010 a43e
00000290: 5f87 aa3e 3a9f 18be 7e51 f1bd 32c6 863e
000002a0: d206 b43e c29f fdbd 4ae6 353c 3d1a 993e
000002b0: e8db 3c3e f8ee 95bd 3af4 8a3d 5e61 6abd
000002c0: 4f41 0e3d 76d1 c13e 2a6b aabd b4f7 8f3d
000002d0: 7658 4cbd f594 693c 6601 e53c 8b6e 58bd
000002e0: a4cf 09be 92aa 9ebc dae4 cbbd 649a 5a3c
000002f0: 31ea 6dbe b9e4 43bd 530b 4cbe 4f44 b5bc

critic.weight f4 [1, 64]
0.03446127 0.03325427 0.10187718 -0.07647148 0.084158264 -0.144607 0.048540913 0.024255792
-0.045986596 -0.007814575 0.026205134 0.061359912 0.09870406 -0.028800672 0.006833189 -0.061582804
0.034797147 0.022415271 -0.1927251 -0.09475826 0.016428746 -0.20142518 -0.04623199 -0.024601724
-0.038470976 0.019285463 0.06463727 -0.007175938 -0.048606936 0.01705614 -0.11268403 0.33294022
-0.13255347 -0.03001408 0.022679638 0.31819153 0.21878804 0.06595287 -0.041805703 0.014550505
0.009556737 -0.044183858 0.046271645 0.063169025 0.12074794 -0.0014850595 0.034527857 0.01569571
-0.049652174 0.0927159 0.0835024 0.053612866 -0.05806413 -0.09180744 -0.030310301 -0.00551644
-0.065277204 0.061126098 0.029072572 0.0021540383 -0.17859969 0.04620854 0.03454718 -0.049467936
00000000: 4327 0d3d a135 083d fca4 d03d 149d 9cbd
00000010: 2b5b ac3d db13 14be d6d2 463d 15b4 c63c
00000020: 715c 3cbd b408 00bc 26ac d63c 8854 7b3d
00000030: 5b25 ca3d 63ef ebbc f2e8 df3b 403e 7cbd
00000040: 7487 0e3d 3ba0 b73c bb59 45be 9e10 c2bd
00000050: 9495 863c 6742 4ebe c15d 3dbd 8e89 c9bc
00000060: be93 1dbd 8cfc 9d3c 8c60 843d 2224 ebbb
00000070: 1118 47bd 51b9 8b3c e2c6 e6bd 2477 aa3e
00000080: 19bc 07be 17e0 f5bc a6ca b93c 00ea a23e
00000090: f909 603e 4c12 873d 753c 2bbd 3e65 6e3c
000000a0: dc93 1c3c 22fa 34bd 5687 3d3d c35e 813d
000000b0: b24a f73d 54a6 c2ba 156d 0d3d 4a94 803c
000000c0: 1460 4bbd d5e1 bd3d 4e03 ab3d 2a99 5b3d
000000d0: a7d4 6dbd 8a05 bcbd 4f4d f8bc 41c3 b4bb
000000e0: 0eb0 85bd 5c5f 7a3d 9a29 ee3c c42a 0d3b
000000f0: d6e2 36be 2b45 3d3d 5881 0d3d e49e 4abd
