model_params_101000/-3.0_V3_0.99g_0.0rm_100bz_0.0td_1.0tds_Nonelb_Noneup_64n_50000e_10md_5.0rz_43s.pth (torch, 22920 bytes, 4 tensors)

rnn.weight_ih_l0 f4 [64, 9]
0.22188364 0.24777359 -0.5460251 -0.25261807 0.25864115 -0.07783444 -0.17672242 -0.7512939
-0.00031381258 -0.59833664 -0.029174358 -0.4633147 -0.0470759 -0.523155 -0.37631983 -0.4457315
0.35127664 0.17748117 1.0016748 0.13086362 -0.12713939 0.5986968 -0.86456627 0.43774152
0.7550286 1.4813255 -0.092325084 0.46871153 -0.9053947 -0.19202296 0.23200111 -0.3800262
0.18480141 -0.6869414 -0.21017742 -0.58798844 0.8701697 0.40065807 0.34277484 0.9177304
-0.606491 -0.16426048 0.18734781 1.4393104 -0.6627482 0.0018357311 -0.07129759 0.042017814
1.2390893 -0.15727837 0.20045449 0.33410174 0.11672134 0.11863145 -1.0137876 0.2156202
-0.058639474 0.13861337 0.2902112 -0.18080962 0.17652468 -2.0884538 0.2373268 -1.0825387
-0.6490314 0.32620496 0.047237024 -0.3100036 -0.3422769 -0.52414364 -2.6575758 0.26451498
1.0546737 0.05930468 0.20507261 0.44886762 -0.13804941 -0.20752169 -0.1447841 0.8829931
0.21954298 -0.053654727 -0.19379388 -0.3791524 1.1172317 -0.4415396 -0.5608689 0.116889745
0.53990024 0.28970024 1.6934749 2.1602027 0.99089456 -0.76189995 -0.34652737 0.26121306
1.1333271 1.5614842 -0.28228638 -0.3848303 -0.66375154 0.48578066 -0.48896262 0.4053652
-0.26592526 0.25072986 -1.1843088 0.3706478 0.47082672 0.4194019 -0.09516128 0.34384882
0.085352495 -0.30238885 0.14670265 0.54543144 -0.049540233 0.76288074 1.1698912 0.1376045
-0.062770575 0.16446002 0.14352903 0.5281666 3.670116 0.25902015 -0.023651976 -0.19910572
0.4461653 -0.2447568 0.23941036 0.84020305 0.032994594 0.4186837 -0.6953864 -0.00023423419
0.13208473 -0.022972262 -1.1560079 0.56540054 -0.41309467 0.34448758 0.21691391 0.58881485
-0.13484788 0.5451073 0.03781694 -1.4810184 0.20487107 -0.10463065 0.3426786 -0.3735002
-0.20692891 1.4464104 2.293088 -0.3968731 -0.3932785 0.050778586 0.17914182 1.0755647
2.3538194 0.27981305 0.35413086 -0.35446477 -0.31043398 0.44222337 -0.06954013 -0.7479096
0.27591592 0.61369795 -0.3220615 0.05572973 -0.15734816 0.058481254 0.2751158 0.36407816
0.2706649 0.6133574 -2.73285 0.16014378 0.48739094 1.1260769 -0.31342176 0.3592548
0.037807036 -0.87145054 0.14737743 0.28132522 0.057911806 -0.1642447 0.5010929 0.24068485
-0.15415785 -0.088542946 -0.3213174 0.16129877 0.15074088 -0.035444036 -2.9574745 -3.3502698
0.25755644 0.17549619 -0.60379577 -0.4530442 -1.6748832 -1.8089254 0.14413847 0.2690637
-0.5353284 0.527164 1.1403694 -0.14206609 -0.1219093 -0.5156431 0.1778594 -0.013741504
-0.49151438 -0.12984072 0.4331482 0.11014028 0.5093501 -0.68764305 0.7512145 0.8508257
-0.1813375 2.7868335 3.1125095 0.34012616 0.2961407 -0.13170387 1.1100518 1.7999705
2.475931 -0.14877228 -0.10807073 -0.31866014 -0.034824606 0.0874982 -0.059162594 -0.75490886
-0.34770906 0.65343016 -0.33207566 -0.73813534 0.45634574 -0.68983454 -1.2356395 0.58970326
-0.49888748 -0.2707841 -0.1650187 0.22186057 -1.6495341 -1.8926604 0.2376843 -0.36343294
00000000: 7735 633e 5cb8 7d3e 4dc8 0bbf 2857 81be
00000010: 9d6c 843e aa67 9fbd b9f6 34be cc54 40bf
00000020: 3687 a4b9 972c 19bf 10ff eebc 9637 edbe
00000030: a9d2 40bd 7ced 05bf feac c0be eb36 e4be
00000040: 88da b33e a0bd 353e e136 803f 1d01 063e
00000050: d430 02be 3244 193f 3754 5dbf a81f e03e
00000060: 8e49 413f 139c bd3f ef14 bdbd f5fa ef3e
00000070: f2c7 67bf aba1 44be b391 6d3e cb92 c2be
00000080: 953c 3d3e 64db 2fbf c038 57be 6986 16bf
00000090: 71c3 5e3f 0e23 cd3e 2f80 af3e 61f0 6a3f
000000a0: ff42 1bbf e633 28be 1bd8 3f3e 533b b83f
000000b0: dea9 29bf ea9c f03a 7904 92bd df1a 2c3d
000000c0: 7a9a 9e3f 950d 21be f143 4d3e 620f ab3e
000000d0: 990b ef3d 0cf5 f23d cbc3 81bf 8bcb 5c3e
000000e0: f22f 70bd aaf0 0d3e 9096 943e 2826 39be
000000f0: e3c2 343e 3aa9 05c0 cc05 733e a190 8abf
00000100: ec26 26bf 5604 a73e 9c7b 413d cbb8 9ebe
00000110: eb3e afbe 472e 06bf b915 2ac0 826e 873e
00000120: 8cff 863f 77e9 723d 8efe 513e fad1 e53e
00000130: d35c 0dbe 9180 54be 4842 14be d60b 623f
00000140: e0cf 603e 0fc5 5bbd e771 46be 4320 c2be
00000150: 7301 8f3f 7a11 e2be 1b95 0fbf e463 ef3d
00000160: e736 0a3f 9753 943e c9c3 d83f c340 0a40
00000170: 44ab 7d3f e00b 43bf 096c b1be b8bd 853e
00000180: dd10 913f b7de c73f d787 90be 7a08 c5be
00000190: 9feb 29bf 3eb8 f83e 4f59 fabe 078c cf3e
000001a0: 5b27 88be aa5f 803e 6e97 97bf 8cc5 bd3e
000001b0: 3310 f13e d9bb d63e ebe3 c2bd f40c b03e
000001c0: 4acd ae3d b6d2 9abe 3839 163e 65a1 0b3f
000001d0: b3ea 4abd 274c 433f ffbe 953f 32e8 0c3e
000001e0: dc8d 80bd 3568 283e 46f9 123e ed35 073f
000001f0: 2ee3 6a40 4a9e 843e cac1 c1bc 5fe2 4bbe
00000200: c76f e43e 87a1 7abe fd27 753e 8c17 573f
00000210: 5725 073d b65d d63e d804 32bf c39c 75b9
00000220: 3841 073e 5330 bcbc 11f8 93bf 17be 103f
00000230: 2581 d3be ad60 b03e ae1e 5e3e 92bc 163f
00000240: 9015 0abe 278c 0b3f f0e5 1a3d 0392 bdbf
00000250: b9c9 513e 9848 d6bd 9273 af3e 6b3b bfbe
00000260: 2ce5 53be fa23 b93f f4c1 1240 f332 cbbe
00000270: cd5b c9be 35fd 4f3d f470 373e 1bac 893f
00000280: faa4 1640 a843 8f3e a450 b53e 687c b5be
00000290: 34f1 9ebe 1a6b e23e 0e6b 8ebd 0177 3fbf
000002a0: da44 8d3e 4f1b 1d3f 3fe5 a4be db44 643d
000002b0: e01f 21be 0a8a 6f3d fadb 8c3e 7468 ba3e
000002c0: 9794 8a3e fe04 1d3f 04e7 2ec0 bbfc 233e
000002d0: 4e8b f93e 4a23 903f d178 a0be 3ff0 b73e
000002e0: 8ddb 1a3d 6217 5fbf 1cea 163e dc09 903e
000002f0: ee34 6d3d c32f 28be a047 003f 1776 763e
00000300: 8edb 1dbe 0156 b5bd b783 a4be 812b 253e
00000310: d15b 1a3e c42d 11bd 4347 3dc0 d26a 56c0
00000320: 70de 833e 46b5 333e 5c92 1abf 69f5 e7be
00000330: 9362 d6bf de8a e7bf 0999 133e b8c2 893e
00000340: 480b 09bf 38f4 063f a0f7 913f c679 11be
00000350: 95ab f9bd 3001 04bf c620 363e 0c24 61bc
00000360: c6a7 fbbe f7f4 04be 9ac5 dd3e 3a91 e13d
00000370: c564 023f 6009 30bf 984f 403f b7cf 593f
00000380: 8ab0 39be 7b5b 3240 5b33 4740 0425 ae3e
00000390: c19f 973e 61dd 06be 2d16 8e3f 6f65 e63f
000003a0: a775 1e40 c357 18be 3054 ddbd 6c27 a3be
000003b0: 3fa4 0ebd 4232 b33d 7a54 72bd b541 41bf
000003c0: ec06 b2be 3347 273f d205 aabe 70f6 3cbf
000003d0: 26a6 e93e ff98 30bf 6f29 9ebf cbf6 163f
000003e0: 2e6e ffbe 37a4 8abe a9fa 28be 6b2f 633e
000003f0: ef23 d3bf b242 f2bf 8363 733e e213 babe

rnn.weight_hh_l0 f4 [64, 64]
-0.17940529 -0.101754345 0.0023923337 0.3489304 0.06428591 0.09279953 -0.012292044 -0.058083348
-0.08348022 -0.4565958 -0.14659388 -0.07510874 -0.16815184 -0.17149091 -0.46191505 -0.023065198
-0.03852111 0.08418659 -0.11715122 -0.03360395 0.16544688 -0.26895773 -0.24434881 -0.051510185
-0.058113057 -0.019829774 0.005132472 -0.08048415 0.030667508 0.09932628 -0.2908101 0.098009765
0.008977797 0.26790833 -0.07922432 -0.21844086 0.4260336 0.08184309 -0.29162875 0.29938453
0.087466136 -0.050386928 -0.047381874 -0.12160253 0.3056238 -0.023280298 -0.3269683 0.34026313
-0.11381758 -0.24308239 0.11295952 -0.18766363 -0.22243366 0.09024543 0.101130694 -0.15304849
0.375554 0.19419064 0.11145244 -0.20062825 -0.13041271 0.009601818 0.032240834 -0.023950003
-0.097418465 0.24008146 -0.38581976 -0.17614864 -0.097157806 -0.18524927 -0.35105807 -0.0390808
-0.07542865 0.115362845 -0.59433496 -0.41649437 -0.014654227 -0.056720715 -0.53134596 0.13692512
0.17409284 -0.08234273 -0.103920534 0.019250834 -0.09602473 -0.36842483 -0.09921333 -0.03732978
0.29036498 0.027611574 -0.6209066 -0.08052698 0.17009033 0.06237197 -0.111035176 0.19458832
0.061613005 0.17399992 0.15366928 0.11789897 0.40629044 0.1450348 -0.24078801 -0.088438645
0.08784297 0.31705713 -0.39459515 -0.048791736 0.18451557 -0.034529015 0.34673634 -0.34546497
0.22308956 0.03080142 -0.14806664 -0.044543892 0.055244014 0.09229415 0.3370143 0.18373246
0.1647975 -0.21983884 -0.052825745 0.07064193 0.13629629 0.32468018 -0.18869036 -0.016268047
-0.039840583 0.096804895 0.23788191 -0.08800284 -0.20971149 0.21034351 0.21984148 0.07392071
-0.101931 0.16999021 -0.29951963 -0.11166839 0.16732314 0.16534963 0.077303134 -0.149631
-0.11374597 -0.1886469 0.22937566 0.36425537 0.16330326 -0.19438314 -0.24580395 0.0953973
0.33603927 0.08804171 0.3748669 -0.19371009 0.206788 0.12250018 0.00090722006 0.042695943
-0.11641571 -0.19003275 0.06284669 -0.2504672 -0.20369858 0.13399625 -0.31448317 0.20375766
-0.21064809 -0.071978256 0.35891846 -0.38854674 -0.17767785 0.047393624 -0.02207659 0.3863162
-0.3348537 0.22524393 -0.071435235 0.17771527 0.0047187316 0.15940572 0.07082934 0.11579928
0.25829625 -0.20178075 0.22761549 0.17128187 -0.054739524 0.009944585 -0.122006595 -0.32738927
0.139539 -0.042085893 0.13531224 0.14018422 -0.31773964 -0.091910236 -0.047034904 -0.07425591
0.21704765 0.09075974 -0.14234063 0.09567968 -0.26491803 0.2094065 0.053656936 -0.005259777
0.24765903 -0.2532022 -0.01468782 0.31414 -0.03250792 -0.4268469 0.08200312 -0.11401421
0.13552323 -0.08417577 -0.023915911 0.12223553 -0.05574337 -0.28173253 -0.089237764 -0.045848295
0.123308495 -0.06705058 0.033610564 -0.018097265 -0.060897708 -0.008608849 -0.29559833 0.20237385
0.112728 0.20250148 0.0681001 -0.08362119 -0.18126999 0.11722182 -0.054920025 0.19916745
0.11437824 0.18439642 -0.0752824 0.15140839 -0.09048134 -0.36226264 0.047453612 0.104077406
-0.052086495 0.046685677 -0.12005192 -0.12176652 -0.18009558 -0.2202782 -0.003476846 -0.23239857
00000000: 05b6 37be 9564 d0bd b3c8 1c3b 01a7 b23e
00000010: 55a8 833d ae0d be3d 9264 49bc cee8 6dbd
00000020: adf7 aabd edc6 e9be b51c 16be 9cd2 99bd
00000030: ff2f 2cbe 509b 2fbe 2180 ecbe 3af3 bcbc
00000040: 50c8 1dbd 056a ac3d fbec efbd 4ca4 09bd
00000050: e86a 293e d4b4 89be 9336 7abe 58fc 52bd
00000060: f507 6ebd 0d72 a2bc 4c2e a83b e0d4 a4bd
00000070: 6d3a fb3c 946b cb3d 10e5 94be 58b9 c83d
00000080: 9c17 133c 482b 893e 5c40 a2bd f6ae 5fbe
00000090: 1321 da3e 5a9d a73d 5d50 95be ee48 993e
000000a0: 7221 b33d 8662 4ebd 7f13 42bd bf0a f9bd
000000b0: b97a 9c3e 53b6 bebc 6468 a7be f836 ae3e
000000c0: 3119 e9bd 97ea 78be 5257 e73d e52a 40be
000000d0: a6c5 63be 99d2 b83d 9c1d cf3d beb8 1cbe
000000e0: 9d48 c03e e9d9 463e 2d41 e43d 7e71 4dbe
000000f0: e98a 05be f250 1d3c f70e 043d cc32 c4bc
00000100: 5583 c7bd ead7 753e 2b8a c5be 4f60 34be
00000110: acfa c6bd fcb1 3dbe e2bd b3be 3013 20bd
00000120: 567a 9abd 5b43 ec3d 5626 18bf c03e d5be
00000130: 4818 70bc fb53 68bd 4a06 08bf 1936 0c3e
00000140: 6545 323e 4ea3 a8bd 4ad4 d4bd edb3 9d3c
00000150: 9da8 c4bd 2ea2 bcbe 5c30 cbbd 1de7 18bd
00000160: b8aa 943e ab31 e23c bcf3 1ebf 54eb a4bd
00000170: 292c 2e3e c079 7f3d 6966 e3bd 2942 473e
00000180: eb5d 7c3d 092d 323e 7b5b 1d3e 0475 f13d
00000190: 4d05 d03e 0184 143e 2291 76be 521f b5bd
000001a0: 04e7 b33d 5055 a23e 6008 cabe d8d9 47bd
000001b0: a6f1 3c3e 4c6e 0dbd 6d87 b13e c9e0 b0be
000001c0: 9771 643e 4253 fc3c c89e 17be a873 36bd
000001d0: 8c47 623d b704 bd3d 238d ac3e 5d24 3c3e
000001e0: adc0 283e 6f1d 61be cf5f 58bd b7ac 903d
000001f0: 4191 0b3e 7b3c a63e 0c38 41be 9144 85bc
00000200: e12f 23bd a541 c63d 5197 733e d53a b4bd
00000210: 9cbe 56be 4a64 573e 201e 613e be63 973d
00000220: 33c1 d0bd ea11 2e3e a35a 99be 66b2 e4bd
00000230: c256 2b3e 6a51 293e 1b51 9e3d de38 19be
00000240: a6f3 e8bd a72c 41be 74e1 6a3e ae7f ba3e
00000250: f838 273e 600c 47be 08b4 7bbe a95f c33d
00000260: 570d ac3e 364f b43d 8eee bf3e f05b 46be
00000270: 3cc0 533e 60e1 fa3d 82d2 6d3a f1e1 2e3d
00000280: 5c6b eebd f297 42be c4b5 803d 3d3d 80be
00000290: 5c96 50be 5036 093e f003 a1be d9a5 503e
000002a0: 22b4 57be 5669 93bd 29c4 b73e 99ef c6be
000002b0: 2ff1 35be d11f 423d f7d9 b4bc 3dcb c53e
000002c0: f271 abbe 58a6 663e a34c 92bd fefa 353e
000002d0: 979f 9a3b 413b 233e f90e 913d 2c28 ed3d
000002e0: 683f 843e 9d9f 4ebe 0914 693e 8464 2f3e
000002f0: 8d36 60bd 9dee 223c 98de f9bd 919f a7be
00000300: 50e3 0e3e 4262 2cbd 4b8f 0a3e 748c 0f3e
00000310: c5ae a2be 6f3b bcbd aca7 40bd 7c13 98bd
00000320: bd41 5e3e 3ee0 b93d bec1 11be b5f3 c33d
00000330: 56a3 87be a86e 563e 60c7 5b3d 355a acbb
00000340: 549a 7d3e b8a3 81be 2fa5 70bc f5d6 a03e
00000350: 0627 05bd ad8b dabe 40f1 a73d 4880 e9bd
00000360: 9ac6 0a3e 5964 acbd 4deb c3bc 9f56 fa3d
00000370: 2953 64bd 3f3f 90be 4ac2 b6bd 6ccb 3bbd
00000380: 2a89 fc3d d151 89bd 3bab 093d b740 94bc
00000390: e06f 79bd 210c 0dbc aa58 97be 173b 4f3e
000003a0: f0dd e63d 8c5c 4f3e 1178 8b3d 9641 abbd
000003b0: d79e 39be fe11 f03d d2f3 60bd 8df2 4b3e
000003c0: 243f ea3d 6ad2 3c3e a92d 9abd cd0a 1b3e
000003d0: 484e b9bd 7d7a b9be b85e 423d 8926 d53d
000003e0: a658 55bd 7b39 3f3d c8dd f5bd ba60 f9bd
000003f0: fa6a 38be 9c90 61be ccdb 63bb e4f9 6dbe

actor.weight f4 [3, 64]
0.0039502163 0.22751682 -0.04832895 -0.024915539 -0.1216111 -0.26472425 0.029124748 0.10181939
-0.016444866 -0.46424043 -0.07202628 0.08860253 -0.30798036 0.009691651 0.16133647 0.01978699
0.23853175 -0.16352911 -0.31074387 -0.053855706 -0.03674286 0.38876665 0.09988798 -0.20060132
-0.030830638 -0.044986803 0.046281047 0.20960467 0.11815079 -0.10573265 -0.15211393 0.009371951
0.055057794 0.06201304 0.3705625 -0.25140348 -0.120811 0.048164472 -0.21321031 0.042176146
0.23666894 0.32108417 0.037632216 0.12703745 0.16015097 -0.02146492 -7.228932e-05 -0.20919688
0.1798062 0.4728994 0.0014967524 0.030478392 -0.004611906 -0.03591522 0.2472212 0.18725264
0.14353973 -0.030864822 -0.05257523 -0.00081848016 0.49536863 0.20207463 0.13074721 -0.034953214
0.22931536 -0.28291428 -0.02029996 0.04064863 0.018050073 0.15354966 -0.011063865 0.049732197
0.02043777 0.21319245 -0.059662208 -0.038873088 0.1928069 -0.038607035 -0.1429356 -0.17837015
-0.37684557 -0.057369795 0.09704249 0.002236075 -0.0962449 -0.33505562 0.10254797 0.40778765
-0.06853066 -0.06566727 0.023377223 -0.13787934 0.028851494 -0.030801356 -0.0101108905 -0.08022987
-0.090481944 0.078625105 -0.30617824 0.26637298 -0.109606855 0.01992199 -0.043607082 0.26859078
-0.15658501 0.009202533 0.30138332 0.068346724 0.065409735 -0.07344136 -0.119940534 0.18014607
-0.45314625 -0.11210624 0.09615597 0.023901623 0.047689475 0.061480995 0.009611864 0.016532993
-0.006885304 0.2792268 0.100625545 0.11791187 -0.2184133 0.016648963 0.049111627 -0.008503565
-0.16413088 0.10124802 -0.043231744 -0.10213781 0.13590173 0.009676637 0.07008996 -0.08998726
-0.091419674 0.048140213 0.12965047 0.035331544 0.079373606 -0.04392217 0.0030445503 0.117011
0.13555235 0.13484694 0.06627146 0.13505177 0.12383753 0.06617098 -0.13377047 -0.14442208
0.04836375 0.013348831 -0.10345514 0.12046731 0.0039426885 0.047203764 0.03423287 0.06916859
0.040745795 0.017335206 -0.025178656 0.013990862 0.13634038 0.061644174 0.14372605 -0.23903652
0.049661357 -0.18342394 -0.21097994 -0.05653842 -0.121790946 -0.017592795 0.1107447 -0.12116455
0.13625826 -0.12083464 -0.034127142 0.015089988 -0.024440916 -0.07224992 -0.1297902 -0.17130636
-0.062923335 -0.17381321 0.082255796 -0.015715776 -0.08801043 -0.13342918 -0.1195841 -0.0539412
00000000: d170 813b 2bfa 683e 94f4 45bd ac1b ccbc
00000010: 3e0f f9bd f089 87be 0697 ee3c af86 d03d
00000020: 62b7 86bc ecb0 edbe 8482 93bd 3e75 b53d
00000030: 9aaf 9dbe bbc9 1e3c 6335 253e 5318 a23c
00000040: ab41 743e 2d74 27be d219 9fbe cd97 5cbd
00000050: ae7f 16bd 6c0c c73e 1292 cc3d 6f6a 4dbe
00000060: 8990 fcbc 1544 38bd 3291 3d3d 9ba2 563e
00000070: 0bf9 f13d 5c8a d8bd c1c3 1bbe d08c 193c
00000080: 4884 613d 6301 7e3d 5eba bd3e f5b7 80be
00000090: c26b f7bd 1c48 453d ce53 5abe e5c0 2c3d
000000a0: 5859 723e 2565 a43e 3d24 1a3d 1b16 023e
000000b0: 9efe 233e 33d7 afbc 089a 97b8 b537 56be
000000c0: 1e1f 383e df1f f23e ad2e c43a d2ad f93c
000000d0: 791f 97bb d61b 13bd 8e27 7d3e 28bf 3f3e
000000e0: 14fc 123e 39d8 fcbc 2059 57bd 468f 56ba
000000f0: f5a0 fd3e a7ec 4e3e 99e2 053e 1a2b 0fbd
00000100: a5d1 6a3e 24da 90be 1a4c a6bc 2e7f 263d
00000110: bfdd 933c 1f3c 1d3e 3745 35bc fdb3 4b3d
00000120: 1c6d a73c 1f4f 5a3e 5c60 74bd 6339 1fbd
00000130: 2c6f 453e 6922 1ebd b65d 12be aaa6 36be
00000140: e7f1 c0be 97fc 6abd 37be c63d 1d8b 123b
00000150: 0c1c c5bd 698c abbe ac04 d23d 8bc9 d03e
00000160: cd59 8cbd 907c 86bd 9781 bf3c 3e30 0dbe
00000170: f859 ec3c 2053 fcbc 26a8 25bc 8f4f a4bd
00000180: 994e b9bd 3306 a13d 65c3 9cbe 0a62 883e
00000190: 8f79 e0bd 7133 a33c 579d 32bd bb84 893e
000001a0: d257 20be 39c6 163c ea4e 9a3e 5ef9 8b3d
000001b0: 8af5 853d 6c68 96bd 62a3 f5bd 3678 383e
000001c0: c902 e8be f597 e5bd 6ced c43d 56cd c33c
000001d0: 0a56 433d 7fd3 7b3d 147b 1d3c 3370 873c
000001e0: 1e9e e1bb d1f6 8e3e c414 ce3d c77b f13d
000001f0: bca7 5fbe 6863 883c 4629 493d 8952 0bbc
00000200: ed11 28be 1f5b cf3d c513 31bd a12d d1bd
00000210: d329 0b3e c28a 1e3c 538b 8f3d 3e4b b8bd
00000220: 3d3a bbbd ac2e 453d 18c3 043e cfb7 103d
00000230: a18e a23d bce7 33bd 1487 473b 77a3 ef3d
00000240: 3cce 0a3e 5115 0a3e 55b9 873d 034b 0a3e
00000250: 889e fd3d a784 873d 20fb 08be 62e3 13be
00000260: 1119 463d 0eb5 5a3c 4ae0 d3bd 91b7 f63d
00000270: ab31 813b bc58 413d c437 0c3d 43a8 8d3d
00000280: 10e5 263d 9002 8e3c 7843 cebc ee39 653c
00000290: d09c 0b3e 9a7e 7c3d ec2c 133e fdc5 74be
000002a0: b569 4b3d 7cd3 3bbe 200b 58be d594 67bd
000002b0: 886d f9bd c41e 90bc 1ece e23d 1f25 f8bd
000002c0: 4987 0b3e 2778 f7bd e7c8 0bbd ff3b 773c
000002d0: 5138 c8bc c4f7 93bd b9e7 04be ef6a 2fbe
000002e0: f3dd 80bd 17fc 31be ba75 a83d 5fbe 80bc
000002f0: d03e b4bd a9a1 08be 82e8 f4bd 73f1 5cbd

critic.weight f4 [1, 64]
-0.052083556 0.09257269 0.045795705 -0.033843707 -0.12199462 0.07840365 -0.077603646 -0.07628938
0.010962473 -0.048023593 0.1730631 -0.05538588 0.048072834 -0.011960437 -0.051240865 0.21307042
0.16032654 0.14318532 0.06987287 -0.053975917 0.0068619386 0.10311261 -0.08799876 -0.081278585
0.048990835 -0.06261929 0.13673437 -0.081234954 -0.057993658 0.06841477 0.055784583 0.08030939
-0.037629265 -0.100004755 -0.15546316 0.12824844 0.10442735 0.17030157 0.11855198 -0.12189696
-0.055561196 -0.01814625 -0.04882118 -0.19394262 -0.046194952 0.06827331 0.13938737 -0.011260428
0.057081353 0.17489769 -0.078982644 -0.14566964 0.0004208412 0.0002395513 -0.21557769 -0.17927513
-0.072722904 -0.116514504 0.0019421277 0.0006427232 -0.0691256 -0.20703042 -0.09272873 0.014232708
00000000: 9155 55bd c096 bd3d 4794 3b3d b39f 0abd
00000010: 51d8 f9bd 1892 a03d a9ee 9ebd 9b3d 9cbd
00000020: f29b 333c 63b4 44bd 7437 313e 4edc 62bd
00000030: 05e8 443d b5f5 43bc f1e1 51bd 222f 5a3e
00000040: a42c 243e 2c9f 123e 8219 8f3d da15 5dbd
00000050: 1dda e03b b42c d33d b238 b4bd 6375 a6bd
00000060: 9daa 483d 8b3e 80bd 1804 0c3e 835e a6bd
00000070: c28a 6dbd 0b1d 8c3d 607e 643d 4079 a43d
00000080: 2521 1abd 4bcf ccbd bc31 1fbe 8f53 033e
00000090: 02de d53d 8963 2e3e 61cb f23d 1da5 f9bd
000000a0: 2394 63bd 72a7 94bc b8f8 47bd e598 46be
000000b0: eb36 3dbd e1d2 8b3d 90bb 0e3e a87d 38bc
000000c0: 23ce 693d 6118 333e a7c1 a1bd 6c2a 15be
000000d0: 5aa4 dc39 1030 7b39 66c0 5cbe e693 37be
000000e0: bfef 94bd 289f eebd fe8e fe3a 6c7c 283a
000000f0: b991 8dbd c8ff 53be 8fe8 bdbd 4e30 693c
