model_params_101000/-3.0_V3_0.95g_0.0rm_100bz_0.0025td_1.0tds_Nonelb_Noneup_64n_50000e_10md_5.0rz_29s.pth (torch, 22944 bytes, 4 tensors)

rnn.weight_ih_l0 f4 [64, 9]
0.46284822 -0.4888386 -0.5083166 -0.8311118 -0.17427643 0.48088413 -0.060266748 0.03784655
0.039864413 0.58166736 0.1611148 0.2723559 0.09344065 0.6778888 0.14085375 -0.07923175
-0.45314667 -0.049539708 0.25549415 0.06231064 -0.3358259 0.37319633 0.4522591 -0.25587535
0.54288703 -0.6358195 -0.64935476 0.18657832 -0.06915654 0.14568427 -0.6746409 -0.27865246
0.30740845 -0.32972422 0.67227024 -0.53401303 0.40805024 -0.28607816 0.45844102 0.45508364
-0.22206941 0.093009904 -0.46722767 -0.02146555 0.371899 -0.057173308 -0.23306093 0.020366397
0.49094775 0.38292584 0.32243726 -0.06006637 0.31398714 0.16323891 -0.3011491 0.25734854
0.12263816 -0.29305834 0.25799325 -0.25285637 0.050654635 -0.033420686 -0.2493276 0.06807777
-0.45403805 0.37153745 -0.07575795 0.17989463 0.48342255 0.21269213 -0.065673105 -1.3527607
-0.53023916 0.34098652 0.21290115 -0.62451226 0.0469267 -0.5248077 0.6042235 -0.033847563
-0.12891494 0.47069848 -0.0041846265 -0.16822079 0.41228205 -0.212883 0.19082634 -0.55357164
0.21453199 0.1774604 0.62397385 0.49525174 -0.16161922 0.7947725 -0.31058916 0.073316544
-0.042405237 0.39411646 0.58353394 0.2525575 -0.22359389 0.36755228 -0.8494356 0.1952879
0.32003152 -0.25239912 0.26066026 -0.31931677 0.05003444 -0.3408671 -0.0021670186 0.33742917
0.29967108 0.092555106 -0.597257 -0.117288105 -0.40188676 0.055789255 0.30882615 -0.03476474
0.52841616 -0.56197464 -0.16634552 -0.20720547 0.5160447 0.12768933 -0.25099966 -0.2161214
0.5590355 -0.22082514 0.14587024 0.11885328 -0.6140429 -0.5590876 0.23932622 -0.04230323
0.28097492 -0.11554723 -0.5317475 -0.27232528 -0.1466787 0.33053342 0.38325393 -0.23774593
-0.70099086 0.11075687 -0.02626863 0.4172946 0.5004821 -0.52010405 -0.29115608 0.4121465
0.3612138 0.20177504 -0.26043332 -0.17084704 -0.7476373 -0.21894735 0.2802844 0.052228455
0.09750446 0.03874421 0.7950316 0.7029891 -0.012414496 0.0075312275 0.3281298 -0.118058585
0.31949642 0.100272216 -0.06913793 0.5705218 -0.6817748 0.3707114 -0.118805476 0.121003404
0.24028425 -0.16381755 -0.36886957 0.2037968 0.4940404 0.26315176 0.20756523 0.16528156
-0.4889731 -0.2193401 -0.27697083 0.044549286 -0.25675324 -0.5486272 -0.32866287 -0.25621265
0.36130553 -0.22247374 -0.31615907 -0.22371998 -0.40804604 -0.12083541 -0.32310992 -0.24302155
0.1620492 0.92690367 0.48430532 0.5986466 0.4103757 -0.0946689 2.8117092e-05 1.0895857
-0.32572553 0.0022806907 0.6913846 -0.73541623 0.5793766 0.3647528 0.61291015 0.089460514
-0.40560675 -0.5226214 0.20757225 0.9884146 -0.84714544 0.137119 0.52431345 0.34145692
-0.14765733 -0.088701315 0.2520858 -0.3632594 -0.5839485 0.059370473 0.03461734 0.08436613
-0.17156261 0.384269 -0.17436157 -0.119356796 -0.30979538 -0.08980026 -0.119769424 0.42020527
-0.11967387 0.4945125 0.20641546 -0.05317838 0.5054395 -0.16911602 1.1805223 -0.83393276
0.13776818 -0.06629549 -0.27727985 -0.23779804 0.7156815 0.19155096 -0.044800095 1.2245026
00000000: 71fa ec3e 0e49 fabe 0921 02bf bec3 54bf
00000010: 8575 32be 7236 f63e 44da 76bd fc04 1b3d
00000020: de48 233d 27e8 143f 47fb 243e 3c72 8b3e
00000030: d05d bf3d 1f8a 2d3f f73b 103e 4144 a2bd
00000040: d702 e8be 26ea 4abd 21d0 823e 7139 7f3d
00000050: 5ff1 abbe 9713 bf3e 818e e73e 1802 83be
00000060: a5fa 0a3f 11c5 22bf 1d3c 26bf 630e 3f3e
00000070: f2a1 8dbd 422e 153e 44b5 2cbf 89ab 8ebe
00000080: a464 9d3e 9dd1 a8be e719 2c3f 14b5 08bf
00000090: f6eb d03e d678 92be c8b8 ea3e b900 e93e
000000a0: 2a66 63be fa7b be3d 7738 efbe 85d8 afbc
000000b0: 8c69 be3e 8f2e 6abd 86a7 6ebe 6ed7 a63c
000000c0: 815d fb3e db0e c43e 7f16 a53e 2708 76bd
000000d0: ecc2 a03e 1a28 273e 3730 9abe 30c3 833e
000000e0: b729 fb3d be0b 96be b117 843e 6476 81be
000000f0: 3c7b 4f3d 21e4 08bd bc4f 7fbe 5c6c 8b3d
00000100: ad77 e8be 283a be3e fc26 9bbd 4c36 383e
00000110: 2983 f73e f7cb 593e 9f7f 86bd 4327 adbf
00000120: c1bd 07bf c995 ae3e c202 5a3e 09e0 1fbf
00000130: 3636 403d cc59 06bf 64ae 1a3f bea3 0abd
00000140: 4702 04be 64ff f03e 311f 89bb 1242 2cbe
00000150: a216 d33e 00fe 59be fb67 433e dfb6 0dbf
00000160: 46ae 5b3e 2eb8 353e c0bc 1f3f a391 fd3e
00000170: 827f 25be 3676 4b3f 8b05 9fbe fc26 963d
00000180: 1db1 2dbd a2c9 c93e 7b62 153f 374f 813e
00000190: ccf5 64be d02f bc3e 9d74 59bf 8df9 473e
000001a0: 2cdb a33e 753a 81be 4375 853e 7d7d a3be
000001b0: eaf0 4c3d 2286 aebe 8a04 0ebb 84c3 ac3e
000001c0: 7d6e 993e 888d bd3d d6e5 18bf bf34 f0bd
000001d0: 1ac4 cdbe 4683 643d 761e 9e3e 7965 0ebd
000001e0: 4846 073f 92dd 0fbf 7b56 2abe ac2d 54be
000001f0: 811b 043f fec0 023e 0783 80be ee4e 5dbe
00000200: f31c 0f3f fc1f 62be 025f 153e 5969 f33d
00000210: ea31 1dbf 5d20 0fbf ef11 753e 2746 2dbd
00000220: f2db 8f3e 07a4 ecbd 9b20 08bf 386e 8bbe
00000230: f132 16be ad3b a93e dc39 c43e ab73 73be
00000240: 2374 33bf 7fd4 e23d 4f31 d7bc a3a7 d53e
00000250: 981f 003f 8a25 05bf 6912 95be de04 d33e
00000260: 04f1 b83e 1e9e 4e3e 8457 85be 87f2 2ebe
00000270: 2865 3fbf bc33 60be 7081 8f3e 81ed 553d
00000280: 6bb0 c73d 40b2 1e3d 3187 4b3f 18f7 333f
00000290: 2c66 4bbc 84c8 f63b a100 a83e b3c8 f1bd
000002a0: 0995 a33e 855b cd3d 3098 8dbd b70d 123f
000002b0: cb88 2ebf e2cd bd3e 4950 f3bd a2d0 f73d
000002c0: 130d 763e cabf 27be 79dc bcbe 1cb0 503e
000002d0: ddf2 fc3e d4bb 863e fb8b 543e 923f 293e
000002e0: af5a fabe b19a 60be 1fcf 8dbe 5079 363d
000002f0: 2975 83be d572 0cbf 8046 a8be 4e2e 83be
00000300: 0afd b83e 28d0 63be 9adf a1be da16 65be
00000310: 69eb d0be 8e78 f7bd aa6e a5be a4da 78be
00000320: 3af0 253e 8f49 6d3f def6 f73e e740 193f
00000330: c41c d23e c5e1 c1bd ffdc eb37 8b77 8b3f
00000340: 7fc5 a6be a477 153b 95fe 303f 3d44 3cbf
00000350: 0652 143f e1c0 ba3e aee7 1c3f 1337 b73d
00000360: b0ab cfbe 84ca 05bf d28d 543e bd08 7d3f
00000370: 86de 58bf ec68 0c3e 6839 063f 71d3 ae3e
00000380: 7c33 17be 09a9 b5bd 6411 813e 23fd b9be
00000390: a67d 15bf 742e 733d e9ca 0d3d 26c8 ac3d
000003a0: 1cae 2fbe e8be c43e d78b 32be 5671 f4bd
000003b0: 809d 9ebe 33e9 b7bd ac49 f5bd 2525 d73e
000003c0: 9317 f5bd be30 fd3e 935e 533e 93d1 59bd
000003d0: 7c64 013f c02c 2dbe 5b1b 973f 9e7c 55bf
000003e0: 1a13 0d3e eec5 87bd a0f7 8dbe 5481 73be
000003f0: e736 373f ef25 443e 4e80 37bd 80bc 9c3f

rnn.weight_hh_l0 f4 [64, 64]
0.05425672 -0.005055402 -0.07127909 0.084463336 0.11364937 -0.016185708 -0.07829405 0.033644173
0.09171845 0.23205663 -0.14025564 0.25409523 -0.26166692 0.016668994 -0.053194422 -0.41036355
-0.27995783 -0.2643426 -0.030659493 0.001794533 -0.108415246 -0.10311291 -0.22248247 -0.08080119
-0.2974134 0.0038921465 -0.023055589 -0.19481376 0.07880725 -0.05569882 0.12883635 -0.3825959
-0.29604283 0.03754287 0.1071073 0.004166868 -0.03128876 -0.35472497 -0.19420758 0.21402039
-0.0646113 -0.16850528 0.595955 -0.28823996 0.15091878 -0.0038209923 -0.40440288 -0.15499319
-0.14999844 -0.30185878 -0.34976363 -0.47801843 -0.13020146 0.1556323 -0.467837 0.22920136
0.10616798 0.15885767 -0.17356727 0.027449748 0.18604286 -0.08421866 -0.27683786 0.0692341
0.027931616 -0.25555092 -0.03364347 0.08255098 -0.17626952 -0.16411674 0.039605327 -0.13779859
0.09996804 0.12455068 -0.09041286 -0.052332316 -0.00054336496 -0.32175872 0.422998 -0.0101286685
0.048424624 -0.17986415 0.21652393 -0.1670628 0.047674183 -0.14758514 0.10054941 -0.0038450651
0.08566591 0.32964855 -0.27714577 0.14912097 -0.055090807 0.15975922 0.43265557 0.019924847
-0.13325596 -0.11090837 0.00526489 -0.16724792 -0.45051807 -0.09641773 -0.54285085 0.23502386
-0.015147968 -0.30338842 -0.111154936 -0.4760739 0.20736983 0.05542311 -0.14295803 0.023058511
0.041634746 0.018640867 -0.12601346 0.26800996 0.12580907 0.21824841 -0.008868089 -0.17072363
0.113938116 -0.3696338 0.08217958 -0.13969739 0.36841062 -0.21381149 0.1415645 -0.13175036
0.24137734 -0.20180425 -0.007680395 -0.026946593 0.26463044 0.16926764 -0.3482337 0.030069293
0.055434752 -0.10712428 0.103528865 0.07561259 -0.030834237 0.10038147 0.007358134 -0.12888117
0.24507725 0.09048812 0.10074126 -0.41508147 -0.09121698 0.44449103 -0.10232238 0.20567787
0.15416837 -0.067725115 -0.2302514 0.29045552 -0.38669616 0.049584124 -0.06524872 -0.022658043
0.12659709 -0.06629235 0.048300717 -0.13646388 -0.060381807 0.26679844 0.113871425 0.045140654
0.26004243 0.005960265 0.13540761 -0.14435968 0.00017666907 -0.17397715 0.05790584 -0.056706794
0.06897775 0.22545013 -0.18284379 -0.10821836 0.020947454 0.26114923 0.15296519 -0.21652932
0.21500444 0.22089347 -0.09328552 0.01650754 0.18950096 -0.051061507 -0.27036816 -0.05905109
-0.123693444 -0.18699993 -0.4590017 -0.12008513 -0.055099424 0.054111343 -0.43869343 -0.17721431
-0.36437917 0.26942694 0.00814271 0.31053987 -0.27095085 0.28699514 0.05490538 -0.12648453
-0.09032047 -0.2282902 0.20508465 -0.021134045 0.28186125 0.44683138 0.08236983 -0.22354625
0.24811935 0.04984022 -0.009102532 0.076241516 -0.054748695 0.3407594 -0.21178941 -0.35011265
0.058461517 0.08906931 0.4824509 0.05275961 0.4467335 -0.5233923 0.12952563 0.02674419
-0.08043884 0.07703767 0.068904065 -0.07821075 -0.13070197 0.094596714 -0.024790462 -0.010428302
-0.2138781 -0.31931588 -0.32656464 0.42038542 0.06903102 -0.30716175 0.046142824 0.16541798
0.3320982 -0.23480123 -0.05230481 -0.035479274 0.39026982 0.43732715 0.32654843 -0.3479151
00000000: 4b3c 5e3d c9a7 a5bb c6fa 91bd 1dfb ac3d
00000010: 00c1 e83d e497 84bc a258 a0bd 79ce 093d
00000020: e2d6 bb3d 41a0 6d3e 2d9f 0fbe c518 823e
00000030: 35f9 85be 6a8d 883c 65e2 59bd 2c1b d2be
00000040: a256 8fbe ea57 87be 9e29 fbbc 8936 eb3a
00000050: d008 debd dd2c d3bd 72d2 63be 187b a5bd
00000060: 9246 98be 6213 7f3b 13df bcbc 427d 47be
00000070: b265 a13d 7224 64bd aded 033e 9ce3 c3be
00000080: ed92 97be 8dc6 193d 125b db3d 398a 883b
00000090: a528 00bd 839e b5be 5ade 46be 2928 5b3e
000000a0: ee52 84bd a68c 2cbe 8290 183f 3094 93be
000000b0: 748a 1a3e 9d69 7abb e50d cfbe 89b6 1ebe
000000c0: 3199 19be 3c8d 9abe 3814 b3be d5be f4be
000000d0: 8853 05be 135e 1f3e 5588 efbe c3b3 6a3e
000000e0: 996e d93d 96ab 223e 9ebb 31be 4bde e03c
000000f0: 0582 3e3e d57a acbd b1bd 8dbe 9cca 8d3d
00000100: d8d0 e43c 92d7 82be bccd 09bd 7d10 a93d
00000110: ff7f 34be 380e 28be 3239 223d 131b 0dbe
00000120: 0bbc cc3d 6d14 ff3d 612a b9bd 695a 56bd
00000130: 9b70 0eba 8fbd a4be 3293 d83e b7f2 25bc
00000140: e658 463d 4f2e 38be 73b8 5d3e 8312 2bbe
00000150: 0146 433d 8f20 17be d9ec cd3d 7dfd 7bbb
00000160: 9c71 af3d b2c7 a83e 0de6 8dbe 2bb3 183e
00000170: e6a6 61bd ec97 233e 0885 dd3e 6f39 a33c
00000180: 4074 08be ed23 e3bd 1985 ac3b 0a43 2bbe
00000190: 4eaa e6be a976 c5bd 46f8 0abf 18aa 703e
000001a0: 2f2f 78bc ba55 9bbe 33a5 e3bd f5bf f3be
000001b0: c258 543e 5803 633d 9763 12be 34e5 bc3c
000001c0: 3289 2a3d bbb4 983c ac09 01be 9a38 893e
000001d0: 18d4 003e 837c 5f3e 764b 11bc 2dd2 2ebe
000001e0: 6358 e93d a440 bdbe c54d a83d d50c 0fbe
000001f0: 51a0 bc3e 66f1 5abe 49f6 103e 91e9 06be
00000200: 9f2b 773e c6a5 4ebe d3ab fbbb 1abf dcbc
00000210: a47d 873e 7f54 2d3e b04b b2be e153 f63c
00000220: 8d0f 633d f963 dbbd f106 d43d c6da 9a3d
00000230: 1598 fcbc cd94 cd3d 801c f13b 6df9 03be
00000240: 88f5 7a3e d651 b93d 6f51 ce3d 8f85 d4be
00000250: f8cf babd 5494 e33e 658e d1bd 389d 523e
00000260: 50de 1d3e 77b3 8abd 06c7 6bbe 96b6 943e
00000270: 0afd c5be b918 4b3d 1fa1 85bd 5c9d b9bc
00000280: aba2 013e 49c4 87bd f9d6 453d 30bd 0bbe
00000290: ea52 77bd ce99 883e 6c35 e93d 68e5 383d
000002a0: 4824 853e 544e c33b 4ba8 0a3e 06d3 13be
000002b0: 3e40 3939 1127 32be ad2e 6d3d 6245 68bd
000002c0: 3544 8d3d 66dc 663e 673b 3bbe 96a1 ddbd
000002d0: ff99 ab3c 5ab5 853e e8a2 1c3e ddb9 5dbe
000002e0: 202a 5c3e e631 623e 7b0c bfbd d23a 873c
000002f0: 8a0c 423e df25 51bd b26d 8abe 8edf 71bd
00000300: fd52 fdbd e97c 3fbe 4502 ebbe 31ef f5bd
00000310: efaf 61bd dba3 5d3d 6d9c e0be ab77 35be
00000320: e88f babe 54f2 893e 0069 053c 15ff 9e3e
00000330: 12ba 8abe 07f1 923e 77e4 603d 2985 01be
00000340: f0f9 b8bd e8c4 69be b601 523e 4e21 adbc
00000350: 1e50 903e 15c7 e43e 83b1 a83d 4fe9 64be
00000360: 0013 7e3e 4225 4c3d c922 15bc 8324 9c3d
00000370: 2b40 60bd 0478 ae3e 53df 58be f741 b3be
00000380: 5875 6f3d f869 b63d ce03 f73e 761a 583d
00000390: 41ba e43e 0afd 05bf 5ea2 043e a216 db3c
000003a0: 1ebd a4bd edc5 9d3d 931d 8d3d f52c a0bd
000003b0: bdd6 05be ecbb c13d 5e15 cbbc 78db 2abc
000003c0: dc02 5bbe 5f7d a3be 7b33 a7be c23c d73e
000003d0: 2360 8d3d 4e44 9dbe 4200 3d3d 5563 293e
000003e0: c608 aa3e bc6f 70be 923d 56bd b752 11bd
000003f0: 72d1 c73e 58e9 df3e 5b31 a73e ee21 b2be

actor.weight f4 [3, 64]
0.00464717 -0.038508907 -0.08215731 -0.12583897 -0.1090312 -0.07203122 0.16640119 -0.04708762
0.09751991 0.0053829285 -0.21991529 -0.18013705 0.012215157 0.08490492 0.20226051 -0.13838628
-0.114701495 -0.013729196 -0.3242321 -0.062104236 0.0994397 -0.31413046 -0.1806087 -0.2931429
-0.18766294 0.27117193 0.012326269 -0.13666204 -0.3546126 0.061954197 -0.105489634 -0.110317916
-0.22766012 -0.09735474 -0.11946998 0.014309864 -0.09705363 0.20240878 -0.048206385 -0.033927854
-0.13363159 0.20921385 -0.016396258 0.17278287 -0.29510415 -0.09929412 0.16789378 0.14319175
-0.1390538 -0.28732684 -0.12742914 0.18139642 0.07394525 -0.24103047 0.00978554 -0.04334502
0.5516577 -0.108100936 -0.06075306 -0.0018487391 0.13354598 0.30064085 -0.009560297 -0.17725721
-0.032204658 -0.17765608 0.18621433 0.14455287 0.095671676 0.32259506 -0.10961569 0.21564926
0.0025940393 -0.009688553 0.076672725 0.00045635918 -0.20495388 0.08039934 0.13208415 0.040908404
-0.0044365665 -0.11460237 -0.21218544 -0.09896428 0.11175751 0.44591227 -0.16970403 -0.09831859
0.1362025 0.05779814 -0.25692156 0.11217279 -0.09932354 0.13484098 -0.07103759 -0.014208759
0.16025233 0.37493208 0.003406905 0.19483936 0.51715565 0.028792439 0.21746732 0.031171061
0.28118894 -0.12803091 -0.05004143 -0.006679919 0.053608596 -0.15494801 0.25096086 -0.031037748
0.030897612 -0.030696591 0.058881123 -0.07305366 -0.17048796 -0.20359688 0.56384206 -0.16787566
-0.27573112 -0.04411946 0.010568727 0.27371132 -0.04476493 -0.1569328 0.29986268 -0.16114436
-0.039168015 0.19748461 -0.026260978 -0.10745935 -0.0314803 -0.10428449 0.009355305 -0.09449093
-0.0043169367 0.023323229 0.059922334 -0.009560994 0.0912413 -0.10956554 -0.3241474 0.12392789
0.0093034115 0.10658607 0.34807262 0.02362424 -0.024681384 -0.16242348 0.17662895 0.13755904
-0.0349549 -0.12546198 0.10053624 0.014160845 0.23800287 -0.06486122 0.08858857 0.03626311
0.051963605 -0.21348085 0.03700104 -0.1422024 -0.2306205 -0.07562643 -0.11527517 -0.023482593
-0.12535493 0.023458593 -0.002430936 0.0012335065 0.08558361 0.18591434 -0.29359338 0.0042751366
0.12081676 0.15459491 0.116260044 -0.04828176 0.14142135 0.299474 -0.3376365 0.2294603
-0.1325918 0.16526602 -0.04141484 -0.18536532 0.045570236 -0.049055018 -0.22914577 0.15856157
00000000: 4a47 983b 84bb 1dbd 1742 a8bd eedb 00be
00000010: c04b dfbd 1b85 93bd 1365 2a3e f3de 40bd
00000020: 85b8 c73d 4763 b03b 7931 61be d975 38be
00000030: 1522 483c a1e2 ad3d 611d 4f3e 22b5 0dbe
00000040: 9ee8 eabd 6cf0 60bc c001 a6be 0361 7ebd
00000050: 0ba7 cb3d b5d5 a0be 7df1 38be d416 96be
00000060: b72a 40be 0cd7 8a3e 1ff4 493c 22f1 0bbe
00000070: c88f b5be afc3 7d3d f30a d8bd 5cee e1bd
00000080: bc1f 69be ec61 c7bd adac f4bd eb73 6a3c
00000090: 0ec4 c6bd 3f44 4f3e 0f74 45bd eff7 0abd
000000a0: b8d6 08be 283c 563e 7251 86bc feed 303e
000000b0: e417 97be b75a cbbd 59ec 2b3e dca0 123e
000000c0: 1f64 0ebe 811c 93be c97c 02be fcbf 393e
000000d0: 9b70 973d b1d0 76be 8853 203c 8c8a 31bd
000000e0: 7039 0d3f 0664 ddbd 33d8 78bd 6451 f2ba
000000f0: 47c0 083e 99ed 993e cba2 1cbc ea82 35be
00000100: 08e9 03bd 7aeb 35be f8ae 3e3e ab05 143e
00000110: 83ef c33d 2e2b a53e 317e e0bd 29d3 5c3e
00000120: c200 2a3b bdbc 1ebc 9706 9d3d 7e43 ef39
00000130: 6edf 51be 69a8 a43d 1141 073e 928f 273d
00000140: 9e60 91bb a6b4 eabd 2447 59be c9ad cabd
00000150: 1fe1 e43d 9d4e e43e e5c6 2dbe 425b c9bd
00000160: ab78 0b3e bebd 6c3d 398b 83be d9ba e53d
00000170: 246a cbbd c113 0a3e 287c 91bd dbcb 68bc
00000180: 3019 243e 19f7 bf3e 6246 5f3b f883 473e
00000190: 5064 043f 1fde eb3c c1af 5e3e 745a ff3c
000001a0: fff7 8f3e 891a 03be 3ef8 4cbd 39e3 dabb
000001b0: b094 5b3d b1aa 1ebe f17d 803e e042 febc
000001c0: fd1c fd3c 6b77 fbbc 552d 713d 289d 95bd
000001d0: 6594 2ebe b37b 50be f457 103f 99e7 2bbe
000001e0: a12c 8dbe 9bb6 34bd 7428 2d3c e423 8c3e
000001f0: 6e5b 37bd feb2 20be 9a87 993e 0703 25be
00000200: a46e 20bd 6839 4a3e 4321 d7bc a613 dcbd
00000210: 7df1 00bd 1b93 d5bd fe46 193c 7684 c1bd
00000220: 1775 8dbb 5b10 bf3c 1f71 753d b7a5 1cbc
00000230: b8dc ba3d e663 e0bd a6f6 a5be e8cd fd3d
00000240: 566d 183c cc49 da3d 9336 b23e 9f87 c13c
00000250: 9d30 cabc 5752 26be 38de 343e 47dc 0c3e
00000260: df2c 0fbd 1b79 00be f2e5 cd3d e402 683c
00000270: 06b7 733e f6d5 84bd ed6d b53d a088 143d
00000280: cad7 543d b99a 5abe 678e 173d 829d 11be
00000290: c827 6cbe 08e2 9abd 6315 ecbd 915e c0bc
000002a0: 0b5d 00be 3c2c c03c 5750 1fbb 9cad a13a
000002b0: 7646 af3d 5460 3e3e df51 96be 7216 8c3b
000002c0: c76e f73d 214e 1e3e bf19 ee3d 18c3 45bd
000002d0: c2d0 103e a854 993e b1de acbe a4f7 6a3e
000002e0: 25c6 07be 7f3b 293e 9ba2 29bd 68d0 3dbe
000002f0: dba7 3a3d eaed 48bd 30a5 6abe f75d 223e

critic.weight f4 [1, 64]
0.0355548 -0.032669343 -0.029307902 0.0434873 0.04842928 -0.08454129 -0.023833811 -0.06817943
0.036719635 -0.0038434402 -0.00069649256 0.06657278 0.07922643 0.0077364026 -0.05571213 0.04948297
0.09991614 0.06745057 0.21833588 0.036349207 -0.03331298 0.025131611 0.06196305 0.025891136
0.12758465 -0.0991392 -0.06211451 -0.07989558 0.22517762 -0.010721763 0.08542188 -0.045990683
-0.06604161 -0.01954622 -0.026558124 0.016035581 -0.13272709 -0.15662847 -0.07327198 0.01573952
-0.22693501 -0.069010794 -0.09689548 -0.05113144 0.057232957 -0.000266718 -0.22451185 -0.112690106
-0.052267432 0.089728296 0.055439282 -0.013202199 0.113580585 0.12924057 -0.2563614 0.03968708
-0.051757798 0.054557566 0.01554125 -0.03419035 0.036448482 -0.00732283 -0.030732425 0.06424588
00000000: e9a1 113d 4ad0 05bd 2017 f0bc bd1f 323d
00000010: c85d 463d fc23 adbd 203f c3bc a8a1 8bbd
00000020: 5467 163d 3ae2 7bbb d394 36ba 4f57 883d
00000030: 7741 a23d a681 fd3b 6732 64bd a8ae 4a3d
00000040: d5a0 cc3d 8623 8a3d 7193 5f3e e8e2 143d
00000050: 3173 08bd cfe0 cd3c f8cc 7d3d a619 d43c
00000060: 8da5 023e 7e09 cbbd c96b 7ebd 4ba0 a3bd
00000070: f694 663e 55aa 2fbc abf1 ae3d ba60 3cbd
00000080: d340 87bd 651f a0bc 6c90 d9bc 0d5d 833c
00000090: 9ce9 07be 3763 20be 9f0f 96bd 2af0 803c
000000a0: a761 68be 8855 8dbd 2371 c6bd 336f 51bd
000000b0: 1b6d 6a3d 49d6 8bb9 6fe6 65be 12ca e6bd
000000c0: 6016 56bd 78c3 b73d 4d14 633d 094e 58bc
000000d0: f09c e83d a457 043e cd41 83be eb8e 223d
000000e0: fcff 53bd c177 5f3d baa0 7e3c 2e0b 0cbd
000000f0: 014b 153d 5af4 efbb 91c2 fbbc 5893 833d
