model_params_101000/-4.0_V3_0.25g_0.0rm_100bz_0.0td_1.0tds_Nonelb_Noneup_64n_50000e_10md_5.0rz_43s.pth (torch, 22920 bytes, 4 tensors)

rnn.weight_ih_l0 f4 [64, 9]
0	0x3d5b6a9e	0.053568475
1	0x3f117496	0.5681852
2	0xbf0bc84d	-0.5460251
3	0xbc900d82	-0.017584566
4	0x3edd6979	0.43244532
5	0x3dd38250	0.103275895
6	0xbd8b177e	-0.0679159
7	0xbe81d7a0	-0.2535982
8	0xb9a48736	-0.00031381258
9	0xbeffb074	-0.4993931
10	0xbca0830c	-0.019593738
11	0xbeed3796	-0.4633147
12	0x3ee2d641	0.44304088
13	0xbf09b110	-0.537858
14	0xbe735ad3	-0.23765115
15	0xbeed1484	-0.46304715
16	0x3eaac7e9	0.33355644
17	0x3e35bda0	0.17748117
18	0x3e439dbf	0.19103144
19	0xbeb2fbdc	-0.34957778
20	0xbe0230d4	-0.12713939
21	0x3f46ee92	0.7770778
22	0xbf3f621a	-0.74759066
23	0x3f22a0f4	0.63526845
24	0x3f01fe75	0.50778896
25	0x3ea20730	0.3164611
26	0xbdbd14ef	-0.092325084
27	0x3ea9e3ef	0.33181712
28	0xbeebe9d5	-0.46076837
29	0xbe44a1ab	-0.19202296
30	0x3e8ee9e3	0.27912816
31	0xbe30f8bc	-0.17282385
32	0x3e9163ea	0.2839654
33	0xbf0fa281	-0.56107336
34	0xbcfaa125	-0.030594418
35	0xbf168669	-0.58798844
36	0x3e84f9ef	0.25971934
37	0x3d7954c2	0.060871847
38	0x3eaf802f	0.34277484
39	0x3ed0ee0f	0.40806624
40	0xbe50f08d	-0.20404263
41	0x3e36690c	0.1781351
42	0x3ca132d6	0.01967756
43	0xbd98e679	-0.07465834
44	0xbf29a9de	-0.6627482
45	0xbe2df6b3	-0.1698864
46	0xbceef141	-0.029167773
47	0x3d2c1adf	0.042017814
48	0x3f8a83c6	1.0821464
49	0xbdd8c3fe	-0.105842575
50	0x3ea7faa9	0.32808426
51	0x3e5a2811	0.21304347
52	0xbda88292	-0.08228029
53	0x3df2f50c	0.11863145
54	0xbf382aee	-0.71940506
55	0x3e151e73	0.14562397
56	0xbd702ff2	-0.058639474
57	0x3e6a6435	0.22889788
58	0xbd532b1a	-0.051554777
59	0xbebf6053	-0.37378177
60	0x3dad4be9	0.08461744
61	0xbf1586dc	-0.58408904
62	0x3e7305cc	0.2373268
63	0xbe7599f1	-0.23984505
64	0x3ee53f1a	0.44774705
65	0x3ea70456	0.32620496
66	0xbc09f7d9	-0.008420908
67	0xbe97b784	-0.296322
68	0xbeb81e39	-0.35960558
69	0x3db4bd43	0.08825161
70	0x3e1de224	0.15418297
71	0x3e876e82	0.26451498
72	0x3f9eadf5	1.2396837
73	0xbe88c35b	-0.26711544
74	0x3e51fe8e	0.20507261
75	0x3ec67a80	0.38765335
76	0xbe838add	-0.25691882
77	0xbe543bf9	-0.20726003
78	0xbe594c18	-0.21220434
79	0x3edf5bdd	0.43624774
80	0x3e60cfe0	0.21954298
81	0xbda62bf7	-0.081138544
82	0xbe1c71f9	-0.15277852
83	0xbec22043	-0.3791524
84	0x3f06c9cd	0.52651674
85	0xbe1aca75	-0.15116294
86	0xbeee579f	-0.46551225
87	0x3e4c248a	0.19935814
88	0x3ee6614f	0.44996116
89	0x3e945397	0.28970024
90	0x3ee3c158	0.44483447
91	0x3e93d945	0.288767
92	0x3f7dab44	0.99089456
93	0xbe9af5c2	-0.30265623
94	0xbee162bd	-0.44020644
95	0x3ee27437	0.4422929
96	0x3eab0c26	0.33407706
97	0xbe1fb7de	-0.15597484
98	0xbe9087d7	-0.28228638
99	0x3dadffe9	0.084960766
100	0x3de1c9df	0.11024832
101	0x3ef8b83e	0.48578066
102	0xbecfd936	-0.40595406
103	0x3eecb41b	0.4623116
104	0xbe15b33e	-0.14619157
105	0x3f0c9888	0.54920244
106	0x3e7c868e	0.24660704
107	0x3ebdc58c	0.3706478
108	0x3efdbeaf	0.49559543
109	0x3eb4461a	0.35209733
110	0xbdc2e3eb	-0.09516128
111	0x3e170558	0.14748132
112	0x3e0d864a	0.13820758
113	0xbe966f1e	-0.2938165
114	0x3d34a7e1	0.044105414
115	0x3ecae78a	0.39629775
116	0xbd4aeab3	-0.049540233
117	0x3e2d0b2a	0.1689879
118	0x3e2cfe74	0.16893941
119	0x3e0ce832	0.1376045
120	0x3fa4baf7	1.2869557
121	0x3ce73a2a	0.028225977
122	0x3f1b28d7	0.6060919
123	0x3e7cd515	0.2469066
124	0x3eb0569f	0.34441087
125	0x3e849e4a	0.25902015
126	0x3d77a5bb	0.060460787
127	0xbe9bda68	-0.30440068
128	0x3ee46fc7	0.4461653
129	0x3e53d279	0.20685758
130	0x3c3438af	0.010999843
131	0x3f2bf097	0.67163986
132	0x3df9a257	0.12189167
133	0x3eb39c2c	0.35080087
134	0xbf3204d8	-0.6953864
135	0x3a9ac616	0.0011808302
136	0x3dda9189	0.1067229
137	0xbcbc3053	-0.022972262
138	0xbe8f4f09	-0.27989987
139	0x3f1a8ea6	0.60373914
140	0xbd7a2988	-0.061074764
141	0x3e69457f	0.22780417
142	0xbc94d6af	-0.018168775
143	0x3f16bc92	0.58881485
144	0xbf01453c	-0.5049627
145	0x3edcda85	0.43135467
146	0x3d1ae5f0	0.03781694
147	0xbfe53cc7	-1.7909173
148	0x3ea653f7	0.32485935
149	0xbe47f074	-0.1952532
150	0xbdc97207	-0.09836202
151	0xbec5ce0a	-0.38633758
152	0xbe53e52c	-0.20692891
153	0x3eea8367	0.45803377
154	0x3ee37004	0.444214
155	0xbecb32f3	-0.3968731
156	0xbf1cc196	-0.6123289
157	0xbe39c3df	-0.18141125
158	0xbc865900	-0.01639986
159	0x3e586afa	0.21134558
160	0x3eb3e66a	0.3513673
161	0x3e8f43a8	0.27981305
162	0x3f4188b9	0.7559925
163	0xbf28a3fb	-0.65875214
164	0xbe9ef134	-0.31043398
165	0x3f4a53b2	0.7903396
166	0xbe06aee3	-0.13152651
167	0xbf242048	-0.6411176
168	0x3e287eef	0.16454671
169	0x3df08c39	0.11745495
170	0xbea4e53f	-0.3220615
171	0x3eb477b9	0.3524759
172	0x3ed0c694	0.40776503
173	0x3d6f8a0a	0.058481254
174	0xbdbba6a0	-0.091626406
175	0x3eb6e7bc	0.35723674
176	0x3e2ddd4c	0.1697895
177	0x3f185127	0.5949883
178	0xbe1f0d51	-0.15532424
179	0x3e23fcbb	0.16014378
180	0xbe294947	-0.1653186
181	0x3ea3903b	0.31945977
182	0xbea078d1	-0.31342176
183	0x3e9c15bb	0.3048533
184	0xbd753930	-0.05986899
185	0xbf82b4d2	-1.0211432
186	0xbf2e2078	-0.68018293
187	0xbef2843c	-0.47366512
188	0x3d6d34ee	0.057911806
189	0xbf052b8d	-0.5201958
190	0x3f13d773	0.57750624
191	0x3e767617	0.24068485
192	0xbd0d66c9	-0.03452185
193	0xbdf816f3	-0.12113752
194	0xbeb7b57a	-0.35880643
195	0x3d792a9d	0.060831655
196	0x3d6801cf	0.05664235
197	0xbd112dc4	-0.035444036
198	0xbf29e6a9	-0.66367584
199	0xbf4c0595	-0.7969602
200	0x3e83de70	0.25755644
201	0x3ec4588f	0.38348815
202	0xbdcc86bf	-0.09986638
203	0xbd91cdd0	-0.07119334
204	0xbed10b28	-0.40828824
205	0x3d9cd84f	0.07658445
206	0x3e139909	0.14413847
207	0x3f440af5	0.7657922
208	0xbf41c286	-0.75687444
209	0x3f06f438	0.527164
210	0x40424a6c	3.0357924
211	0xbef01670	-0.46892118
212	0x3d1c6dc5	0.038190622
213	0xbeb3b238	-0.35096908
214	0x3e67e78c	0.22646922
215	0xbc61240c	-0.013741504
216	0xbf570a5a	-0.8400017
217	0xbe9944bf	-0.29935262
218	0x3eddc59a	0.4331482
219	0x3d607484	0.054798618
220	0x3f30a8e7	0.69007725
221	0xbf0b1cd6	-0.54340875
222	0x3ee18cb8	0.44052672
223	0x3d0bd559	0.03413901
224	0xbe39b08a	-0.1813375
225	0x3f2c6dd9	0.67355114
226	0x3d9bc46f	0.07605826
227	0x3eae2504	0.34012616
228	0x3ea09229	0.3136151
229	0xbe56bcf9	-0.20970525
230	0x3f8104df	1.0079612
231	0x3df8a2cb	0.12140425
232	0xbd07343e	-0.033008806
233	0xbe1857c3	-0.14877228
234	0xbe1a1987	-0.150488
235	0xbeb235be	-0.34806627
236	0xbd0ea43f	-0.034824606
237	0x3e551855	0.20810063
238	0x3d18422c	0.03717248
239	0xbf09ed82	-0.53878033
240	0xbeb467a7	-0.3523533
241	0x3ebfd7a1	0.374692
242	0xbeaa05d2	-0.33207566
243	0xbf69c090	-0.9130945
244	0x3f424e77	0.7590098
245	0xbf3098ff	-0.68983454
246	0xbf81a2c6	-1.01278
247	0x3f0d05c3	0.55086917
248	0xbf017601	-0.50570685
249	0x3b921a04	0.0044586677
250	0x3eb354c1	0.350256
251	0x3e632f6b	0.22186057
252	0x3d92aa69	0.071614094
253	0xbe8354c9	-0.25650623
254	0x3e736383	0.2376843
255	0xbef3cbd7	-0.47616455

rnn.weight_hh_l0 f4 [64, 64]
0	0xbe8e800f	-0.27832076
1	0xbe0f9b6f	-0.14024137
2	0x3e2a68e9	0.16641583
3	0x3e7884aa	0.24269357
4	0x3d8e81b6	0.06958334
5	0x3d99fe51	0.0751921
6	0xbe1f0b4d	-0.15531655
7	0xbc303725	-0.010755335
8	0x3d8d3537	0.068949156
9	0xbe93fd81	-0.28904346
10	0xbde0f198	-0.1098358
11	0xbdde5e0f	-0.10857784
12	0x3d0daeff	0.034590717
13	0xbe12e788	-0.14346135
14	0xbe935f31	-0.28783563
15	0xbdf9ca9f	-0.1219685
16	0xbe1468b9	-0.14493074
17	0x3ca46473	0.02006743
18	0xbca325d8	-0.019915506
19	0xbe05a566	-0.13051376
20	0xbcc5277b	-0.024066677
21	0xbd5ddeb5	-0.054167468
22	0xbe829233	-0.25502166
23	0xbd2a6ff1	-0.041610662
24	0x3d8822a8	0.06647235
25	0x3e13ba8d	0.14426632
26	0x3e229e83	0.1588078
27	0xbc4afbcf	-0.012389137
28	0xbe3f3884	-0.18673903
29	0x3e6f276b	0.2335488
30	0xbe1e1b11	-0.15440013
31	0x3e4eadab	0.20183437
32	0xbe295e87	-0.16539966
33	0x3e461aec	0.19346207
34	0xbdf778e7	-0.12083607
35	0xbdfe219b	-0.124087535
36	0x3e92ea83	0.28694543
37	0xbc22d78c	-0.009939086
38	0xbe9e29e6	-0.3089134
39	0x3e6cfd57	0.23143516
40	0xbd69d4c3	-0.05708767
41	0xbdc9ae37	-0.09847682
42	0xbda36202	-0.07977678
43	0xbe8ab25e	-0.27089208
44	0x3ea6411d	0.32471552
45	0x3e56913c	0.2095384
46	0xbe9d31d8	-0.3070209
47	0x3e4cf5d0	0.20015645
48	0x3d6dedee	0.058088236
49	0xbe87c382	-0.26516348
50	0x3dee8f22	0.11648394
51	0xbe91c155	-0.28467813
52	0xbea069a6	-0.31330603
53	0x3e0efb6a	0.13963094
54	0x3d9cddc9	0.0765949
55	0xbe5a9b7e	-0.21348378
56	0x3de9db3c	0.11418769
57	0x3e84ba59	0.25923422
58	0x3cee0b90	0.029058248
59	0xbe7ce021	-0.24694873
60	0xbe9a116f	-0.30091426
61	0xbd4bad73	-0.04972596
62	0x3d69e684	0.057104602
63	0xbd1d164a	-0.038351335
64	0xbe08e696	-0.13369212
65	0x3d08bba7	0.033382084
66	0xbe8d1455	-0.27554575
67	0x3c56cb84	0.013110045
68	0x3e10d632	0.14144209
69	0x3d44037a	0.047854878
70	0xbe9ea552	-0.30985504
71	0xbdb7e287	-0.089787535
72	0x3e0a0548	0.13478577
73	0x3e0bbddb	0.13646643
74	0xbeeaaa25	-0.45832935
75	0xbebf12d8	-0.37319064
76	0xbde425bf	-0.11140012
77	0xbbe7dd4c	-0.007075941
78	0xbefbfe9f	-0.49217698
79	0x3e0c950d	0.13728733
80	0x3d75c031	0.05999774
81	0x3c1f81cc	0.009735536
82	0xbcf55da8	-0.029951885
83	0x3dad1f24	0.08453205
84	0xbd3b539b	-0.04573403
85	0xbf08cda8	-0.53438807
86	0xbe0fa0a7	-0.14026128
87	0x3d9ac4f0	0.07557094
88	0x3e4c1155	0.19928487
89	0x3dc6c6f6	0.097059175
90	0xbec9765f	-0.39348122
91	0xbe383075	-0.17987235
92	0x3e07de6f	0.13268445
93	0xbcadc3cd	-0.02121153
94	0xbd00aace	-0.031412892
95	0x3e187405	0.14888008
96	0xbd12c7d9	-0.03583512
97	0x3c727b3a	0.014799887
98	0x3da4f21b	0.080539905
99	0xbd051f6c	-0.03250067
100	0x3ee727c4	0.45147526
101	0x3dde8626	0.108654305
102	0xbdf56a13	-0.11983123
103	0xbc964d36	-0.018347364
104	0xbda4ef63	-0.08053472
105	0x3dc435d5	0.0958058
106	0xbe9eace0	-0.30991268
107	0xbd75aa57	-0.0599769
108	0x3df2c20a	0.11853416
109	0xbd78bf93	-0.060729574
110	0x3e559919	0.20859183
111	0xbe320017	-0.17382847
112	0x3e84d531	0.25943902
113	0xbdf8b77a	-0.121443704
114	0xbdc35bdb	-0.095390044
115	0xbd97c5e7	-0.07410794
116	0xbe71d112	-0.2361491
117	0x3e36634b	0.17811315
118	0x3e7ead11	0.24870707
119	0x3d7fae17	0.062421884
120	0x3c851be4	0.01624865
121	0xbe76d7be	-0.24105737
122	0xbd9308cb	-0.071794115
123	0x3ca7d45a	0.020487
124	0x3da7a561	0.081858404
125	0x3dfa7fc3	0.122314
126	0xbe63ff21	-0.22265293
127	0xbc8bf828	-0.017086104
128	0x3db14852	0.08656372
129	0x3d485173	0.0489058
130	0x3dcc1687	0.09965234
131	0xbd54be16	-0.051939093
132	0xbdb96d94	-0.090541035
133	0x3d8df1f2	0.06930913
134	0x3e85053b	0.25980553
135	0xbd50dfd1	-0.050994698
136	0xbe0a8469	-0.13527073
137	0x3e37cc9a	0.17949143
138	0xbe3fb3ba	-0.18720904
139	0xbe92e4b0	-0.286901
140	0x3e794e80	0.24346352
141	0x3e35d535	0.17757113
142	0xbd73e04f	-0.05954009
143	0xbda89ec7	-0.082334094
144	0xbd832774	-0.064040095
145	0xbea9ead2	-0.33186966
146	0x3ddce667	0.10786133
147	0x3e8fd9ed	0.28095952
148	0x3e090a68	0.13382876
149	0xbe2c61f7	-0.16834246
150	0xbe29855b	-0.16554777
151	0x3e6370c3	0.22210984
152	0x3e5973ac	0.21235532
153	0x3e32b5b2	0.17452124
154	0x3eeb5a3e	0.45967287
155	0xbe61b7ef	-0.22042821
156	0x3dd7d3f2	0.10538472
157	0x3e63c852	0.22244385
158	0x3c99c9a6	0.018772911
159	0x3e46140e	0.19343588
160	0xbcb7c629	-0.022433357
161	0xbdefbbb3	-0.11705723
162	0x3e2d4f87	0.16924869
163	0xbe57b00e	-0.21063253
164	0xbe842ebd	-0.25816908
165	0x3d3d62c5	0.046236772
166	0xbebc2eb1	-0.36754373
167	0x3e05a9ef	0.13053106
168	0xbdd7da31	-0.105396636
169	0xbe8482f8	-0.2588117
170	0x3e4febe4	0.20304829
171	0xbe8f8158	-0.2802837
172	0xbe872514	-0.26395476
173	0x3e885f2d	0.26635113
174	0xbc697050	-0.014247969
175	0x3e966e63	0.29381093
176	0xbee77703	-0.45207986
177	0x374014e8	1.1448959e-05
178	0x3dd491c2	0.103793636
179	0x3e701581	0.23445703
180	0x3c560358	0.013062321
181	0x3e55fe3e	0.20897767
182	0x3e241e23	0.16027121
183	0x3d86c1f1	0.0657996
184	0x3e14ba51	0.14524199
185	0xbd02b0c9	-0.031906877
186	0x3c336ad6	0.010950765
187	0x3da3b5c0	0.079936504
188	0x3c3e9213	0.0116315065
189	0xbde37ea2	-0.11108138
190	0xbd82f7c2	-0.06394912
191	0xbe5aa54a	-0.21352115
192	0x3e1033d4	0.14082271
193	0x3ab55250	0.0013833735
194	0x3dfe0c98	0.12404746
195	0x3e3312ba	0.17487612
196	0xbe58d721	-0.21175815
197	0xbd817581	-0.0632124
198	0xbe7d2b14	-0.24723464
199	0xbe78bdd0	-0.24291158
200	0x3e70c61e	0.23513076
201	0x3e4c6e4d	0.19963951
202	0xbe1a8253	-0.15088777
203	0x3b152289	0.002275618
204	0xbe02ae4d	-0.12761803
205	0x3deceeb9	0.1156897
206	0x3d48c901	0.049019817
207	0xbae86956	-0.0017731588
208	0x3ed76f74	0.4207722
209	0xbe4b68e0	-0.19864225
210	0x3cf574a7	0.02996285
211	0x3e4ac064	0.19799954
212	0x3cc6228b	0.024186393
213	0xbe6c0ee1	-0.23052551
214	0xbd3e9663	-0.04653014
215	0xbe43ab9a	-0.1910843
216	0x3eb66e26	0.35630912
217	0xbbb152f3	-0.0054114996
218	0x3d734076	0.059387647
219	0x3de51ee9	0.11187536
220	0xbe068a4a	-0.1313869
221	0xbc2370f3	-0.00997566
222	0xbd26d216	-0.040727697
223	0x3cb2c5c3	0.021822816
224	0x3d4eeeee	0.05052083
225	0xbdcd2aba	-0.10017915
226	0x3e6430d0	0.22284245
227	0x3e3f5e38	0.18688285
228	0xbbd53356	-0.006506364
229	0xbe20898c	-0.1567747
230	0xbe72fa27	-0.23728238
231	0x3daa8a83	0.083272
232	0x3e516171	0.20447327
233	0x3e00046a	0.12501684
234	0xbdbeefaa	-0.09323056
235	0xbdcc47e5	-0.0997465
236	0xbe343098	-0.17596662
237	0x3eaf6d67	0.34263155
238	0x3d0945f2	0.03351397
239	0x3e33f813	0.17575102
240	0x3de50548	0.11182648
241	0x3e0429c7	0.12906562
242	0xbe3b4fcd	-0.1829216
243	0xbdf2e5d2	-0.11860241
244	0x3d0fbd59	0.035092685
245	0xbe59c02a	-0.21264711
246	0x3cde26d7	0.02711813
247	0x3d26b806	0.040702842
248	0xbdf9f845	-0.12205557
249	0xbdbddd6f	-0.09270751
250	0xbded9c60	-0.11602092
251	0xbdde3879	-0.10850615
252	0xbebed133	-0.3726898
253	0xbe815353	-0.25258884
254	0xbd680915	-0.056649286
255	0xbc937c84	-0.01800371

actor.weight f4 [3, 64]
0	0xbdadfe8c	-0.084958166
1	0xbbe1e98b	-0.0068942956
2	0xbd8ef0a3	-0.069794916
3	0xbdcbbaee	-0.099477634
4	0xbe276026	-0.16345271
5	0xbe51e019	-0.20495643
6	0x3e0ee699	0.13955154
7	0x3e26a584	0.16274077
8	0xbda4b827	-0.08042937
9	0xbe8a5138	-0.2701509
10	0xbe7721a8	-0.24133933
11	0xbe1fe0c7	-0.1561309
12	0xbe358522	-0.17726567
13	0xbe6dd16c	-0.2322442
14	0x3d00c9ca	0.03144244
15	0xbe52f261	-0.20600273
16	0x3d2dff29	0.042479668
17	0xbd4454af	-0.047932323
18	0xbd6a9a09	-0.057275806
19	0xbdd43d21	-0.10363222
20	0x3e55ee19	0.20891608
21	0x3e2c4057	0.16821419
22	0x3d572503	0.05252553
23	0xbc99c330	-0.01876983
24	0xbd24b4c9	-0.040211473
25	0xbe69e761	-0.2284217
26	0x3d202404	0.039096847
27	0x3e2d9cd4	0.16954356
28	0x3e07679a	0.13223115
29	0xbe308a3e	-0.17240235
30	0xbdabb5d1	-0.08384288
31	0xbe02e42d	-0.12782355
32	0x3e1aead2	0.1512864
33	0x3b1a0aad	0.0023504898
34	0x3d2f78e5	0.042839903
35	0xbd9ef963	-0.077624105
36	0xbe30ed8f	-0.17278121
37	0x3cd7c1c0	0.026337504
38	0xbde180d7	-0.110109024
39	0x3e169048	0.14703476
40	0xbd8aa377	-0.0676946
41	0x3e791ae5	0.24326666
42	0xbda7d9dc	-0.0819585
43	0x3e339aab	0.1753947
44	0x3e83ee15	0.2576758
45	0xbe2071fe	-0.15668485
46	0x3e6415cb	0.22273938
47	0xbcd0b417	-0.025476499
48	0xbd0c1839	-0.034202788
49	0x3e047d3a	0.12938395
50	0x3e029703	0.12752919
51	0xbdce84fb	-0.10083958
52	0xbce38f7d	-0.027778381
53	0x3c71dd7c	0.014762279
54	0x3d75b55e	0.05998742
55	0x3e378d54	0.17925006
56	0x3e41305e	0.18866107
57	0xbe26bb19	-0.1628231
58	0xbd46ecec	-0.04856579
59	0x3e955c46	0.29171962
60	0x3e0896f2	0.13338831
61	0x3e4cb4e9	0.19990887
62	0xbd7117d4	-0.058860615
63	0xbd798b7e	-0.060924046
64	0x3ea9ce64	0.33165276
65	0xbdaac03a	-0.083374456
66	0x3cf659b4	0.03007207
67	0xbdb0ebed	-0.08638749
68	0xbda5db03	-0.08098414
69	0x3d1cc5a4	0.038274422
70	0x3e8ea0e8	0.27857137
71	0x3dd18eb9	0.102323
72	0xbe2e0100	-0.16992569
73	0xbd2f74f8	-0.04283616
74	0xbe10197f	-0.14072226
75	0xbe798430	-0.24366832
76	0xbe18f11c	-0.14935726
77	0xbe2447b3	-0.16042976
78	0x3d2f1b0b	0.0427504
79	0xbbd48459	-0.0064855036
80	0xbe8426e2	-0.25810915
81	0xbe83a025	-0.25708118
82	0xbda53cb0	-0.08068216
83	0xbe98ea60	-0.29866314
84	0xbd44a00f	-0.048004206
85	0xbde97cec	-0.1140078
86	0x3e5acee6	0.21367988
87	0x3ee76b54	0.45199072
88	0xbe7d3199	-0.24725951
89	0xbe13c067	-0.14428864
90	0x3cdbcb36	0.026830297
91	0xbd360547	-0.044438627
92	0x3e8b2a28	0.271806
93	0xbe23f33b	-0.16010754
94	0xbe2f04c0	-0.17091656
95	0xbe0217e5	-0.12704428
96	0x3c8f674d	0.017505312
97	0xbcd30e62	-0.025763694
98	0x3e587200	0.21137238
99	0x3ce5ee48	0.028067723
100	0x3d2f7859	0.04283938
101	0x3e6adcee	0.2293584
102	0xbe1591db	-0.1460642
103	0x3e9ab9ab	0.30219778
104	0xbd6626ee	-0.05618947
105	0xbd84a3e2	-0.06476571
106	0x3e1ce232	0.15320662
107	0x3e76dafa	0.2410697
108	0x3e177cd8	0.14793718
109	0x3e589ec3	0.21154313
110	0x3db38ffc	0.08767697
111	0x3c57b1e1	0.013164968
112	0xbe421c22	-0.18956044
113	0xbe05eb16	-0.1307796
114	0x3ebafd35	0.36521307
115	0x3b40875b	0.0029377553
116	0xbda2e785	-0.07954315
117	0xbdaef1c6	-0.085422084
118	0x3e645b72	0.22300509
119	0x3c1d5631	0.009603069
120	0x3dda4ccc	0.10659179
121	0x3e26cccc	0.16289061
122	0xbe0796b2	-0.1324108
123	0xbdbbc149	-0.091677256
124	0xbbe6d18f	-0.0070440243
125	0x3dbb05cc	0.09131965
126	0x3e541b6b	0.20713584
127	0x3cfc83f6	0.030824643
128	0xbd8fe8fd	-0.07026861
129	0x3dc5628d	0.09637938
130	0x3ddaf241	0.106907375
131	0x3e0de95b	0.1385855
132	0x3e521090	0.2051413
133	0x3e483abf	0.1955366
134	0xbe8b9596	-0.27262563
135	0xbe2e33bf	-0.17011927
136	0x3e319fbf	0.17346095
137	0x3e7e4264	0.24830014
138	0x3e96f08e	0.29480404
139	0x3e8e94ae	0.2784781
140	0x3e67be4a	0.22631183
141	0x3e92d700	0.28679657
142	0x3b520fc8	0.0032052863
143	0x3e0c475a	0.13699093
144	0x3dc8b817	0.09800737
145	0x3e2e3627	0.17012845
146	0x3e29cf60	0.16583014
147	0x3e6010e8	0.21881449
148	0xbdf41b9f	-0.11919331
149	0xbd4230cf	-0.04740983
150	0xbe16b8ad	-0.14718886
151	0xbe497c08	-0.1967622
152	0x3e21bb3d	0.15794082
153	0x3e6c14e6	0.23054847
154	0xbd1e7353	-0.0386842
155	0xbddaeee5	-0.10690097
156	0xbe497ea7	-0.1967722
157	0x3e4e03fe	0.2011871
158	0x3e3ffefc	0.18749613
159	0x3e1be920	0.15225649
160	0xbe2ad65c	-0.16683334
161	0x3d2d3aa8	0.042292267
162	0xbe157d08	-0.14598477
163	0x3d50db61	0.050990466
164	0x3e0d9fd7	0.13830505
165	0xbe1abb47	-0.15110503
166	0x3e4b1000	0.19830322
167	0xbe8dc437	-0.27688763
168	0x3d4ed097	0.050491896
169	0xbde3e52f	-0.11127698
170	0x3d1bdbcd	0.038051415
171	0xbe87724e	-0.26454395
172	0xbe932402	-0.2873841
173	0x3d23a1c3	0.03994919
174	0xbe5f86ad	-0.21828718
175	0x3d34e68e	0.044165187
176	0x3dea7a80	0.11449146
177	0xbd10eae4	-0.03538026
178	0xbe9ebdae	-0.3100409
179	0x3d063962	0.03276957
180	0x3ba08b64	0.004899429
181	0x3d85e11c	0.06537077
182	0xbe30c5fa	-0.17263022
183	0xbe4c864f	-0.1997311
184	0xbe8ed9b7	-0.27900478
185	0xbc894e21	-0.016760888
186	0x3d973595	0.07383267
187	0xbe2868c4	-0.16446215
188	0xbe4fbde4	-0.20287281
189	0xbe7a9998	-0.24472654
190	0xbd2ce032	-0.042205997
191	0x3d200459	0.039066646

critic.weight f4 [1, 64]
0	0xbcd3d583	-0.025858646
1	0x3c7e73bc	0.015530523
2	0xbbe9caa5	-0.007134753
3	0xbcfe8784	-0.031070478
4	0x3c82681e	0.015918788
5	0x3c87aa24	0.016560622
6	0xbc133dc7	-0.008986897
7	0xbca8c373	-0.02060101
8	0x3c68cd5a	0.014209116
9	0x3ba5fc97	0.0050655114
10	0x3d0b2968	0.033975035
11	0x3d0fadf4	0.035078004
12	0xbc24f509	-0.010068187
13	0x3e2affc5	0.16699131
14	0xbc8d0aac	-0.017217003
15	0x3d12a4c2	0.035801657
16	0x3d191a4d	0.037378598
17	0x3d1d4c83	0.038403045
18	0x3cac0081	0.020996334
19	0x3c4e1cf4	0.012580145
20	0x3c1ee087	0.009697086
21	0xbc73a8cc	-0.014871787
22	0x3b1d4d4d	0.0024002374
23	0xbdf3348c	-0.11875257
24	0x3b6c932c	0.0036098463
25	0x3c6e56b7	0.014547042
26	0xbc3a079b	-0.011354352
27	0xbc848b37	-0.016179664
28	0x3a286464	0.0006423651
29	0x3d042942	0.03226591
30	0x3bdb1396	0.0066856844
31	0xbd15a78b	-0.036536735
32	0xbc9d64cf	-0.019213108
33	0x3ac1e432	0.0014792739
34	0xbb6d2801	-0.0036187174
35	0x3d26351d	0.040577997
36	0xbd55a2a3	-0.052157056
37	0x3c98b826	0.018642496
38	0xbd1a38d4	-0.03765185
39	0xbcd771dc	-0.02629941
40	0xbcdf346e	-0.02724668
41	0x3c43279d	0.0119113
42	0x3cded465	0.027200887
43	0xbd3c87f1	-0.04602808
44	0xbc746ea4	-0.014918957
45	0xba922184	-0.0011148904
46	0x3b2b860d	0.002617243
47	0x3cb7fd00	0.022459507
48	0xbbda5f6f	-0.0066642086
49	0xbc7bcdc1	-0.01536888
50	0xbb6aa74c	-0.0035805283
51	0xbc9f421f	-0.019440709
52	0x3c7cb05b	0.015422906
53	0xbbe9dfed	-0.0071372897
54	0xbc9f956e	-0.019480433
55	0x3af98211	0.0019035955
56	0x3c0e4cf4	0.008685339
57	0x3beadd7c	0.0071675163
58	0x3c872c52	0.016500626
59	0x3b9f42a8	0.004860241
60	0x3d1609b5	0.03663035
61	0xbc7751f4	-0.015095223
62	0x3d3e205e	0.046417587
63	0x3a1daa03	0.00060144084
