model_params_101000/-8.0_V3_0.1g_0.0rm_100bz_0.0td_1.0tds_Nonelb_Noneup_64n_50000e_10md_5.0rz_36s.pth (torch, 22912 bytes, 4 tensors)

rnn.weight_ih_l0 f4 [64, 9]
00000000: 87bc eebe bbfe b33e 04e0 fbbd 8095 883f
00000010: 1594 14be 2c0a 60bd 790d 893d bafc 0ebd
00000020: 7ee6 0bbf 113e a23e a69d c53e 5c3e fa3d
00000030: 1ba1 1d3e 5850 a1be fcb9 713f a9e5 0fbf
00000040: d4a7 e83d fd4d a93e b582 f6bd d215 abbd
00000050: 27a4 70be 2115 b73e 3fe0 aabe 3ac4 043d
00000060: eba9 b03c 39dd 7f3d feaf 01bf 45d0 e9bd
00000070: 541b c8bd 3fb8 7bbf 626b 053f 8231 b8be
00000080: 2d92 863e 7ff7 0ebe ba2b febd e49b a439
00000090: 722b 013f 49d4 cabe b76d 38bf fdc9 763f
000000a0: fb8a 76be f184 9c3e 9bf7 ad3d 90bf 04bd
000000b0: 9398 8a3c 2f7a b33d f3ec d0bd a3df de3e
000000c0: 34c0 91be 533e 8a3e 9205 06be cf17 c9be
000000d0: f843 2d3e 4f6e 513e c89d 233e 7446 bf3e
000000e0: 30f0 ae3e 1f33 413f bdba 89be bd0f 923d
000000f0: b852 7fbe 7654 a1bd 5443 ab3e 7da1 81be
00000100: 75d8 133f 4e04 643d 52ea a43e a8b2 64be
00000110: b176 cd3e d232 973f 8883 e53e 43e7 ce3e
00000120: fd45 d4be ba58 acbe 6b60 21bd a854 96bd
00000130: 8eff 01bf 83c5 43be cd9d 8f3e 056f 8cbd
00000140: 2565 84be 0313 1ebf 38a3 3b3f 1655 a2be
00000150: dd9d 15bd 552e 6a3e b99a c93d 04e8 003f
00000160: 9a88 8dbe 3882 15bf 6129 583f 1305 3dbe
00000170: 2c03 493e fd66 02bf bf6d 61be 0f57 ecbe
00000180: 4cae 54be fce0 27bf e0c6 a63c 6469 29be
00000190: 1f64 83bd a720 71be 5c63 f63e a674 b13e
000001a0: 8432 873d d167 ef3e e7ab 4d3e e042 bcbd
000001b0: 445f a5be a8d3 603e a81c 9abe 51f6 abbe
000001c0: 5cec bfbe df09 a3bd 8f8e bf3e 14d3 233e
000001d0: ef87 e53e 2cd3 8fbe 9cf8 5e3e 82bc 49be
000001e0: 6fea b03e 50b6 21bf 69c6 833e 7b60 92be
000001f0: 9efa 44be c0ae a8be 6474 0a3e 25f8 563e
00000200: 727c 80be c556 a63d b7f7 57bd 332c 853e
00000210: 0752 43bf dd00 1d3f f448 31be 6a24 f03d
00000220: a75d 553e 6a34 853c dba0 0ebe 8069 3e3e
00000230: 59d1 7d3e 74eb 4d3d af46 2bbe cce6 623e
00000240: fc30 f2bd f9d1 ac3e 482f 59bf 3a02 e5bd
00000250: 2272 6e3e 3376 3e3f 0105 ed3e f172 3a3e
00000260: 6cd3 173f e840 11bd 71b5 b23e 7e18 923e
00000270: 11a2 8b3d 5566 9cbe 7800 d5be b198 cdbd
00000280: 1b5d 0c3e 3f92 06bf 6c13 fe3d a7d9 503f
00000290: 2649 463e 0ddc 263f 04fc e83e 59b9 d03e
000002a0: b047 0b3f 0e10 c4bd 4971 973e 0b11 a2be
000002b0: 8fba b43d 3e74 893e da3b 5dbd 1fc8 97be
000002c0: 8ae7 06bf 9a35 1bbe fa95 263f e10c 1b3d
000002d0: 34d8 8e3d 670d 5bbe a423 94be 3959 e33e
000002e0: 6869 cc3d dd03 89be 6e53 8abe 7906 38bf
000002f0: 2b2e 263e 78fe 8ebe a683 c43d 4fd8 e0bd
00000300: c1c4 113f b885 0ebe 161d 553e 1914 5ebe
00000310: e97d 5b3e cb77 52be 51ed 0a3f 3452 9d3c
00000320: b040 13be 0255 b43f fc18 e1be b5a3 6d3f
00000330: 1728 583e ea93 463e 40dc 8abd 0c12 53bd
00000340: 51e0 a1be 587d 32bf 91cd 183f 7812 0dbf
00000350: 0f7c 5fbd 68dd eebe 2a24 443e 86b6 eebe
00000360: 9f07 443f 6a82 583e ec2b 82bd 4b2b 6d3e
00000370: 5701 f2be ee9e 40bd 7b15 98be 092b 4e3e
00000380: be43 41be a9a0 b13e 2ccb 393e b0c5 e03e
00000390: b2e8 cd3e 42f7 f63e af34 2ebe 6f18 1c3f
000003a0: 1295 343e 8abc 863f 5e0a 9c3f e7c1 c6be
000003b0: 32d7 76bd db9a 663f 45dd 47bf 65df c43e
000003c0: ac59 1bbe bb89 07bf aadd 1fbf 444b 84bc
000003d0: 98c6 23bf 7734 64be e758 633d 31c6 d33e
000003e0: 2f67 d93d f603 5ebf 2e1e a13e 1c27 cbbe
000003f0: 692e 3e3f 37b9 ba3e df36 0e3f 49e6 e9be
-0.4662821 0.3515528 -0.12298587 1.0670624 -0.14509614 -0.0546972 0.06692023 -0.034908988
-0.5464858 0.31687978 0.3859684 0.12218925 0.15393488 -0.3150661 0.94424415 -0.5620981
0.11360136 0.33067313 -0.12036649 -0.08353771 -0.23500119 0.35758308 -0.3337421 0.0324137
0.021565398 0.062466834 -0.5065917 -0.114166774 -0.097708374 -0.9832801 0.5211698 -0.3597527
0.26283398 -0.139616 -0.12410684 0.00031396665 0.5045692 -0.39615086 -0.7204241 0.9640196
-0.24076454 0.30570176 0.084944926 -0.03240925 0.016918456 0.08763539 -0.102014445 0.43529996
-0.28466952 0.27000675 -0.13088062 -0.39275977 0.1692046 0.20452236 0.15978158 0.3735844
0.34167624 0.7546863 -0.26900283 0.07131908 -0.24933898 -0.07877438 0.33449805 -0.25318518
0.5775216 0.055668168 0.32210022 -0.22333777 0.40129617 1.1812384 0.44826913 0.40410814
-0.41459647 -0.33661443 -0.039398592 -0.07340366 -0.5078057 -0.19118313 0.2805008 -0.06857113
-0.25858417 -0.6174776 0.7329593 -0.3170554 -0.036527503 0.22869237 0.09843964 0.5035403
-0.2764328 -0.58401823 0.8443814 -0.18458967 0.19630116 -0.509384 -0.22014521 -0.4616017
-0.20769614 -0.65577674 0.020358503 -0.1654411 -0.06415581 -0.23547612 0.4812268 0.34659308
0.06601432 0.46758893 0.20085107 -0.09192443 -0.32299244 0.2195574 -0.30099988 -0.33586362
-0.37485015 -0.07960867 0.3741345 0.15998489 0.44830272 -0.280908 0.21774524 -0.19700816
0.3455386 -0.6316881 0.25737312 -0.28589234 -0.19236228 -0.32945824 0.13520962 0.20993097
-0.25094944 0.08122019 -0.052726474 0.26010284 -0.7629704 0.6132944 -0.17312986 0.117256954
0.20836507 0.016260345 -0.13928549 0.18594933 0.24786891 0.050273374 -0.16726182 0.22158355
-0.11825749 0.33753946 -0.8483777 -0.11182065 0.23285726 0.7439911 0.4629288 0.18207909
0.5930698 -0.03546229 0.34904054 0.2853431 0.06818021 -0.30546823 -0.4160192 -0.10038889
0.13707392 -0.52566904 0.12406048 0.8158211 0.19363841 0.6517952 0.45504773 0.4076641
0.5440626 -0.09573375 0.29578617 -0.31653628 0.08824646 0.26846498 -0.054012157 -0.29644868
-0.5269705 -0.15157166 0.65072596 0.03785408 0.06974831 -0.21391831 -0.28933442 0.4440401
0.09981042 -0.2676076 -0.27016777 -0.71884876 0.16228549 -0.2792852 0.095954224 -0.109787576
0.5694085 -0.13918197 0.20811877 -0.21687354 0.2143475 -0.2055351 0.54268366 0.019204237
-0.14380145 1.4088442 -0.43964374 0.9282792 0.21109043 0.19392362 -0.067802906 -0.051530883
-0.31616452 -0.6972251 0.5968867 -0.55106306 -0.05456167 -0.46653295 0.1915442 -0.4662363
0.7657413 0.21143499 -0.06356034 0.23161046 -0.47266647 -0.047026567 -0.29703888 0.20133604
-0.18873498 0.34692886 0.1814391 0.43900824 0.40216595 0.48235518 -0.17012285 0.6097478
0.17634991 1.0526288 1.2190664 -0.3881981 -0.06026382 0.9008004 -0.78072006 0.38451687
-0.15170926 -0.52944535 -0.6244761 -0.01614917 -0.63974905 -0.22285639 0.055504706 0.41362146
0.10615384 -0.86724794 0.31468338 -0.39678276 0.74289566 0.36469433 0.55552477 -0.45683506

rnn.weight_hh_l0 f4 [64, 64]
00000000: 8656 dd3d b94f aabd c31f 85be 85c2 45bd
00000010: 24ce ecbd 3749 cd3b 7ca5 783e a198 f83c
00000020: 27f1 be3e 0a82 90be b4d6 c8bd 5ca6 053e
00000030: 4ba7 193e 61cd 553e 243f 7bbc b4da d3be
00000040: 0b6b 66be efb6 18bc 9aa2 b03e bc17 f43d
00000050: 339f c1bb 16bb 383c e8c9 173e cfeb 4e3d
00000060: 8e69 fbbc d4dd 163f 336e a23d b616 d53d
00000070: 2aaf d3bd 0af0 71bc e11c 3e3e df57 af3d
00000080: 1b72 4e3e 7cdc 4dbe a0fc b5be b644 1f3d
00000090: b5cc d7bd ef54 f23d fc3b 703e 48b6 9b3e
000000a0: 34e8 8c3e 69aa 38be f380 e1bd 7f0e 9f3e
000000b0: fac7 cfbd 6b2a 72be 5053 853e 1cd9 7b3e
000000c0: 982b 5b3e e784 103e cb16 2c3e cb34 c3be
000000d0: d185 a5bd 56aa 0f3e a99b 423d 0c23 38be
000000e0: b30b 073f acff d23e 2dbe d7bd 5d3a 53bc
000000f0: 5d49 a4be 02b5 103e b2b1 c73e ec30 8abe
00000100: 2c95 283e 447c 963e 3715 28be 974a 87be
00000110: 88dd cabd 4d61 903e 9d54 863e aa38 20be
00000120: a418 563e 5668 813e 622b 883e d09c dcbd
00000130: 416d 88be 3040 4f3e fe65 ccbe 78e0 2abe
00000140: 6645 aebe 7dbe 1dbe c5a8 65bd a237 473e
00000150: b800 74be b73b 433e 6e17 f73d 7000 a2bd
00000160: 9881 06be 8dc1 d8bc 2b92 59bc 0280 bbbe
00000170: 835a a23e 07e1 16bd fa77 7cbe fa15 953e
00000180: 6959 45be 7566 b8bd d41d 8fbd c9b4 5a3e
00000190: f530 a03d c90b 7b3e 795e 213e 7304 943d
000001a0: 6103 a23c fda2 953e 4021 71be 91dd 42be
000001b0: d455 43be f521 13bf 3837 19bd 6ef8 babd
000001c0: aafb 283e 81e9 8e3d 35ef 663d 0bea 2a3e
000001d0: d8cc 653d 179b 143e f9de 613d 2551 413e
000001e0: 1d84 05be 9341 a6be 0a1d ecbd 73a8 1c3e
000001f0: 4f5b 1bbc 9d47 cb3c 445c 8f3d 22a3 cdbd
00000200: 645c efbe eef8 03bc 3e79 4cbe 63e7 53be
00000210: e8e1 4d3e 14e1 a23d 74b1 72be 6a1f f6be
00000220: e2a8 8dbd 3f4b f13d 7f54 3bbe 929f 633d
00000230: 6134 f4bd 6a63 36bc 58f3 90be e115 153e
00000240: dac1 873d 54ad eb3d 505f 9dbe 1adf 363e
00000250: a5aa 65be cba5 9cbe d140 4bbc 472e 773d
00000260: e88e f33e 1784 46be c3e5 86bd 7d4d 9e3e
00000270: 8f87 13be 873b 9c3e d981 2fbd 616d c03d
00000280: 17e7 67bd b1f4 2dbd 4a01 b53d e66b b23c
00000290: 67cb 16be ea78 47bd f87b 43bd 2bb4 6abe
000002a0: cf4b 3d3d 8436 94bd f8a8 61be 9e40 1a3e
000002b0: 8e5a 62bd a3a0 823c 873f b8bd daf8 9dbe
000002c0: 3396 cc3a edc6 2ebe 625d 3fbd 3ba3 e3bd
000002d0: d10e 743e 50af 2cbe c4b7 813d e136 60be
000002e0: 7d2e b3bb 0a2f b53e d8a9 1cbe 85b1 a13d
000002f0: 2bb6 a13e 6988 f4bd 3fd7 38be c4e8 103c
00000300: 2b8b fdbc 2e59 77bd 2bda 853e 190d db3d
00000310: 6685 2bbe edae 333e c932 8e3d 80e7 4d3c
00000320: daa2 1dbe 1a32 793d e1b7 7d3e e6cb 0fbe
00000330: d52f 59be cf16 ab3d bc21 1ebd 025e 8c3e
00000340: e3a0 0e3e c5a8 91bc f247 01bd 53f4 0c3e
00000350: a10f 5cbe c304 c73d 5394 4e3e a824 9d3b
00000360: 2454 d6bd f60f 933e 154b 453d 06ac c53e
00000370: 8cac b33c 926c e53d 3be8 df3e 18ec 4fbe
00000380: 6bb2 683e f83a 3cbd 1c57 ecbd 9faf d4be
00000390: 08d0 4c3e cf6c e63d b224 933e 5baa 2e3e
000003a0: 0dd5 7ebd ece8 74bd 70c5 7abd e8ed 95bd
000003b0: 131c 073e f85e 113e 6f5c 023e 5cef 0dbc
000003c0: 1c0b 123e 45b7 183d bbd2 aabc b35d 1bbe
000003d0: 9067 de3e 3dca d63c 8582 953d 451b 72bd
000003e0: acf5 b93d c923 ee3e 019a 693b 822b 8bbd
000003f0: f469 b23d 8931 34be c74a 333e 7a47 e6bd
0.10807519 -0.08315987 -0.26000795 -0.04828121 -0.11562756 0.0062648314 0.24281877 0.030346217
0.3729336 -0.28224212 -0.09806576 0.13051742 0.15005223 0.20879127 -0.015334878 -0.41377795
-0.22501771 -0.0093209585 0.34499055 0.119185895 -0.0059088706 0.0112750735 0.14823115 0.050517853
-0.03068998 0.5893223 0.07931175 0.104047224 -0.10336144 -0.014766702 0.18565704 0.08561682
0.20160715 -0.2010364 -0.355443 0.038883887 -0.10537092 0.11832606 0.23460382 0.30412507
0.27520907 -0.18033756 -0.11010923 0.31065747 -0.101455644 -0.23648994 0.26040125 0.2459454
0.21403348 0.14113198 0.1680557 -0.38126215 -0.08082164 0.14029822 0.04751173 -0.1798212
0.52752227 0.41210687 -0.1053432 -0.012892333 -0.32087222 0.14131549 0.39002758 -0.2699045
0.16463155 0.29391682 -0.16414343 -0.26424095 -0.09905535 0.28199235 0.2623643 -0.15646616
0.20907837 0.25274915 0.26595598 -0.10772097 -0.26645854 0.2023933 -0.39921564 -0.1668719
-0.34037322 -0.15404697 -0.056069154 0.19454816 -0.23828399 0.19065748 0.12065016 -0.0791024
-0.13135374 -0.02645948 -0.013279478 -0.366211 0.3170968 -0.036835697 -0.24655142 0.2911833
-0.19272389 -0.09003917 -0.06988111 0.21358027 0.07821838 0.24516214 0.15758695 0.07227411
0.019777002 0.29225913 -0.2354784 -0.19029833 -0.1907571 -0.5747369 -0.037406176 -0.091294155
0.16502252 0.06978131 0.05638047 0.16690843 0.056103557 0.14512287 0.055144284 0.1887861
-0.13038678 -0.32471904 -0.11528976 0.15298633 -0.009482219 0.024814421 0.0700002 -0.10040881
-0.46750176 -0.008054955 -0.19968125 -0.20693736 0.20105708 0.079530865 -0.23700505 -0.48070842
-0.069169775 0.1178193 -0.18293951 0.0555721 -0.11924053 -0.011132101 -0.28310657 0.14559127
0.06628771 0.11507669 -0.3073678 0.17858544 -0.22428377 -0.3059524 -0.01240559 0.060346868
0.47569966 -0.19386326 -0.06586792 0.30918494 -0.1440718 0.30514166 -0.04284844 0.09395862
-0.05661687 -0.042469684 0.088381365 0.021779966 -0.1472603 -0.048699297 -0.047725648 -0.22920291
0.046214875 -0.072369605 -0.22037113 0.15063712 -0.05526214 0.015945738 -0.08996492 -0.3085392
0.0015608728 -0.17068072 -0.046719916 -0.11115118 0.23833777 -0.16863751 0.06333879 -0.21895935
-0.0054681883 0.3538745 -0.15299165 0.07895187 0.31584296 -0.11940081 -0.1805086 0.008844558
-0.03095015 -0.060387783 0.2614301 0.106958576 -0.16750106 0.17547198 0.0694328 0.012567401
-0.15394154 0.060838796 0.24777175 -0.14042625 -0.21209653 0.0835396 -0.03860639 0.27415472
0.13928561 -0.01778067 -0.031562753 0.13765077 -0.21490337 0.09717705 0.20173769 0.0047956295
-0.10465267 0.28723115 0.048167307 0.38607806 0.021932863 0.11202349 0.43731865 -0.20304906
0.22724311 -0.045954674 -0.11540052 -0.41540238 0.20001233 0.11251222 0.28738934 0.17057173
-0.0622149 -0.059792444 -0.061223447 -0.07320768 0.13194303 0.14196384 0.12730573 -0.008663025
0.1426205 0.037284154 -0.020852437 -0.15172462 0.43438387 0.026219482 0.07300285 -0.059108038
0.09080061 0.46511677 0.0035644772 -0.06795408 0.08711615 -0.17597021 0.17508994 -0.11244102

actor.weight f4 [3, 64]
00000000: 3b3a 7e3d ec2b 553d c333 3a3e 4f16 afbd
00000010: c31f fdbd 3338 023d 4d08 34be a4ee aabe
00000020: 8833 933a 7898 f83d e475 f1b8 b51a 81be
00000030: 2a22 79bd 465a 553e 9a24 d73c b532 1fbe
00000040: 2a12 cbbd 8efa cd3d 4cc4 78be b226 d73d
00000050: 1717 893c 35b8 3e3e c44d 09bc 5aac 0f3c
00000060: b977 eb3c 3c1d 4ebe 9bae 19bd 0b52 883d
00000070: a782 9ebe dbf8 83bd 4167 adbe 944c 073e
00000080: 28bf 493e 73d7 93bd 9697 a53d 0023 643c
00000090: 6a38 22be 374e dcbd a7cb 973d a31b 8f3d
000000a0: bd72 443e ecd6 59bd 43cc 2f3d f402 58be
000000b0: 5f28 83bd 71d1 96be 4eba fe3d 15ae 503e
000000c0: bf3e 353e c103 a0be b0f3 4cbe 06fc 2d3d
000000d0: edbc 12be bd83 2dbe adbd 873e 54b0 58be
000000e0: 54ec 61be 1045 6fbe acb6 573e 0035 153e
000000f0: b44a 21be f448 c23d a444 73be ccc5 003b
00000100: 4331 4c3e 23c7 f03d 0fe0 853e 878d 5ebc
00000110: ede8 0e3e 83f9 433d cc99 603d f1d0 17be
00000120: bc84 0ebe 5cfb 1fbd b58d 5ebe 8be8 bdbd
00000130: 6b4e 87be d285 e03d d972 023d 60d9 9bbe
00000140: a37c bbbd e535 533e 002c 83be 2347 673d
00000150: 6d08 20bd 8d2d 3a3e 620c 2d3d 6d42 063e
00000160: 6aaa d1bd 2596 c3be 54cd af3d 83e4 8b3d
00000170: f219 73be 9a28 503e 3486 dfbd 5ae1 ac3d
00000180: c1fe 103d 44b2 4a3e 3f19 643e 0f6f 6a3e
00000190: 555f f5bd b5c1 5dbe bcfe ea3d 3b88 2f3e
000001a0: 210d 293e c152 4abd 99cb dcbd 1363 c0bd
000001b0: fbb5 7d3d 81f9 81be ce02 403e e6c5 dd3d
000001c0: f95f 1b3e 2576 58be 1d68 55be 6ea5 aebd
000001d0: 195c 2ebd 3ffb 06be 7e32 773e a376 6cbe
000001e0: 1939 68be 838c 1c3d dac8 2b3e c891 2d3d
000001f0: 7dbb bbbe a400 19bd de78 f8bd 938c 4abe
00000200: e3ff dbbd b599 a7bd 1635 a1be 092b 7a3d
00000210: 060b b83d 8a1b cebd 4583 b03d f80a 873e
00000220: 1e52 bb3d 9262 12be 73db 223e 06ce 803e
00000230: ceb5 5e3e 1627 23be bfb0 3bbd 4262 8b3e
00000240: fc9f 9d3d 3e32 52be a053 983e 9751 3ebd
00000250: 88f5 203d 5137 85be 0400 353c 0229 febd
00000260: 9cf8 c23d 567c b63e d477 633b 2db8 c8bd
00000270: a154 aa3e 530e e0bd b220 813e ed99 66be
00000280: 42b6 20be 84b9 89bd 3cfd 25be 4063 fdbd
00000290: 2418 533e 5f83 663e b5b6 4abd cdf3 41be
000002a0: e032 6cbe 4c56 833d e01f 093d 2cfd 513e
000002b0: d55a 533b 7ec8 973e 0fdc 43be cbab 49be
000002c0: 2af7 4abe 6a38 aa3e c472 823e d9b2 f03d
000002d0: e777 613e 1234 4b3e 5521 8bbe 7f79 9a3e
000002e0: cc17 a93e e1fe 063e 9feb 44be 0c98 cebd
000002f0: 0e11 763e c417 61bc b615 993e 310a 993d
0.06206725 0.05204384 0.18183808 -0.08549177 -0.12359574 0.031791877 -0.17581291 -0.33385193
0.0011230567 0.12138456 -0.00011513734 -0.25215688 -0.060823597 0.20835218 0.02626257 -0.15546687
-0.09915574 0.10057555 -0.24293631 0.105054274 0.016734643 0.18624957 -0.008380357 0.008769119
0.028743612 -0.2012834 -0.037520032 0.066562735 -0.30959055 -0.0644395 -0.3386784 0.13212806
0.19701827 -0.07218828 0.08085553 0.01392436 -0.15841833 -0.10757106 0.074118905 0.06987693
0.19184394 -0.05318348 0.04291941 -0.21094877 -0.064041846 -0.29456666 0.124378785 0.20378907
0.17699717 -0.31252864 -0.20014834 0.042476676 -0.14329882 -0.16944785 0.265119 -0.21161014
-0.22062808 -0.23366189 0.21065778 0.14570999 -0.15751153 0.09486571 -0.23756653 0.0019649146
0.19940667 0.11756732 0.26147506 -0.013583547 0.13956042 0.047845375 0.054834172 -0.14825799
-0.13917822 -0.039058074 -0.21733744 -0.0927287 -0.26427016 0.10963024 0.03184781 -0.3043928
-0.09154632 0.20626028 -0.25619507 0.056464326 -0.039070535 0.18181439 0.042248137 0.13111277
-0.10237582 -0.3820049 0.08584085 0.068306945 -0.23740366 0.20327988 -0.10914269 0.0844142
0.035399202 0.19794565 0.22275256 0.22893928 -0.11981074 -0.21655925 0.11474368 0.17141812
0.16508915 -0.049395327 -0.10781021 -0.09393897 0.06194113 -0.2538567 0.1875107 0.10828762
0.1517333 -0.21138819 -0.20840497 -0.08527647 -0.0425683 -0.1318178 0.24140355 -0.23092131
-0.22678031 0.03821994 0.16775838 0.042375356 -0.3666648 -0.037354127 -0.121324286 -0.19780187
-0.10742166 -0.08183614 -0.31485814 0.061076198 0.089864776 -0.100638464 0.08618788 0.26375556
0.09146522 -0.14295414 0.15904026 0.25157183 0.2174904 -0.15932879 -0.045822855 0.27223402
0.0769653 -0.20526978 0.297513 -0.04646453 0.039296657 -0.26018766 0.011047367 -0.12410165
0.09520075 0.35641736 0.0034708874 -0.09800754 0.33267692 -0.10940232 0.25220257 -0.22519656
-0.15694526 -0.067248374 -0.16209882 -0.12372446 0.20614678 0.22511052 -0.04949065 -0.18940659
-0.23066282 0.06412944 0.033477664 0.20506734 0.0032250185 0.2964515 -0.19126914 -0.1969444
-0.19820848 0.33246166 0.25478184 0.117528625 0.22018395 0.19844082 -0.27173868 0.3017082
0.33025968 0.13183166 -0.19230507 -0.100875944 0.24029943 -0.013738576 0.29899377 0.07472647

critic.weight f4 [1, 64]
00000000: 92f7 78bc 0761 a03c d9e2 233d f83f e43b
00000010: cb16 da3c 0207 e2bc 0615 113d 3f78 8dbc
00000020: cbc9 3cbb 2afd 95bb 2268 a23b 8f54 883c
00000030: 1085 163c dc51 68bc 1fbe 393c b5c0 a73c
00000040: d276 7e3b 14cb febb a7c3 783c 644c 9b3c
00000050: 3430 b4bb 39c0 18bc 3499 76bd e114 6d3c
00000060: a297 973b 2c9d 1b3d 90c6 493d 9a77 fd3b
00000070: f266 443c 484f 5a3d 797b 1e3c 3088 aa3c
00000080: 9ba9 05bd 6dde f8bb 0016 0d3d 4de4 afbc
00000090: 1e7f e83c 2e96 483d 0f9b 3abc 3745 9cbc
000000a0: 578a 413d f1e9 213c 1182 c5bd 2d46 343c
000000b0: 2a4b 813b 643a 033c ca6b 1bbc 4784 d73c
000000c0: bcf1 f3ba 460d e93c fbd0 273d 291f 963b
000000d0: 2e79 c7bb fc19 d53b 2688 5a3c f2a1 963c
000000e0: 6473 da3b d678 bc3d 21cd c0bc 3d45 593c
000000f0: 1afa 503e 55ca 1fbb eb72 943c ec21 873c
-0.015195744 0.019577516 0.04001126 0.0069656335 0.026622197 -0.027591232 0.03542044 -0.017269252
-0.0028806801 -0.0045772986 0.0049562613 0.016641883 0.009186998 -0.014179673 0.011336832 0.020477632
0.0038828147 -0.0077756736 0.015183366 0.018957324 -0.0054989103 -0.009323173 -0.0602047 0.01447031
0.0046262303 0.037991688 0.04926163 0.007735205 0.011987435 0.053298265 0.009672993 0.020816892
-0.03263245 -0.0075948746 0.03444481 -0.021471167 0.028380927 0.048971348 -0.011389508 -0.019075973
0.04725107 0.009882436 -0.09643949 0.011003059 0.003945728 0.008009527 -0.009486148 0.026308192
-0.0018611471 0.028448712 0.040970784 0.0045813513 -0.006087444 0.0065033417 0.013338124 0.018387768
0.0066665877 0.09202735 -0.023535313 0.013261137 0.20407906 -0.0024382074 0.018121203 0.016495667
