model_params_101000/-8.0_V3_0.5g_0.0rm_100bz_0.0td_1.0tds_Nonelb_Noneup_64n_50000e_10md_5.0rz_46s.pth (torch, 22912 bytes, 4 tensors)

rnn.weight_ih_l0 f4 [64, 9]
0.35224992 0.15478757 0.10000582 -0.2698783 0.24740818 0.2617327 0.37368098 -0.13547146
0.004404749 -0.0012156345 -0.22208321 -0.6951493 -0.08338433 0.050271448 0.41987544 -0.433972
-0.2781942 0.20021349 -0.30368182 -0.26540044 0.17043123 -0.2244121 -0.5058586 0.46144226
-0.46517307 0.3897483 -0.39894053 0.4475175 -0.006553486 0.2532184 -0.3349336 0.2816775
-0.023987863 -0.24472257 -0.16828856 -0.22971688 0.21759108 0.079934895 -0.10593929 0.13975935
0.42404246 -0.23960775 -0.13161318 0.01706944 0.8422897 0.03159048 -0.036042344 0.62803435
0.0035122333 -0.23865254 0.31315973 -0.19088 0.41401947 0.27999324 -0.015414404 0.2818005
0.3839359 -0.23495749 -0.2731487 -0.19113901 0.16812322 -0.26555136 0.6949005 -0.6563588
-0.28306198 0.0806607 0.20629624 -1.0621794 -0.057000466 -0.7588542 -0.3741502 0.1740534
-0.16128655 -0.39697653 0.1378741 0.73899275 0.08584686 -0.11525112 -0.2786946 -0.35270107
-0.011453471 -0.12588368 0.076784246 -0.56499493 -1.7922698 0.5311375 -0.40806216 0.18421969
-0.038187947 -0.49556443 0.23564324 -0.34292093 -0.6005934 0.0851156 0.02049766 0.26311705
0.031721584 0.35906672 0.15997338 -0.7337054 0.85980225 -0.5094423 -1.249054 0.29233024
-0.07842367 -0.6577289 -0.44329423 -0.03389306 0.011748513 0.29370043 -0.10489109 0.027404014
0.017242001 -0.26688436 -0.4022486 -0.4731697 -0.51307714 0.42311212 0.025333604 0.39553735
0.02124234 0.03353088 -0.18120515 0.023291674 0.6267225 0.044212937 -0.2514927 0.12363572
0.415282 -0.029745141 0.14776789 -0.03696086 0.20682532 0.3345128 0.435714 0.47162446
0.35913068 -0.15349326 -0.39758998 0.21458092 0.1005969 0.2159234 -0.0043700393 -0.32610855
-0.11169024 0.67897993 -0.20252573 0.13845047 -0.35093138 -0.11020794 -0.29703763 -0.13794412
0.30598217 -0.32063118 0.30744928 0.3045104 0.079278536 0.30667967 -0.2383945 -0.11270945
0.29422906 -0.30034134 0.11494314 0.45632172 0.05304095 -0.9238291 -0.3702318 -0.25767466
-0.7938056 -0.51051325 0.14577967 -0.26022053 -0.3396607 0.13607681 -0.00030252984 -0.12479426
-0.036088243 0.654377 0.08089516 -0.64878905 -0.3237125 -0.36807904 0.28548375 -0.106152825
0.32437465 -0.3105108 0.18955046 -0.2755791 0.18677811 -0.3480269 0.14121322 0.5795458
-0.041064836 -0.03433392 0.054820307 0.7125042 -0.1364977 0.22887652 0.2977534 -0.52409303
-0.49567938 -0.29222482 -0.028175574 -0.11940117 -0.048266314 -0.23301435 -0.35993546 0.3766122
0.116057746 -0.02722767 -0.17628981 0.15563975 -0.631154 0.74279606 0.34686744 -0.05431539
0.8263698 0.12671685 0.053071238 2.9491415 -0.30762228 0.26842806 -0.14313498 -0.037905484
0.05841666 0.10689103 -0.114586726 0.2568805 -0.2537123 -0.25113925 0.17204013 -0.24936074
0.5627643 0.30914176 0.60687274 -0.5875078 -0.15512258 0.62910855 -0.44208723 -0.26845244
-0.3070063 0.4059993 0.13017885 -0.0026708134 -0.08280143 -0.17438738 -0.4309811 -0.07297928
-0.16010436 -0.22239722 -0.09451498 0.32486892 0.7138447 0.08888909 -0.66600764 0.4835442
00000000: 1a5a b43e a280 1e3e dacf cc3d 7d2d 8abe
00000010: 9258 7d3e d401 863e 1d53 bf3e 08b9 0abe
00000020: b655 903b ed55 9fba c869 63be 4ef5 31bf
00000030: 67c5 aabd 6fe9 4d3d eaf9 d63e 9431 debe
00000040: 786f 8ebe c404 4d3e 2f7c 9bbe 91e2 87be
00000050: 8685 2e3e 49cc 65be f37f 01bf 2942 ec3e
00000060: 2a2b eebe 178d c73e ef41 ccbe 0421 e53e
00000070: a0be d6bb d8a5 813e 6b7c abbe 0938 903e
00000080: 3282 c4bc 8e98 7abe d653 2cbe e73a 6bbe
00000090: 32d0 5e3e e8b4 a33d b3f6 d8bd 131d 0f3e
000000a0: 181c d93e bc5b 75be 9bc5 06be 36d5 8b3c
000000b0: 4ca0 573f 0565 013d 23a1 13bd dcc6 203f
000000c0: 7f2d 663b 5561 74be 7956 a03e 0c76 43be
000000d0: 5cfa d33e 465b 8f3e b28c 7cbc 2848 903e
000000e0: 3f93 c43e b298 70be 25da 8bbe f2b9 43be
000000f0: 7e28 2c3e 59f6 87be 00e5 313f 2107 28bf
00000100: 80ed 90be 7031 a53d 523f 533e 7ff5 87bf
00000110: 5279 69bd 4544 42bf 9d90 bfbe 0e3b 323e
00000120: 4d28 25be 8240 cbbe de2e 0d3e a12e 3d3f
00000130: 7bd0 af3d c708 ecbd 0fb1 8ebe 3c95 b4be
00000140: 57a7 3bbc a7e7 00be 0f41 9d3d 82a3 10bf
00000150: 1969 e5bf a1f8 073f 86ed d0be 16a4 3c3e
00000160: f76a 1cbd 9fba fdbe 764c 713e 5593 afbe
00000170: 7dc0 19bf 1651 ae3d b5ea a73c 47b7 863e
00000180: 7eee 013d 98d7 b73e 10d0 233e 1ed4 3bbf
00000190: 001c 5c3f d06a 02bf 00e1 9fbf 4fac 953e
000001a0: 979c a0bd ec60 28bf 76f7 e2be 73d3 0abd
000001b0: d67c 403c e75f 963e 24d1 d6bd 627e e03c
000001c0: 193f 8d3c 11a5 88be 87f3 cdbe 4d43 f2be
000001d0: 0659 03bf 27a2 d83e 6b88 cf3c df83 ca3e
000001e0: 6a04 ae3c ad57 093d d88d 39be 2ece be3c
000001f0: e370 203f a018 353d a7c3 80be b934 fd3d
00000200: d89f d43e 15ac f3bc 7750 173e 4564 17bd
00000210: 04ca 533e 4345 ab3e e815 df3e c378 f13e
00000220: fadf b73e 562d 1dbe ea90 cbbe 1abb 5b3e
00000230: bf05 ce3d 061b 5d3e 8c32 8fbb b3f7 a6be
00000240: dabd e4bd a1d1 2d3f e862 4fbe f6c5 0d3e
00000250: 47ad b3be b3b4 e1bd 5115 98be 3941 0dbe
00000260: b2a9 9c3e c529 a4be fe69 9d3e cae8 9b3e
00000270: c95c a23d 1e05 9d3e b01d 74be 36d4 e6bd
00000280: 31a5 963e 57c6 99be 4f67 eb3d 00a3 e93e
00000290: 7841 593d 1080 6cbf 068f bdbe efed 83be
000002a0: d836 4bbf ffb0 02bf 4447 153e a03b 85be
000002b0: 02e8 adbe b857 0b3e de9c 9eb9 2294 ffbd
000002c0: 44d1 13bd 4085 273f 5dac a53d 0a17 26bf
000002d0: a5bd a5be db74 bcbe ed2a 923e a766 d9bd
000002e0: 6f14 a63e 46fb 9ebe 8419 423e b418 8dbe
000002f0: c342 3f3e 9530 b2be 339a 103e 1d5d 143f
00000300: 9a33 28bd b9a1 0cbd 428b 603d ad66 363f
00000310: 0ec6 0bbe 9b5e 6a3e 2273 983e f62a 06bf
00000320: b0c9 fdbe 7e9e 95be 76d0 e6bc 9a88 f4bd
00000330: e6b2 45bd 509b 6ebe 7649 b8be 50d3 c03e
00000340: afaf ed3d 900c dfbc 5185 34be 0760 1f3e
00000350: 4f93 21bf e227 3e3f 9c98 b13e d079 5ebd
00000360: f98c 533f 10c2 013e 3a61 593d bcbe 3c40
00000370: ab80 9dbe 676f 893e fa91 12be c842 1bbd
00000380: 4f46 6f3d afe9 da3d 72ac eabd d785 833e
00000390: 94e6 81be 5395 80be 4a2b 303e 6c58 7fbe
000003a0: 5211 103f d447 9e3e 035c 1b3f e966 16bf
000003b0: 74d8 1ebe 420d 213f 4259 e2be 9972 89be
000003c0: ee2f 9dbe 24df cf3e 9b4d 053e d008 2fbb
000003d0: cc93 a9bd 9b92 32be 8ea9 dcbe 2976 95bd
000003e0: 66f2 23be 19bc 63be 1291 c1bd 3855 a63e
000003f0: 87be 363f 7c0b b63d 7a7f 2abf 1b93 f73e

rnn.weight_hh_l0 f4 [64, 64]
0.14624187 -0.19339213 0.29472524 0.10326678 -0.14709435 0.015926927 -0.25486243 0.17005078
0.044918902 0.05666269 -0.048969563 0.24833338 0.36717603 0.27981675 -0.2551131 0.084240966
0.23094495 0.023443276 0.016428811 0.19925591 -0.14138357 -0.081360035 0.17174284 0.17265399
-0.24744576 0.090410315 -0.13526925 -0.23899832 -0.10135108 -0.15687005 -0.18775912 -0.046633337
0.04727555 0.004376888 0.004248098 0.17090164 -0.057099413 0.11391658 -0.029160345 -0.09952231
0.011905311 -0.3064053 0.012883179 -0.034284253 -0.06837126 0.012202842 -0.1607003 0.052357156
-0.21824755 -0.15719122 0.310828 -0.07289427 -0.37938783 0.15563487 0.112672254 -0.030654969
-0.070185244 0.32664323 -0.1453902 0.021484232 -0.005879463 -0.1912981 0.46072122 0.11909418
-0.052733876 0.008711813 0.22253413 0.014708971 -0.10176344 0.10653051 0.26200405 0.11278505
-0.06371279 0.05948026 0.71594495 0.1964705 -0.17119174 0.10630212 0.22248147 -0.09728162
-0.38722834 -0.21188098 -0.110146195 0.42789754 -0.0043252213 -0.094422296 0.31452546 -0.112168774
-0.020997133 0.36188114 0.22801799 -0.23870505 0.094169125 -0.1110947 -0.36309394 -0.2235536
-0.07722843 -0.44003257 0.033210788 -0.0028408312 -0.15852377 0.19704628 -0.23724966 -0.036583096
0.25871426 0.28577188 -0.16271971 -0.15248533 0.17381726 -0.13352373 0.2577718 -0.06723595
0.102067836 -0.12304619 0.035610635 0.17422387 -0.17786822 -0.13219397 0.014277005 -0.08287129
-0.42122385 0.009631773 0.2359416 -0.0744209 0.01727644 0.2755493 0.24604166 0.17927912
0.22730458 0.19820325 0.44924748 -0.25010544 0.15064116 -0.107223876 -0.14918955 0.051658295
0.15196636 0.26223984 -0.19251612 0.46141082 -0.098930255 -0.016159894 -0.24662642 -0.24736114
0.3884283 0.2692537 -0.0048806584 0.015631942 -0.10612419 0.15108153 -0.19770318 0.04183614
0.10037055 -0.13458724 0.14341114 0.07551749 -0.10851188 0.028752435 -0.04260124 -0.017974814
-0.06379088 -0.30395347 -0.17698458 0.17618258 0.027148558 0.4371969 0.09396011 -0.038272575
-0.014069714 0.019699965 0.054358255 0.39474022 -0.02234242 -0.10663642 -0.07632867 0.298239
-0.11505817 0.004218916 0.10544748 0.112299606 0.15081893 -0.17888181 0.09290857 -0.2521187
-0.074407525 0.051502656 -0.27730408 -0.025800038 0.0077936645 -0.015903987 -0.09217528 0.1740324
0.355119 -0.16218096 0.1296285 -0.30638164 0.063822106 0.025828168 0.08801146 0.3514628
-0.07897915 -0.019989777 0.21763405 0.18911694 -0.15905268 0.11128033 0.012469562 -0.3083863
0.017614124 -0.112663604 -0.23140098 -0.14984554 0.33211097 0.10308261 -0.36720002 0.05341759
-0.11788423 0.0051601925 0.20946324 0.122422986 0.18579109 0.020866217 0.18931083 -0.2773492
0.22922572 -0.035037037 -0.14063779 -0.24908447 0.24550736 -0.22000669 -0.16547549 -0.115219265
-0.18123563 0.13807727 -0.40941575 0.16927837 0.23080283 0.24487907 0.10749172 0.04067976
0.12120483 0.49310508 0.20374854 -0.078914195 -0.016369805 -0.21203673 -0.21130836 -0.07938393
0.26977944 0.001713668 -0.21987954 -0.058619883 -0.093141526 -0.023430962 0.2654769 0.21956217
00000000: 6ec0 153e 9608 46be 3ae6 963e 897d d33d
00000010: e79f 16be 3079 823c 547d 82be cb21 2e3e
00000020: e2fc 373d 2317 683d 4f94 48bd 1b4b 7e3e
00000030: 7ffe bb3e 2444 8f3e 2f9e 82be 8786 ac3d
00000040: d57c 6c3e 1d0c c03c b795 863c be09 4c3e
00000050: dbc6 10be 17a0 a6bd 5bdd 2f3e 35cc 303e
00000060: 6c62 7dbe 0b29 b93d 0684 0abe fabb 74be
00000070: 2891 cfbd 8ba2 20be ed43 40be 9902 3fbd
00000080: 02a4 413d ff6b 8f3b a133 8b3b d700 2f3e
00000090: 13e1 69bd 194d e93d ade1 eebc 5ad2 cbbd
000000a0: 7e0e 433c 28e1 9cbe f813 533c a56d 0cbd
000000b0: 3b06 8cbd 6eee 473c 9f8e 24be 7574 563d
000000c0: 497c 5fbe bcf6 20be d924 9f3e 9749 95bd
000000d0: 1f3f c2be bf5e 1f3e b6c0 e63d 2120 fbbc
000000e0: 48bd 8fbd c83d a73e 2be1 14be b3ff af3c
000000f0: 83a8 c0bb a6e3 43be a7e3 eb3e a6e7 f33d
00000100: 7aff 57bd febb 0e3c fddf 633e e5fd 703c
00000110: 5a69 d0bd ab2c da3d 6525 863e d9fb e63d
00000120: da7b 82bd 93a1 733d 2b48 373f 902f 493e
00000130: e34c 2fbe edb4 d93d 2fd2 633e 963b c7bd
00000140: cb42 c6be 54f7 58be 5494 e1bd 6315 db3e
00000150: 96ba 8dbb 7a60 c1bd 7b09 a13e beb8 e5bd
00000160: 2e02 acbc 7c48 b93e 8c7d 693e 196f 74be
00000170: bedb c03d 9e85 e3bd 73e7 b9be 3ceb 64be
00000180: f029 9ebd f34b e1be 0908 083d 3d2d 3abb
00000190: 0e54 22be 80c6 493e 93f1 72be 28d8 15bd
000001a0: 3276 843e b150 923e ff9f 26be 1d25 1cbe
000001b0: 27fd 313e 72ba 08be aafa 833e 00b3 89bd
000001c0: f108 d13d a4ff fbbd 75dc 113d be67 323e
000001d0: 1623 36be db5d 07be 19ea 693c 6cb8 a9bd
000001e0: a7aa d7be 96ce 1d3c ad9a 713e fc69 98bd
000001f0: 5287 8d3c cc14 8d3e 58f2 7b3e f294 373e
00000200: 88c2 683e cbf5 4a3e c403 e63e d20d 80be
00000210: ad41 1a3e 3198 dbbd 25c5 18be a697 533d
00000220: 129d 1b3e 4d44 863e f222 45be 0a3e ec3e
00000230: f29b cabd c161 84bc a38b 7cbe 3d4c 7dbe
00000240: 13e0 c63e 9fdb 893e eeed 9fbb 8f0e 803c
00000250: a457 d9bd 1eb5 1a3e b472 4abe 5f5c 2b3d
00000260: 138f cd3d 3dd1 09be 5fda 123e eaa8 9a3d
00000270: 7a3b debd 3a8a eb3c a37e 2ebd eb3f 93bc
00000280: cba4 82bd ca9f 9bbe 723b 35be 3569 343e
00000290: a766 de3c 46d8 df3e 286e c03d b4c3 1cbd
000002a0: a884 66bc d261 a13c c3a6 5e3d 641b ca3e
000002b0: 7307 b7bc 3264 dabd 3552 9cbd c8b2 983e
000002c0: 9ea3 ebbd d53e 8a3b d9f4 d73d 56fd e53d
000002d0: 4770 1a3e cb2c 37be d946 be3d b415 81be
000002e0: f962 98bd 73f4 523d cdfa 8dbe 9a5a d3bc
000002f0: ff61 ff3b 1449 82bc 65c6 bcbd 8d35 323e
00000300: 28d2 b53e c412 26be 55bd 043e 0ede 9cbe
00000310: 2ab5 823d 9895 d33c 5a3f b43d eff2 b33e
00000320: d2bf a1bd 9ac1 a3bc 76db 5e3e dfa7 413e
00000330: b5de 22be f1e6 e33d 224d 4c3c cfe4 9dbe
00000340: 7f4b 903c 2dbc e6bd 61f4 6cbe 1c71 19be
00000350: 730a aa3e fa1c d33d a401 bcbe 67cc 5a3d
00000360: 4a6d f1bd d516 a93b 887d 563e e7b8 fa3d
00000370: 0540 3e3e a1ef aa3c b3da 413e b700 8ebe
00000380: 26ba 6a3e ff82 0fbd 5a03 10be 0010 7fbe
00000390: 4866 7b3e 6f49 61be 6872 29be 14f8 ebbd
000003a0: d595 39be 2164 0d3e f19e d1be 4f57 2d3e
000003b0: 9457 6c3e 94c1 7a3e 9e24 dc3d d29f 263d
000003c0: 3d3a f83d 4578 fc3e 75a3 503e c49d a1bd
000003d0: f819 86bc 2820 59be 3861 58be 0b94 a2bd
000003e0: 8820 8a3e 289d e03a 1a28 61be 671b 70bd
000003f0: fcc0 bebd 4af2 bfbc 97ec 873e e8d4 603e

actor.weight f4 [3, 64]
0.18923701 -0.31661323 -0.020519016 0.0724538 0.46867275 -0.10844815 -0.11163317 0.04567836
0.16366287 0.16990758 -0.021580378 0.30692667 -0.15173487 0.11649306 -0.34132594 0.06266604
0.12972422 -0.50841755 0.12948999 -0.20498128 0.25590122 -0.16576311 0.20773584 -0.0016234053
-0.722082 -0.13415763 -0.19628784 -0.13438001 -0.15165877 -0.14413701 -0.1529872 -0.0133995
-0.11674743 0.07179519 -0.22534426 0.2219063 0.07186221 0.045871332 0.068199925 0.2659107
0.02920038 0.08722173 -0.09896728 -0.09700297 -0.12673253 0.16727062 -0.15636271 -0.22858648
-0.17177263 0.056138515 -0.058638103 -0.0030611318 0.018514436 0.12763532 -0.0192845 -0.25128603
-0.24889293 0.12913887 -0.16357388 0.047648173 0.1210047 0.12678866 0.20512255 -0.1524626
-0.18173416 0.0933068 0.08058883 0.3102515 0.10137076 -0.033243164 0.3507753 0.23808403
0.25318414 0.14866081 0.2802492 0.107919805 0.0010762147 -0.11137115 -0.10741234 -0.076528676
0.2620368 -0.004886815 -0.2468264 -0.12078357 -0.17467013 -0.005440504 -0.07061761 -0.242679
-0.009987264 0.028397428 0.2517357 0.21883972 0.09563552 -0.0701886 0.36294022 0.065650195
0.42284915 -0.12007717 -0.03146774 -0.54408824 0.18017434 0.24943107 -0.17864935 -0.18165714
-0.27802178 -0.16853714 -0.092312805 -0.23890498 0.27739528 -0.104923844 -0.09754894 0.001093573
-0.2614905 0.080831006 0.10678891 0.18492445 0.20652664 -0.252025 -0.025663128 -0.08318835
0.22647801 0.2562859 -0.124726504 0.04402176 -0.23054047 0.035767846 -0.15163857 -0.15559502
0.026212528 0.15237914 0.015882635 -0.1756946 -0.38510147 0.11846413 -0.156306 -0.18112363
-0.24334301 -0.19074202 -0.17711906 -0.1878614 0.0579495 -0.021526324 0.27924538 0.0074717253
-0.21039249 0.3102103 0.08436474 0.17223167 0.044584498 0.09208829 -0.12595911 0.12157251
0.4320859 0.08319371 -0.070886515 0.014014243 0.015632229 0.23382662 -0.13874929 0.0515654
-0.09865663 0.04485784 0.24742682 0.14129429 -0.10334843 -0.19953454 -0.008159341 -0.0022549448
0.12219487 0.05749628 0.19202448 0.1745367 -0.056446534 -0.054581255 0.10176557 0.22713625
0.2058372 -0.11869338 -0.04951582 -0.13487321 -0.10877609 0.12327914 0.100260824 0.13569891
-0.012752343 -0.22014453 0.15388878 -0.02278601 0.047212563 -0.1715748 -0.09848541 0.1465888
00000000: 59c7 413e 211b a2be 7f17 a8bc a862 943d
00000010: e0f5 ef3e 101a debd ee9f e4bd 3b19 3b3d
00000020: 3d97 273e 41fc 2d3e 55c9 b0bc 7e25 9d3e
00000030: 6360 1bbe ea93 ee3d 46c2 aebe 0e57 803d
00000040: 6dd6 043e a727 02bf 0699 043e 9de6 51be
00000050: 7c05 833e cebd 29be b4b8 543e 71c8 d4ba
00000060: 5eda 38bf 9e60 09be aeff 48be ea9a 09be
00000070: 704c 1bbe a798 13be ada8 1cbe 9489 5bbc
00000080: 4719 efbd 5b09 933d a5c0 66be 683b 633e
00000090: 7f2c 933d 94e3 3b3d 67ac 8b3d 7325 883e
000000a0: a335 ef3c 4ea1 b23d 5baf cabd 7ea9 c6bd
000000b0: 2cc6 01be fd48 2b3e 8c1d 20be 9312 6abe
000000c0: 2ae5 2fbe 80f1 653d 822e 70bd 459d 48bb
000000d0: 96ab 973c d5b2 023e 87fa 9dbc 90a8 80be
000000e0: cadd 7ebe fb3c 043e e97f 27be bb2a 433d
000000f0: 50d1 f73d e3d4 013e a50b 523e 281f 1cbe
00000100: 8518 3abe a317 bf3d c20b a53d 49d9 9e3e
00000110: 799b cf3d fc29 08bd d298 b33e 4dcc 733e
00000120: 5aa1 813e 8a3a 183e d37c 8f3e 0f05 dd3d
00000130: c60f 8d3a 8f16 e4bd 00fb dbbd 11bb 9cbd
00000140: b029 863e 9321 a0bb 0fc0 7cbe 605d f7bd
00000150: badc 32be 4146 b2bb f79f 90bd d880 78be
00000160: 9fa1 23bc b9a1 e83c 80e3 803e 8517 603e
00000170: 8edc c33d 0abf 8fbd 4dd3 b93e 9c73 863d
00000180: af7f d83e 05eb f5bd 51e4 00bd 5e49 0bbf
00000190: 9f7f 383e dc6a 7f3e dbef 36be 5404 3abe
000001a0: df58 8ebe 0095 2cbe 7f0e bdbd 82a3 74be
000001b0: c106 8e3e 50e2 d6bd bdc7 c7bd 3956 8f3a
000001c0: 15e2 85be ba8a a53d 25b4 da3d d65c 3d3e
000001d0: b87b 533e 6c09 81be 7b3b d2bc a75e aabd
000001e0: dae9 673e e837 833e 9c70 ffbd 2950 343d
000001f0: cd12 6cbe 4e81 123d 2447 1bbe 4d54 1fbe
00000200: a8bb d63c 4709 1c3e 4d1c 823c 49e9 33be
00000210: 052c c5be 529d f23d ae0e 20be 7978 39be
00000220: e92e 79be e051 43be b35e 35be bd5e 40be
00000230: 745c 6d3d f957 b0bc 40f9 8e3e 60d5 f43b
00000240: 2171 57be e2d3 9e3e 6cc7 ac3d 805d 303e
00000250: 3c9e 363d c998 bc3d 6dfb 00be 02fb f83d
00000260: 5d3a dd3e 7761 aa3d f32c 91bd ff9b 653c
00000270: 290f 803c 3f70 6f3e 4b14 0ebe 3e36 533d
00000280: 7d0c cabd dbbc 373d 755d 7d3e 73af 103e
00000290: 57a8 d3bd c852 4cbe c2ae 05bc b2c7 13bb
000002a0: 4e41 fa3d 3881 6b3d 11a2 443e c0b9 323e
000002b0: 7b34 67bd 9890 5fbd 786a d03d 6896 683e
000002c0: fdc6 523e 8415 f3bd 1ad1 4abd 341c 0abe
000002d0: 00c6 debd c679 fc3d 8c55 cd3d a8f4 0a3e
000002e0: 34ef 50bc 916d 61be 0595 1d3e baa9 babc
000002f0: f661 413d 4eb1 2fbe b8b2 c9bd 601b 163e

critic.weight f4 [1, 64]
0.048567593 0.017538771 0.015748065 0.008007301 -0.050113216 0.031676285 -0.035705265 -0.010219276
-0.035403304 -0.00048705022 -0.022236032 -0.00704787 -0.018244328 0.00054307294 -0.0008825435 0.008144389
0.014265868 2.7030064e-05 0.053632256 0.018471 -0.061108794 -0.01532783 0.014441606 -0.004252078
0.17497663 0.0069105574 -0.00066092523 0.015388987 0.0117394775 0.012455815 -0.019455807 0.029392619
0.006187433 -0.01516592 0.024578676 0.21551654 0.0020999645 -0.015871784 -0.017417826 -0.014799559
0.0241302 -0.009677451 0.047047462 0.015323161 0.031559784 -0.020162655 0.010796133 -0.0009607818
0.007942901 -0.0013754241 0.0112024555 0.0021644155 -0.012717676 0.027691882 0.028085437 0.0029951849
-0.035308957 -0.029273938 0.010568714 0.025175711 -0.058161784 -0.02194828 -0.059748534 0.022482391
00000000: d0ee 463d 78ad 8f3c 1602 813c 0e31 033c
00000010: 8443 4dbd febe 013d af3f 12bd c06e 27bc
00000020: 0e03 11bd c65a ffb9 5728 b6bc d2f1 e6bb
00000030: 2175 95bc 025d 0e3a 7e5a 67ba 0b70 053c
00000040: 63bb 693c 9fbe e237 7fad 5b3d 7f50 973c
00000050: 374d 7abd 9421 7bbc 7c9c 6c3c 0455 8bbb
00000060: 132d 333e f571 e23b f141 2dba 1722 7c3c
00000070: f056 403c 7a13 4c3c c961 9fbc cac8 f03c
00000080: f3bf ca3b 7b7a 78bc 3859 c93c 5eb0 5c3e
00000090: 8f9f 093b 8b05 82bc d4af 8ebc d979 72bc
000000a0: b2ac c53c 2c8e 1ebc d7b4 403d ff0d 7b3c
000000b0: d544 013d 272c a5bc 44e2 303c fadc 7bba
000000c0: f122 023c 9347 b4ba 818a 373c ded8 0d3b
000000d0: cd5d 50bc 16da e23c 6e13 e63c dd4a 443b
000000e0: 20a0 10bd e6cf efbc 6628 2d3c 4b3d ce3c
000000f0: 0d3b 6ebd e1cc b3bc e1ba 74bd fe2c b83c
