model_params_101000/0.0_V3_0.7g_0.0rm_100bz_0.0td_1.0tds_Nonelb_Noneup_64n_50000e_10md_5.0rz_36s.pth (torch, 22904 bytes, 4 tensors)

rnn.weight_ih_l0 f4 [64, 9]
-0.07545914 -0.043351647 -0.12298587 1.6616416 -0.30431068 -0.13334627 -0.2723939 0.118830636
-0.5464858 0.3833304 0.45211345 0.12218925 -0.063948534 -0.1699252 0.98313373 -0.53306067
0.4098001 0.33067313 0.11106909 0.21674295 -0.23500119 0.20560338 -0.1920389 0.054360937
0.20869127 0.41120836 -0.5065917 -0.34089488 0.03706177 -0.9832801 0.63394713 -0.5352037
0.10167978 -0.059503496 0.044130124 0.00031396665 0.5874435 -0.5770975 -0.7204241 0.9259165
-0.47473085 0.19913441 0.05501499 -0.023835726 0.016918456 0.07939004 -0.1083565 0.43529996
0.17599364 0.20831087 0.0310256 -0.53564376 0.115444146 0.20452236 0.22850476 0.13708648
0.34167624 1.3276578 -0.37915972 0.32965934 -0.17584184 -0.14913166 0.33449805 -0.33857647
0.59697855 0.055668168 0.36583617 -0.15130429 0.47248834 0.88645726 0.30043334 0.40410814
-0.4336092 -0.23846827 -0.039398592 -0.3759809 -0.46649513 -0.11003648 0.3757206 -0.15945013
-0.25858417 -0.57854605 0.6037782 -0.3170554 0.06577818 0.243031 -0.09154258 -0.026805457
-0.37575418 -0.58401823 0.4782054 0.32484502 0.19630116 -0.847493 0.09007828 -0.3110007
-0.0799429 -0.24255288 0.020358503 -0.096697986 -0.028976979 -0.23547612 0.6934624 0.17249946
0.0736874 0.5162459 0.28337693 -0.09192443 -0.15075424 0.37501392 -0.30099988 0.02258276
-0.326036 -0.027408592 0.48472676 0.18844861 0.44830272 -0.5920191 0.03915066 -0.19700816
0.28681305 -0.8344405 0.2512299 -0.40026185 -0.31174275 -0.32945824 0.021437502 -0.06415238
-0.25094944 0.36674052 -0.19801155 0.22988947 -0.796469 0.30543146 -0.17312986 -0.01619234
0.5540967 0.016260345 0.236449 0.16227135 0.2141005 0.2800616 -0.16050091 0.22158355
-0.17592078 -0.27649444 -0.8483777 0.4559546 -0.042188693 0.520542 -0.09496087 -0.028581074
0.5930698 -0.28375465 0.46977004 0.2853431 -0.2768122 -0.24195577 -0.6536359 -0.14505878
0.18717405 -0.52566904 0.011690601 0.31787845 0.19363841 0.314161 0.3144146 -0.049620803
0.15848875 -0.25878087 0.29578617 -0.2716293 0.15245982 0.26846498 0.08627045 -0.36976132
-0.44197124 -0.16354625 0.5429856 0.03785408 -0.008325328 -0.14667022 -0.28933442 -0.1659812
0.22681606 -0.22595939 -0.27825135 -0.6937435 0.16228549 -0.20074646 0.27026165 -0.109787576
0.6128578 -0.027627677 0.27999902 -0.41276872 0.60648155 -0.2055351 0.3804091 0.17747691
-0.14380145 0.29757005 -0.15727432 0.82432497 0.3156941 0.07767191 -0.067802906 0.07581185
-0.35141644 -0.6972251 0.6573431 -0.5041585 0.14907204 -0.27924082 0.018475967 -0.4662363
0.7655264 0.20242952 -0.06356034 -0.31070995 -0.35753074 -0.19828904 -0.2900281 0.052710686
-0.18873498 0.1965903 0.20563695 0.43900824 0.6364777 0.48655763 -0.22920763 0.5583195
0.23687659 1.0526288 1.2378353 -0.4618058 -0.06026382 0.87991977 -0.861729 0.5274827
0.04609804 -0.40031454 -0.6244761 -0.10353442 -0.7521401 -0.22285639 0.34438258 0.22850403
0.26626912 -0.5932027 0.17275502 -0.39678276 0.7766463 0.2238766 0.55552477 -0.35387322
00000000: 528a 9abd 7f91 31bd 04e0 fbbd acb0 d43f
00000010: 9cce 9bbe ed8b 08be 3777 8bbe 7a5d f33d
00000020: 7ee6 0bbf e243 c43e 6a7b e73e 5c3e fa3d
00000030: 73f7 82bd df00 2ebe a7ae 7b3f aa76 08bf
00000040: 52d1 d13e fd4d a93e 3178 e33d ddf1 5d3e
00000050: 27a4 70be b189 523e d8a5 44be 93a9 5e3d
00000060: 2ab3 553e e789 d23e feaf 01bf c689 aebe
00000070: 15ce 173d 3fb8 7bbf 5c4a 223f 1c03 09bf
00000080: 7d3d d03d f0b9 73bd cac1 343d e49b a439
00000090: b262 163f a9bc 13bf b76d 38bf dd08 6d3f
000000a0: ec0f f3be e4e9 4b3e 6657 613d 2443 c3bc
000000b0: 9398 8a3c 3f97 a23d 03ea ddbd a3df de3e
000000c0: ad37 343e 724f 553e 6629 fe3c f31f 09bf
000000d0: fb6d ec3d 4f6e 513e 27fd 693e 6660 0c3e
000000e0: 30f0 ae3e b1f0 a93f 3921 c2be 1cc9 a83e
000000f0: e20f 34be f8b5 18be 5443 ab3e e559 adbe
00000100: 96d3 183f 4e04 643d e14e bb3e 83ef 1abe
00000110: fee9 f13e ddee 623f 66d2 993e 43e7 ce3e
00000120: 0602 debe 0731 74be 6b60 21bd 9280 c0be
00000130: 73d8 eebe ce5a e1bd 735e c03e e546 23be
00000140: 2565 84be 981b 14bf 3591 1a3f 1655 a2be
00000150: b6b6 863d 1edd 783e ad7a bbbd 1e97 dbbc
00000160: da62 c0be 3882 15bf 57d7 f43e 1652 a63e
00000170: 2c03 493e 4df5 58bf f67a b83d 7c3b 9fbe
00000180: 1ab9 a3bd c85f 78be e0c6 a63c 9809 c6bd
00000190: 2161 edbc a720 71be c086 313f b3a3 303e
000001a0: 6be9 963d b128 043f c816 913e e042 bcbd
000001b0: 525f 1abe d301 c03e a81c 9abe 7bff b83c
000001c0: 31ee a6be fc87 e0bc 1b2e f83e acf8 403e
000001d0: ef87 e53e 908e 17bf 715c 203d 82bc 49be
000001e0: 29d9 923e e59d 55bf 35a1 803e 1fef ccbe
000001f0: bf9c 9fbe c0ae a8be b39d af3c 5362 83bd
00000200: 727c 80be 6ac5 bb3e 8ac3 4abe 2568 6b3e
00000210: 64e5 4bbf 8361 9c3e f448 31be cca5 84bc
00000220: 48d9 0d3f 6a34 853c b01f 723e 762a 263e
00000230: 293d 5b3e 3c64 8f3e 5a5a 24be cce6 623e
00000240: 9424 34be ae90 8dbe 482f 59bf e272 e93e
00000250: 0dce 2cbd 3e42 053f d87a c2bd db22 eabc
00000260: 6cd3 173f 4a48 91be b385 f03e 7e18 923e
00000270: 54ba 8dbe 41c3 77be af54 27bf 4a8a 14be
00000280: 8eaa 3f3e 3f92 06bf ef89 3f3c f7c0 a23e
00000290: 2649 463e b6d9 a03e f3fa a03e 2f3f 4bbd
000002a0: e04a 223e ed7e 84be 4971 973e ff12 8bbe
000002b0: 6d1e 1c3e 3e74 893e 90ae b03d 5b51 bdbe
000002c0: 0e4a e2be ab78 27be 1b01 0b3f e10c 1b3d
000002d0: f566 08bc b830 16be a423 94be faf6 29be
000002e0: 7842 683e e661 67be f676 8ebe 2d99 31bf
000002f0: 2b2e 263e 7b90 4dbe bc5f 8a3e 4fd8 e0bd
00000300: 40e4 1c3f 7053 e2bc 085c 8f3e 6c56 d3be
00000310: 6042 1b3f cb77 52be fbc4 c23e 82bc 353e
00000320: b040 13be 1a5b 983e 850c 21be f606 533f
00000330: a8a2 a13e 7312 9f3d 40dc 8abd 3e43 9b3d
00000340: dbec b3be 587d 32bf a347 283f 8810 01bf
00000350: 57a6 183e a7f8 8ebe e95a 973c 86b6 eebe
00000360: 8af9 433f af49 4f3e ec2b 82bd 6015 9fbe
00000370: 450e b7be 480c 4bbe 907e 94be 29e7 573d
00000380: be43 41be f84e 493e 7e92 523e b0c5 e03e
00000390: 34f0 223f 151e f93e 68b5 6abe 07ee 0e3f
000003a0: c78f 723e 8abc 863f 6371 9e3f cf71 ecbe
000003b0: 32d7 76bd 6c42 613f 469a 5cbf 1b09 073f
000003c0: 4cd1 3c3d 07f6 ccbe aadd 1fbf db09 d4bd
000003d0: 418c 40bf 7734 64be ea52 b03e f6fc 693e
000003e0: 6d54 883e 22dc 17bf b1e6 303e 1c27 cbbe
000003f0: 4bd2 463f e83f 653e df36 0e3f df2e b5be

rnn.weight_hh_l0 f4 [64, 64]
-0.06847522 -0.1175458 -0.20132852 -0.0008299191 0.051213466 0.06909643 0.3769753 0.14986901
0.21357885 -0.19486059 -0.24598224 0.11300412 0.16881393 0.27216694 0.20868848 -0.28533757
-0.05746398 -0.19151318 0.14495361 0.26412305 -0.03165138 0.116627246 0.14776872 0.113328636
0.10076138 0.37228048 0.29894912 0.16876864 -0.1865974 0.010433999 0.10996745 0.041008897
0.06800143 -0.16273499 -0.26190075 -0.0009950686 -0.29171354 -0.16102728 0.33401334 0.044989485
0.31727567 -0.054038182 0.13378741 0.2074376 0.042038023 -0.21604337 0.15524015 0.26139253
0.12207441 0.1876618 -0.0018434128 -0.38515586 -0.08376034 0.22916196 0.13282895 0.026006801
0.3191901 0.36479765 -0.25048742 0.21335067 -0.7907879 0.25577447 0.21357699 -0.2777372
0.17234905 0.3059472 -0.17410508 -0.16466555 -0.116453946 0.3051774 0.2509551 0.12013341
0.09556035 0.2230528 0.19331448 -0.020836877 -0.17825635 0.100557104 -0.50576115 -0.04656125
-0.20477618 -0.2585 0.081528336 0.076234676 -0.04635005 -0.035004094 0.19447362 -0.110039674
-0.29872054 0.02100719 0.19190751 -0.4862598 0.25013602 -0.05201421 -0.110205755 0.15041324
-0.3813902 -0.044739634 0.15062375 0.22860377 0.04372912 0.17303605 0.20480563 -0.010153607
-0.12760605 0.21499635 -0.13234456 -0.17600854 -0.28903607 -0.49569958 -0.21600156 -0.11802122
-0.0891303 0.28187948 0.06677507 0.24924876 0.07332587 0.30265337 -0.012891976 0.12555638
-0.039012566 -0.20594607 -0.30849874 0.07411541 -0.027085163 -0.18843071 -0.029700482 -0.11278201
-0.15831079 -0.10039391 -0.11667055 -0.32290164 0.2489921 -0.11198199 -0.25809062 -0.17602521
-0.04739299 0.003474922 -0.32168013 0.12566018 -0.12029387 -0.15830788 -0.14631934 0.26674956
0.08426677 -0.035322048 -0.37093505 0.12704219 -0.06397174 -0.45276168 0.23429903 0.13362852
0.42529035 -0.07193003 0.24421176 0.23016821 -0.21098906 0.27631357 0.080483906 -0.16613606
-0.15123418 0.04528126 0.074096024 -0.02848372 -0.065515414 -0.10767368 0.18092458 -0.21750143
-0.002566597 0.24014348 -0.16020808 0.1155351 -0.0043598963 0.06755762 -0.2654538 -0.33577034
-0.034717713 -0.06448897 -0.18720205 -0.105651334 0.34875676 -0.30905798 -0.022346148 -0.16498736
0.13720806 0.25518638 -0.17096457 0.26420954 0.07440318 -0.20808858 0.05758748 0.09940582
-0.031743214 -0.15330377 0.05340901 0.10765887 -0.09589591 0.3778534 0.15206143 -0.08007772
-0.25658014 0.023024138 0.14214079 -0.21759686 -0.09687976 0.32337964 -0.17541058 0.29822424
0.12534127 -0.16912456 0.048600085 0.03994192 -0.430128 0.25746134 0.14079657 0.270423
0.14851691 0.16776954 0.08042984 0.3154389 0.09643243 0.027647208 0.24867609 0.031586986
0.21836351 -0.047817208 0.1375219 -0.2835967 0.15412939 0.029854676 0.3179267 -0.2877743
0.05334846 -0.4840286 -0.26452526 0.01092611 0.19785632 -0.00945978 0.18597484 0.08459347
0.2685104 -0.019556655 -0.20869811 -0.22183502 0.43013453 0.116427094 -0.34172043 0.0053126286
-0.02935878 0.15747586 0.14831688 -0.059061345 -0.28834915 0.015035291 0.063235685 -0.14099477
00000000: bc3c 8cbd dabb f0bd 1029 4ebe ee8e 59ba
00000010: 36c5 513d 6e82 8d3d e802 c13e 4377 193e
00000020: 6ab4 5a3e 8989 47be c5e2 7bbe b46e e73d
00000030: 8fdd 2c3e 7759 8b3e 6fb2 553e c417 92be
00000040: 5a5f 6bbd 081c 44be b86e 143e 233b 873e
00000050: e1a4 01bd 44da ee3d af50 173e d818 e83d
00000060: fb5b ce3d 8c9b be3e dc0f 993e b0d1 2c3e
00000070: 6413 3fbe 5df3 2a3c 9d36 e13d f2f8 273d
00000080: 5544 8b3d 00a4 26be db17 86be f66c 82ba
00000090: 7a5b 95be 56e4 24be cc03 ab3e e546 383d
000000a0: f571 a23e 2457 5dbd 91ff 083e 866a 543e
000000b0: 1030 2c3d 793a 5dbe 46f7 1e3e 3ed5 853e
000000c0: 2602 fa3d 6a2a 403e ab9e f1ba 2633 c5be
000000d0: 8b8a abbd 6fa9 6a3e 5004 083e 370c d53c
000000e0: e36c a33e c2c6 ba3e e33f 80be 9978 5a3e
000000f0: 1371 4abf dff4 823e edb3 5a3e 9233 8ebe
00000100: 457c 303e 1da5 9c3e 9a48 32be 169e 28be
00000110: 687f eebd 3640 9c3e 307d 803e 8108 f63d
00000120: 25b5 c33d f467 643e 3bf4 453e 19b2 aabc
00000130: d588 36be e2f0 cd3d 9079 01bf 02b7 3ebd
00000140: d9b0 51be 1d5a 84be 54f8 a63d ed20 9c3d
00000150: 8dd9 3dbd 7460 0fbd 1824 473e 7b5c e1bd
00000160: e6f1 98be 4517 ac3c 6783 443e 0bf7 f8be
00000170: d411 803e da0c 55bd 8eb3 e1bd ee05 1a3e
00000180: 9445 c3be e840 37bd 1d3d 1a3e 1b17 6a3e
00000190: 4e1d 333d 5d30 313e 91b8 513e 515b 26bc
000001a0: 29ab 02be 0128 5c3e 5585 07be 953b 34be
000001b0: 89fc 93be 56cc fdbe 832f 5dbe 1cb5 f1bd
000001c0: f289 b6bd 8252 903e 5ec1 883d 113b 7f3e
000001d0: e02b 963d 62f5 9a3e de38 53bc da91 003e
000001e0: a4cb 1fbd 87e3 52be 8cf3 9dbe d2c9 973d
000001f0: b4e1 ddbc fbf3 40be 6d4e f3bc 41fa e6bd
00000200: 391c 22be 539b cdbd f8f0 eebd 5d53 a5be
00000210: c9f7 7e3e d056 e5bd 7424 84be f43f 34be
00000220: 271f 42bd 84bb 633b 42b3 a4be 10ad 003e
00000230: a25c f6bd 761b 22be bdd4 15be 6693 883e
00000240: 0e94 ac3d daad 10bd 33eb bdbe 5917 023e
00000250: 9e03 83bd 61d0 e7be 16ec 6f3e ead5 083e
00000260: a8bf d93e 0d50 93bd a612 7a3e 37b1 6b3e
00000270: 840d 58be f978 8d3e bfd4 a43d 921f 2abe
00000280: 22dd 1abe d878 393d a8bf 973d b156 e9bc
00000290: f22c 86bd 0584 dcbd 4b44 393e b2b8 5ebe
000002a0: 5a34 28bb 2ce8 753e 960d 24be ab9d ec3d
000002b0: 76dd 8ebb a65b 8a3d 8fe9 87be 17ea abbe
000002c0: 2934 0ebd cb12 84bd e5b1 3fbe ba5f d8bd
000002d0: 3f90 b23e d93c 9ebe 450f b7bc 72f2 28be
000002e0: 4580 0c3e caa7 823e 5611 2fbe 7946 873e
000002f0: b260 983d 2c15 55be d9e0 6b3d 4795 cb3d
00000300: 2c05 02bd aafb 1cbe 68c3 5a3d 417c dc3d
00000310: 1365 c4bd 0076 c13e feb5 1b3e caff a3bd
00000320: 795e 83be 1e9d bc3c 5b8d 113e b6d1 5ebe
00000330: e568 c6bd 0492 a53e d59e 33be d9b0 983e
00000340: 7659 003e fd2e 2dbe e210 473d 249a 233d
00000350: bd39 dcbe f9d1 833e fa2c 103e e274 8a3e
00000360: d114 183e c7cb 2b3e 66b8 a43d 3581 a13e
00000370: 5e7e c53d 667c e23c f2a4 7e3e 5b61 013d
00000380: af9a 5f3e fadb 43bd 8ad2 0c3e 9633 91be
00000390: 18d4 1d3e cb91 f43c 4ac7 a23e 2757 93be
000003a0: ea83 5a3d 99d2 f7be db6f 87be 6d03 333c
000003b0: d99a 4a3e 31fd 1abc 3070 3e3e 573f ad3d
000003c0: 327a 893e 4735 a0bc f5b4 55be b828 63be
000003d0: 983a dc3e 5471 ee3d fbf5 aebe 8f15 ae3b
000003e0: d381 f0bc 5a41 213e 61e0 173e 4fea 71bd
000003f0: 80a2 93be 9556 763c b681 813d ef60 10be

actor.weight f4 [3, 64]
-0.0896593 0.025873024 0.041235685 0.08763923 -0.22785023 0.056708537 -0.32779184 -0.26423442
0.13916725 0.4205964 0.3969073 0.035047177 -0.114948414 0.064574085 -0.16777349 0.0649388
0.09015866 0.09116992 0.12239301 0.028838934 -0.029946303 -0.16496329 -0.10210794 -0.26769406
0.26495755 -0.22566213 -0.18794228 -0.11290959 -0.12898177 -0.15885028 -0.100961335 0.10603833
0.085630596 0.02240701 -0.0798123 0.022824878 -0.049064238 0.3696006 -0.26740903 -0.009947808
0.08731828 -0.11070667 0.00043076114 -0.11017632 -0.024315402 -0.30563384 0.06320658 0.11699847
0.18168329 -0.075520724 0.22902304 0.06256802 -0.0885853 0.047191173 0.28633294 -0.19400533
0.046444423 0.047568746 0.2068429 0.00285454 0.03627446 0.074077055 -0.16104807 -0.012897794
0.3297917 -0.117831245 -0.3788616 0.25881603 0.15892605 0.28781798 0.04498701 -0.21369377
-0.11127699 0.21968684 -0.16011208 -0.1915983 -0.20885295 0.10986352 0.16489059 -0.27138454
0.05104185 0.21090442 -0.0012393715 0.21726288 -0.10351314 0.10885562 -0.24158332 0.05168135
0.09501825 -0.16511771 0.085205905 0.30273765 -0.20368344 -0.0045731463 -0.1330317 0.35901913
0.06572483 0.15253827 0.28823048 -0.059856873 -0.3746682 -0.1337288 0.0810076 -0.09665526
-0.21315487 -0.12233407 0.27530354 -0.21105947 -0.07208303 -0.31486616 0.11173012 0.2773647
0.34681457 -0.37405896 0.03326381 -0.38027388 -0.3436065 -0.15962589 -0.08246027 0.09673761
-0.20257947 0.123460345 0.05812047 -0.16958334 -0.5515916 -0.086802945 -0.4398238 -0.10057102
-0.107778795 -0.026085297 0.18518917 -0.11910228 0.2567081 -0.143222 0.32212734 0.2702529
-0.08224847 -0.4178549 -0.25306255 0.16827933 0.10926707 -0.017852928 0.019258479 0.12471555
0.035773207 -0.19571164 -0.07663597 0.0039225314 0.057932895 -0.014505889 0.1160353 0.12376807
-0.2352919 0.21256626 0.13853611 -0.09433816 0.2066784 0.07496668 0.19452928 -0.27297202
-0.14900449 -0.18511392 0.06659467 0.058855273 0.25277486 -0.21530251 0.22375594 -0.08298529
0.0878156 0.1392379 -0.104631364 0.15253994 0.1869835 0.27971005 -0.13330975 -0.2559915
-0.27459714 0.17024685 -0.17175889 0.17459677 0.22848211 -0.04157985 -0.2540822 0.18367702
0.071247555 -0.13484025 -0.045798603 0.11073649 0.12348638 -0.03770544 0.29248458 0.14265889
00000000: 4c9f b7bd aaf3 d33c c0e6 283d 327c b33d
00000010: 9251 69be 3647 683d 55d4 a7be bc49 87be
00000020: dc81 0e3e 6958 d73e 6f37 cb3e a18d 0f3d
00000030: 136a ebbd 6b3f 843d d0cc 2bbe a2fe 843d
00000040: 1ba5 b83d 4cb7 ba3d 30a9 fa3d a13f ec3c
00000050: f351 f5bc 23ec 28be f81d d1bd 320f 89be
00000060: 84a8 873e f913 67be f173 40be 253d e7bd
00000070: cc13 04be a6a9 22be d1c4 cebd a02a d93d
00000080: 185f af3d e88e b73c a274 a3bd 3dfb ba3c
00000090: 95f7 48bd 4a3c bd3e d6e9 88be 22fc 22bc
000000a0: edd3 b23d 2eba e2bd c8d7 e139 1fa4 e1bd
000000b0: 1831 c7bc 0a7c 9cbe 7472 813d e59c ef3d
000000c0: 2f0b 3a3e 9caa 9abd 0485 6a3e a923 803d
000000d0: 366c b5bd 884b 413d 3b9a 923e 55a9 46be
000000e0: 823c 3e3d 72d7 423d a0ce 533e 3c13 3b3b
000000f0: 8794 143d b6b5 973d c9e9 24be 4551 53bc
00000100: 75da a83e 8251 f1bd 26fa c1be 8983 843e
00000110: 83bd 223e e15c 933e 4d44 383d 8ad2 5abe
00000120: 31e5 e3bd 96f5 603e 6cf4 23be 5832 44be
00000130: 8cdd 55be 2000 e13d 14d9 283e eaf2 8abe
00000140: 4211 513d 54f7 573e 6872 a2ba 297a 5e3e
00000150: b2fe d3bd b2ef de3d 9e61 77be d3af 533d
00000160: ee98 c23d 9e14 29be 6f80 ae3d 6e00 9b3e
00000170: 6492 50be 55da 95bb 7639 08be 5bd1 b73e
00000180: bd9a 863d fe32 1c3e f292 933e 7b2c 75bd
00000190: 83d4 bfbe 34f0 08be 50e7 a53d 31f3 c5bd
000001a0: 4545 5abe 498a fabd 96f4 8c3e f91f 58be
000001b0: 45a0 93bd 2336 a1be c3d2 e43d bf02 8e3e
000001c0: ae91 b13e a884 bfbe a23f 083d 42b3 c2be
000001d0: 31ed afbe f874 23be eee0 a8bd 5e1e c63d
000001e0: fe70 4fbe c7d8 fc3d bb0f 6e3d 41a7 2dbe
000001f0: 1b35 0dbf bec5 b1bd 9630 e1be 2ef8 cdbd
00000200: 21bb dcbd d5b0 d5bc 3ba2 3d3e e5eb f3bd
00000210: 3e6f 833e caa8 12be e0ed a43e 975e 8a3e
00000220: e371 a8bd 14f1 d5be 6a91 81be 6b51 2c3e
00000230: 6ac7 df3d 4e40 92bc f5c3 9d3c de6a ff3d
00000240: ed86 123d a268 48be 52f3 9cbd 9488 803b
00000250: 0b4b 6d3d 1caa 6dbc eaa3 ed3d 1d7a fd3d
00000260: 5cf0 70be f8aa 593e 69dc 0d3e 5d34 c1bd
00000270: 81a3 533e 2188 993d af32 473e fdc2 8bbe
00000280: a294 18be 818e 3dbe c962 883d 3a12 713d
00000290: b56b 813e 4378 5cbe 4720 653e 31f4 a9bd
000002a0: aad8 b33d 6194 0e3e f848 d6bd 6e33 1c3e
000002b0: 9a78 3f3e 2836 8f3e 5a82 08be 5111 83be
000002c0: ff97 8cbe 3155 2e3e 90e1 2fbe 7fc9 323e
000002d0: 37f7 693e a24f 2abd 1017 82be d415 3c3e
000002e0: 3dea 913d 9013 0abe 5197 3bbd d0c9 e23d
000002f0: 6de6 fc3d 0571 1abd 8ac0 953e 2c15 123e

critic.weight f4 [1, 64]
-0.05286087 -0.03844866 0.01219812 -0.044569198 0.03469357 -0.0054356223 0.11607495 -0.028766941
0.011377962 -0.10668383 -0.077009045 -0.009829667 0.020060766 -0.048977964 0.004353312 0.02578753
-0.04901629 -0.037345123 -0.016003009 0.0076671327 0.003165834 -0.029073056 -0.03564642 0.085218124
-0.05665237 -0.027200736 0.033145968 0.050381783 -0.005066123 0.07502518 0.028647799 -0.045560762
0.010347889 -0.036410328 0.06314096 -0.015826127 0.030073462 -0.019546887 0.10278801 0.019933373
-0.02177114 -0.015566156 0.010663878 -0.034452736 0.009181209 0.02117679 -0.0029693183 -0.037600208
-0.0005792558 -0.0027054092 -0.0061388547 0.14881004 0.07498838 0.024364447 0.0066548847 0.012460983
-0.021020543 -0.0056399964 0.04872186 0.048120566 0.38850406 0.009104964 0.090314545 -0.007823002
00000000: a484 58bd 587c 1dbd a0da 473c 318e 36bd
00000010: d81a 0e3d 4e1d b2bb b4b8 ed3d a6a8 ebbc
00000020: a26a 3a3c 0d7d dabd ebb6 9dbd 9d0c 21bc
00000030: 7a56 a43c 1e9d 48bd 3aa6 8e3b 5f40 d33c
00000040: 4ec5 48bd 33f7 18bd be18 83bc 923c fb3b
00000050: e179 4f3b 9e2a eebc fb01 12bd d786 ae3d
00000060: 510c 68bd 14d4 debc 11c4 073d 215d 4e3d
00000070: b801 a6bb cda6 993d caae ea3c ec9d 3abd
00000080: 318a 293c ff22 15bd 0c50 813d cba5 81bc
00000090: 9f5c f63c cb20 a0bc 8582 d23d 504b a33c
000000a0: 6459 b2bc 3109 7fbc 8cb7 2e3c 501e 0dbd
000000b0: c86c 163c f37a ad3c e598 42bb ad02 1abd
000000c0: 33d9 17ba 3c4d 31bb 7228 c9bb a961 183e
000000d0: 8293 993d f397 c73c 3811 da3b 2729 4c3c
000000e0: 4633 acbc b8cf b8bb 9390 473d 121a 453d
000000f0: 01ea c63e fd2c 153c d5f6 b83d 0c2c 00bc
