model_params_101000/1.0_V3_0.5g_0.0rm_100bz_0.0td_1.0tds_Nonelb_Noneup_64n_50000e_10md_5.0rz_40s.pth (torch, 22904 bytes, 4 tensors)

rnn.weight_ih_l0 f4 [64, 9]
0	0x3e377940	0.17917347
1	0x3ed6af0e	0.4193043
2	0x3db33da2	0.0875199
3	0xbf04363a	-0.51645243
4	0xbdaa1455	-0.08304659
5	0x3d573c86	0.052547954
6	0x3d96a8a6	0.07356386
7	0xbf0a85ba	-0.541103
8	0xbe8db97f	-0.27680585
9	0xbdede4c5	-0.116159
10	0xbeb79fd6	-0.35864133
11	0xbe8d8c9b	-0.27646336
12	0x3e84247a	0.2580908
13	0xbd54e947	-0.051980283
14	0xbf2008ef	-0.6251363
15	0xbda74356	-0.0816714
16	0xbe265e3d	-0.16246887
17	0xbf0a18ec	-0.5394428
18	0xbef75604	-0.48307812
19	0x3e2e01c1	0.16992857
20	0xbee9a354	-0.45632422
21	0x3ed66ab1	0.41878274
22	0x3da533b9	0.08066506
23	0xbeed4aca	-0.46346122
24	0x3e7f61e6	0.24939689
25	0x3d8609a5	0.06544808
26	0xbe25a5e6	-0.16176566
27	0xbf5c14a9	-0.85969025
28	0x3f092226	0.5356773
29	0xbd820d26	-0.06350164
30	0xc03055b6	-2.7552314
31	0x3f2758c9	0.6536985
32	0xbf7c3afb	-0.985275
33	0xbe7097b9	-0.23495378
34	0x3c11241c	0.008858707
35	0x3e8d85d6	0.2764117
36	0xbdeabead	-0.1146215
37	0xbe9b491b	-0.30329213
38	0xbf51399b	-0.81728524
39	0x3f266a99	0.65006405
40	0xbeece89c	-0.46271217
41	0x3c5f44b7	0.013627223
42	0x3eb56212	0.35426384
43	0x3e9c4758	0.3052318
44	0x3e46c6bc	0.19411749
45	0xbedf694f	-0.43635032
46	0xbdb96920	-0.09053254
47	0x3e920316	0.2851798
48	0x3d772f7f	0.06034803
49	0xbe9e4795	-0.30913988
50	0xbed9ac92	-0.42514473
51	0x3f0b9049	0.54517037
52	0x3ea8a923	0.3294154
53	0xbf4c9d6c	-0.79927707
54	0x3dd1eb00	0.10249901
55	0xbe77987f	-0.24179266
56	0x3f148828	0.5802026
57	0x3f56592c	0.83729815
58	0xbe804c1c	-0.25058067
59	0x3e1baab5	0.15201838
60	0xbe9b1ed5	-0.3029696
61	0xbe1586be	-0.14602181
62	0xbef3c39c	-0.47610176
63	0xbefe40e9	-0.49658898
64	0xbe24a7c4	-0.16079623
65	0x3c66814b	0.014068912
66	0x3e630013	0.22167997
67	0xbe788c95	-0.24272378
68	0x3f118e87	0.56858104
69	0xbe2c97cf	-0.16854785
70	0xbeb1319b	-0.34608158
71	0xbe12f25e	-0.14350268
72	0x3e49a3a4	0.1969133
73	0x3e777e31	0.24169232
74	0xbe880f1a	-0.26574022
75	0xbea0407c	-0.31299198
76	0x3dae6b16	0.08516519
77	0x3efcf8f9	0.494087
78	0x3f402f8d	0.75072557
79	0xbf3de487	-0.7417683
80	0xbdcc2eca	-0.09969862
81	0x3ee35760	0.444026
82	0x3ea5df5b	0.3239697
83	0xbe48e7b8	-0.19619644
84	0xbe647beb	-0.22312896
85	0xbedaea41	-0.42756847
86	0xbd59936f	-0.05311912
87	0xbccf3d6e	-0.025297847
88	0xbee966eb	-0.45586333
89	0x3f15028e	0.58207023
90	0x3ef74d88	0.4830134
91	0xbe647efe	-0.22314069
92	0xbe90cae0	-0.2827978
93	0x40009ea7	2.0096834
94	0xbead50a1	-0.33850577
95	0x3f52fa57	0.8241324
96	0xbedb1ede	-0.42796987
97	0x3d635917	0.055504885
98	0x3d286cba	0.041119315
99	0xbf1f881e	-0.62317073
100	0x3e61c8ef	0.22049306
101	0xbf3aa6a0	-0.729105
102	0x3e5679a3	0.20944838
103	0xbf261af6	-0.6488489
104	0x3ecf1871	0.40448335
105	0x3e214898	0.15750349
106	0xbe5efc96	-0.21776041
107	0x3e78bd98	0.24291074
108	0x3e9122b7	0.28346798
109	0x3f42f6bb	0.7615773
110	0xbeb1f33a	-0.3475588
111	0xbf81b1fc	-1.0132442
112	0xbec78030	-0.38964987
113	0xbe982f94	-0.297238
114	0x3ee66fbc	0.45007122
115	0x3e11c39e	0.14234778
116	0x3e02aabe	0.12760445
117	0x3f11ad42	0.56904995
118	0x3f05a274	0.5220101
119	0x3e96498c	0.29352987
120	0x3f0c3f23	0.5478384
121	0x3ea92962	0.33039385
122	0x3ef52497	0.47879478
123	0xbef581c5	-0.4795057
124	0x3e446c39	0.19181909
125	0x3e942e7b	0.28941712
126	0xbec53f3b	-0.38524804
127	0xbeb69dee	-0.35667366
128	0xbe152d68	-0.14568102
129	0xbe0e0691	-0.13869692
130	0xbf07c4e7	-0.53034824
131	0xbe8e920f	-0.2784581
132	0x3eb73bbe	0.35787767
133	0x3e01f8bb	0.1269254
134	0xbd75be33	-0.05999584
135	0xbe16074e	-0.14651224
136	0xbe654d8e	-0.22392866
137	0xbec7cf4f	-0.3902535
138	0x3e9bb7dd	0.30413714
139	0xbed157b2	-0.4088722
140	0x3e8223f1	0.25418046
141	0x3c0c7122	0.008571895
142	0x3d03ea77	0.032206025
143	0xbf0f0f32	-0.5588256
144	0xbe9d162d	-0.3068098
145	0xbe7c0c48	-0.2461406
146	0x3e8b19ea	0.27168208
147	0xbe3c1916	-0.18368945
148	0xbd932fd8	-0.0718686
149	0xbde200a0	-0.110352755
150	0x3b9a76fd	0.0047138915
151	0xbeaba000	-0.33520508
152	0xbef52f14	-0.4788748
153	0x3e82c264	0.25538933
154	0xbf0d6552	-0.5523273
155	0xbc9c434b	-0.019075057
156	0xbe9305f8	-0.2871549
157	0x3e49855f	0.19679783
158	0xbe02e5b9	-0.12782945
159	0xbdb6a483	-0.08918097
160	0x3ef47bdf	0.47750756
161	0x3f083447	0.5320477
162	0xbd8a64d5	-0.067575134
163	0x3dee06b0	0.11622369
164	0xbeb90fa3	-0.36144742
165	0xbd5879de	-0.052850597
166	0xbe9660fc	-0.29370868
167	0xbf10b1cd	-0.565213
168	0xbf3b6606	-0.7320255
169	0xbe65a9f8	-0.22428119
170	0xbeb681a0	-0.3564577
171	0xbe30e9cd	-0.17276688
172	0xbf17cffe	-0.59301746
173	0xbea3ed7e	-0.3201713
174	0xbda8a227	-0.08234053
175	0xbe5129f1	-0.20426156
176	0xbe7277cc	-0.23678511
177	0x3ecb6fd3	0.39733753
178	0xbcc05d50	-0.023481995
179	0x3e642933	0.22281341
180	0xbe08e15b	-0.13367216
181	0xbea534c0	-0.32266808
182	0xbe8556a9	-0.2604268
183	0xbefb2343	-0.4905034
184	0x3d5c61bc	0.053804144
185	0xbe384ae4	-0.17997319
186	0xbe686337	-0.22694097
187	0x3c8ace60	0.01694411
188	0xbe7e1122	-0.24811223
189	0xbf9ad39d	-1.2095829
190	0x3e2617d3	0.16220026
191	0xbef6bb37	-0.4818971
192	0x3e9f5781	0.31121448
193	0xbf0268fc	-0.50941443
194	0x3e57cfaa	0.21075311
195	0x3e051355	0.12995656
196	0xbe81002b	-0.2519544
197	0x3e8e6575	0.2781178
198	0x3e1e5d04	0.1546517
199	0xbca903d6	-0.020631712
200	0x3f0dce36	0.5539278
201	0xbd79a2aa	-0.060946144
202	0xbe71d14f	-0.23615001
203	0xbf312937	-0.69203514
204	0x3c8a746e	0.016901221
205	0x3ceed6d2	0.029155169
206	0xbe8e6b29	-0.27816132
207	0xbf022e95	-0.5085233
208	0x3c14218d	0.009041202
209	0xbe66f753	-0.22555284
210	0xbfa1eff7	-1.2651356
211	0x3dd9295c	0.10603592
212	0xbe2a2df8	-0.16619098
213	0xbe8c8518	-0.27445292
214	0xbc58f13b	-0.013241108
215	0xbe3c96a7	-0.18416844
216	0xbf026b4f	-0.5094499
217	0x3f23fc73	0.6405708
218	0xbeaa8f2c	-0.33312356
219	0x3e994675	0.29936567
220	0x3ebfb664	0.3744384
221	0x3f5ba81d	0.85803396
222	0xbe3ccf7a	-0.18438521
223	0x3dbb36ca	0.091413096
224	0x3eda93ea	0.42690974
225	0xbf3fa6d5	-0.7486394
226	0x3ee2bf0d	0.44286385
227	0x3e213668	0.1574341
228	0xbf6bb780	-0.92076874
229	0x3de3d6f0	0.111249804
230	0xbe2613b6	-0.16218457
231	0xbd3876d8	-0.045035213
232	0xbea8b0d0	-0.32947397
233	0xbe9527c6	-0.29131907
234	0x3f1e3619	0.61801296
235	0x3d41fe08	0.047361404
236	0xbbccc877	-0.006249483
237	0xbf17ae48	-0.5925031
238	0xbebe3dab	-0.37156424
239	0xbebfbc69	-0.37448433
240	0x3ea21bdb	0.31661877
241	0xbdf179d1	-0.11790813
242	0xbe60f81c	-0.21969646
243	0x3e5c869a	0.21535721
244	0xbd232565	-0.039830584
245	0xbf00f9f6	-0.5038141
246	0xbe65947b	-0.22419922
247	0xbf090d42	-0.53535855
248	0xbec4574e	-0.38347858
249	0xbe2eaf74	-0.17059118
250	0x3e046582	0.12929347
251	0xbeda184c	-0.42596662
252	0x3ed6f7e7	0.4198601
253	0xbf149414	-0.5803845
254	0x3df568ba	0.11982866
255	0x3f2d7f8e	0.6777276

rnn.weight_hh_l0 f4 [64, 64]
0	0x3d3e89fd	0.046518315
1	0xbd1e5a3a	-0.038660266
2	0xbd6dc288	-0.058046848
3	0x3d2a7048	0.041610986
4	0x3e8a11e6	0.2696678
5	0xbe08f0bd	-0.13373084
6	0xbe534387	-0.20631228
7	0xbe5ec6e5	-0.2175556
8	0xbf155962	-0.5833951
9	0xbe2ac927	-0.16678296
10	0x3dc41a9f	0.0957539
11	0x3ec9d3ea	0.3941949
12	0xbe1991d4	-0.14997035
13	0xbe4c2ef6	-0.19939789
14	0x3e8be072	0.27319676
15	0xbe502d98	-0.20329893
16	0xbcdce7d2	-0.02696601
17	0x3de901e7	0.11377316
18	0xbe070165	-0.13184126
19	0x3ca16e43	0.019705897
20	0x3e26dd1b	0.16295283
21	0xbdbebd36	-0.09313433
22	0x3e6aae3c	0.22918028
23	0xbe723eff	-0.23656844
24	0xbed448ed	-0.41461888
25	0xbd72a36d	-0.059237886
26	0x3ddc5e81	0.10760213
27	0xbe67c93e	-0.22635362
28	0x3d9d330d	0.07675753
29	0x3e8f337c	0.27968967
30	0xbd1aebf0	-0.037822664
31	0x3c1f7d0b	0.009734402
32	0xbe985e13	-0.29759273
33	0x3ee7e4ae	0.45291656
34	0xbd1598fe	-0.036522858
35	0x3d87153b	0.06595846
36	0x3e33dc07	0.17564403
37	0x3e32f658	0.17476785
38	0x3e28c240	0.1648035
39	0x3e4aa94a	0.19791141
40	0x3e358557	0.17726646
41	0x3e2731e6	0.16327628
42	0x3e17f4fb	0.14839546
43	0xbe60374c	-0.21896094
44	0x3eb68056	0.35644788
45	0xbcf9ba6b	-0.030484399
46	0x3d4b1a61	0.049585704
47	0xbc496928	-0.012293138
48	0x3e2de88d	0.16983242
49	0x3ec9d570	0.39420652
50	0x3d6e0a81	0.058115486
51	0xbed8877a	-0.4229086
52	0xbe2551ff	-0.1614456
53	0x3df0848e	0.11744033
54	0x3e2cb1b8	0.1686467
55	0x3e1091a3	0.14118056
56	0x3cbce9a3	0.023060625
57	0xbd22b758	-0.03972563
58	0x3e062f53	0.1310399
59	0xbd6ad429	-0.057331238
60	0xbd4b3828	-0.0496141
61	0xbcf1cb90	-0.029516011
62	0x3c7c0d00	0.015383959
63	0x3c795bd2	0.015219646
64	0x3e5f01f6	0.21778092
65	0x3cc61f9f	0.024185
66	0x3e038f7c	0.12847704
67	0x3ecdd79f	0.40203568
68	0xbd914dce	-0.07094918
69	0xbc24acd9	-0.010050976
70	0x3e19ae79	0.15007962
71	0xbd8a842d	-0.06763492
72	0x3e38e214	0.18054992
73	0xbe355837	-0.17709433
74	0xbc719d8f	-0.014747038
75	0xbe3ddc12	-0.18540981
76	0xbdd09e71	-0.1018647
77	0xbeb28001	-0.34863284
78	0xbe7a0c59	-0.24418773
79	0x3e09006a	0.13379064
80	0x3ea9a74c	0.3313545
81	0xbdfad923	-0.12248447
82	0x3d06bebf	0.032896753
83	0xbd960fdf	-0.07327246
84	0x3ea44bd9	0.32089117
85	0x3d439521	0.047749642
86	0x3e9e3c2b	0.3090528
87	0xbe470c47	-0.19438277
88	0xbd88b7b7	-0.06675666
89	0x3e65921f	0.22419022
90	0x3d3f526b	0.04670946
91	0x3e212954	0.15738422
92	0xbdc41fbf	-0.095763676
93	0xbccb29cd	-0.024800206
94	0xbead8b19	-0.33895186
95	0xbf2030d6	-0.6257452
96	0x3eca55cc	0.39518583
97	0x3e3477af	0.1762378
98	0xbe4c3100	-0.19940567
99	0xbec9825e	-0.39357275
100	0xbe24f4f6	-0.1610907
101	0x3e2c99b4	0.16855508
102	0xbe170207	-0.14746867
103	0x3df96d11	0.12179006
104	0x3e29f547	0.16597472
105	0x3d194569	0.03741971
106	0x3e5038ee	0.20334217
107	0x3ec7346c	0.38907182
108	0x3d4fb781	0.050712112
109	0xbcc795b1	-0.02436337
110	0x3d0289db	0.03186975
111	0xbe8a7a6e	-0.2704653
112	0xbcb2faf4	-0.02184818
113	0x3ea54c9d	0.32285014
114	0x3e39a5f4	0.18129712
115	0x3e1d3619	0.15352668
116	0x3d89a9f0	0.06721866
117	0xbb8084b3	-0.003922069
118	0xbebd7138	-0.37000442
119	0xbd2fca94	-0.042917803
120	0x3c9970e0	0.01873058
121	0xbced2f0b	-0.028953096
122	0x3e484fee	0.19561741
123	0xbda67092	-0.0812694
124	0xbd8fb63d	-0.07017181
125	0xbdae9d44	-0.0852609
126	0x3e4c6550	0.19960523
127	0x3e821612	0.25407463
128	0xbe06cd1b	-0.13164179
129	0xbea753df	-0.32681176
130	0x3d6f3606	0.05840113
131	0xbef355c8	-0.47526383
132	0x3e31aedf	0.17351864
133	0xbdbe00f5	-0.09277526
134	0xbee5fca6	-0.44919318
135	0x3e668823	0.2251287
136	0x3d4f1e7c	0.05056618
137	0x3e0243e1	0.12721206
138	0xbdd646b7	-0.104627065
139	0xbd90dc7d	-0.07073305
140	0x3e1a7f5e	0.15087649
141	0x3d4731d8	0.04863152
142	0xbe9b5a77	-0.30342457
143	0x3e9dc278	0.3081243
144	0xbe48eacc	-0.19620818
145	0xbd879b5a	-0.06621428
146	0x3e2965d3	0.16542749
147	0x3d80fac2	0.06297828
148	0x3da96346	0.08270888
149	0x3e06778b	0.1313154
150	0xbd8fbc85	-0.07018379
151	0x3e26611a	0.16247979
152	0x3e494944	0.19656855
153	0xbb428d0a	-0.0029686117
154	0xbeb042da	-0.34426004
155	0xbdf755de	-0.12076925
156	0x3cfc7717	0.030818505
157	0x3d9cf1f2	0.07663335
158	0xbdec83d1	-0.115485795
159	0x3f2b63f8	0.66949415
160	0xbaa22316	-0.0012370076
161	0x3e595e40	0.2122736
162	0x3e3768d1	0.17911078
163	0x3e930fd4	0.28723013
164	0xbe3508ca	-0.17679134
165	0xbd4c0483	-0.04980899
166	0xbe9b0b12	-0.30281883
167	0xbe37568b	-0.17904107
168	0x3e2ed538	0.17073524
169	0xbd28f391	-0.041247908
170	0xbe34d5f9	-0.17659749
171	0x3db581a9	0.08862621
172	0xbe24753f	-0.16060351
173	0xbe444d09	-0.19170012
174	0xbe234ab5	-0.15946467
175	0x3e4bb3d5	0.19892819
176	0x3d31a467	0.043369677
177	0x3d16b0f4	0.03678985
178	0xbc712f5e	-0.014720766
179	0xbd926a29	-0.07149155
180	0x3c329cfe	0.010901688
181	0x3e2b7df0	0.1674726
182	0xbdd4c1e9	-0.10388548
183	0xbdc99757	-0.09843319
184	0xbedd96b2	-0.43279034
185	0xbe92e7a2	-0.28692347
186	0x3e765b42	0.2405825
187	0xbcb284c6	-0.021791827
188	0xbdc162e7	-0.09442692
189	0x3bb9b37a	0.005667147
190	0xbe9332d5	-0.2874972
191	0xbea9028f	-0.33009765
192	0x3e2250af	0.15851091
193	0xbe25f6a4	-0.16207367
194	0xbc9e8612	-0.01935104
195	0x3ec97bb9	0.39352205
196	0x3dc0a92e	0.094072685
197	0xbd95f38b	-0.07321843
198	0xbd48f1d6	-0.049058758
199	0x3e071a8a	0.13193718
200	0x3eab42a2	0.33449274
201	0xbcfbc002	-0.030731205
202	0xbd6887dd	-0.056770194
203	0x3d189a03	0.037256252
204	0x3cadf3d3	0.021234429
205	0xbd959e0d	-0.073055364
206	0x3dda34db	0.10654613
207	0x3d1fa47f	0.038975235
208	0xbd89d939	-0.06730885
209	0x3cfb6fe4	0.030693002
210	0x3d97c189	0.07409961
211	0x3d9b5e6d	0.0758637
212	0x3e095399	0.13410796
213	0xbc743709	-0.0149056995
214	0x3ddc2a5e	0.107502684
215	0x3d65db33	0.056117248
216	0xbce6118c	-0.028084539
217	0xbd833694	-0.06406894
218	0x3d441801	0.047874454
219	0xbe352b22	-0.17692235
220	0xbe27f42c	-0.16401738
221	0x3cc69889	0.024242656
222	0xbd2f3dd4	-0.042783573
223	0xbe9a96c9	-0.30193165
224	0x3f0989be	0.537258
225	0xbc74c2d0	-0.014939025
226	0x3e11be0d	0.14232655
227	0xbd4a061c	-0.049322233
228	0x3ccd4fa4	0.02506239
229	0x3d4f1803	0.05056001
230	0x3d2c6545	0.042088766
231	0xbc2575b5	-0.010098864
232	0xbc102fd3	-0.008800465
233	0x3e079240	0.13239384
234	0xbe38f6ad	-0.1806285
235	0xbca91d63	-0.020643895
236	0x3db5371b	0.08848401
237	0xbba67ff9	-0.0050811735
238	0xbd7e5c26	-0.0620996
239	0xbe194591	-0.14967944
240	0xbe0cd368	-0.1375252
241	0xbdcd6f88	-0.100310385
242	0xbd9f3985	-0.07774643
243	0x3e22ba9d	0.158915
244	0xbe930d35	-0.28721014
245	0x3d19c444	0.03754069
246	0xbb92b97a	-0.004477677
247	0x3a66d275	0.0008805164
248	0x3d77f68b	0.060537856
249	0x3c97d8f0	0.018536061
250	0x3d855c73	0.06511774
251	0xbd1134ce	-0.03545075
252	0xbca026ae	-0.019549694
253	0x3e57f90c	0.21091098
254	0xbc27f505	-0.010251288
255	0xbcbe8545	-0.023256907

actor.weight f4 [3, 64]
0	0x3df24ccb	0.11831053
1	0x3e8001e8	0.25001454
2	0xbe8aed67	-0.2713425
3	0x3eee3f99	0.46532896
4	0xbe8a876d	-0.27056447
5	0xbcbdf13b	-0.023186317
6	0x3d0f14b2	0.034931846
7	0xbb0d5e32	-0.0021571037
8	0x3beea129	0.0072823954
9	0xbc97148b	-0.018442413
10	0xbe140af4	-0.14457303
11	0xbb99fc47	-0.0046992633
12	0x3ccb45e3	0.024813598
13	0xbe4fef64	-0.20306164
14	0x3c8633ea	0.016382176
15	0xbd5bda15	-0.053674776
16	0xbd8069ce	-0.06270181
17	0x3df6957f	0.12040233
18	0xbb37a2b9	-0.0028020574
19	0x3b54ad7e	0.0032452042
20	0x3cbd8729	0.023135738
21	0x3c00283c	0.007822093
22	0x3e878a90	0.26472902
23	0xbabae36b	-0.001425845
24	0xbd4067a2	-0.046973832
25	0x3e16ec96	0.14738688
26	0x3ce656e9	0.028117614
27	0x3e277bf0	0.16355872
28	0xbe9043c7	-0.2817671
29	0x3e29603b	0.16540615
30	0xbc95475e	-0.018222507
31	0xbe978539	-0.29593828
32	0x3d82a1f4	0.06378546
33	0x3e21b904	0.15793234
34	0xbe504868	-0.20340121
35	0xbdcd97c1	-0.100387104
36	0x3cff6fb2	0.03118119
37	0x3df6774f	0.12034475
38	0x3dd4588a	0.1036845
39	0x3dd92922	0.106035486
40	0x3cffdb89	0.031232612
41	0x3cfe180c	0.031017326
42	0xbdc92824	-0.09822109
43	0xbde3dd15	-0.111261524
44	0xbd14ca7f	-0.036325928
45	0x3d0710cc	0.032975003
46	0xbd3435d3	-0.043996643
47	0xbde74fe6	-0.11294536
48	0xbe825324	-0.25454056
49	0x3e0122f8	0.12610996
50	0xbdcc8541	-0.09986354
51	0x3e6bcbc1	0.23026945
52	0xbca78a63	-0.02045173
53	0xbe8212e2	-0.2540503
54	0x3d82838f	0.06372749
55	0x3def96a1	0.11698652
56	0x3e1000f8	0.1406287
57	0x3d41056b	0.047124308
58	0x3cd35065	0.025795171
59	0x3df23a8d	0.11827574
60	0xbdfc9e48	-0.12334877
61	0x3e15572c	0.14584035
62	0xbc9ad90e	-0.018902328
63	0xbc317c6b	-0.010832886
64	0xbd17c686	-0.03705456
65	0x3dd1ca92	0.10243715
66	0xbc957e94	-0.018248834
67	0x3ca0693d	0.019581432
68	0x3ca3fc08	0.020017639
69	0xbd986425	-0.07440976
70	0xbe41555f	-0.18880223
71	0xbd4f3c6d	-0.050594736
72	0xbeee6588	-0.46561837
73	0xbebf8991	-0.37409642
74	0x3ee48595	0.44633165
75	0x3efa4e27	0.4888775
76	0xbe816394	-0.25271285
77	0x3c6cf58e	0.014462842
78	0xbeb9e493	-0.363072
79	0xbe88e35c	-0.2673596
80	0xbdbde668	-0.09272462
81	0xba893446	-0.0010467849
82	0x3ef5ed65	0.4803268
83	0x3e509891	0.203707
84	0xbc22d711	-0.009938971
85	0x3e29aa6a	0.16568914
86	0x3de2fc1e	0.11083244
87	0x3d97603b	0.073914014
88	0xbdabbeb0	-0.0838598
89	0x3e8b9827	0.2726452
90	0xbe9fd66f	-0.31218287
91	0x3c8c6c0a	0.01714136
92	0xbaf74a28	-0.0018866705
93	0x3c58a63e	0.013223229
94	0x3d18fcb1	0.03735036
95	0x3d42a1f8	0.047517747
96	0xbe68b029	-0.2272345
97	0xbdc3fb44	-0.095694095
98	0xbcc29d74	-0.02375672
99	0x3d209835	0.039207656
100	0xbe3c236d	-0.18372889
101	0xbdb45b82	-0.08806516
102	0x3c54b498	0.01298251
103	0x3e1b0eed	0.15142412
104	0x3c4763e3	0.012169811
105	0xbea44b33	-0.32088622
106	0x3df14573	0.117808245
107	0xbe885882	-0.26630026
108	0xbe1ef566	-0.155233
109	0x3d87d543	0.06632473
110	0xbd959886	-0.07304482
111	0x3e1ac09c	0.15112537
112	0xbdec95f2	-0.11552037
113	0x3c40fc4c	0.011778902
114	0x3d82b38d	0.06381903
115	0xbde98b38	-0.11403507
116	0x3e9c39e3	0.30512914
117	0xbc7f9dd3	-0.015601593
118	0x3e3c2b5e	0.18375918
119	0xbe71ab04	-0.23600394
120	0xbde6c786	-0.11268525
121	0xbede5cbd	-0.4343013
122	0x3e107517	0.14107166
123	0x3e57d8d1	0.21078803
124	0xbd6e2257	-0.058138218
125	0x3ef9868b	0.4873546
126	0xbe37637c	-0.17909044
127	0xbea7a3ed	-0.32742253
128	0x3d2bbab8	0.041926116
129	0xbe6685c3	-0.22511964
130	0x3e2748af	0.1633632
131	0xbea38b38	-0.31942153
132	0x3de424e5	0.111398496
133	0x3d2db11c	0.042405233
134	0x3d916acd	0.07100449
135	0x3cf92c2a	0.030416567
136	0x3e93cc53	0.28866825
137	0x3e38f3c4	0.18061739
138	0xbdb21768	-0.08695871
139	0xbe3ef9e5	-0.18650015
140	0x3d667ce9	0.056271467
141	0x3e554116	0.2082561
142	0x3e251497	0.16121136
143	0x3e0d0a67	0.137735
144	0x3d50683a	0.05088065
145	0xbc731243	-0.014835897
146	0xbe46f196	-0.19428095
147	0xbd6a2ec0	-0.05717349
148	0x3d588b46	0.052867197
149	0xbda3d4c9	-0.0799957
150	0xbe1a3086	-0.15057573
151	0xbd878170	-0.06616485
152	0x3d8759a3	0.06608894
153	0xbe69cacf	-0.22831272
154	0x3e2d67b7	0.16934095
155	0xbe090b76	-0.13383278
156	0x3e2907ac	0.16506833
157	0xbe399b75	-0.18125708
158	0xbd60e0cb	-0.05490188
159	0x3e588138	0.21143043
160	0x3dd39532	0.10331191
161	0xbe1d1b52	-0.15342453
162	0x3dfdabbb	0.123862706
163	0xbcf19ba5	-0.029493162
164	0x3d3bb4bd	0.045826662
165	0x3d41598f	0.04720455
166	0xbd91a9cc	-0.07112464
167	0xbd9eb0e3	-0.07748582
168	0x3c371a71	0.011175738
169	0x3de2f209	0.11081321
170	0xbd090956	-0.03345617
171	0x3e00358d	0.12520428
172	0x3db90bbb	0.090354405
173	0xbd610796	-0.054938875
174	0x3dc71073	0.09719934
175	0xbd85fee6	-0.06542759
176	0x3e63ff61	0.22265388
177	0xbd174f71	-0.036940996
178	0x3cfeac53	0.03108803
179	0xbda3e2b7	-0.08002227
180	0xbda19814	-0.07890335
181	0x3e216dfb	0.1576461
182	0xbe28c210	-0.16480279
183	0xbbdf2a08	-0.0068104304
184	0xbd1bf8d0	-0.038079083
185	0x3e017f77	0.1264628
186	0xbd424206	-0.047426246
187	0xbe1655c7	-0.14681159
188	0x3d35b8b5	0.044365603
189	0xbe9b7b78	-0.30367637
190	0x3dcbae43	0.09945347
191	0x3e4f2018	0.20227087

critic.weight f4 [1, 64]
0	0x3c50de17	0.012748263
1	0x3c07da5d	0.008291808
2	0xbbab2654	-0.005223075
3	0xbe61324f	-0.21991847
4	0xbbf58985	-0.0074932002
5	0x3cf5121b	0.02991586
6	0xbb20c35d	-0.0024530508
7	0x3c2789e2	0.010225745
8	0x3c4905d6	0.012269458
9	0xbaa9d27e	-0.0012956408
10	0xbe2ee9c3	-0.1708136
11	0xbac8f787	-0.0015332558
12	0xbcd4e5b0	-0.02598843
13	0x3c9d4915	0.019199887
14	0x3d43ca43	0.047800314
15	0x3ca5fbf8	0.02026175
16	0xbb5a64e8	-0.0033324305
17	0xbb8d69db	-0.0043155975
18	0xbc9434f7	-0.018091662
19	0xbd20748a	-0.03917364
20	0xbba8d660	-0.0051525086
21	0x3ca0ae1a	0.019614268
22	0x3cad6cb3	0.021169996
23	0x3c03473d	0.00801259
24	0x3b736b6b	0.0037142884
25	0x3c25f96d	0.0101302685
26	0x3c1ed454	0.009694178
27	0x3cd88190	0.026428968
28	0x3cc699c1	0.024243237
29	0xbccd3f3b	-0.025054565
30	0x3c2468ac	0.010034721
31	0x3dfe4edc	0.12417385
32	0xbcbea5cb	-0.023272416
33	0xbd18f90c	-0.037346885
34	0x3a7efff5	0.00097274716
35	0x3c1c658e	0.009545697
36	0x3c9829a6	0.018574547
37	0x3a4ed369	0.0007889779
38	0x3bb89f7b	0.005634246
39	0xbd840142	-0.064455524
40	0xb9ca14b2	-0.00038543862
41	0x3be27fa9	0.006912191
42	0xbce11c05	-0.027479181
43	0x3c97fcfe	0.018553253
44	0x3bc6d135	0.00606742
45	0xbc6d9f30	-0.014503285
46	0x3bf3e4df	0.007443055
47	0xbb4d2646	-0.003130333
48	0x3c3ae62a	0.011407414
49	0xbd32ce64	-0.04365386
50	0x3c07a0ac	0.008278053
51	0xbcb40da5	-0.021979162
52	0x39e7e460	0.00044229906
53	0x3d3ea15c	0.046540603
54	0xbc7c0872	-0.015382873
55	0x3be713b7	0.0070519107
56	0xbc5197c8	-0.012792535
57	0x3e1d093c	0.15335554
58	0xbc19e080	-0.009391904
59	0xbc180877	-0.009279362
60	0x3b3e266d	0.0029014603
61	0xbc1485b4	-0.00906508
62	0x3c420280	0.011841416
63	0x3cc0da8d	0.023541713
