model_params_101000/10.0_V3_0.95g_0.0rm_100bz_0.0td_0.5tds_Nonelb_Noneup_64n_50000e_10md_5.0rz_1s.pth (torch, 22912 bytes, 4 tensors)

rnn.weight_ih_l0 f4 [64, 9]
000000 00 f5 8c 3f 5c cb fd 3e 6c 71 49 be 02 37 05 3f
       1.1012268 0.49569213 -0.19672173 0.5203706
000010 1b 19 cd be af a2 8e 3e 51 a2 ed 3e 8a c9 dc bd
       -0.40058216 0.27858493 0.464129 -0.10780628
000020 87 90 69 3e 56 e8 c9 3e cc a6 12 3d f0 27 49 3d
       0.22809039 0.3943507 0.0358036 0.049110353
000030 80 c2 2d 3e 4c f1 ff be 02 61 00 be 22 0a 2f be
       0.16968727 -0.49988782 -0.12537006 -0.17093709
000040 b4 fc 23 bc 92 f9 5e 3e 33 0d a2 3e 0e 94 20 be
       -0.01000898 0.21774891 0.31650695 -0.15681478
000050 8f 1f 29 3d d0 e9 36 3e be 68 31 3f 23 19 be 3e
       0.041289862 0.1786263 0.6930045 0.37128553
000060 89 28 15 3f 4c d9 01 bf 4d 28 93 3d e4 c2 28 3f
       0.58264977 -0.50722194 0.07185421 0.6592238
000070 e3 27 81 3e 1a 86 43 3e 3f ba 53 3f 81 41 f6 3e
       0.25225744 0.19094124 0.82706064 0.4809685
000080 6b d4 90 be 29 57 1e bd ca de 9d be 36 3f 9a be
       -0.28287062 -0.03865734 -0.30834037 -0.3012635
000090 65 b9 9f 3e 3a 90 27 bf 16 4e 80 3e 92 40 01 3f
       0.31196132 -0.6545445 0.25059575 0.5048915
0000a0 88 31 42 3d c1 46 ce bc 19 6d 5c 3f fa 5f 4c be
       0.047410518 -0.025180222 0.8610397 -0.19958487
0000b0 80 c2 a1 3e 29 e0 07 bf 72 9e ab 3e 9a be 03 be
       0.31593704 -0.53076416 0.33519322 -0.12865677
0000c0 bc 50 f7 3d 7d 21 39 3c e7 89 9a bd ae 90 60 be
       0.12075946 0.011299488 -0.07545834 -0.21930191
0000d0 db 46 d6 bd f3 f0 0e be ef 8e 81 be ef eb 7d be
       -0.10462733 -0.13959102 -0.25304362 -0.24797033
0000e0 a0 ee 7d 3e 77 87 90 be 86 7e 40 3e b6 48 f0 3c
       0.2479806 -0.2822835 0.18798265 0.029331546
0000f0 ac b8 a4 be 33 c5 30 bf 52 4f 7e 3e d4 d5 02 3d
       -0.32172143 -0.690509 0.24834946 0.031942204
000100 28 61 06 be a0 76 93 be 1b f9 ad 3e f9 47 a4 3e
       -0.13123 -0.2880144 0.33979115 0.3208616
000110 a0 19 34 3f c1 04 0f be 41 c0 47 be 13 d0 31 be
       0.703516 -0.13966657 -0.19506933 -0.1736453
000120 1f 3d 20 bf 9f 7b 6c be b6 91 99 be 7b 6e 1c bf
       -0.62593263 -0.23094033 -0.2999398 -0.6110608
000130 53 58 c0 3e 79 6e c8 be 70 ac 53 bf 1a 6f 80 bf
       0.37567386 -0.39146784 -0.82684994 -1.0033906
000140 7a 28 93 3e a8 cc 43 3f 6c 3d 01 3d 3c 47 ca bd
       0.2874182 0.76484156 0.031552717 -0.09876868
000150 aa 89 47 3d db a8 e5 be 07 57 bf be e3 db 07 3f
       0.04871527 -0.4485539 -0.37371084 0.53069896
000160 fa ee 68 be 1e 5d a7 bd 24 cf 23 bf fa 70 07 bf
       -0.22747412 -0.081720576 -0.63987947 -0.52906764
000170 2f 49 86 bd 63 74 28 3f c5 37 e4 bd c5 be 80 3e
       -0.065569274 0.6580259 -0.1114345 0.25145546
000180 9d a9 0f 3e 53 ce 0f be 38 03 d8 3d 91 36 59 bf
       0.14029546 -0.1404355 0.10547489 -0.84848887
000190 a5 d2 e4 bd 18 56 ab 3e d2 d2 aa 3e 69 4f 06 bf
       -0.1117299 0.33464122 0.33363968 -0.5246492
0001a0 72 27 2c bf 85 e7 31 3d 86 74 0a bf e6 0e d9 3a
       -0.6724769 0.043433685 -0.5408405 0.0016560226
0001b0 a6 c5 0e 3f 55 a1 38 be 3e 1e c7 be e3 cb 3a bf
       0.5577034 -0.18030293 -0.3889026 -0.72967356
0001c0 85 46 72 3e 69 6d f5 bc f9 e2 36 3e 41 22 c6 3e
       0.23659714 -0.029959397 0.1786002 0.3869801
0001d0 0b ec e3 bd a0 c5 be be a7 43 71 bd 80 18 96 3e
       -0.11129006 -0.3726015 -0.05890241 0.29315567
0001e0 de df 1e 3f 1d c1 e6 be e4 49 b5 bd 94 82 77 3e
       0.62060344 -0.4506921 -0.08851984 0.24170905
0001f0 4a 6e fd bd e2 9f cb 3d fe 22 4d 3e 43 42 c2 bd
       -0.123745516 0.099426046 0.2003288 -0.09485295
000200 66 72 ea 3e c6 d4 cb 3c e5 e7 a8 3d 8f 78 ff 3d
       0.45790404 0.024881732 0.08247355 0.124741666
000210 ea 86 95 be 9e 3c 02 3e 0c 26 08 3f 21 e1 10 3f
       -0.29204494 0.12718436 0.53183055 0.5659352
000220 45 5a e7 3e ef ec 1d 3f db 86 e7 3e b8 7c 72 bf
       0.45186058 0.61689657 0.45220074 -0.94721556
000230 31 05 9b 3b 74 51 b7 3e a9 35 b5 3d 66 92 b7 be
       0.0047308435 0.3580433 0.088481255 -0.3585388
000240 5a f2 80 3e 44 a4 0e bd af e8 e5 3e bb 7c 4b bf
       0.251849 -0.034824625 0.44904086 -0.794872
000250 3f 77 af 3d 18 a4 ab be 86 49 8a 3d 05 8e 91 be
       0.08567666 -0.3352363 0.06752305 -0.28428665
000260 ab 51 a2 be 39 f7 7b 3d af 44 98 be 0e 93 71 3f
       -0.31702933 0.061515067 -0.297399 0.9436501
000270 f2 19 30 3f 9c 92 7b be 7b 69 8a 3e f1 98 a4 3a
       0.6878959 -0.24567646 0.270336 0.0012557787
000280 1b 66 91 3e fa dc a1 3d e0 88 70 3f 9d 05 8b 3e
       0.28398213 0.07903476 0.93958855 0.2715272
000290 e2 5e 6f bf 61 23 99 3f 4f 0f 88 be be 9b 1a be
       -0.93504155 1.1963922 -0.2657418 -0.15098473
0002a0 da 0e aa be f6 39 25 bf 56 c9 04 3f 76 f1 d9 3e
       -0.33214456 -0.64541566 0.51869714 0.42567033
0002b0 a8 48 27 bf 82 d7 8d bd 0b 44 4a 3f 59 34 cb bd
       -0.6534524 -0.069258705 0.79010075 -0.09922094
0002c0 65 9b af be 27 f3 4d 3c b2 7d 4b 3e 5a 80 37 3e
       -0.34298244 0.012570179 0.19872168 0.17920056
0002d0 24 36 4c bf 99 50 41 3f 22 ef 12 3e e0 ae 0c 3e
       -0.7977011 0.7551361 0.14349034 0.13738585
0002e0 dc 09 ce 3d af d8 83 be 87 fe f5 3e 21 f1 18 3e
       0.10060474 -0.25751254 0.4804575 0.14935733
0002f0 48 42 16 bf f5 0f b5 be b3 b8 3e 3f 14 bb ae 3e
       -0.5869489 -0.35363737 0.7450058 0.34127104
000300 43 69 fa bd 1d 62 6b be 51 62 bf 3c 8b 18 7e be
       -0.12227108 -0.22986646 0.02336231 -0.2481405
000310 03 18 52 3e 83 74 89 3e 9d 64 0e be bc 2d a3 3d
       0.20516972 0.26846704 -0.13905568 0.079677075
000320 bf 8d b0 3e ec f1 5a be d5 b7 5c bd 9c 02 bf 3d
       0.34483144 -0.21381348 -0.053886253 0.093266696
000330 a1 85 3d 3e 93 2b 74 bf c0 f4 73 3f 9f 95 9c 3d
       0.18508007 -0.9537899 0.95295334 0.076457255
000340 cd 66 eb be a4 04 81 be 2b 60 81 bf 9d b9 0a 3f
       -0.45976868 -0.25198853 -1.0107473 0.54189473
000350 13 b0 c4 3e 64 af bd 3e 1d 2f 93 bd 23 8c 24 3f
       0.38415584 0.37047875 -0.071867205 0.6427633
000360 1f 61 25 3f d9 2f 27 bf 47 67 00 3f 7d 5a cc 3e
       0.6460132 -0.65307385 0.5015759 0.39912787
000370 f5 46 5a 3e fd 60 62 bd 34 a9 80 3e 3a e4 85 3f
       0.2131613 -0.055268276 0.25129092 1.0460274
000380 79 0b 26 bd db 66 97 be 5a d5 8f be 70 ab d4 be
       -0.040538285 -0.2957066 -0.28092462 -0.41537046
000390 cd 7d 1c 3e aa 60 27 bd 6c 6c 04 3e 46 dc 5e be
       0.15282364 -0.04086367 0.12931985 -0.21763715
0003a0 05 9c a8 3e ba d9 de 3e 7c 25 cf 3e 44 7b 0f be
       0.32931533 0.43525487 0.40458286 -0.14011866
0003b0 9d 24 98 bd 0b 71 43 3f a0 94 9d be b5 59 23 3e
       -0.074288584 0.76344365 -0.30777454 0.1595219
0003c0 3e 01 b5 3e db 65 31 bc bb 9d ac 3e a1 42 68 be
       0.3535251 -0.010827507 0.3371409 -0.22681667
0003d0 54 9f d3 3e 12 e6 3b be 29 ca 68 3e d8 1c 95 be
       0.41332495 -0.18349484 0.22733368 -0.2912357
0003e0 ad cf a9 3e 35 e6 9f bc f9 e1 18 bd 5f 8b 47 be
       0.33166257 -0.019518951 -0.03732488 -0.1948676
0003f0 6d 43 d9 bc d4 63 c9 be ec b4 2f bf b4 c4 0d 40
       -0.026521409 -0.39333975 -0.6863544 2.2151308

rnn.weight_hh_l0 f4 [64, 64]
000000 7e c3 0b 3f 01 e0 61 bd d3 7f dd 3d 79 2a 49 3e
       0.5459517 -0.055145267 0.10815396 0.19645108
000010 bd fa 82 be b0 ba c7 bd b2 e3 d5 3c f7 49 cf be
       -0.25581923 -0.09752405 0.02610955 -0.40486118
000020 9e 95 0b 3e d9 6a d7 bd cf 4b 20 3e c1 e3 4a 3d
       0.13631293 -0.105184264 0.15653919 0.04953361
000030 ae e7 93 3e 00 63 82 ba 8b f3 7a 3d b4 65 29 bc
       0.28887695 -0.0009947717 0.061267417 -0.010339189
000040 10 74 ee be d8 89 a9 3d 65 d3 eb 3d 2c c4 24 bc
       -0.46572924 0.08278245 0.1151493 -0.010056537
000050 73 c4 3c 3d d6 6a 7d 3d 87 31 94 be 65 a1 d3 be
       0.046085786 0.061869465 -0.28944036 -0.41334072
000060 3b 92 31 3f c1 41 b8 3c eb e8 17 bd 39 70 33 3d
       0.69363755 0.022492291 -0.037087362 0.043808196
000070 b3 d2 14 3c cb b8 e6 be 5a d5 7e be 2d 32 63 be
       0.009083438 -0.4506286 -0.24886075 -0.2218711
000080 49 93 ee bd a8 58 a4 be 3d 2f 2c bc eb 76 83 be
       -0.11649186 -0.3209889 -0.010509309 -0.25676665
000090 9d d5 83 bd 02 40 94 be 1b b2 29 be 88 13 37 bd
       -0.06437228 -0.28955084 -0.16571848 -0.04469636
0000a0 6c 34 fb 3d 57 91 10 be 32 36 5a 3e 98 c3 c2 3d
       0.12265858 -0.14117943 0.21309736 0.09509963
0000b0 b8 ac 7f 3e d9 0a d5 3e 3b ff df 3d 42 40 57 3d
       0.2496823 0.4160984 0.10937353 0.052551515
0000c0 c4 a3 73 3d 74 db 52 be f0 2c 0b 3e b7 5e 14 3f
       0.05948235 -0.20591527 0.13591361 0.57957023
0000d0 e4 86 af 3e 72 e5 25 3d 99 10 33 be 28 f6 61 3e
       0.342826 0.04050202 -0.174868 0.22066557
0000e0 de 4a 4b be 69 d8 6e be 5d cf 94 3d a0 f2 eb 3d
       -0.19852778 -0.23324741 0.07266114 0.115208864
0000f0 db 63 86 be 17 46 94 bd 1e 22 a3 be f7 4e 86 3b
       -0.2624806 -0.07239931 -0.31861967 0.004098769
000100 dd 75 c4 bb 9b 46 91 3d 34 23 45 3e 7c 56 92 3e
       -0.0059954957 0.07093545 0.1925171 0.28581607
000110 78 6f 23 3e b9 06 41 3c 48 6f 0c 3e c9 11 1f 3e
       0.1596049 0.011781388 0.13714325 0.15534128
000120 32 bc 0b be 5d 70 4b 3e b3 cc fb bd 37 48 3a 3e
       -0.1364601 0.19867082 -0.12294903 0.1819161
000130 ba 1c 32 be 60 5a 40 bd 15 93 39 3e e3 f0 72 3e
       -0.17393771 -0.04696119 0.18122514 0.23724703
000140 7c 99 a7 3d e1 c3 06 3e 06 e3 b9 bd d0 34 8e 3d
       0.08183572 0.1316066 -0.090765044 0.06943667
000150 57 de 07 3e d6 84 48 3e a1 72 cc bd 39 ff d1 be
       0.1326841 0.19581923 -0.09982801 -0.41015032
000160 e9 7e 99 be 10 61 5f 3e 8a 01 11 be 46 75 6b bc
       -0.29979637 0.2181437 -0.14160743 -0.014371222
000170 36 f8 c8 be fb 56 ec 3e f5 7f d4 be 59 a5 62 be
       -0.3925187 0.4616011 -0.41503873 -0.22133388
000180 db ee 97 be 75 fc 9b 3c 6d b7 d0 3d 12 98 24 3e
       -0.2967442 0.01904128 0.10191236 0.16073635
000190 1e cc a3 3d 1f 1f d5 3d e6 8b 38 3d 5b 60 83 be
       0.07997917 0.104063265 0.045055293 -0.2565945
0001a0 bb f3 ad 3d 05 e1 ad bd 24 53 23 3e fa 31 84 3d
       0.084937535 -0.08490185 0.15949684 0.06454845
0001b0 c5 d5 5e 3d 95 23 0c be 67 7c 5e 3d b2 d9 94 bc
       0.054403085 -0.13685448 0.054317858 -0.018170211
0001c0 99 6b e1 3d 34 c6 8f 3e 19 2f d2 3d 6c ce 17 3c
       0.11006851 0.28080904 0.102628894 0.009265523
0001d0 6c e8 71 be 87 f4 30 bd a0 8f 09 3e d3 e8 f7 3c
       -0.23623818 -0.04320195 0.13433695 0.030262386
0001e0 db 0e 40 3d f0 24 e2 3e 55 3a 62 bd 6b 49 12 3e
       0.046889167 0.44168806 -0.05523141 0.14285819
0001f0 8a 39 ac 3e 5f fc 54 be 33 5f be be b8 c2 6b 3d
       0.3363765 -0.20799397 -0.37182006 0.057558745
000200 9a 05 67 3e e4 c9 b0 3e 57 ef 59 3d c3 9d 17 3d
       0.2256073 0.3452903 0.053206768 0.037015688
000210 48 52 95 3d 6b 89 ed 3e e4 df 81 be ee c3 25 3d
       0.072910845 0.46393904 -0.25366127 0.040470056
000220 05 4f 92 be 5b c3 58 3b c1 79 d8 be 43 3f 23 bc
       -0.28575912 0.0033075425 -0.4228039 -0.009963813
000230 3d 09 58 3e b4 ec 9c bc c0 21 12 be 9c 1f ba 3d
       0.21097274 -0.019155838 -0.14270687 0.0908806
000240 d5 53 b9 3e 51 98 2c 3e cc e0 9f be fa 97 5e 3e
       0.3619677 0.16854979 -0.31226194 0.21737662
000250 ba 90 98 3e 88 61 84 3e af f6 6f be 7c c6 5c 3e
       0.29797918 0.2585566 -0.23433946 0.21560091
000260 f3 45 ac 3d a4 45 c0 3e f8 a5 ae 3c 64 73 67 3e
       0.08411779 0.37553132 0.021319374 0.22602612
000270 56 f5 da bc c7 61 d9 bd f0 cd 12 3b d1 d5 4c be
       -0.026728313 -0.10614353 0.002240058 -0.2000344
000280 f8 53 9f be 1e fb d7 3d ef ac 02 3f 70 6c a1 ba
       -0.3111875 0.10545944 0.51045126 -0.0012315642
000290 be 2a 3b be 65 b3 e4 3d 24 48 b9 3d d4 54 32 3d
       -0.18278024 0.11167029 0.09046963 0.04353793
0002a0 86 e0 23 3d 0b 41 b0 3e 68 75 93 bd e6 0d 7e 3d
       0.040009044 0.34424624 -0.07200128 0.062024973
0002b0 96 b6 05 3e fa 0d a1 bd de dc a9 3e ad 5c 57 3e
       0.13057932 -0.07863994 0.3317632 0.21031447
0002c0 a6 e6 ac 3c f0 79 6e be 44 01 51 3c 7c 68 3b 3e
       0.021106075 -0.23288703 0.012756649 0.18301576
0002d0 3d 55 c3 3e 82 87 ef 3c 9f a7 8a be 94 6e 44 3c
       0.3815097 0.02923942 -0.2708101 0.0119892545
0002e0 33 60 09 be db 79 93 3e 68 91 1a be 8e fa e6 bd
       -0.13415603 0.28803906 -0.1509453 -0.11278258
0002f0 4b b9 c5 bc 64 92 7b 3e 54 34 37 bc f3 b2 e5 bd
       -0.024136206 0.24567562 -0.01118191 -0.112157725
000300 97 5e 61 be ed cf 96 bc c9 80 49 3d fc cf 26 3e
       -0.2200874 -0.018409694 0.049195085 0.16290277
000310 19 47 3f 3e 8c 8d e0 bc c9 30 a0 bb 81 53 cc bd
       0.18679465 -0.027411245 -0.004888628 -0.099768646
000320 5e 3d 85 bc 10 85 32 be 9e 1b e1 3e 32 4f df 3d
       -0.016264614 -0.17433572 0.43966383 0.10903777
000330 d5 d1 8c be 4b f2 0f 3e 1e 76 69 3e 36 4f ee be
       -0.2750384 0.14057271 0.22798964 -0.46544808
000340 14 21 c4 bd 96 a1 07 be 20 a5 df bd 79 33 a8 bd
       -0.09576622 -0.13245234 -0.10920167 -0.08212943
000350 6b 1e 76 be 04 aa ed bd 6b 01 2d 3e 9f 7c 3f 3c
       -0.24035041 -0.116046935 0.16895072 0.011687427
000360 64 2e bb 3c 3b f5 4e 3e e1 2b 2e 3d 04 a1 64 bd
       0.02284927 0.20210735 0.042522315 -0.05581762
000370 41 2b 9e bd 9f 58 31 be 3e ee ba 3c 18 07 f7 3e
       -0.07723094 -0.17318963 0.02281868 0.482476
000380 89 28 76 3e 7f 32 0e 3f e5 dd a9 3e 68 49 ce bc
       0.240389 0.555458 0.33177105 -0.025181487
000390 97 5a bc be 29 d3 80 3d 44 46 27 3e 49 12 8c be
       -0.36787865 0.062902756 0.16335398 -0.273577
0003a0 bd 20 2d be 18 d1 8d be 0e f8 92 3d 85 c2 23 bc
       -0.1690702 -0.27698588 0.07176219 -0.009995108
0003b0 26 e6 ed bd 26 4c ca 3e c5 93 83 bd ce 7f 49 3e
       -0.11616163 0.39511222 -0.06424669 0.1967766
0003c0 f2 21 61 3e 2c 16 50 be a8 08 f4 bd 4a b2 07 3f
       0.21985605 -0.20320958 -0.119157135 0.5300642
0003d0 df ce 86 be 02 d3 4d 3e 84 66 6c 3d 1c 30 04 be
       -0.26329705 0.20100024 0.057714954 -0.12908977
0003e0 f6 da 6f be 2f a5 43 be 82 46 51 3e 66 21 a5 3e
       -0.2342337 -0.19105981 0.20437053 0.32252043
0003f0 cd db 77 3e 36 00 4f 3d 0b ad 5f be b8 ff 99 bd
       0.24204941 0.05053731 -0.21843354 -0.075194776

actor.weight f4 [3, 64]
000000 77 a0 34 bd 34 d5 01 be 90 84 bc 3d 9e d1 31 3c
       -0.044098344 -0.12678987 0.09204972 0.010853199
000010 ee de f9 bd b2 06 85 3d 8f a4 7c 3e 42 36 9a be
       -0.122007236 0.06495418 0.24672149 -0.3011952
000020 e0 30 a5 3e 7c e5 32 bc eb be b0 be 98 5b 1e be
       0.3226385 -0.010918971 -0.3452066 -0.15464628
000030 aa d5 6c 3d f5 8b e0 3e 9d 52 78 3d 6a e5 18 be
       0.057820953 0.4385678 0.06062566 -0.14931265
000040 83 50 03 3d a2 7e 3c 3d b3 bc 53 be 13 04 5a be
       0.032059204 0.046019204 -0.20677452 -0.21290617
000050 85 e8 e3 3d 66 67 f3 3d 06 de 13 be 2d 76 83 3e
       0.11128334 0.11884956 -0.14440164 0.25676098
000060 ae 53 98 bd 4a a1 30 3d ce a5 a5 bd 8c 52 a1 3d
       -0.07437836 0.043122567 -0.08088265 0.07877073
000070 e1 53 cd be 95 5d 20 3b 59 bc da 3e 38 91 c7 3d
       -0.40103057 0.0024469842 0.42721823 0.09744495
000080 53 25 37 be 34 3e ea 3d 48 33 34 be c0 6b 92 3c
       -0.17885332 0.114376456 -0.17597687 0.017873645
000090 64 a5 14 3f 10 6e 15 3d 7a e1 75 be 02 52 19 bd
       0.58064866 0.036481917 -0.24011794 -0.037431724
0000a0 69 9a 4c be ae 00 e3 3d b8 cb 83 3e d7 a8 5f 3e
       -0.19980778 0.11084114 0.25741363 0.21841751
0000b0 4c fe 20 3e a3 63 85 be 6e 0f 62 3e 67 72 60 be
       0.15722007 -0.2605258 0.22076198 -0.21918641
0000c0 e6 36 8e bd 25 81 bf be 08 ad 2e bd e7 42 4e 3e
       -0.06944065 -0.37403217 -0.042645484 0.20142709
0000d0 4f 41 41 3e a3 5e 57 3c 69 68 81 3a 74 42 20 be
       0.1887257 0.013145122 0.0009873036 -0.1565035
0000e0 43 5f f5 bd 4a b7 e4 bc 8d 86 e1 be 70 80 07 3e
       -0.1198106 -0.02791943 -0.44047967 0.13232589
0000f0 1b 7f 29 3d 90 6a 29 bd 95 2d 00 be 8f 23 c6 3d
       0.041380983 -0.04136139 -0.12517388 0.09674751
000100 49 18 f7 3b ac 44 38 3e 25 55 82 be 05 3a 2c 3d
       0.007540737 0.17994946 -0.25455585 0.04204752
000110 b7 52 8c 3d 38 70 3d be b8 4d ed bd ad 0f a1 3e
       0.06851714 -0.1849984 -0.11587089 0.31457272
000120 ef 49 2d 3e 51 d9 b8 3d e2 8f 46 3e c0 94 69 3e
       0.16922735 0.09025825 0.19390824 0.2281065
000130 b4 41 35 be 10 d0 2a be 96 1d cc 3d 39 8c e5 3d
       -0.17700845 -0.16680932 0.099665806 0.11208386
000140 62 92 80 be 61 75 4b bd bd 44 c7 3d 43 7e 30 3d
       -0.2511168 -0.049672488 0.09729908 0.043089163
000150 00 36 cc be e2 ed ea bd 5f 80 66 bd 53 c4 c7 bd
       -0.3988495 -0.11471154 -0.056274768 -0.09754243
000160 fe 5f f6 bc 27 dc 17 3e c7 72 46 be f7 ae b0 3b
       -0.03007507 0.14830075 -0.19379722 0.005391951
000170 2d 7a 4b 3d 37 07 12 bd cb 74 13 3e 7f dd b6 3d
       0.049677063 -0.03565141 0.14400022 0.08928966
000180 76 9f 83 3d 6b 1e d2 3d 54 8b a8 be e9 15 40 3e
       0.06426899 0.10259708 -0.329188 0.18758358
000190 a1 7f 28 be 40 d8 dd 3d a5 c6 fb bd 16 b6 93 be
       -0.16454937 0.10832262 -0.12293748 -0.28849858
0001a0 45 f9 7b 3d 7c 7f cc be 8e 8d 47 be 65 6e 04 3d
       0.06151702 -0.39941013 -0.19487593 0.032331843
0001b0 4d 1a 4d 3e 7d 8d e2 3b a9 54 13 bf 4c 24 13 39
       0.20029564 0.0069138394 -0.57551056 0.00014032534
0001c0 42 8c cc 3d a0 52 5b 3e 35 c0 0e 3e f5 8a b3 bd
       0.099876896 0.21418238 0.13940509 -0.08766738
0001d0 81 27 3c be 20 d3 c5 3c 5c 83 12 3c 24 74 1c 3e
       -0.18374445 0.024148524 0.008942451 0.15278679
0001e0 b1 0b 56 3e 0c b4 f1 bb d3 d7 b5 3e fd dd ae 3c
       0.20902897 -0.0073761996 0.35516223 0.021346087
0001f0 5e 4e c6 3c b7 eb 3a 3e 38 de f4 3c cb 98 64 be
       0.02420729 0.1825398 0.029891118 -0.22323911
000200 3e 1a 1e bd 74 c5 c4 bd b5 8a f4 3c f1 ac c5 bd
       -0.038599245 -0.09607974 0.029851297 -0.096521266
000210 59 8e 19 3d 84 73 78 bd 2c 27 1e be e2 2f a9 bd
       0.03748927 -0.06065704 -0.1544463 -0.08261086
000220 e9 e8 92 be b5 fa f3 bc 71 76 3c 3d 64 ac 52 bd
       -0.2869332 -0.029782632 0.046011392 -0.051433936
000230 6b 60 07 3e 5c bd 2d be 26 a6 c6 bd 74 da ab 3d
       0.13220374 -0.16966766 -0.09699659 0.08391276
000240 e7 bb 0d 3d 13 c2 27 bd 06 fd 91 3d f2 ba c4 3d
       0.034603026 -0.040956568 0.071283385 0.096059695
000250 b2 07 7d 3e 87 8f 8f bd d4 72 e2 3c a9 91 49 3c
       0.24709967 -0.070097975 0.027642645 0.0123027945
000260 07 0e d2 3c d5 c7 0d be 6b 9c 58 3e 2c 5c 64 bd
       0.025641454 -0.13845761 0.21153419 -0.055751964
000270 20 82 30 3e fe 97 d6 3c 9f 03 c9 be 7e 60 f1 bd
       0.17237139 0.026195522 -0.39260575 -0.117859825
000280 2f c4 46 3e 0f 5a ea bd 21 23 a3 3e 4f d0 cb bd
       0.19410776 -0.114429586 0.3186274 -0.09951841
000290 c8 b9 55 be 78 35 97 3c 58 58 55 3e 2c 5b 9e 3e
       -0.20871651 0.018458113 0.20834482 0.30928934
0002a0 da 0f 4c 3e c3 ce ef 3d 13 af 15 bd 9a e3 58 be
       0.19927922 0.117093585 -0.036543917 -0.21180573
0002b0 c0 c3 73 be 4d 96 01 3e 33 ae bd 3d 7d e7 34 3e
       -0.23805141 0.12654991 0.092617415 0.17666431
0002c0 f9 6c 04 be bf 23 b8 3d 45 e4 cb bd cb 37 d2 3a
       -0.12932195 0.08991193 -0.09955648 0.0016038356
0002d0 a1 87 7c 3d e2 ef 49 3d 53 6f a7 bd 12 c5 1a 3c
       0.061652783 0.049301036 -0.0817553 0.009446399
0002e0 34 11 95 3b e8 aa 29 3d 59 a6 a9 3c 41 d2 3e be
       0.00454917 0.041422755 0.020709204 -0.18634893
0002f0 a3 ef 07 be f6 89 d0 bd d0 3c 5f 3b 9f dd 36 3d
       -0.13275008 -0.10182564 0.0034063347 0.044644948

critic.weight f4 [1, 64]
000000 c2 c8 57 bc 4d ec 79 3d 7d 52 8e 3d e8 e8 18 bd
       -0.013170423 0.06101637 0.06949327 -0.03733149
000010 35 35 a8 bd 26 ec dd 3c bd b1 dd bc cb 68 0e be
       -0.082132734 0.027090143 -0.027062291 -0.13907163
000020 17 7b 96 be 04 a1 b1 3c 70 11 93 3d d1 c4 5e 3c
       -0.29390785 0.021683224 0.0718106 0.013596729
000030 e5 e4 2c 3e f5 de 99 bd b9 bd 7e bd ca 17 27 3c
       0.16884191 -0.07513229 -0.062192652 0.010198543
000040 cc 1e 8d bb f8 2a 47 bc 81 0a 11 ba d8 93 3f 3c
       -0.00430665 -0.012156241 -0.0005532876 0.011692964
000050 69 73 b4 3d 3e d9 d6 3d fd 2c 26 3c a8 d8 4e bd
       0.08811075 0.104906544 0.010142562 -0.05049959
000060 0f 43 a5 3d 91 34 fd 3a 87 37 91 3d 3d eb 93 bd
       0.08069431 0.0019318034 0.07090669 -0.072226025
000070 85 33 98 3e 2c ad 3e bd 36 98 a6 be 40 b5 67 bd
       0.29726806 -0.04655187 -0.32538003 -0.056569338
000080 67 d0 15 3d 29 78 74 bd e1 c5 d5 3d 10 cb 02 bd
       0.0365757 -0.059684906 0.10438133 -0.031931937
000090 c7 e9 83 bd f8 e6 4d bd bd 99 63 3d 24 28 e7 3d
       -0.06441074 -0.050269097 0.055566538 0.11286953
0000a0 f3 67 a2 bc 4c 69 2f 3e bc 19 0e 3b a1 13 c4 bd
       -0.019824957 0.17130011 0.002168282 -0.095740564
0000b0 f9 a9 33 be 78 88 4e bb c7 8b 03 3e 56 6a 1f 3e
       -0.17545308 -0.0031514447 0.1284629 0.15567908
0000c0 b8 2b 85 bd ba da 5f 3c 70 f6 a8 bd 5f fd 1c be
       -0.06502479 0.013662988 -0.08250129 -0.15331028
0000d0 c3 5e b1 3c 19 59 c8 3b e2 d5 70 bd 99 90 09 3d
       0.021651631 0.006114137 -0.058797725 0.033585165
0000e0 38 37 9e bd 0a c4 6b 3b 24 1f ce bd cf b3 bd bd
       -0.07725376 0.0035975003 -0.10064533 -0.092628114
0000f0 68 e7 87 bd df d3 1f bd db b3 73 3d 47 c2 0b 3e
       -0.06635934 -0.039020415 0.059497695 0.1364833
