model_params_101000/19.0_V3_0.95g_0.5rm_100bz_0.0td_1.0tds_Nonelb_Noneup_64n_50000e_10md_5.0rz_0s.pth (torch, 22912 bytes, 4 tensors)

rnn.weight_ih_l0 f4 [64, 9]
0	0xbd28659f	-0.04111254
1	0xbe652bb3	-0.22379951
2	0xbeebd793	-0.46062908
3	0x3d44a353	0.04800732
4	0x3e29c86b	0.1658036
5	0x3e6aedb2	0.22942236
6	0x3f58a8aa	0.8463236
7	0x3eb92f14	0.3616873
8	0xbe5e03fa	-0.21681204
9	0x3f3724cc	0.7154052
10	0x3d35483e	0.04425835
11	0x3ba4b83c	0.0050268453
12	0x3f38efab	0.72240704
13	0x3b1ac889	0.0023618063
14	0xbea8bb02	-0.32955176
15	0xbe8e9374	-0.27846873
16	0xbea38a1e	-0.31941313
17	0x3f08db1f	0.5345935
18	0xbf0ee253	-0.55814093
19	0x3da74c60	0.08168864
20	0x3e31ca4a	0.17362323
21	0xbf13a8cd	-0.57679445
22	0x3f18ddf7	0.5971369
23	0xbe9383e9	-0.28811577
24	0x3e4e1ad4	0.20127422
25	0xbf47797e	-0.7791976
26	0x3f273f70	0.6533117
27	0x3ecee060	0.4040556
28	0x3e0a172a	0.13485399
29	0x3e471f52	0.19445542
30	0x3f357efd	0.70896894
31	0x3eaf23d3	0.3420702
32	0xbdade306	-0.08490567
33	0xbec4e116	-0.38452977
34	0xbdca8324	-0.09888294
35	0x3e29dd26	0.16588268
36	0x3edf91c0	0.43665886
37	0x3f05b13a	0.5222355
38	0xbdf5cd6c	-0.12002072
39	0xbfddc359	-1.732524
40	0x3e988415	0.2978827
41	0xbf131239	-0.5744968
42	0xbe0a4586	-0.13503084
43	0x3eac6b50	0.33675623
44	0xbe42355a	-0.18965665
45	0x3c482bcd	0.012217474
46	0xbf16585c	-0.58728576
47	0x3e8d5f11	0.27611592
48	0x3e94b1c3	0.2904187
49	0x3f18f9e5	0.5975631
50	0xbed29eae	-0.41136688
51	0x3d3791f6	0.044816934
52	0xbf679175	-0.90456325
53	0x3f459baf	0.7719068
54	0x3d471be2	0.048610575
55	0xbe764490	-0.24049592
56	0xbc166bf2	-0.00918101
57	0x3e884a05	0.26618972
58	0x3d9b79c0	0.07591581
59	0x3f1a4050	0.60254383
60	0xbe0f674b	-0.14004247
61	0x3e1b6ac2	0.15177444
62	0xbe08de16	-0.13365969
63	0x3e5db947	0.21652709
64	0x3efeb649	0.49748448
65	0x3e34e2c3	0.17664628
66	0x3e474cc1	0.19462873
67	0xbe81524a	-0.25258094
68	0x3e817d28	0.252908
69	0xbede6c97	-0.43442222
70	0xbe3a1eb3	-0.18175773
71	0x3e11d876	0.1424273
72	0xbefa1fb0	-0.488523
73	0x3e5ef87f	0.21774481
74	0x3ea9d812	0.3317266
75	0xbf01b6ad	-0.50669366
76	0xbdf35f2b	-0.11883386
77	0xbe9d8feb	-0.30773863
78	0x3ddd8dc2	0.10818054
79	0x3e1f6e66	0.15569457
80	0x3ec6e0b6	0.38843316
81	0xbf72e8cc	-0.9488647
82	0xbeff6e84	-0.49889004
83	0x3e63ba96	0.22239146
84	0xbea6ef16	-0.32604283
85	0xbde5c5a4	-0.112193376
86	0xbf4f7237	-0.81033653
87	0xbf186c76	-0.595405
88	0xbe9c098a	-0.30476028
89	0xbf017e4c	-0.5058334
90	0xbf2edd2d	-0.6830624
91	0x3f3fb8c1	0.7489129
92	0xbeb2565b	-0.3483151
93	0x3f144513	0.579179
94	0x3eacf745	0.33782402
95	0x3e82518c	0.2545284
96	0x3d019085	0.031631965
97	0xbcc533b0	-0.024072498
98	0x3e527ca7	0.20555364
99	0x3e5f5d43	0.2181292
100	0xbf1a3541	-0.6023751
101	0x3e80e2ca	0.25173026
102	0x3ef83610	0.48478746
103	0x3d932062	0.07183911
104	0x3eee835d	0.46584597
105	0xbdf5388a	-0.119736746
106	0x3f1dd432	0.6165191
107	0x3ea22c20	0.3167429
108	0xbeb66d29	-0.35630158
109	0x3f0beaca	0.54655135
110	0x3e1523a5	0.14564379
111	0xbf191007	-0.5979008
112	0x3e4bb026	0.19891414
113	0xbe4bcbac	-0.19901913
114	0x3f2504a5	0.6446021
115	0x3ecbffb2	0.39843518
116	0xbf147156	-0.57985437
117	0x3eb5f4a1	0.355382
118	0x3e9e8b74	0.3096577
119	0x3e205746	0.15658292
120	0x3f65d3eb	0.89776486
121	0x3d938cb0	0.072045684
122	0x3dcdb967	0.10045128
123	0xbed586f5	-0.41704527
124	0x3efb97a2	0.49139124
125	0x3be9b4d0	0.00713215
126	0xbedb9920	-0.42890263
127	0xbecdab83	-0.40169916
128	0xbf04b52a	-0.51838934
129	0xbddeec79	-0.10884947
130	0xbe27282c	-0.16323918
131	0xbf6e4561	-0.93074614
132	0xbe9671e1	-0.29383758
133	0x3e92aed5	0.2864901
134	0xbe3647d7	-0.17800842
135	0xbcbd9e2d	-0.023146713
136	0x3e02b75d	0.1276526
137	0x3f783e4c	0.9697006
138	0xc015827f	-2.3360898
139	0x3e1fdcc9	0.15611567
140	0xbf40ad09	-0.7526403
141	0x3f47e853	0.78088874
142	0x3e8f5f90	0.28002596
143	0xbe85b787	-0.26116583
144	0x3ee236da	0.44182473
145	0xbea15801	-0.31512454
146	0xbd290f0e	-0.041274123
147	0x3e74829b	0.23877947
148	0xbd0ff6b9	-0.035147402
149	0x3f3bb3c5	0.7332118
150	0x3f325580	0.6966171
151	0xbc96c2ab	-0.018403372
152	0xbe55c89a	-0.20877305
153	0x3e5b6222	0.21424153
154	0xbe51b8cd	-0.20480652
155	0x3e60828c	0.219248
156	0xbf181a45	-0.59415084
157	0xbdc7962b	-0.09745439
158	0x3e649add	0.223247
159	0x3e097baa	0.1342608
160	0xbf239363	-0.6389677
161	0xbe2b897f	-0.1675167
162	0xbe796a66	-0.24356994
163	0x3e40b4b5	0.18818934
164	0xbf29ad31	-0.66279894
165	0x3eddc0f2	0.43311268
166	0xbe8abbdf	-0.2709646
167	0xbf0fb46a	-0.56134665
168	0x3e173c2c	0.14769047
169	0x3ed23b2b	0.41060767
170	0xbe76d274	-0.24103719
171	0xbf525d8e	-0.82174003
172	0x3ef52c53	0.4788538
173	0x3f2c35ea	0.67269766
174	0xbfedd70a	-1.858125
175	0x3f25d488	0.6477742
176	0xbf3a6392	-0.7280818
177	0xbf20f75f	-0.6287746
178	0xbec109e8	-0.3770287
179	0x3e554d9e	0.2083039
180	0xbf37fdc4	-0.7187159
181	0xbf3509b1	-0.7071791
182	0x3c8ea22a	0.01741131
183	0xbf1b5847	-0.60681576
184	0x3dd669db	0.10469409
185	0xbd1425ec	-0.036168978
186	0xbf26fe71	-0.65231997
187	0xbed4fcc9	-0.4159911
188	0xbc2aaccb	-0.010417174
189	0xbfb133b9	-1.384391
190	0xbf732332	-0.9497558
191	0xbd734a92	-0.059397288
192	0xbe4f74b3	-0.20259361
193	0x3d09b8c1	0.03362346
194	0xbf423f5f	-0.75877947
195	0xbfb6900b	-1.4262708
196	0xbeee6cb4	-0.4656731
197	0xbdc0443a	-0.09388013
198	0x3dede387	0.11615663
199	0xbb85a660	-0.0040786713
200	0x3e6695db	0.22518103
201	0xbf02db1b	-0.5111558
202	0x3e49b8e5	0.19699438
203	0x3dd33e42	0.10314609
204	0xbd7cb6b7	-0.061697688
205	0x3e16e743	0.14736657
206	0xbee7d803	-0.4528199
207	0x3ee8efd8	0.45495486
208	0xbe74d57c	-0.23909563
209	0x3e941300	0.28920746
210	0x3f8292ac	1.0201011
211	0x3e39ca12	0.1814349
212	0x3ea42982	0.32062918
213	0xbea4d351	-0.32192472
214	0xbef792c2	-0.48354155
215	0x3ee0c393	0.4389921
216	0xbf3034db	-0.6883065
217	0x3ee3f014	0.44519103
218	0xbf4c1ab4	-0.79728246
219	0xbe072000	-0.13195801
220	0xbd71b56b	-0.059010904
221	0xbf01e079	-0.50733143
222	0xbde75bc7	-0.11296802
223	0x3df9502c	0.12173495
224	0xbec486d6	-0.38384122
225	0xbf8bf282	-1.0933383
226	0xbf9cb3b6	-1.2242343
227	0xbe78d75e	-0.24300906
228	0x3f0397b5	0.5140336
229	0x3e791356	0.24323782
230	0xbe0b7c1f	-0.13621567
231	0xbe972286	-0.29518527
232	0xbfada547	-1.3566064
233	0x3d804bcc	0.06264457
234	0xbf84f0f7	-1.0386037
235	0xbf79495b	-0.97377557
236	0x3d560306	0.052248977
237	0x3e3f80d6	0.18701491
238	0x3ea453ec	0.32095277
239	0xbed611e9	-0.4181054
240	0xbf9bb567	-1.2164735
241	0xbf204b63	-0.6261503
242	0x3dd8bb7b	0.10582634
243	0x3d856343	0.06513073
244	0xbf28b887	-0.65906566
245	0xbd80e76a	-0.06294139
246	0x3e92ee93	0.28697643
247	0xbe6bc7cd	-0.23025437
248	0xbe96a37d	-0.29421607
249	0x3d1eb57a	0.03874729
250	0x3db33df6	0.087520525
251	0xbeb72728	-0.3577206
252	0x3ec9707d	0.39343634
253	0xbf50b188	-0.8152089
254	0xbe82c6a2	-0.2554217
255	0x3f713720	0.9422474

rnn.weight_hh_l0 f4 [64, 64]
0	0xbdca2d42	-0.098719135
1	0xbe0af202	-0.13568881
2	0xbdb7e420	-0.08979058
3	0x3e11ad39	0.14226235
4	0xbd084232	-0.033266254
5	0x3de55b77	0.11199086
6	0xbda80f08	-0.08205992
7	0xbee02cee	-0.4378428
8	0x3df3c632	0.11903037
9	0x3e296e7d	0.16546054
10	0xbe61510c	-0.22003573
11	0x3e372367	0.17884599
12	0xbcbed026	-0.023292612
13	0xbd0e85e5	-0.03479566
14	0xba235651	-0.00062308187
15	0x3f0b1da7	0.5434212
16	0xbeb0ec3f	-0.3455524
17	0xbe932cc3	-0.28745088
18	0xbc87a0b5	-0.016556123
19	0xbe185780	-0.14877129
20	0x3e76dc7a	0.24107543
21	0x3cf2e591	0.029650481
22	0xbbfee516	-0.007778774
23	0xbdee1e3d	-0.11626861
24	0x3e478dd2	0.19487694
25	0xbe96ef8e	-0.2947964
26	0xbd3faa98	-0.04679355
27	0xbe349299	-0.17634048
28	0xbcd8bfb2	-0.026458595
29	0xbd89423b	-0.067020856
30	0xbe9d219d	-0.30689707
31	0xbdccc4d0	-0.099984765
32	0x3e0cb313	0.13740186
33	0x3e74918b	0.23883645
34	0x3e0d6812	0.13809231
35	0xbe799eac	-0.24376935
36	0x3e26039d	0.16212316
37	0xbdb14caf	-0.08657204
38	0x3e8f4686	0.27983493
39	0x3c307a36	0.010771325
40	0xbdd6fef1	-0.10497845
41	0x3ea6c5b5	0.32572713
42	0xbde9e10f	-0.1141988
43	0xbafb22dd	-0.001916017
44	0x3d40eb10	0.047099173
45	0x3dacdea1	0.084409006
46	0xbe4c2b81	-0.1993847
47	0x3ef051dd	0.46937457
48	0x3eb84d16	0.35996312
49	0x3c90a71e	0.017657813
50	0xbe1dcf35	-0.15411074
51	0x3d05dbe3	0.032680403
52	0xbcdeccbc	-0.027197234
53	0xbea98add	-0.33113757
54	0xbe6527a5	-0.22378404
55	0xbedf0c37	-0.43564007
56	0x3e8eeabf	0.27913472
57	0xbc53cb79	-0.01292693
58	0xbe2209c7	-0.15824042
59	0x3dd94af2	0.10609998
60	0xbe969e14	-0.2941748
61	0x3e032c2d	0.1280982
62	0x3d388475	0.045048196
63	0xbe24d47b	-0.1609668
64	0x3db686ba	0.08912416
65	0xbe8757ec	-0.26434267
66	0x3e71bd24	0.23607308
67	0x3dee0ca9	0.116235085
68	0x3d54ca75	0.05195089
69	0xbe091639	-0.13387384
70	0xbe02cfc5	-0.1277457
71	0xbe81f58d	-0.25382653
72	0x3e64d10d	0.22345372
73	0x3e6605f6	0.22463211
74	0xbdcdbcc1	-0.100457676
75	0xbe83e7e1	-0.25762847
76	0xbe6e4f51	-0.23272444
77	0xbe795699	-0.2434944
78	0x3db02735	0.08601228
79	0xbe4d3da9	-0.20043053
80	0xbed5a467	-0.41726992
81	0x3ee891f6	0.4542386
82	0x3df3bc68	0.1190117
83	0x3e0ab8f2	0.13547114
84	0x3e021e27	0.12706815
85	0x3e9f2171	0.310802
86	0x3ecc6f6a	0.39928752
87	0xbd8c4212	-0.068485394
88	0xbe85590a	-0.26044494
89	0xbd714e24	-0.05891241
90	0x3d0fc8ca	0.035103597
91	0x3e641265	0.22272642
92	0xbcafc1cf	-0.02145472
93	0xbe77433e	-0.24146745
94	0x3e6e21d5	0.23255093
95	0x3de66e23	0.11251476
96	0x3e377db4	0.17919046
97	0xbce20e00	-0.027594566
98	0x3b4f5a43	0.0031639494
99	0xbe3d3ac8	-0.18479455
100	0xbe27b0c9	-0.16376032
101	0xbdd4cdf0	-0.10390842
102	0x3d898538	0.067148626
103	0x3e3e85c0	0.18605709
104	0xbedea7e4	-0.43487465
105	0x3cdfd5e4	0.02732367
106	0xbb4f08ac	-0.0031590862
107	0x3e80403b	0.25049004
108	0x3cc4ef95	0.024040023
109	0x3e393a22	0.18088582
110	0xbebcbc42	-0.3686238
111	0x3e36e3e3	0.1786037
112	0xbeb13182	-0.34608084
113	0xbda817d3	-0.08207669
114	0x3e850e65	0.25987545
115	0x3e7a572a	0.24447313
116	0xbd5dfe0f	-0.054197367
117	0xbd408faf	-0.047012027
118	0x3ea135f2	0.3148647
119	0x3cc47cea	0.023985345
120	0xbe535f90	-0.20641923
121	0x3d3e5233	0.04646511
122	0xbe030b1d	-0.12797208
123	0x3e2880a4	0.16455323
124	0x3db3f629	0.08787186
125	0xbe213289	-0.15741934
126	0xbd89964e	-0.067181215
127	0xbdae2f6f	-0.08505141
128	0xbe816fca	-0.252806
129	0xbe7dedf2	-0.247978
130	0x3d033563	0.032033335
131	0x3d049baa	0.032375015
132	0x3db034b4	0.08603802
133	0x3e2c6a11	0.16837336
134	0xbc3d2d6d	-0.011546475
135	0xbd205056	-0.039139114
136	0x3e063ffc	0.13110346
137	0x3da10802	0.078628555
138	0x3e8d94cc	0.27652586
139	0x3e15b6ba	0.14620486
140	0x3a5df576	0.00084670575
141	0xbc63b663	-0.013898465
142	0xbe5a8552	-0.2133992
143	0x3ce24a6c	0.027623378
144	0x3ce952b4	0.028481819
145	0xbd294ff7	-0.041336026
146	0xbe99a14f	-0.3000588
147	0x3e86004d	0.26172104
148	0xbc8329fc	-0.01601123
149	0x3dd67223	0.104709886
150	0xbe129531	-0.14314725
151	0x3e53aed5	0.20672162
152	0xbd7ebfce	-0.062194638
153	0xbc26d131	-0.010181711
154	0x3eacea74	0.33772624
155	0x3e2ed296	0.1707252
156	0x3e9ce85d	0.3064603
157	0xbe1011d7	-0.14069305
158	0xbcc7a244	-0.024369366
159	0xbe056df8	-0.13030231
160	0x3d8b91d9	0.068149276
161	0x3dd89d6c	0.10576901
162	0x3e357f0b	0.17724244
163	0x3e4482a7	0.19190465
164	0x3d7fbc92	0.062435694
165	0x3e7adaf9	0.24497594
166	0xbe1e2b91	-0.15446307
167	0x3c1a57d9	0.009420359
168	0x3e117715	0.14205582
169	0xbdfddeae	-0.123959884
170	0x3e797c21	0.24363758
171	0xbda6e857	-0.08149784
172	0x3e28dc41	0.1649027
173	0x3e974d10	0.29550982
174	0x3dbee549	0.093210764
175	0xbe632c78	-0.22184932
176	0xbdcf49ec	-0.10121521
177	0x3e590334	0.21192628
178	0x3e809834	0.25116122
179	0xbc692455	-0.014229854
180	0x3e4513dc	0.19245857
181	0xbd871cdb	-0.065973006
182	0x3e3fe469	0.18739475
183	0x3c61bc70	0.013777837
184	0xbde02460	-0.10944438
185	0xbed4f234	-0.41591036
186	0xbe1469be	-0.14493462
187	0xbd33e7f4	-0.04392238
188	0x3e2ee7c5	0.170806
189	0xbe28f671	-0.1650026
190	0x3e0f011a	0.13965264
191	0x3b9347e8	0.004494656
192	0x3e0055dc	0.12532753
193	0x3d81fd8a	0.06347187
194	0xbed20e9f	-0.4102678
195	0x3e4ee7c3	0.20205598
196	0xbe270806	-0.16311654
197	0xbe142544	-0.1446734
198	0x3c8bc0b6	0.017059665
199	0xbdf0a1af	-0.11749589
200	0x3e8d98e3	0.27655706
201	0xbd1eba23	-0.038751733
202	0xbe51af8b	-0.2047712
203	0x3eb796f4	0.35857356
204	0x3cc29724	0.02375371
205	0x3e26fb0b	0.16306703
206	0xbda5f203	-0.08102801
207	0x3e5a2ee5	0.21306951
208	0xbd873933	-0.06602707
209	0x3e9ee3a0	0.3103304
210	0x3e3df652	0.18550995
211	0xbec8bb16	-0.39205235
212	0xbc93d97a	-0.018048037
213	0xbd3b3fd9	-0.045715187
214	0xbd8f03ff	-0.06983184
215	0xbe075916	-0.13217577
216	0x3d011e00	0.03152275
217	0xbdcb1a9b	-0.09917184
218	0x3d28f1fc	0.0412464
219	0x3d9c157e	0.07621287
220	0x3d9d7cb4	0.07689801
221	0xbf14017a	-0.57814753
222	0xbe0d28c9	-0.1378509
223	0xbe089825	-0.13339289
224	0xbe944d7c	-0.28965366
225	0x3d699b40	0.057032824
226	0xbd0e852e	-0.03479498
227	0xbcbdac9c	-0.023153596
228	0xbdf3d59b	-0.119059764
229	0x3db04efe	0.086088166
230	0x3d82d34d	0.06387959
231	0xbe847f09	-0.2587817
232	0x3d96247c	0.073311776
233	0xbddb29f6	-0.10701363
234	0xbe90e75b	-0.2830151
235	0x3e3830de	0.17987391
236	0xbd973b8f	-0.07384407
237	0x3d74b58d	0.059743453
238	0x3ebd139b	0.3692902
239	0x3d46e3da	0.04855714
240	0xbd6a9441	-0.057270292
241	0x3e805e60	0.25072002
242	0x3e2a16b8	0.16610229
243	0x3d83fa18	0.06444186
244	0x3eca6ad1	0.3953462
245	0xbe9dc50e	-0.30814403
246	0xbe5a95a2	-0.21346143
247	0xbe2d5056	-0.16925177
248	0x3e104a40	0.14090824
249	0xbe188f01	-0.14898302
250	0xbe3d9d2b	-0.18516986
251	0x3d20afc0	0.03923011
252	0x3e246264	0.16053158
253	0x3d4d7561	0.05016077
254	0xbc8ab81b	-0.016933491
255	0x3e8bd4cb	0.27310786

actor.weight f4 [3, 64]
0	0x3d669bfc	0.056301102
1	0xbc7b590f	-0.015341057
2	0x3d956c19	0.072960086
3	0xbe650cfc	-0.22368234
4	0x3e365f6e	0.17809841
5	0x3e5a3a02	0.2131119
6	0xbe4e69ad	-0.201575
7	0xbdde01c1	-0.10840178
8	0x3deaa6ce	0.11457597
9	0xbce5305f	-0.027977167
10	0xbda580a2	-0.080811754
11	0xbe5b2c3e	-0.21403596
12	0xbdc6e365	-0.09711341
13	0xbea98dee	-0.33116096
14	0x3db631c2	0.08896209
15	0x3ee2afc7	0.44274732
16	0xbd3ce597	-0.04611739
17	0x3db1716b	0.08664211
18	0xbcf6f6cf	-0.030146984
19	0x3e0c0934	0.13675386
20	0x3d2e3507	0.04253104
21	0x3e77ebbf	0.24211024
22	0x3db150f3	0.08658018
23	0xbe5be873	-0.21475391
24	0xbdfa7376	-0.12229054
25	0x3cc3a8e5	0.023884246
26	0x3cbfa773	0.023395276
27	0x3ec01913	0.3751913
28	0x3dadbc9a	0.084832385
29	0x3ebc5fe0	0.36791897
30	0x3d928175	0.07153598
31	0x3e172347	0.14759551
32	0x3eacbf08	0.33739495
33	0x3ea109bd	0.31452742
34	0x3d456450	0.04819137
35	0x3b6a2572	0.0035727886
36	0x3e271da7	0.16319905
37	0x3e1f25c6	0.15541753
38	0xbc999f61	-0.018752756
39	0x3e4104c1	0.1884947
40	0x3e0c6e99	0.13714065
41	0x3dae501e	0.08511375
42	0x3d1379e7	0.036004927
43	0x3df10d60	0.11770129
44	0x3c578c30	0.013155982
45	0xbe1d4f1d	-0.1536221
46	0x3df7296c	0.120684475
47	0x3e8b69aa	0.27229053
48	0x3d360f1e	0.04444801
49	0x3e068e07	0.13140117
50	0x3cf00184	0.029297598
51	0xbe509614	-0.2036975
52	0xbe30c89b	-0.17264025
53	0x3d398691	0.04529435
54	0xbc8b53c0	-0.017007709
55	0xbd61735a	-0.05504165
56	0x3e3b36b6	0.1828259
57	0x3da86319	0.082220264
58	0x3db6b09b	0.089204036
59	0xbdce8b84	-0.10085204
60	0xbeac12b7	-0.33608028
61	0x3e1d41b7	0.153571
62	0xbec0b998	-0.37641597
63	0xbda5e1d5	-0.08099715
64	0xbdcdfcef	-0.10058009
65	0xbc5183f6	-0.01278781
66	0xbda9e9f3	-0.082965754
67	0x3e208eea	0.15679517
68	0xbf0c2fa5	-0.547602
69	0xbde06203	-0.10956194
70	0x3e63bbe7	0.22239648
71	0x3de2cf57	0.11074703
72	0xbe528df9	-0.20561971
73	0x3e4cf68a	0.20015922
74	0x3e88d290	0.26723146
75	0x3dd75212	0.105137005
76	0xbe07e85a	-0.13272229
77	0x3d066bd6	0.032817684
78	0x3e12a2cb	0.14319913
79	0xbe046ba3	-0.12931685
80	0x3de2194c	0.11039981
81	0xbd32bb90	-0.043635905
82	0xbe54df8d	-0.20788403
83	0xbdaeb924	-0.085314065
84	0x3dd766b2	0.105176345
85	0x3e067c1a	0.13133278
86	0xbe12785b	-0.14303724
87	0x3d955793	0.07292094
88	0xbd00e1fd	-0.03146552
89	0x3e67b044	0.22625834
90	0x3e333671	0.17501236
91	0xbe857f9e	-0.26073927
92	0x3e7e6e41	0.24846746
93	0xbdf352b3	-0.11881008
94	0x3e8583e0	0.26077175
95	0x3d9e5759	0.07731504
96	0xbe90bc91	-0.28268865
97	0xbd86e613	-0.06586852
98	0x3da62c0d	0.08113871
99	0x3da8a8c1	0.08235312
100	0xbe727c5f	-0.23680256
101	0xbe4d127f	-0.20026587
102	0x3dabb2b2	0.08383693
103	0xbebf7a6f	-0.37398097
104	0xbeb5fee5	-0.35546032
105	0xbe56d2aa	-0.209788
106	0xbdd928d8	-0.106034935
107	0x3db99a77	0.09062665
108	0xbe431609	-0.19051374
109	0xbe464cca	-0.1936523
110	0xbe7729a7	-0.24136983
111	0xbe604788	-0.21902287
112	0xbe30820d	-0.1723711
113	0xbe821147	-0.25403807
114	0x3db8c38e	0.09021674
115	0x3e756984	0.23966032
116	0x3d91cce5	0.07119159
117	0x3e3055b2	0.1722019
118	0x3e11cb10	0.14237618
119	0x3dd540d3	0.10412755
120	0xbebdd6d1	-0.37077954
121	0xbb77b2c3	-0.003779576
122	0x3b43af46	0.002985911
123	0x3eb565ac	0.35429132
124	0x3dc5a160	0.096499205
125	0xbdfecc73	-0.12441339
126	0xbd0a4766	-0.033759497
127	0x3c85d2c7	0.016335858
128	0xbd2e22b3	-0.04251356
129	0x3daaae6c	0.083340496
130	0x3db75521	0.08951784
131	0xbc3b0491	-0.011414663
132	0x3e138749	0.14407076
133	0x3ccf0cc3	0.02527464
134	0xbd09882b	-0.033577126
135	0xbda06c4d	-0.07833157
136	0x3dd87656	0.10569446
137	0xbde9e680	-0.114209175
138	0xbdc4b7dc	-0.09605381
139	0x3ae8cc13	0.0017761014
140	0x3e14834a	0.14503208
141	0x3e445998	0.19174802
142	0xbdf395b7	-0.1189379
143	0xbe0c5b1c	-0.1370663
144	0xbd87be25	-0.06628064
145	0x3da5e35c	0.08100006
146	0x3dc1d6f3	0.094648264
147	0x3d858299	0.0651905
148	0xbdbc6d02	-0.09200479
149	0xbe4ff265	-0.2030731
150	0x3cb4621f	0.022019444
151	0x3ddb61f0	0.107120395
152	0x3e0b95ce	0.13631365
153	0xbe092a4b	-0.1339504
154	0xbd81dba4	-0.06340721
155	0xbd93e00d	-0.07220469
156	0xbe503d19	-0.20335807
157	0xbdf0cc0d	-0.117576696
158	0xbdeca88c	-0.11555585
159	0xbd6fd1d2	-0.05854971
160	0xbd21a9a0	-0.039468408
161	0xbe412cba	-0.18864718
162	0xbe0ebb6e	-0.13938686
163	0xbda2c2ac	-0.07947287
164	0xbc70f1e1	-0.014706106
165	0xbd70ead0	-0.058817685
166	0xbd91b34f	-0.071142785
167	0x3dd036e1	0.10166717
168	0x3d0c5217	0.034257974
169	0x3db5b2df	0.088720076
170	0x3d8743cb	0.06604727
171	0xbc705669	-0.014669039
172	0x3d860450	0.06543791
173	0x3e62a2cb	0.22132413
174	0x3d6d829a	0.05798588
175	0xbd1c9362	-0.038226493
176	0x3d1291f3	0.03578372
177	0x3bc222be	0.0059245517
178	0x3d023570	0.031789243
179	0xbd5a4722	-0.053290494
180	0xbaba0fe7	-0.0014195413
181	0xbd9e8f57	-0.07742184
182	0xbb98c48c	-0.004662102
183	0xbdab7380	-0.08371639
184	0x3e126f16	0.14300188
185	0xbd7ca2e2	-0.061678775
186	0xbd3aecb8	-0.04563591
187	0xbe026e06	-0.12737283
188	0x3e0ccbf4	0.13749677
189	0xbd34dfef	-0.044158872
190	0x3e85613b	0.26050743
191	0x3d622f05	0.055220623

critic.weight f4 [1, 64]
0	0xbda39267	-0.079869084
1	0xbd0f306b	-0.034958284
2	0x3d5daa34	0.054117396
3	0xbdb2dd92	-0.087336674
4	0x3e49d9b6	0.19711956
5	0xbc24fe2f	-0.010070368
6	0xbd18088a	-0.03711752
7	0xbd56e5ed	-0.052465368
8	0xbce5bfbb	-0.028045526
9	0x3ce69219	0.028145837
10	0xbd5b7d69	-0.053586397
11	0xbb73b3d6	-0.0037186048
12	0x3d090107	0.033448245
13	0x3da522a9	0.080632515
14	0xbb9f4413	-0.00486041
15	0xbde721fd	-0.112857796
16	0x3d066f95	0.032821257
17	0xbc86b058	-0.01644151
18	0x3d620f03	0.055190098
19	0xbe650d25	-0.22368295
20	0xbce223a1	-0.02760488
21	0x3cf91020	0.030403197
22	0x3dabaec6	0.08382945
23	0x3b723acb	0.0036961313
24	0x3d842e17	0.064541034
25	0xbdf9e0e5	-0.12201098
26	0xbdc6753d	-0.0969033
27	0xbd1afb8f	-0.03783756
28	0xbde0da7e	-0.10979174
29	0xbe6e6d02	-0.2328377
30	0xbe6e8961	-0.23294593
31	0x3c2fe205	0.01073504
32	0xbcfb927c	-0.030709498
33	0xbdb9c078	-0.090699136
34	0xb9016401	-0.00012339653
35	0xbd78503f	-0.060623404
36	0xbd044d16	-0.032300077
37	0x3c78420f	0.015152468
38	0xbd802a2c	-0.06258044
39	0x3e04fc90	0.1298697
40	0x3e444d96	0.19170222
41	0x3d606061	0.054779414
42	0x3dc3b25c	0.09555504
43	0xbdbbf280	-0.091771126
44	0x3dbb4402	0.09143831
45	0xbcbfd955	-0.023419062
46	0xbcd7deae	-0.0263513
47	0xbc627c13	-0.013823527
48	0x3d50ab55	0.050944645
49	0xbba20cb9	-0.0049453643
50	0xbca8ef01	-0.020621778
51	0xbd951801	-0.07279969
52	0x3c4e52d8	0.012592994
53	0x3b52b59c	0.0032151705
54	0xbd076b90	-0.033061564
55	0xbc9eddde	-0.019392904
56	0xbb5efc8d	-0.0034025044
57	0xbdf68ca1	-0.120385416
58	0xbb417295	-0.002951776
59	0xbd8a2a33	-0.0674633
60	0xbd0a9ea3	-0.033842694
61	0xbe314bbe	-0.1731405
62	0x3bd7f0b9	0.0065899757
63	0x3de3e1c0	0.11127043
