model_params_101000/2.0_V3_0.95g_0.0rm_10bz_0.0td_1.0tds_Nonelb_Noneup_64n_50000e_10md_5.0rz_0s.pth (torch, 22896 bytes, 4 tensors)

rnn.weight_ih_l0 f4 [64, 9]
000000 67 06 91 be 05 75 02 bf 93 d7 eb be a5 b4 2b 3f
       -0.28325197 -0.5095981 -0.46062908 0.67072517
000010 d0 f1 b1 bd 3f 47 84 3e e5 46 a7 3e 67 a3 2d bc
       -0.086887 0.25835606 0.32671276 -0.01059804
000020 fa 03 5e be 24 85 25 3f df d2 6c 3e 3c b8 a4 3b
       -0.21681204 0.6465628 0.23127316 0.0050268453
000030 6c 92 44 3e 95 19 83 3e 35 49 d3 be 7b 20 0e be
       0.1919648 0.25605455 -0.4126679 -0.13879578
000040 ed d6 c1 be 1f db 08 3f 26 40 d9 be 82 66 0a be
       -0.37859288 0.5345935 -0.42431754 -0.13515666
000050 4a ca 31 3e b3 4e ce bd f4 19 ff 3e 7a d6 40 bd
       0.17362323 -0.100736044 0.49824488 -0.04707954
000060 02 36 ee 3d bc 94 fd be 70 3f 27 3f fd b8 52 3e
       0.11631395 -0.49527538 0.6533117 0.2057838
000070 5b 1f 7c bd 52 1f 47 3e de 6e 9b 3a 02 98 6a 3e
       -0.06155334 0.19445542 0.0011858603 0.22909549
000080 83 70 f3 be 95 d2 00 bf eb c2 97 be 26 dd 29 3e
       -0.47546777 -0.5032132 -0.29640898 0.16588268
000090 21 25 41 3f fd 27 71 3e 6c cd f5 bd 21 9d 51 be
       0.7544728 0.2355041 -0.12002072 -0.20470096
0000a0 2b f1 07 bd 38 79 c2 be 11 4b be bd 18 73 8a 3e
       -0.03318898 -0.37983108 -0.092916615 0.27040935
0000b0 5a 35 42 be 2b cd 18 be b7 f1 a1 be 11 5f 8d 3e
       -0.18965665 -0.14922015 -0.31629726 0.27611592
0000c0 c1 97 42 3e 6b c9 5e 3f bf e4 33 bd ea 5c 26 3b
       0.19003202 0.8702609 -0.04391932 0.002538497
0000d0 a0 05 df be af 9b 45 3f 49 7c fb 3d a3 6f 23 bf
       -0.4355898 0.7719068 0.12279565 -0.6384222
0000e0 f2 6b 16 bc c5 de 31 3f f4 57 17 be 98 9d f6 3e
       -0.00918101 0.69480544 -0.14779645 0.4816711
0000f0 49 87 5f be f4 2d a6 3e 16 de 08 be 40 0c 5c 3e
       -0.21828951 0.32456934 -0.13365969 0.21489048
000100 08 37 28 3f c3 e2 34 3e fe a6 c7 be 24 c8 79 be
       0.6570897 0.17664628 -0.38994592 -0.24392754
000110 88 50 97 3d 16 ab 92 be b2 2e 29 be 76 d8 11 3e
       0.07388407 -0.28646153 -0.16521719 0.1424273
000120 7e f9 62 be 36 08 a1 3e 12 d8 a9 3e ec b5 2d 3e
       -0.22165486 0.31451577 0.3317266 0.16963929
000130 a2 52 18 bd 1b 7d 99 ba cf 0f 84 3e b3 f3 87 3d
       -0.03718818 -0.0011710258 0.2579331 0.06638279
000140 b6 e0 c6 3e c4 67 49 bf b8 2d 33 be 96 ba 63 3e
       0.38843316 -0.7867396 -0.17497909 0.22239146
000150 fa 57 92 be 4d 7b de bd c8 92 38 bf b6 a7 a7 be
       -0.28582746 -0.108633615 -0.7209897 -0.3274514
000160 32 a3 0a 3e 4c 7e 01 bf e9 9c 0f bf 9f 7c 34 3f
       0.13538817 -0.5058334 -0.560988 0.70502657
000170 5b 56 b2 be b3 bc 05 3e 96 5c 6c 3e 58 f7 93 3d
       -0.3483151 0.13060264 0.23082194 0.072249115
000180 d5 9e ca bd 83 9f 4b be a7 7c 52 3e 8a a1 7d 3d
       -0.09893576 -0.19885068 0.20555364 0.061921634
000190 23 3e 16 bf ca e2 80 3e c2 33 f7 3e 96 96 8c 3d
       -0.58688563 0.25173026 0.48281676 0.068646595
0001a0 40 3c a7 3e 77 12 44 be f1 37 52 3e 20 2c a2 3e
       0.32663155 -0.19147669 0.20529152 0.3167429
0001b0 40 56 a9 be a6 e7 04 3f a5 23 15 3e 3f 08 90 be
       -0.33073616 0.5191597 0.14564379 -0.2813129
0001c0 44 8c 1c 3e 38 2b b1 bd 9e a2 01 3f 83 17 a2 3e
       0.15287882 -0.086508214 0.5063876 0.31658563
0001d0 56 71 14 bf d8 84 9c 3e a9 25 24 3f 46 57 20 3e
       -0.57985437 0.30570102 0.64119965 0.15658292
0001e0 45 6f 92 3e 0c ea 81 3e 75 ae 90 3d 24 e6 b8 be
       0.28600517 0.25373876 0.07064525 -0.36113083
0001f0 56 94 bd 3e d0 b4 e9 3b bd 56 80 be 4a e8 4d be
       0.37027234 0.00713215 -0.25066176 -0.20108142
000200 2a b5 04 bf 75 1e 91 be 69 e1 5a be 64 28 80 bf
       -0.51838934 -0.2834355 -0.2137505 -1.0012326
000210 99 e3 10 bf ef e4 93 3e d7 47 36 be 60 9f b6 3e
       -0.56597286 0.288856 -0.17800842 0.35668468
000220 0d 38 3b 3d 4c 3e 78 3f 0e 8e 89 bf ed 45 32 bd
       0.04570775 0.9697006 -1.0746477 -0.043523718
000230 fb a7 09 bf 38 ce 0a 3f 34 6b ba 3e 87 b7 85 be
       -0.5377194 0.54220915 0.36409914 -0.26116583
000240 f1 36 07 3f 3e d2 15 bf 0e 0f 29 bd 79 28 8f 3f
       0.5281821 -0.5852393 -0.041274123 1.1184226
000250 92 f6 00 bf 25 05 c3 3e 5e 10 10 3f 13 13 bf 3e
       -0.50376236 0.38089862 0.56274974 0.3731924
000260 9a c8 55 be dc d0 4f 3e 57 4f e8 bc 8c 82 60 3e
       -0.20877305 0.20294517 -0.028358145 0.219248
000270 fc c8 73 be 15 96 57 3d 97 40 42 3e 26 17 8b 3e
       -0.23807138 0.052633364 0.18969952 0.27166098
000280 4d 7b fe be 7f 89 2b be 06 11 a8 be ce 18 7e 3e
       -0.49703446 -0.1675167 -0.32825488 0.2481415
000290 31 ad 29 bf 5c 2b 08 3f 9a a3 77 be 8a ac 00 bf
       -0.66279894 0.5319116 -0.24183503 -0.50263274
0002a0 9f 72 8c bd 91 40 48 3e 74 d2 76 be f4 b9 c3 be
       -0.068578 0.1955588 -0.24103719 -0.38227808
0002b0 6d f0 9d 3e ea 35 2c 3f 39 fb 21 bf e7 c4 07 3f
       0.30847493 0.67269766 -0.6327396 0.53034824
0002c0 8d 5b 8c be f8 85 e9 be 0d 82 26 3e 9e 4d 55 3e
       -0.27413598 -0.45610023 0.16260548 0.2083039
0002d0 9d 29 b8 be c4 c8 58 be 2a a2 8e 3c e1 ab 03 bf
       -0.35969248 -0.21170336 0.01741131 -0.5143414
0002e0 34 b3 9c 3e c4 42 2f 3e ef b4 21 bd e5 65 ac 3e
       0.3060547 0.17115313 -0.039479192 0.3367149
0002f0 cb ac 2a bc 45 40 5c bf b5 ce 23 bf 92 4a 73 bd
       -0.010417174 -0.8603557 -0.63987285 -0.059397288
000300 f4 a8 0a 3e d4 5a 98 bc 39 fb 10 bf 50 5b 4d bf
       0.13541013 -0.018597998 -0.56633335 -0.80217457
000310 a9 3e 89 3e 3a 44 c0 bd 9c 15 90 3e 0c cd 4b be
       0.26805618 -0.09388013 0.28141487 -0.19902438
000320 db 95 66 3e 44 e5 46 be 8d 98 0a 3e 78 53 ce 3c
       0.22518103 -0.19423395 0.13534756 0.025186285
000330 de 2f 19 be ce 12 06 bd 03 d8 e7 be 7a 7d eb 3d
       -0.14959666 -0.032732777 -0.4528199 0.11498542
000340 1f eb 85 3c 00 13 94 3e 9a b4 8e 3d 48 75 08 3f
       0.016347466 0.28920746 0.06968041 0.53303957
000350 81 8e 9a 3e 8e d1 f3 3d 38 d6 4d bf 93 c3 e0 3e
       0.30186847 0.11905204 -0.80404997 0.4389921
000360 61 ec 25 bf df 7c ad 3e b4 1a 4c bf a0 f4 a5 3e
       -0.6481381 0.33884332 -0.79728246 0.32413197
000370 88 be 48 be 82 a9 1c bf 4f 09 71 bd c4 7a 25 bd
       -0.19603932 -0.6119615 -0.058846768 -0.04040028
000380 d6 86 c4 be c6 30 3d bf db 15 61 bf 5e d7 78 be
       -0.38384122 -0.7390255 -0.87923974 -0.24300906
000390 c3 05 08 3f 61 3e fb 3d 6a 55 85 be 1d 46 70 3e
       0.5313379 0.12267757 -0.26041728 0.23464246
0003a0 74 e7 2c bf cc 4b 80 3d 4f 9e f0 be 38 1e 1b bf
       -0.6754067 0.06264457 -0.4699578 -0.60592985
0003b0 06 03 56 3d a2 21 8a 3e fa d4 22 3e 4e b0 ea be
       0.052248977 0.26978785 0.15901557 -0.45837635
0003c0 e6 2c 06 bf 81 ac ae bd 7b bb d8 3d b9 21 ec 3d
       -0.5241226 -0.08528996 0.10582634 0.115298696
0003d0 34 bd 14 bf 6a e7 80 bd 8c 02 ac 3e e4 76 2d be
       -0.581012 -0.06294139 0.33595693 -0.16939884
0003e0 52 b5 f7 bc 8c e2 95 3d f0 f8 cd 3e 28 27 b7 be
       -0.030237827 0.07318601 0.40228987 -0.3577206
0003f0 cf 6a 58 3d 8e b6 69 bf a2 c6 82 be 3a 45 7a 3e
       0.052836236 -0.9129418 -0.2554217 0.2444047

rnn.weight_hh_l0 f4 [64, 64]
000000 8e e3 a6 bc f4 0d 72 be 04 39 3d bd 8d 1f 98 3e
       -0.020372178 -0.23638135 -0.046196952 0.2971157
000010 b6 77 bf bd 9b fa c0 3d 85 08 77 3e 3c 28 b9 be
       -0.09349005 0.09422799 0.24124344 -0.3616351
000020 40 8d 3b bd 9f 64 39 3e 47 52 98 be 8d 3e f3 3e
       -0.045789003 0.1810479 -0.29750273 0.4750866
000030 fb 2d 3e be dc 77 46 3e 03 65 5d 3e 0c 01 66 3e
       -0.18572228 0.1938166 0.21620564 0.22461337
000040 6b 5a 96 3c b0 c8 9b be b2 8d 0e 3e cc 1d 54 bd
       0.018353662 -0.3042655 0.1392124 -0.05178623
000050 3e a2 b2 bb 2e ca 3c bc 41 5f aa bd d0 8c a7 bc
       -0.0054514697 -0.011522813 -0.083189495 -0.020452887
000060 68 c5 51 3e 2c a9 67 be 77 40 f8 3d b5 7d b4 bd
       0.20485461 -0.22623128 0.12121671 -0.08813039
000070 d0 b2 b5 3d 56 3a 15 bf 0b c0 83 be 20 dd 58 3e
       0.088719964 -0.5829214 -0.25732455 0.21178102
000080 c6 11 8b 3d c6 df 5f 3e 67 77 7b 3e b8 05 42 be
       0.067904994 0.21862707 0.24557267 -0.18947494
000090 df 88 7a bc 61 63 98 bd dd 9a c5 3e d8 76 09 be
       -0.015291422 -0.0744083 0.38594714 -0.13424242
0000a0 fa 1c c4 be a7 15 10 3f f9 53 07 bf ed 91 e4 3d
       -0.38303357 0.5628304 -0.5286251 0.11160646
0000b0 5a 01 c1 3c da 5c 40 3e 4d bd a7 3c 8f 6e 67 3e
       0.023560215 0.1878542 0.020476008 0.22600769
0000c0 b8 0e bb 3d 99 c0 f4 3c 9a e1 12 be eb 69 75 3e
       0.09133667 0.029876994 -0.14343873 0.23966186
0000d0 a2 49 94 bb dd 9b 78 be d3 72 c5 bd f1 4b 52 be
       -0.0045253793 -0.24278207 -0.096410416 -0.20536782
0000e0 c1 6a 3b 3e bf 0a 98 3d e2 db 93 be 57 bf bc 3d
       0.18302442 0.07423925 -0.28878695 0.09216183
0000f0 d8 62 5a be c4 9d d1 bd 37 ba 93 3d eb 5e b3 3d
       -0.21326768 -0.102351695 0.07213252 0.087583385
000100 f9 e4 3f 3e bc ff cf be 73 65 51 3e 6d 43 85 3e
       0.1873969 -0.40624797 0.20448856 0.26028004
000110 4c c4 0d 3d c7 d0 05 be 2c 0b 27 be 02 fc 7b bd
       0.03461103 -0.13067923 -0.16312855 -0.06151963
000120 a1 57 96 3e cf d4 1a bd 5c ee 01 be f4 66 8c be
       0.2936373 -0.037800606 -0.12688583 -0.27422297
000130 dd 71 92 bc b4 fc 85 be 72 28 fb bc 3f ac 89 be
       -0.01787656 -0.2616936 -0.030658934 -0.26889226
000140 c5 e7 b2 be 16 a2 aa 3e c6 0f 6c 3e 03 34 66 3d
       -0.3494245 0.33326787 0.23052892 0.056201946
000150 df b2 79 bd c3 97 24 3e 96 16 90 3e ee 7b 87 3d
       -0.0609616 0.16073518 0.28142232 0.066154346
000160 de ea 66 be 71 86 96 bd 20 1c 00 be d3 a0 64 3d
       -0.22550532 -0.073498614 -0.12510729 0.055817436
000170 cf 6f c3 bd f9 8e 28 be a3 c6 25 3e 78 fa 42 be
       -0.0954281 -0.1646079 0.16189055 -0.19040859
000180 a5 35 93 3d 11 b2 91 3d 8d 42 21 3e 6f 0f ea 3d
       0.07187966 0.071140416 0.15748043 0.11428725
000190 3f 0a ad 3d 1e a7 52 bd 7a f8 28 be b5 6f 2f 3e
       0.0844922 -0.051428907 -0.16501036 0.17132457
0001a0 d2 06 90 bd dd 52 4a bd 6a 6b 45 3e e3 6d 83 3d
       -0.07032551 -0.04939543 0.19279256 0.064174436
0001b0 95 da 34 3e 8c 9f 86 3e b4 46 aa be 98 50 39 3e
       0.17661507 0.262936 -0.33257067 0.1809715
0001c0 3b ed 71 bd 9d 58 ed 3d 43 10 96 3d 41 ae 4b 3e
       -0.05906413 0.11589167 0.073273204 0.19890691
0001d0 b1 99 13 be ca e4 31 be c7 30 c5 3d ff 20 6c 3d
       -0.14414097 -0.17372432 0.09628444 0.057648655
0001e0 1e fe 7e be b4 df 96 3e eb ad 06 be f4 9c 12 bc
       -0.24901626 0.29467547 -0.13152282 -0.008948553
0001f0 10 ec dc 39 a6 32 8c be b3 24 91 be e9 8a bd bd
       0.0004213755 -0.27382392 -0.28348312 -0.09255011
000200 64 2e b4 be c1 7b f8 bd 0e 6a c0 bb 27 f9 ce bd
       -0.35191643 -0.12132979 -0.0058720177 -0.10106116
000210 97 4b 67 3d c7 53 6b 3e fe ef d8 bd 02 9e 99 3b
       0.056468572 0.22981177 -0.1059265 0.0046880255
000220 d6 71 ab 3e f4 26 f1 3d 6e c4 83 3e ec 77 85 3e
       0.33485287 0.11775008 0.257358 0.26068056
000230 4b c4 ce 3d c4 67 be bd 4c f8 5d be 5a 5e af bd
       0.10096034 -0.092971355 -0.21676749 -0.08562918
000240 ed 9d d8 bd 4b 1f c2 3d 7e fa 87 be 56 ed e6 3d
       -0.10576997 0.09478625 -0.26558298 0.11275737
000250 c4 9d 1c 3e a1 cf 39 3e 8a dd 89 be 46 cb 2b 3e
       0.15294558 0.1814561 -0.26926833 0.16776761
000260 3c 26 0e 3d 84 a9 28 3b 92 d3 42 3e d7 21 84 bc
       0.034704432 0.0025735805 0.1902602 -0.016129417
000270 8b ac 7b 3e 13 98 6f be 2c 79 cf bb 3d fd 35 be
       0.24577539 -0.23397855 -0.0063315835 -0.17772384
000280 15 a3 0d 3e db 83 cd 3c 3d ac 1c 3e 96 cd 0f bc
       0.13831742 0.025087288 0.15300079 -0.008777043
000290 e7 3b a9 3b f2 76 48 3e 25 f0 36 bd 73 cf f1 3d
       0.0051646116 0.19576624 -0.044662613 0.11807146
0002a0 e5 6b 4d 3d d2 bd 85 bd 29 7e 84 3e f6 c4 54 3c
       0.050151724 -0.06530346 0.25877503 0.012986412
0002b0 12 85 7a 3e d8 e4 52 3e c0 8a 03 3e 6d 32 7d be
       0.24464825 0.2059511 0.12845898 -0.24726267
0002c0 07 b9 a1 bd ea 60 81 3e a6 c3 be 3e 5c d3 65 be
       -0.07896619 0.25269252 0.37258643 -0.22443908
0002d0 ab 8b 60 3d 3c 88 80 bd 74 ff fd 3d 84 ba b5 3d
       0.054820698 -0.06275985 0.124022394 0.08873466
0002e0 75 61 e0 3d 90 e6 ac be 20 d3 35 bb 80 40 bc 3d
       0.109560885 -0.33769655 -0.0027744249 0.0919199
0002f0 0c 2d 49 3e d4 a2 a5 be c8 57 ce 3d 0d 29 96 bd
       0.1964609 -0.3235079 0.10075337 -0.073320486
000300 df c1 58 bd 74 d0 a8 3e e9 ee f3 bd ab 19 64 3e
       -0.052919265 0.32971537 -0.11910803 0.22275417
000310 ac 2b 60 be 48 fc d3 3d 4b 5d 36 be 8f c9 cd be
       -0.2189166 0.10350853 -0.17809026 -0.4019284
000320 13 17 07 3f 4d 68 8d 3e be a0 8c bd 3d b2 8b 3e
       0.52769583 0.27618638 -0.06866597 0.27284423
000330 12 21 bf 3d 33 53 47 3d 07 d0 fc bc ec db 39 3e
       0.093324795 0.04866333 -0.030860914 0.181503
000340 9e 78 30 be 27 5c d5 3e a9 77 49 3d 16 25 3d bc
       -0.17233512 0.4167187 0.049186382 -0.0115444865
000350 c4 dc ce 3d 84 45 c4 3d 43 73 19 3d f6 b4 b7 be
       0.101007015 0.095835716 0.037463438 -0.3588025
000360 b8 14 2d be cd 71 04 3e ff a9 96 3d 57 39 80 3d
       -0.16902435 0.12934037 0.07356643 0.06260937
000370 ab ba bf 3d ab da 96 be 10 77 47 bd f6 0a 9d bd
       0.09361776 -0.29463705 -0.04869753 -0.07668106
000380 f6 42 20 be 19 ab 84 3e 30 92 e5 bd d9 c2 88 bc
       -0.15650544 0.25911787 -0.11209524 -0.016694473
000390 a8 c4 8b bb ea e0 b6 bd 9b 81 21 be 12 0a 84 be
       -0.0042653866 -0.08929618 -0.15772097 -0.25788933
0003a0 b5 fa 10 3e 02 1e 15 be 6c 08 85 be d0 f7 88 3e
       0.14158137 -0.14562228 -0.25982988 0.26751566
0003b0 df 83 45 be be bd cb bd e2 bf 27 3e b9 58 7d 3d
       -0.19288586 -0.099483 0.16381791 0.06185219
0003c0 5f 96 53 be be f5 90 3e ae b7 c6 3e a1 0d d6 3d
       -0.20662831 0.28312486 0.3881201 0.10451818
0003d0 ed 74 85 3e ac 15 d2 be 61 a5 98 bc 1c c8 95 be
       0.2606577 -0.4103216 -0.018633546 -0.29254234
0003e0 ff 6e b2 3c 66 b1 1a be 4c a3 a3 be 6f e4 ea 3d
       0.021781443 -0.15106735 -0.31960523 0.114693515
0003f0 92 0a 76 3e b7 66 ae 3b 2b 42 fb bc 66 da 13 3e
       0.2402747 0.005322303 -0.0306712 0.14438781

actor.weight f4 [3, 64]
000000 c9 fa 88 be 37 2f a3 3d 5d ef fd 3d 92 1c 0f 3c
       -0.26753834 0.0796799 0.123991705 0.008734839
000010 41 57 98 be 75 24 38 3e b6 13 0b be 21 ea 39 3e
       -0.2975407 0.17982657 -0.13581738 0.1815572
000020 66 4d c6 3e 4d 7b 43 3e da f0 05 3f d1 5d 6a be
       0.38730925 0.19090004 0.52320635 -0.2288735
000030 56 44 fe 3d 45 3c b6 bd 51 20 5f 3c 64 71 e3 3d
       0.12415378 -0.08898214 0.013618545 0.11105612
000040 c3 7c 62 3d 77 69 ac 3e 34 f0 68 3e 68 aa 34 3e
       0.055294763 0.33674213 0.2274788 0.1764313
000050 d0 a5 a4 3d de 1f be 3d cc 33 96 be 99 6e 02 be
       0.08039439 0.09283422 -0.29336393 -0.12737502
000060 56 48 04 3e eb 9a 07 3e 41 91 19 be 31 29 d0 be
       0.12918219 0.1324269 -0.14996816 -0.40656427
000070 e1 85 a5 3d 87 88 c2 3e 2e 1e 3a 3e 05 1e f8 be
       0.08082176 0.37994787 0.18175575 -0.48460403
000080 5e d6 6b be 35 96 49 be 1a c4 a1 bd 98 1b ca bd
       -0.23030993 -0.19686206 -0.078987315 -0.09868544
000090 fe b9 ad 3c 27 97 87 be 53 aa 03 bd 1c 40 8f 3d
       0.021206852 -0.26482508 -0.032144856 0.0699465
0000a0 db d4 e6 3d 83 d4 56 be a9 42 bc 3d 20 41 50 bb
       0.11271068 -0.20979504 0.09192402 -0.0031777099
0000b0 6b 16 b1 be 44 41 5e 3e fd 08 63 be 01 c3 96 be
       -0.34587416 0.21704584 -0.22171398 -0.2944565
0000c0 32 c5 2d 3c 41 92 3f be 18 00 5c 3e f4 c9 a3 bc
       0.010606097 -0.18708135 0.21484411 -0.01999376
0000d0 40 17 8d bc 9a 08 1b 3e 0b cf 01 bc f4 d1 4e 3c
       -0.017223 0.1514 -0.007922898 0.012623299
0000e0 2f 9e a5 3e c2 b5 37 3e 85 4b eb 3d f6 79 2f 3e
       0.32347247 0.17940429 0.114890136 0.17136368
0000f0 c4 7c 05 bd b8 d4 aa be 13 2b f6 bd 3f 1c 21 bd
       -0.03258969 -0.33365417 -0.120199345 -0.03933358
000100 0d d2 66 bd 9e 72 72 3e 7f e1 4c bd 98 99 3d 3e
       -0.056352664 0.23676535 -0.050019737 0.18515623
000110 97 0e 2b be c9 36 24 3b 52 a9 84 be e4 4e 8a 3d
       -0.16704784 0.0025057069 -0.2591043 0.067533284
000120 a9 29 28 3e e1 62 a6 3e 06 8e 87 3e ae 2f ca bd
       0.16422142 0.32497314 0.26475543 -0.098723754
000130 76 33 12 bc ad 73 34 be d1 c4 61 3e 8d 1b 04 3e
       -0.008923402 -0.17622252 0.22047736 0.12901135
000140 b7 2b 24 bd c4 98 ce 3e a5 ac c6 3e 3e 4b cd 3d
       -0.040080752 0.40350926 0.38803592 0.10024117
000150 84 6e 28 3e db d3 09 b9 a0 85 8d bd de 8f 7f bd
       0.16448408 -0.0001314426 -0.069102526 -0.06239306
000160 cd 86 a4 3e f9 55 59 3d 55 c3 1d be e9 4c 3f be
       0.32134095 0.053060506 -0.15406545 -0.18681683
000170 c6 ed 28 3c bf 42 f4 3e ae 79 57 3e b1 4f c1 be
       0.010310596 0.47707173 0.21042511 -0.37756112
000180 63 b6 a9 be 02 71 7b bc 41 2f df bd 75 3f d4 bd
       -0.33146963 -0.015346767 -0.10897685 -0.10363666
000190 62 90 19 be 41 e2 d9 be 58 35 86 3d 09 1d 19 3e
       -0.14996484 -0.4255543 0.06553143 0.14952482
0001a0 82 ed 14 3d 2b f0 fe bd d6 d5 7b bd e2 01 8c bd
       0.036359318 -0.12448152 -0.061483227 -0.068362966
0001b0 e5 6b 10 be 44 62 9b 3c 84 6e c7 be f4 74 15 be
       -0.14103658 0.018967755 -0.38951504 -0.14595395
0001c0 b6 30 93 3d 64 02 cd bc 6c 56 96 3e 2c fd 4d 3e
       0.07187025 -0.025025554 0.2936281 0.20116109
0001d0 95 33 3f be 7c 5e c6 bd 14 dc 93 bd e7 2b 3d be
       -0.1867202 -0.0968599 -0.07219711 -0.18473779
0001e0 6d 65 0e 3e 5f 9c 8b bd 9a e3 be bd cc d7 92 3e
       0.13905878 -0.06816935 -0.09320755 0.28680265
0001f0 a3 83 64 3e 33 7e ea bd d4 a5 a5 3d 81 d6 0c be
       0.2231584 -0.11449852 0.0808827 -0.13753702
000200 1e a8 75 3e c5 51 60 be 0d ca 78 be 73 94 6b be
       0.23989913 -0.21906193 -0.24295826 -0.23005848
000210 c1 75 ca 3e d4 48 ae be c9 58 1d 3e 6b 90 26 be
       0.39542964 -0.34039938 0.153659 -0.16266029
000220 74 16 4e be cf ab d6 be 13 3b d3 be 29 fd f0 3d
       -0.20125753 -0.41927955 -0.41256008 0.117670365
000230 d8 c5 f3 3d f1 8e 8b 3e 2a 01 7f be 41 2a 88 3d
       0.1190297 0.27257493 -0.24902788 0.06648684
000240 c9 e7 46 bc 71 91 06 bf d0 f5 87 be fb d7 3c be
       -0.012140223 -0.52565676 -0.26554728 -0.18441765
000250 de d6 5a be ed 4b 3d be 28 68 a8 3e b1 74 b7 3d
       -0.21371028 -0.18485995 0.32891965 0.08957804
000260 4d 26 83 be 51 2e b8 be 98 55 7f bb 4e 9f e5 3e
       -0.2561516 -0.35972837 -0.003896093 0.44848102
000270 92 00 52 be f0 63 c3 be 6f c2 ca be 90 3f aa 3e
       -0.2050803 -0.38162184 -0.39601466 0.3325162
000280 b5 41 8e 3e c5 e5 23 3e 27 31 48 3c 06 c0 4e 3c
       0.27784505 0.16005619 0.01221875 0.012619024
000290 ee a5 cc 3d cd 7a b1 3e cb 3b d9 bd cb df ac 3d
       0.09992586 0.34664002 -0.10607108 0.084411226
0002a0 9d 01 ae 3d ee ee af 3e a4 ef cb 3d 63 e6 16 be
       0.084964015 0.34361976 0.09957817 -0.14736323
0002b0 21 94 9d 3e 45 05 96 be 4a 16 c1 3e e4 d6 bd 3e
       0.30777076 -0.29300895 0.37712318 0.3707801
0002c0 26 80 d1 3d 67 12 55 3d d1 64 f3 be c8 00 21 be
       0.102295205 0.052019503 -0.47537854 -0.15722954
0002d0 79 f0 04 3e e9 6d 8f bd c4 86 1f bd 3a 68 0d ba
       0.12982358 -0.070033856 -0.038946882 -0.0005394254
0002e0 c0 ea fe bd 47 09 7b be 55 25 0c 3d dd 42 d0 be
       -0.12447119 -0.24515258 0.03421529 -0.40676013
0002f0 ec 88 1d be d7 1e be 3e 17 b4 01 bc a9 d9 86 bc
       -0.15384263 0.37132904 -0.007916472 -0.01646121

critic.weight f4 [1, 64]
000000 a9 04 de 3c 37 aa 02 bd b7 97 8b 3a 2a 5f 89 bc
       0.027101832 -0.03190061 0.0010650073 -0.01676901
000010 41 90 04 3c 68 34 53 3c 18 73 e1 3c 23 c9 59 3c
       0.008091033 0.012890913 0.027520701 0.013292584
000020 92 c9 00 3d ba b2 07 bd 4b 60 37 bb cd c0 92 bc
       0.031442232 -0.03312943 -0.002798098 -0.0179142
000030 59 94 12 3c be f1 d0 3a bf 5d ab 3c 76 b6 10 3e
       0.008946502 0.0015941185 0.020918725 0.14132103
000040 d7 9c ff bd f9 b3 7c bc 94 0e 4a 3d 71 9d df 3c
       -0.12481087 -0.015423768 0.04933031 0.027296754
000050 0d d4 6d bd fa f6 ed ba 9e 3a a4 bb cd 46 80 3a
       -0.058063556 -0.001815527 -0.0050118705 0.0009786725
000060 cf 9b a8 bc 0e 62 1b bd be 70 11 bd cb 6c fe 3c
       -0.020582108 -0.03793531 -0.03550791 0.031057736
000070 34 0a b4 bd 58 0e 42 be 55 46 63 bd cb 70 2a 3d
       -0.087910086 -0.18950784 -0.055486996 0.041611474
000080 72 9e b3 3a 6a 7a 57 bb ad 1e 8a bb 7b 1e 98 3c
       0.0013703837 -0.003287936 -0.0042150826 0.018569222
000090 c6 e8 48 3d 6f 12 06 3a ed 18 27 3c 71 0a 84 3d
       0.049050115 0.0005114441 0.010198814 0.06447304
0000a0 72 bd d4 3d f1 a3 e0 3c 10 90 63 3c 09 21 80 bb
       0.10387696 0.027421923 0.013889328 -0.003910188
0000b0 6d 1f 2c bd 68 3b 4f 3b e2 38 ca 3c 81 91 5c ba
       -0.042022157 0.0031621102 0.024685327 -0.0008414016
0000c0 6b af 61 3d 90 4c ed 38 66 c8 9d bd e3 4f 9a bd
       0.055098932 0.000113153015 -0.077042386 -0.075347684
0000d0 5d 23 76 3d 3b 39 56 3c 1b 87 d9 3c e2 8b ad 3c
       0.06009232 0.013075168 0.026553681 0.021184865
0000e0 8c 0f 87 3d ff c8 19 3d f1 5e 75 bc aa 2b da bc
       0.06594762 0.0375452 -0.014976249 -0.026632149
0000f0 ec c4 dd 3c 8b 19 19 ba 86 a3 8f 3d 44 ed 0b 3c
       0.027071439 -0.0005840293 0.070136115 0.008540455
