model_params_101000/20.0_V3_0.1g_0.0rm_100bz_0.0td_1.0tds_Nonelb_Noneup_64n_50000e_10md_5.0rz_30s.pth (torch, 22912 bytes, 4 tensors)

rnn.weight_ih_l0 f4 [64, 9]
00000000: a84f 04bf a756 afbd 032f f1bc a709 f3be
00000010: c7a1 6d3d cf70 8bbe 5233 0d3e 145d a2be
00000020: 5cd7 5f3f a399 273f 58c4 023e a7ad dfbe
00000030: 5262 703e b863 4d3e 3039 cdbe 52aa 273e
00000040: 41fc adbd a6ab e4bd 0966 1dbf 63a9 b8bd
00000050: a82e 41be 77e3 bcbe c9bb a5bd ecda 9dbe
00000060: bc15 873e 1760 89be 9606 f53d 7a02 01bf
00000070: 2e49 88be a0bf 843d a5b1 a43f 3c43 2a3f
00000080: 50bf 06be e9d0 013f 0c7f b23e c41e 83be
00000090: a012 6d3f cfd6 65be 0c3c d23e 25b0 0cbe
000000a0: 85ba aebd 81e4 00be 4fa8 6bbe 1369 31be
000000b0: e6d0 23bd 2946 1c3e 640d cdbe 87b0 513e
000000c0: c941 0340 2649 7bbe ca5b b93e 8f06 063f
000000d0: 0ddf 1a3f c685 bf3e f3aa 963e 1699 c8bd
000000e0: f089 833e 63ee 1a3e 1a73 203e e846 2b3e
000000f0: 3ea5 46be 31b5 1c3f 40c9 2abe 1c89 8bbe
00000100: 3e9e 21bd ab7c 54bd a3af c83e a91c 933d
00000110: e30f 073f 30bb f1be 5dad 0abf d6c3 3e3e
00000120: 6c7b 59be 029f 393f df2c dfbc ca68 acbe
00000130: 1c6b 02bd 9d5e 103f aade 0bbe 4aa5 163f
00000140: e409 3c3e a29b 593e 917e c1be 5897 083f
00000150: 4f9f 6f3e 837b f4be 3019 593d d96c 7f3e
00000160: 7c1a 89bd 0740 033e efc0 213f 6ac0 6f3e
00000170: 8ed4 af3e 4d2e 1ebf ad9e 113e 6dd2 9cbd
00000180: f324 a13d b354 e33e 68fd 453e 8e67 99be
00000190: f67b c93e cac0 f4bd c5ad 6c3e 38de ffbe
000001a0: 2f1e 15bd 0b15 8dbe 9946 09bd 8775 62bf
000001b0: 5455 be3d fada 143e 9110 893e 56f3 ea3e
000001c0: 15b3 0f3f cd13 d43e c1ee 8cbe 21d5 8e3e
000001d0: 4b90 61bd f941 a1bc e476 993e 3e0a ac3e
000001e0: 382a b9be 5e90 f83e 835d 273f 6fe7 b4bd
000001f0: c192 1c3e 78f4 13bf 2097 c3bd fd60 a93d
00000200: 3282 99be 30bd 8abe 530e f7bd 09d1 c3be
00000210: 47be 55be 3f85 3dbe de0b 8abe 03c9 183f
00000220: 2cfb d83e d749 d8be 0955 f2bd ee13 42bf
00000230: 7269 bfbd cc74 0e3e 6eeb 9f3e 6651 13bd
00000240: 3ee7 19bf 791b 843f 11ba 0e3c 53ee 1bbf
00000250: 6f98 143f e6ff 0c3f f11e 24bf d979 23be
00000260: 9fcf c7be 1b5a 93be 6302 6f3e 1716 2ebe
00000270: 30ee 20bf 4dcd 8a3e a737 0c3f f337 023d
00000280: f892 5ebe 1bcf 73bc 02b1 10bf 9d29 723e
00000290: 1623 ccbe dfc1 8abf 691d 71be f8b1 4abe
000002a0: ad56 213f 2077 a9bd ea87 423d 9eb1 e5be
000002b0: 789b babd fe23 b7be bfbd 8ebf cb19 92be
000002c0: 5075 4b3d b35b 1fbd c71d 2a3d 5e49 22be
000002d0: c80d ee3d 39a6 10bc 6bba 0bbe ff13 aabe
000002e0: c172 11bf 3477 3e3e a7eb a5be c720 95be
000002f0: 9714 063f d0fb 9dbe 39be b2be f70d 8f3d
00000300: ca98 643e fe92 213e 1f6e 36bf 38dd 703d
00000310: af1c d9be b649 073d 443a 88be 437b f23e
00000320: 1c54 583e bff5 fb3e 9ba9 b8bc a987 38bf
00000330: ec07 2b3e ac79 fc3e c041 983e 750a 3bbf
00000340: 24d2 513d d39d a2be d205 4e3e 59b8 97be
00000350: c56b 66be adef e23c 0726 ed3e fdde 9fbe
00000360: 713c c23e 5846 2ebf 3e57 11bf 5bd0 ca3f
00000370: 4a7e bf3e 9126 e73e 0e42 e6be bed4 d4be
00000380: afef 7dbd d3b1 0a3d 6a61 503e 5cad a2be
00000390: 3d3b 7c3f ad3b 1dbf a6f7 323e 0124 1f3f
000003a0: 1443 ac3e e45e 12bf e3e9 7d3e 4cdc e03e
000003b0: 1a2d 02be c33b 363e eda6 c43c b625 b63e
000003c0: 4929 5f3e 324c 2abe 536e 03bf 93ec 75be
000003d0: fda5 c73e 36a6 83bd ad10 b63d 2f36 963e
000003e0: 36df a2be acca 4d3d 0c5e 45be 7414 44be
000003f0: a328 b93e 7319 31be eea9 8a3e 1440 a43e
-0.51684046 -0.085614495 -0.029441362 -0.47468302 0.05801561 -0.27234504 0.13789108 -0.31711638
0.8743799 0.65468806 0.12770212 -0.43687174 0.23475006 0.20057571 -0.40082693 0.16373566
-0.08495379 -0.11165552 -0.6148382 -0.09016683 -0.18865454 -0.36892292 -0.08092458 -0.30831087
0.2638377 -0.26831123 0.11964147 -0.50394404 -0.26618332 0.06481862 1.2866713 0.6650884
-0.13158917 0.50709397 0.34862554 -0.2560941 0.92606544 -0.22445224 0.41061437 -0.13739069
-0.085316695 -0.12587167 -0.23013423 -0.17325239 -0.039994143 0.15261139 -0.4004928 0.20477496
2.0508902 -0.24539623 0.36202842 0.5235376 0.604966 0.3740675 0.294273 -0.09794824
0.25691175 0.1513 0.15668908 0.16726267 -0.19398972 0.61213976 -0.16678333 -0.27253044
-0.039457552 -0.051876705 0.391965 0.07183201 0.52758616 -0.47213125 -0.5417078 0.18629393
-0.21238488 0.7250825 -0.027243076 -0.33673698 -0.03184043 0.5639437 -0.13659158 0.5884596
0.18363148 0.21250775 -0.37791875 0.5335593 0.23400615 -0.47750482 0.053002536 0.24943866
-0.066945046 0.12817393 0.6318502 0.23413244 0.34341854 -0.617894 0.14220686 -0.07657323
0.07868376 0.44400558 0.19334948 -0.29961818 0.39352387 -0.11950834 0.23113163 -0.49974227
-0.03640574 -0.27555117 -0.033514593 -0.8846058 0.09293619 0.14536658 0.26770452 0.45888776
0.5613263 0.41421357 -0.27525905 0.2789698 -0.05506925 -0.019684779 0.2997352 0.33601564
-0.36165023 0.48547643 0.6537706 -0.08833205 0.15290357 -0.57794905 -0.09550309 0.08270452
-0.29982144 -0.27097464 -0.12063279 -0.3824542 -0.20873366 -0.1850786 -0.2696218 0.5968172
0.4237913 -0.42243835 -0.118326254 -0.7581166 -0.09346284 0.13911742 0.31234306 -0.0359663
-0.6011847 1.0320884 0.008711354 -0.6091053 0.58045095 0.5507797 -0.6410971 -0.1596445
-0.3902559 -0.28779683 0.23340754 -0.17000614 -0.62863445 0.27109757 0.5477242 0.03179164
-0.21735752 -0.014880921 -0.5652009 0.23648687 -0.39870518 -1.0840415 -0.23546375 -0.19794452
0.6302288 -0.082746744 0.0474929 -0.44862074 -0.091116846 -0.35769647 -1.1151656 -0.28535303
0.049672425 -0.03890581 0.041532304 -0.158483 0.11623722 -0.008828693 -0.13645332 -0.3321838
-0.56815726 0.1860016 -0.3240635 -0.2912657 0.5237517 -0.3085618 -0.34910753 0.069850855
0.2232391 0.1577873 -0.7126178 0.05880472 -0.42404696 0.03302928 -0.26606953 0.47359666
0.21125835 0.49210927 -0.022541812 -0.72082 0.1670224 0.49311578 0.29737663 -0.7306283
0.051225796 -0.31761035 0.20119408 -0.29632834 -0.22502048 0.027702177 0.46318075 -0.31224814
0.37936738 -0.68076086 -0.56773746 1.5844835 0.37401038 0.4514661 -0.4497227 -0.4156856
-0.06199616 0.033860993 0.2034966 -0.31772888 0.9852789 -0.61419183 0.17477283 0.6216431
0.33644927 -0.5717604 0.24796252 0.43918073 -0.12712517 0.17796235 0.024005378 0.35575646
0.21793093 -0.16630629 -0.51340216 -0.24016027 0.38993827 -0.064281866 0.088898994 0.29338214
-0.3181092 0.05024211 -0.19274157 -0.19148427 0.36163816 -0.17294864 0.2708277 0.32080138

rnn.weight_hh_l0 f4 [64, 64]
00000000: c3e9 f03d b4ff 073e 4418 5b3e 5c52 1fbe
00000010: 98ee b53e c084 45be 038e 3cbe da39 6abe
00000020: ef56 07bd 337f f2ba 00d5 b23c c898 9abe
00000030: e4ed b13e 4d5c 193e 3a10 333d ade7 18be
00000040: d3b6 4dbd 625f eebb 8252 6dbd d331 7b3e
00000050: 8225 03bd 96a7 773d a8d9 5cbd 2086 863e
00000060: 6100 04be f2a0 c9bd ecc7 dfbd 5233 cd3d
00000070: 76b5 bc3d 961e a83e db7d 233e b88f 58be
00000080: 4f00 043e f26b 7e3e 9a60 c83d 70cf abbd
00000090: 1d0c 403e 21e6 803e 9190 913d bbb2 f83c
000000a0: 8c40 38be b1c5 0cbe 54f4 2e3d e28b 3fbd
000000b0: c1b1 66bd 7a0a 67be 3d61 7f3e 9f4f 9fbe
000000c0: e430 053e adcf 913e 7ad3 c1bd 4afb 4cbd
000000d0: 4746 6cbe 13b5 dfbd a79d 0c3d dcd7 89be
000000e0: 7d2b 6fbd a64b 49bb 94d6 873e 9a53 ae3e
000000f0: 6166 00be 04a3 91be 32d3 3ebe 3075 4fbe
00000100: 2f53 1cbe 76b4 593d ae90 58bd 1ca6 05bd
00000110: cd86 08bd f4ca 8d3e 6094 513c f11b 9b3e
00000120: 91f5 3f3e 2a47 10be b862 45bd c0b6 863d
00000130: c676 333d cd69 423e 12ac 953e 2aed 963e
00000140: 630a 2fbd 4d0a b53d aa6e c13e 562b 0b3d
00000150: 61bc 34be 398f 89bd 9983 5a3e 0e22 323e
00000160: eb75 68bd 294e f13d 7455 1e3d 8001 babd
00000170: e3c8 80ba 0c2d d13b a6d7 67be a949 c53e
00000180: d329 bf3e cba8 cbbd 911b b5be 552d 95bd
00000190: 007e 91bd 8c61 9dbe 815e be3d 6455 9fbc
000001a0: ba27 893e 777d 103e 008e 82be 3b31 9bbd
000001b0: 52bd 573e bd60 1fbc 5e43 ed3d c1c0 a7bc
000001c0: cea0 9b3e 18fa a9bc 93da 9ebd ad2c 313d
000001d0: c1a7 89bd e852 c5bd 2910 db3e 68dc f0bc
000001e0: 92f3 75be a676 883e f327 2dbe 8a42 84be
000001f0: a21b 293e 53a7 f93d 84a0 0a3e 07e3 ed3d
00000200: 4e41 033c 7c43 833e 1cb2 753e 5269 df3e
00000210: 7380 b7bd 3dbf f6be dba2 bb3d d063 b4be
00000220: bec5 403e 9e25 f4bd aa2c 953e d5c6 8cbe
00000230: 405a 37bc 8ba0 313d 1f51 b13d cc55 f5bd
00000240: f24e 983d e1ab c5bd c1ad 6b3e f86b 75bc
00000250: a116 a4bd afa6 b23e 36b5 e6bc 6901 6ebd
00000260: 358d 813d 776a f539 f6b2 6b3d 418c 5dbc
00000270: 6f4b cdbd ee1c 72bc fa2c 2dbd 6ea6 ab3d
00000280: a093 3bbd 8245 993c 5362 4bbe 6fe9 02be
00000290: 9b46 c5bd 5a69 133e 52f7 9f3e 8098 be3d
000002a0: e2ca 47be 3cd5 d03d 0031 b53d 0f1d dcbc
000002b0: df1a a6be ed47 ff3d 5b42 843e 81fa 9e3d
000002c0: 7d73 14be 2891 b43e e9df 233e 1479 21be
000002d0: a576 3b3d 872a 16be cfe0 423e e6ed 1bbd
000002e0: 138b 99bd 9efc 8c3c 56d5 14be ddc5 853d
000002f0: 664b a83d 46e4 cf3d f5fe 413e 5065 7a3e
00000300: fe40 44bd 1647 a43c 2e06 8a3c 1c53 0d3e
00000310: 53ea aebe 1e9d 823e d99b 43be ea77 f7bc
00000320: 441e 673e 2f3f cb3d c787 d6bc c150 34be
00000330: e95f fe3d fe51 a939 4640 013c 4764 33be
00000340: 4441 70be 752f e53d 9542 babd 9d31 75be
00000350: 30d3 333e 046d dfbd c3a0 8a3d 0328 34be
00000360: f5a1 973e 840e 8a3d 2f03 cfbd d6f3 51be
00000370: ddfe 4cbd b846 c33d dd6f 223f 90cb b7bd
00000380: 4428 9d3e b331 cabd ef82 8bbe 0194 253e
00000390: 3446 9dbd 8349 ccbd 8985 82bd aa8c 903d
000003a0: ef5a d43d 107b 83be dca8 2fbe 906e 69bd
000003b0: 4d3f a43d 5fb1 3bbd 206d 653e 6d83 f63d
000003c0: fe4a ea3d 2b44 283e f05c e6bd 15ae 883c
000003d0: e424 eebd fb90 393e a0e0 3bbd 18d8 8e3d
000003e0: d86a 38bd 9be4 c3be 9018 153e 1177 12be
000003f0: 16b0 ccbd aa9a 1f3f e16d 40be fd70 d03c
0.117633365 0.13281137 0.21395975 -0.15558761 0.35533595 -0.19288921 -0.18413548 -0.22873631
-0.03304189 -0.0018501043 0.021830082 -0.30194688 0.3475181 0.14976616 0.043716647 -0.14932127
-0.050223183 -0.007274554 -0.057940014 0.24530725 -0.032018192 0.060462557 -0.05391851 0.26274204
-0.1289077 -0.09845151 -0.10926804 0.10019554 0.092142984 0.32835835 0.15965979 -0.21148574
0.12890743 0.24845865 0.0978405 -0.08389175 0.18754621 0.25175574 0.07107652 0.030358663
-0.17993373 -0.13747288 0.04271348 -0.046764262 -0.056321863 -0.2256259 0.24939437 -0.31115434
0.13006932 0.28478757 -0.09464164 -0.050044335 -0.23073684 -0.10923209 0.034330036 -0.269225
-0.058391083 -0.0030715256 0.26530898 0.34048158 -0.12539054 -0.28444684 -0.18635252 -0.20259547
-0.15266107 0.053150617 -0.052872352 -0.032629117 -0.03333168 0.27693903 0.012791723 0.30294755
0.1874602 -0.14089647 -0.04818985 0.065778255 0.043814443 0.18985672 0.29232842 0.29477817
-0.042734515 0.08839855 0.37779742 0.033976875 -0.17649986 -0.06716771 0.21339263 0.17395803
-0.05675308 0.11782486 0.038655713 -0.09082317 -0.0009825494 0.006383544 -0.22640857 0.3853276
0.37336597 -0.09944304 -0.35372594 -0.07284037 -0.07104111 -0.30738485 0.09295369 -0.019449897
0.2678812 0.14110361 -0.25498962 -0.07577749 0.21068314 -0.009727654 0.11585115 -0.020477654
0.30396122 -0.020749137 -0.077565335 0.043255497 -0.0672145 -0.09634954 0.42785767 -0.029401973
-0.24018696 0.26653022 -0.1690977 -0.25832015 0.16514447 0.12190118 0.13537794 0.11615568
0.008011175 0.25637424 0.23993725 0.4363504 -0.089600466 -0.48192778 0.091619216 -0.352324
0.18825433 -0.119212374 0.29135638 -0.27495447 -0.011190951 0.043365996 0.08658051 -0.11979255
0.074369326 -0.09651924 0.230155 -0.014979355 -0.080121286 0.34892794 -0.02816258 -0.058106814
0.06325761 0.00046809364 0.057543717 -0.013522209 -0.100241534 -0.014777405 -0.04227922 0.08381353
-0.045795083 0.018709902 -0.19861726 -0.1278436 -0.096326075 0.14395657 0.31243378 0.09306431
-0.19510987 0.10196921 0.08847237 -0.026869325 -0.32442376 0.12464891 0.25831875 0.077626236
-0.1449718 0.35266995 0.16003384 -0.15768844 0.045767445 -0.1466466 0.1903107 -0.038068675
-0.074972294 0.017210301 -0.14534506 0.0653188 0.08217506 0.101509616 0.18944915 0.2445271
-0.047913544 0.020053428 0.01684865 0.13801235 -0.3416315 0.25510496 -0.1910242 -0.030208547
0.22570139 0.09924161 -0.02618779 -0.1760893 0.12420637 0.0003229528 0.007888859 -0.17518722
-0.23462397 0.11190692 -0.09094731 -0.23944707 0.1756103 -0.10909465 0.06768944 -0.17593388
0.2961575 0.0674105 -0.10108029 -0.20503172 -0.050047744 0.09534973 0.6345194 -0.08974373
0.30694783 -0.098727606 -0.27248332 0.1616974 -0.07679406 -0.09974959 -0.06373126 0.070580795
0.10368907 -0.25679827 -0.17154258 -0.056990206 0.08019886 -0.04582345 0.22404909 0.12036786
0.11440085 0.16432254 -0.11248195 0.016684571 -0.1162813 0.18121712 -0.045868516 0.0697481
-0.04502377 -0.3826035 0.14560151 -0.14303233 -0.09994523 0.62345374 -0.18791915 0.025444502

actor.weight f4 [3, 64]
00000000: da2a 373e 401f 40be 703c fabd 758d 77be
00000010: c84b 0d3d 28a1 7abd 7a39 383c d9b5 5b3e
00000020: 8419 c5bd 184e e1bd 3101 97be cddb c93d
00000030: e02d ebbc fd30 8cbd 8728 963e 4b33 ec3c
00000040: 21ca 5a3e 6c51 84be bc47 8e3d d3e0 ebbd
00000050: 2be0 a23e 6c0a cb3e af1a 8cbe e34a a13e
00000060: e967 80ba 787b abbe fbc8 97be 7bca debd
00000070: ba61 813d 2166 d7be 4a71 3a3e 91f6 8b3d
00000080: ee80 bbbd 4b1c 39bd 75dd b0bc 19c7 1e3d
00000090: da8d 353e f8aa e4be 77e1 73be 9a56 e3bc
000000a0: df22 343e 8b7d 22be b453 1e3e 8753 9cbd
000000b0: 0316 473e 459b 0fbe 9af4 df3d 3d47 7a3e
000000c0: 2dab 7b3e 9e41 14be c5f1 b13d 782e ac3e
000000d0: 32db 133d 7056 d0bd 37a1 75be eee8 cebd
000000e0: c9a4 1fbe 595a 233d 6669 1ebe d083 8bbe
000000f0: 56d7 3c3d ec94 febe 3515 c5bc 8836 89bd
00000100: cff6 3f3d d7a9 b43b 9dc3 6d3c 4c19 cb3d
00000110: 39ef 403e 23ac c83e 999e cebc 5e26 c43d
00000120: 6667 10bc d49a 253e 2c75 fcbd 2265 91be
00000130: 9493 cd3e 7290 09bd e1ba e1bd ef15 4abe
00000140: 9563 febd b3d2 ecbd 0284 82be 0b8a 05be
00000150: 1558 69bd 8ac0 863c 9294 d43c 2acf a4bc
00000160: cbf5 b03e 27f0 54bd a18b 8cbd bde1 1ebc
00000170: 6491 9d3c 449e 38bd 435e af3e 3f96 e0bd
00000180: 1ab8 523e 829b 2f3e eb2e ec3d 2f28 a9bd
00000190: 2f96 25be f7bb 35bc 2cf0 d13c 3d83 d13d
000001a0: 4252 943d da2b d5bd fff1 073e a348 6bbd
000001b0: 2c8c 5bbd 6d12 3ebd 9fa2 943e 59cd 453d
000001c0: 1556 0abd 2af0 8d3e 34b0 a9be bacd 083e
000001d0: 85b4 5abe 5b08 1cbe a8c3 803d 24ab d63c
000001e0: 5ddd 793c 51d8 96be 2c06 fabc 95d3 9b3a
000001f0: 9d16 aebe d2e5 8e3d 513c a63e d8be 4cbe
00000200: dc56 c7bd e9a0 9f3c e88a 36bc bfc1 02bd
00000210: cc73 25be d2fb 7fbe 86ac 79bd 59e1 16be
00000220: 2001 893c 1818 7fbd d9c4 2b3e e5ee 813e
00000230: e50e 4bbe be9e d13c bfc5 88bd 47bd 193e
00000240: 19dc 91bc c052 803e 0d9f e63d 8a49 ea3d
00000250: 9c84 babd 1e82 6dbe 00c9 b43d 545d e0bd
00000260: 62e5 41be 0d6a 4e3e 45f8 3e3e 0d6d c13c
00000270: e0c0 a3bd 3f74 723e ae2f 9abe 75e7 273c
00000280: 3670 33be 0919 3abd b121 09be 05b7 3e3d
00000290: 25ba 933d 6a4e 923e 6c12 f13d fdc9 43bd
000002a0: e15f 2abe b49f 143e efd9 d4bd f152 413e
000002b0: d0a2 06bd aed0 9e3c 14fc 80be b7b7 f4bd
000002c0: 2064 84bd c571 1ebe 5b84 603e 5da3 38be
000002d0: 97d9 9c3d 9853 173e ee88 983c bd1f 063d
000002e0: 9c21 a83c 022b 283e 2e58 a53d 742e df3d
000002f0: ad8e 633e 96bb 1b3e dec7 6fbe 0b41 003e
0.1788744 -0.18761921 -0.12218559 -0.24175055 0.0344961 -0.061188847 0.011244172 0.21456088
-0.09624007 -0.11001223 -0.29493096 0.09856377 -0.028708398 -0.06845281 0.29327795 0.028833052
0.21366169 -0.2584337 0.06947276 -0.11517491 0.31811652 0.3965639 -0.27364108 0.31502447
-0.0009796593 -0.33492637 -0.29645523 -0.10878464 0.06317468 -0.42070106 0.18207279 0.06834138
-0.09155451 -0.045192998 -0.021589974 0.038764093 0.17729893 -0.4466169 -0.23816477 -0.027751256
0.17591427 -0.15868203 0.15461618 -0.07633119 0.1944199 -0.14024074 0.10935326 0.24441238
0.24577017 -0.14478156 0.08688692 0.33629203 0.036097713 -0.10172737 -0.2398728 -0.101030216
-0.15590204 0.039881084 -0.15469894 -0.27249002 0.046103798 -0.49722993 -0.024057964 -0.06699854
0.046866234 0.0055134105 0.01451197 0.09916934 0.18841256 0.3919383 -0.02522211 0.095776305
-0.008813715 0.16172343 -0.12327036 -0.2839747 0.40151656 -0.03358502 -0.110219724 -0.1973493
-0.124213375 -0.11563625 -0.2549134 -0.1304094 -0.056968767 0.016449232 0.02594975 -0.020118315
0.34562525 -0.05198684 -0.068625696 -0.009697375 0.019234367 -0.04507281 0.34251603 -0.10966157
0.20578042 0.17149165 0.115323864 -0.082596175 -0.16170572 -0.011092178 0.025627218 0.1023011
0.07242252 -0.10408755 0.13275908 -0.05744232 -0.053600475 -0.04640429 0.2903032 0.048291538
-0.0337735 0.27722293 -0.33142245 0.13359728 -0.21357925 -0.15237562 0.062873185 0.026204653
0.015250531 -0.2946191 -0.030520521 0.0011888618 -0.34001628 0.069774285 0.32467893 -0.19994676
-0.09733364 0.019485908 -0.011141516 -0.031923052 -0.16157454 -0.24998406 -0.060955547 -0.14734401
0.01672417 -0.062278837 0.1677431 0.25377575 -0.198299 0.02558839 -0.06678342 0.1501361
-0.017805146 0.25063133 0.11260805 0.11439808 -0.091073245 -0.23194167 0.088274 -0.10955301
-0.18935159 0.20157643 0.18649395 0.02361157 -0.07995772 0.23677157 -0.30114502 0.010248055
-0.17523274 -0.04543403 -0.13391759 0.04656126 0.072132386 0.2857545 0.11771092 -0.047800053
-0.16638137 0.14514047 -0.1039313 0.18879296 -0.032870114 0.019386616 -0.2519232 -0.11949103
-0.0646441 -0.15473087 0.2192549 -0.18031068 0.076586895 0.14777982 0.01861998 0.03274511
0.020523839 0.16422656 0.080734596 0.10897532 0.22222395 0.15208277 -0.23416087 0.12524812

critic.weight f4 [1, 64]
00000000: f8f1 25bb e8fd 313c cce1 863c 87a5 293d
00000010: 077f 88bc ea15 f5bd a021 f1bb 133b 853b
00000020: fdc6 a7bb 6f82 aaba 3e78 093b a1ac cb3c
00000030: eb1d 19bd dd15 4fbc 0ef1 21bd 3b2b 7f3b
00000040: 7622 b4bc 45b5 393b aa1e 483c 3cba 763d
00000050: e1fa 043b ce4c c2bc f2f1 213d 4ec9 c83c
00000060: 70fe 84bb 6509 c93b cdd1 da3b 5651 c53b
00000070: a0a7 5b3c 22fa 6cbc f5fa be3b cad3 1e3a
00000080: a6cc 13bc ae96 2b3b e329 debc 0eaa db3a
00000090: 56e2 be3a 5882 0abc 2623 dc3b eb5e 8abb
000000a0: ac35 49bc 98c6 2fbc 7959 083d dd34 e1bb
000000b0: e988 d23c d7e3 3b3c 33db a6bc b83e a03c
000000c0: f891 aa3c d3c6 253b bdb9 f83c aca3 10bc
000000d0: fad2 7cbb 451c acbc cf08 843c a49b 123c
000000e0: 7458 82ba fe79 003c f2bc 91bb 2b6f 583d
000000f0: a08d 2b3c 3f66 053e e0c3 e1bc 9080 3cbc
-0.0025321227 0.010863759 0.01646509 0.041417625 -0.016662134 -0.119670704 -0.0073587447 0.00406588
-0.005120157 -0.0013008843 0.002097621 0.02486259 -0.037382048 -0.01263949 -0.03953653 0.003893568
-0.021989089 0.0028336805 0.012214342 0.0602362 0.0020291137 -0.023718264 0.039537378 0.024510052
-0.0040586516 0.006135153 0.0066778422 0.006021659 0.013406664 -0.014463933 0.0058282563 0.0006058781
-0.00902096 0.0026182341 -0.027119583 0.0016759054 0.0014563303 -0.008453928 0.006718057 -0.004222741
-0.012280863 -0.010728501 0.033288453 -0.006872757 0.02570005 0.0114678955 -0.020368194 0.019561157
0.020821556 0.002529551 0.030362004 -0.008828085 -0.00385779 -0.021009574 0.016117482 0.00894824
-0.0009944574 0.007841585 -0.004447573 0.052840393 0.010470778 0.13027285 -0.02755922 -0.011505261
