model_params_101000/25.0_V3_0.95g_0.0rm_100bz_2.5e-05td_1.0tds_Nonelb_Noneup_64n_50000e_10md_5.0rz_42s.pth (torch, 22952 bytes, 4 tensors)

rnn.weight_ih_l0 f4 [64, 9]
0	0xbc93f61a	-0.018061686
1	0x3e36167c	0.17782015
2	0x3ed29dd6	0.41136044
3	0x3d3306b1	0.043707553
4	0xbd04af9c	-0.032394037
5	0x3ef5be45	0.47996727
6	0x3de77250	0.113011
7	0xbe01fb46	-0.1269351
8	0xbf32962f	-0.6976041
9	0x3d98cc17	0.07460802
10	0x3e09489e	0.13406608
11	0x3e049d59	0.12950648
12	0x3edf3261	0.43593124
13	0xbe4490f3	-0.19195919
14	0x3dfaa092	0.122376576
15	0xbeaece73	-0.34141883
16	0xbf1e7e01	-0.61911017
17	0x3e99e0f6	0.30054444
18	0xbed1b791	-0.40960363
19	0xbe70d040	-0.23516941
20	0x3ecde983	0.40217218
21	0x3eb42ee3	0.35192022
22	0xbd8ae729	-0.067823716
23	0x3e082852	0.13296631
24	0x3d70b75c	0.058768615
25	0xbe22b64b	-0.15889852
26	0x3ef9ee68	0.48814702
27	0xbe03c2d7	-0.12867294
28	0xbe10f72d	-0.1415679
29	0xbea018db	-0.31268963
30	0x3f542c50	0.82880116
31	0x3eb7af07	0.35875723
32	0xbee635ca	-0.44962913
33	0xbd8bff17	-0.06835764
34	0x3e55c0bd	0.20874305
35	0x3f1d551c	0.6145799
36	0xbd4043fb	-0.04693983
37	0xbe2ed5c4	-0.17073733
38	0x3e083c34	0.13304216
39	0x3fea23d8	1.8292189
40	0x3d704994	0.05866392
41	0x3ef4edeb	0.47837767
42	0xbbec95d2	-0.0072200084
43	0xbe44a6d7	-0.1920427
44	0xbeffc5ca	-0.4995559
45	0x3f0484fd	0.51765424
46	0xbd954770	-0.07289016
47	0xbeb796dc	-0.35857284
48	0x3fa9de3e	1.3270948
49	0x3dd9452f	0.10608899
50	0x3e8d82fc	0.27638996
51	0x3f075d8f	0.52877134
52	0x3e988d04	0.29795086
53	0x3e3bb3fc	0.18330377
54	0x3e5025dc	0.20326942
55	0xbdb420bb	-0.08795305
56	0x3d89e55a	0.067331985
57	0x3f2d483b	0.6768834
58	0x3d3ec318	0.046572775
59	0x3f0c03f6	0.54693544
60	0xbe5dabd6	-0.21647581
61	0x3ed865de	0.42265218
62	0x3c878fe2	0.0165481
63	0xbd90b826	-0.070663735
64	0x3eba9f56	0.3644969
65	0x3ebb74c6	0.3661253
66	0x3e5e1f9b	0.21691744
67	0xbeff6bf8	-0.4988706
68	0x3e57c020	0.21069384
69	0xbf2835eb	-0.6570727
70	0xbe72dd55	-0.23717244
71	0x3ece7942	0.40326887
72	0xbf0ee7ed	-0.5582264
73	0x3e6bccfc	0.23027414
74	0xbedeefd8	-0.4354236
75	0x3f725315	0.94658023
76	0xbda4abd6	-0.080405876
77	0x3e2ad8c4	0.16684252
78	0xbf032c9b	-0.5123994
79	0xbecac509	-0.3960345
80	0x3e06d69c	0.13167804
81	0x3e0d682a	0.13809267
82	0xbf1b49c5	-0.6065944
83	0xbe6caacb	-0.23112027
84	0x3f927fb4	1.1445222
85	0x3ec7e4d8	0.3904178
86	0x3ecc87a7	0.39947245
87	0xbf2e186d	-0.6800602
88	0xbee45930	-0.44599295
89	0x3cc5c474	0.024141528
90	0xbf348453	-0.7051441
91	0x3e9e245a	0.3088711
92	0xbd0070d0	-0.031357586
93	0xbe34176f	-0.17587064
94	0x3efc9178	0.49329734
95	0xbcc46319	-0.023973035
96	0x3f4e57bb	0.80602616
97	0x3e624d36	0.22099766
98	0x3ee4d80b	0.44696078
99	0x3f0a628c	0.5405662
100	0x3e538d6e	0.2065942
101	0x3e2f5580	0.1712246
102	0x3f4eb551	0.80745417
103	0xbd1ed3b3	-0.03877611
104	0xbe2c34e9	-0.16817059
105	0x3f3cbdbf	0.7372703
106	0x3e917302	0.28408056
107	0xbeabe5a7	-0.33573648
108	0x3edc82de	0.43068594
109	0xbf24cf2d	-0.64378625
110	0x3c80a176	0.01570199
111	0x402c8865	2.6958249
112	0x3e51f3fc	0.20503229
113	0xbd94d86b	-0.07267841
114	0xbe7d2f0d	-0.2472498
115	0xbf26645b	-0.6499688
116	0x3ee4b987	0.44672796
117	0xbefe52b9	-0.49672487
118	0x3f796ca8	0.9743142
119	0x3f0526f1	0.52012545
120	0xbece08b7	-0.40241024
121	0x3f3cf38d	0.7380913
122	0x3e36f79a	0.1786789
123	0xbe71843e	-0.23585603
124	0x3d281919	0.04103956
125	0x3f6146fc	0.8799894
126	0x3ebd09d6	0.36921567
127	0x3ec9e869	0.39435127
128	0xbe6edaf8	-0.23325717
129	0xbec22ef3	-0.37926444
130	0xbd733ad3	-0.05938227
131	0xbdfb65f4	-0.122753054
132	0x3e2fd687	0.1717168
133	0xbf1ef07e	-0.6208571
134	0xbe0dc9c0	-0.13846493
135	0x3f4e1037	0.8049349
136	0x3d5b5a99	0.053553198
137	0xbe78a3ae	-0.24281189
138	0xbf66af19	-0.9011093
139	0x3ea55045	0.32287803
140	0xbe949019	-0.29016188
141	0xbdf6468a	-0.12025173
142	0xbea4b02f	-0.32165667
143	0x3e1f4a46	0.15555677
144	0xbedc0636	-0.4297349
145	0x3f210a60	0.62906456
146	0x3e9c0c23	0.3047801
147	0xbe85a078	-0.2609899
148	0xbf1431fc	-0.5788877
149	0x3e8cbba4	0.27486908
150	0x3f207052	0.6267139
151	0x3cc729bc	0.024311893
152	0xbe627970	-0.22116637
153	0x3f96ab2d	1.1770989
154	0x3fa9419c	1.3223147
155	0x3e42ec3b	0.19035427
156	0x3e027116	0.12738451
157	0x3f35b70f	0.7098245
158	0x3ec50de2	0.38487154
159	0x3edd9e7a	0.4328497
160	0x3f3de2ca	0.7417418
161	0xbce1546f	-0.027506081
162	0x3f52f79b	0.82409066
163	0x3e19033a	0.14942637
164	0xbe504ce3	-0.2034183
165	0xbf2b21e0	-0.66848564
166	0xbf11b814	-0.56921506
167	0x3d7017a3	0.05861629
168	0x3f88a621	1.0675699
169	0x3ef6d298	0.48207545
170	0xbec01fa7	-0.3752415
171	0xbe815ed5	-0.25267664
172	0x3eaf4f9e	0.3424043
173	0xbe87d1c0	-0.26527214
174	0x3f0136db	0.5047433
175	0xbf50d7ab	-0.81579083
176	0x3e8eee11	0.27916005
177	0xbf5e7f73	-0.8691322
178	0xbf1cc2eb	-0.6123492
179	0xbeeba157	-0.4602153
180	0xbf17f700	-0.5936127
181	0x3e888ed4	0.2667147
182	0x3e5ab4cf	0.21358036
183	0xbfac7ee3	-1.3476223
184	0xbf0c6382	-0.54839337
185	0x3d2cc492	0.04217965
186	0xbf292469	-0.6607118
187	0xbf0273f0	-0.50958157
188	0xbeb76552	-0.3581949
189	0xbe86dcb0	-0.26340246
190	0x3ed844f8	0.4224012
191	0xbe8d4d14	-0.27597868
192	0x3ef675f4	0.48136866
193	0x3dc8b87d	0.09800813
194	0x3de2fc0f	0.110832326
195	0x3ea139eb	0.314895
196	0xbf3ef8db	-0.74598473
197	0x3e4cbc02	0.19993594
198	0x3f389843	0.7210733
199	0xbe3958cd	-0.18100281
200	0x3e80f254	0.25184882
201	0x3f4abc1c	0.7919328
202	0xbe6dcd55	-0.23222859
203	0x3de7baee	0.11314951
204	0x3e6abddc	0.22923988
205	0x3e27678f	0.16348098
206	0xbe41a3bf	-0.1891012
207	0xbeede6d3	-0.46465167
208	0x3d79f71c	0.061026677
209	0xbe8a6f60	-0.27038097
210	0x3f32e94a	0.6988722
211	0xbef7742b	-0.48330817
212	0x3f3645e4	0.71200395
213	0xbb3ab70c	-0.0028490452
214	0x3f6136cd	0.87974244
215	0x3ea214d0	0.31656504
216	0x3ebe3c6c	0.37155473
217	0x3f2069b7	0.6266131
218	0xbe0d9c3a	-0.13829127
219	0xbf0f8b05	-0.560715
220	0xbece4def	-0.40293834
221	0x3c634cb4	0.013873268
222	0xbdb0ba02	-0.08629228
223	0x3eb35a92	0.35030037
224	0xbee84704	-0.4536668
225	0x3f3dc5bf	0.7412986
226	0xbf0ba960	-0.5455532
227	0xbdab31ac	-0.083590835
228	0x3fcc4d49	1.5961086
229	0x3e1453ce	0.14485094
230	0x3f59cabe	0.85074985
231	0x3e85817b	0.26075348
232	0x3e8437da	0.2582386
233	0x3e788d3c	0.24272627
234	0x3efbb068	0.49158025
235	0x3ffaa306	1.9581001
236	0xbee015a7	-0.4376652
237	0xbdfbf021	-0.1230166
238	0x3e816ce8	0.252784
239	0x3e846b29	0.25863007
240	0x3fddbbd1	1.7322942
241	0x3f0acdc6	0.54220235
242	0x3de10b0a	0.10988434
243	0x3f9213e2	1.1412318
244	0xbf09b3fa	-0.5379025
245	0xbde1b0d4	-0.110200554
246	0x3f53d64e	0.8274888
247	0x3c35f105	0.011104827
248	0xbe269325	-0.16267069
249	0xbe38f3a7	-0.18061696
250	0xbf686906	-0.90785253
251	0x3ee68458	0.45022845
252	0x3e402a3d	0.18766113
253	0x3c36185d	0.011114207
254	0xbf02f916	-0.51161325
255	0x3f993580	1.1969452

rnn.weight_hh_l0 f4 [64, 64]
0	0xbd93630d	-0.07196627
1	0x3d001fa4	0.031280175
2	0x3d20a086	0.039215587
3	0xbe47e3fe	-0.19520566
4	0x3e00c91e	0.1257672
5	0xbe0d439c	-0.13795322
6	0x3d8d98d3	0.069139145
7	0xbcc0b0af	-0.02352175
8	0x3eaa17b8	0.3322122
9	0xbdd57eca	-0.10424574
10	0xbde3dc41	-0.111259945
11	0x3cb68f2d	0.022285068
12	0x3ea6e27a	0.32594663
13	0xbe853706	-0.26018542
14	0xbd9d0d5b	-0.07668563
15	0xbd05e59b	-0.032689672
16	0xbe296fe0	-0.16546583
17	0xbe44eb71	-0.19230439
18	0xbd980725	-0.07423238
19	0xbd6c5eb7	-0.057707515
20	0xbcd571d1	-0.026055248
21	0x3e761e8c	0.2403509
22	0x3e0633cf	0.13105701
23	0xbe6d617f	-0.23181723
24	0x3e4b42aa	0.19849649
25	0xbdbf24c1	-0.09333182
26	0xbcd95189	-0.026528137
27	0x3e18067d	0.14846225
28	0xbe385ef8	-0.18004978
29	0xbec72811	-0.38897756
30	0xbcc76b32	-0.024343107
31	0xbdec07b1	-0.115249045
32	0x3d7f2434	0.062290385
33	0x3dbae49c	0.09125635
34	0xbec6c167	-0.3881943
35	0x3e934757	0.28765365
36	0x3e1bf794	0.15231162
37	0x3e6db25a	0.23212567
38	0xbcac4bdd	-0.021032268
39	0xbe328380	-0.17432976
40	0x3db5fafc	0.08885762
41	0xbec527ca	-0.3850692
42	0xbf243e09	-0.6415716
43	0xbdf41765	-0.11918525
44	0x3cd62426	0.026140284
45	0x3e3666ec	0.17812699
46	0xbe986316	-0.29763097
47	0x3e711c77	0.23546015
48	0xbe88942b	-0.26675543
49	0xbe45f28a	-0.19330803
50	0x3dac29ad	0.084063865
51	0x3e1846dd	0.14870782
52	0xbccfa3c1	-0.025346639
53	0xbe26ab96	-0.16276392
54	0x3e94e770	0.29082823
55	0x3eb3eec2	0.35143095
56	0x3d9d5b81	0.076834686
57	0xbd8f8d4f	-0.07009374
58	0x3dfe61fa	0.12421031
59	0xbd3895e7	-0.045064833
60	0xbdf91e82	-0.12164022
61	0xbe828ef9	-0.25499704
62	0xbd9832c1	-0.074315555
63	0xb99e6870	-0.0003021392
64	0xbd3d0b4a	-0.046153344
65	0xbde3ab5e	-0.1111667
66	0xbde27ae1	-0.110585935
67	0x3e995421	0.29946998
68	0x3e55914b	0.20856206
69	0x3f02f8c6	0.5116085
70	0x3df220e2	0.11822678
71	0x3eae7d0a	0.34079772
72	0xbe157173	-0.14594059
73	0x3d9338e5	0.07188586
74	0xbec4dd95	-0.38450304
75	0x3db31c4f	0.08745634
76	0x3e972d45	0.29526725
77	0x3d090d6e	0.033460073
78	0x3d344c9f	0.044018384
79	0xbee969c9	-0.4558852
80	0xbe5d0d85	-0.21587189
81	0x3df38fd7	0.1189267
82	0xbd3f7b39	-0.046748374
83	0xbd33844c	-0.04382734
84	0x3e2d6fbc	0.16937155
85	0xbded2445	-0.115791835
86	0xbcb97ecd	-0.022643471
87	0xbdea79bd	-0.11449001
88	0xbe5cf8ec	-0.21579331
89	0x3b3e3c18	0.0029027518
90	0x3e7347cc	0.23757857
91	0x3e740625	0.23830469
92	0x3ece7cd7	0.4032962
93	0x3d388c4c	0.045055673
94	0xbe8fabfe	-0.28060907
95	0xbd731171	-0.059342805
96	0xbef14618	-0.4712379
97	0x3ee155ba	0.44010717
98	0x3e0f7947	0.14011107
99	0xbe9d5e35	-0.30735937
100	0x3e8e4396	0.2778594
101	0xbd9f6193	-0.07782283
102	0xbe82c6bf	-0.25542256
103	0xbd38aaa9	-0.04508463
104	0xbe143d14	-0.14476424
105	0xbe3b9266	-0.18317565
106	0x3ecc08ed	0.3985056
107	0xbd835a48	-0.06413704
108	0xbe3fac11	-0.18717982
109	0x3ce7a269	0.028275685
110	0x3e31f794	0.173796
111	0xbeccbac3	-0.39986238
112	0xbd5e4b8e	-0.054271273
113	0x3eba0b91	0.3633695
114	0xbe1016e1	-0.14071228
115	0xbd7f05bd	-0.06226133
116	0xbe355f53	-0.17712145
117	0xbe461413	-0.19343595
118	0xbed9b7d7	-0.4252307
119	0x3cfda03c	0.030960195
120	0xbd4a35f8	-0.049367875
121	0x3eb62fc3	0.35583314
122	0xbe3271ae	-0.17426178
123	0xbe2ed5ce	-0.17073748
124	0xbe950587	-0.2910578
125	0xbd538cdd	-0.05164801
126	0xbc507bdd	-0.012724844
127	0xbe333d5d	-0.17503877
128	0x3edca399	0.43093565
129	0xbe827d23	-0.25486097
130	0x3e0b8607	0.13625346
131	0x3eaea552	0.34110504
132	0x3d49b5b1	0.04924554
133	0x3db32487	0.087472014
134	0x3e87eab4	0.26546252
135	0x3e28147e	0.16414067
136	0x3dcccca8	0.099999726
137	0x3df65410	0.120277524
138	0xbd966d48	-0.073450625
139	0xbbf4e6c4	-0.0074737985
140	0xbccbf0bf	-0.02489507
141	0xbe034bd4	-0.12821895
142	0xbe4cd470	-0.20002913
143	0xbd4e9375	-0.050433595
144	0xbde5286f	-0.11189353
145	0x3ea4613e	0.3210544
146	0x3dc26a95	0.09492985
147	0x3ea07a2b	0.31343207
148	0x3e526931	0.2054794
149	0x3e944ede	0.2896642
150	0x3d7047f4	0.05866237
151	0x3e22d873	0.15902881
152	0xbe65e8c9	-0.22452082
153	0xbe28e330	-0.16492915
154	0x3e39eb6f	0.18156217
155	0x3e1b6462	0.15175012
156	0x3e7cf968	0.24704516
157	0x3dbdebc0	0.09273481
158	0xbe3b2624	-0.18276268
159	0x3e8c2bff	0.27377316
160	0x3da6794c	0.08128604
161	0xbe1b1498	-0.15144575
162	0xbeba728d	-0.3641552
163	0xbda78814	-0.08180252
164	0x3e418ac9	0.18900599
165	0x3dc4f1d4	0.096164376
166	0x3dcec0c0	0.10095358
167	0x3d1feeab	0.03904597
168	0x3a140c3e	0.0005647576
169	0xbeaf9d39	-0.3429964
170	0x3b199381	0.0023433866
171	0x3e51677a	0.2044963
172	0xbe8751e5	-0.26429668
173	0x3eb6485b	0.35602078
174	0x3e21366b	0.15743415
175	0xbebc813e	-0.36817354
176	0x3b9d7ba3	0.0048059984
177	0xbecbf5bc	-0.39835918
178	0xbe08ca50	-0.13358426
179	0xbd556af6	-0.05210396
180	0xbdef9f49	-0.11700303
181	0x3e0f912f	0.14020227
182	0x3d8048ab	0.0626386
183	0x3e6cdf2b	0.23132007
184	0xbe8ed414	-0.27896178
185	0x3e0950dc	0.13409752
186	0x3ea4f79d	0.32220164
187	0x3e177997	0.14792477
188	0xbe0332e5	-0.12812383
189	0x3e1ac13f	0.1511278
190	0x3eaae4e8	0.33377767
191	0xbe8a5adb	-0.27022442
192	0x3e252c72	0.16130236
193	0xbed35882	-0.41278464
194	0x3e8e6116	0.27808446
195	0xbe22592d	-0.1585433
196	0xbc2a3154	-0.010387737
197	0x3e4c757d	0.19966693
198	0xbe4c31d8	-0.19940889
199	0x3f284c77	0.65741676
200	0x3e706512	0.23476055
201	0xbe08084a	-0.13284412
202	0xbc98e36d	-0.018663133
203	0x3daf6492	0.08564104
204	0x3d91f0f3	0.071260355
205	0xbd926603	-0.071483634
206	0x3c843775	0.016139725
207	0x3dc284e4	0.09498003
208	0x3e768d6f	0.2407739
209	0x3b929ef0	0.004474513
210	0xbea11790	-0.3146329
211	0xbe5e4687	-0.21706592
212	0x3d36c0f5	0.044617612
213	0xbeca10e4	-0.39466012
214	0x3d46aca7	0.048504498
215	0x3ea05710	0.31316423
216	0xbdeed7c5	-0.116622485
217	0xbe05717f	-0.13031577
218	0x3e52ea03	0.20597081
219	0x3d6fdf15	0.058562357
220	0x3c8719fe	0.016491886
221	0x3dc33d75	0.095332064
222	0xbe217e77	-0.15770899
223	0x3e868e8f	0.2628064
224	0xbd32ccfb	-0.043652516
225	0xbcbbfc49	-0.022947447
226	0xbed4d16f	-0.41566035
227	0x3e2951d3	0.1653512
228	0x3aacd79c	0.0013186815
229	0x3da334b4	0.07969037
230	0xbe354e50	-0.17705655
231	0xbea2fb8d	-0.31832543
232	0x3eb7fcc3	0.3593503
233	0xbde47d3f	-0.11156701
234	0x3e4f0112	0.20215252
235	0x3e48eb80	0.19621086
236	0xbd9e6599	-0.07734222
237	0x3df08995	0.11744992
238	0x3e42e1c2	0.19031432
239	0x3cce82bf	0.025208829
240	0xbeb6b1dc	-0.3568257
241	0xbe296c45	-0.16545208
242	0x3cd7090d	0.026249433
243	0xbe1e2e56	-0.15447363
244	0xbe9d2a3c	-0.30696285
245	0xbe7da01c	-0.24768108
246	0xbe19cff4	-0.15020734
247	0xbd7e907b	-0.062149506
248	0x3efcf02b	0.49401984
249	0x3e18420e	0.14868948
250	0x3e4ec924	0.20193917
251	0x3e718b3a	0.23588267
252	0x3e357d22	0.17723516
253	0x3d330609	0.043706927
254	0xbf078a9e	-0.5294589
255	0xbd4be9b3	-0.04978342

actor.weight f4 [3, 64]
0	0x3ce9a7f1	0.028522464
1	0x3b3141bb	0.0027047235
2	0xbc73f407	-0.014889724
3	0x3cc5bf95	0.024139205
4	0xbd70aab5	-0.05875655
5	0xbe5bd8d7	-0.21469437
6	0xbda272c2	-0.079320446
7	0x3e6eab8e	0.2330763
8	0x3e59af92	0.21258381
9	0x3d9ca2c2	0.07648231
10	0xbe124020	-0.14282274
11	0xbe684339	-0.22681893
12	0x3d4a7abb	0.04943345
13	0xbeac0045	-0.33593956
14	0xbe4d1b8a	-0.20030037
15	0x3e9a06cf	0.3008332
16	0x3d253d7c	0.04034184
17	0xbe9391a3	-0.2882205
18	0xbe4219cf	-0.18955158
19	0x3dba5f3a	0.09100194
20	0x3e3a92b7	0.1822003
21	0x3e3e250b	0.18568818
22	0xbe2e5843	-0.17025857
23	0xbe1f81cf	-0.15576862
24	0x3dc23d74	0.094843775
25	0xbe8e0d58	-0.27744555
26	0xbe2a6cc9	-0.1664306
27	0x3d9528d6	0.072831795
28	0xbe28c19c	-0.16480106
29	0xbd2d84ac	-0.042362854
30	0xbe2aacfd	-0.16667552
31	0xbbe7d032	-0.0070743794
32	0x3e42238e	0.18958876
33	0x3d968c02	0.07350923
34	0xbe846956	-0.25861615
35	0x3e224df1	0.15850045
36	0x3d457fdf	0.04821765
37	0x3d434ff7	0.047683682
38	0xbcb9df1a	-0.02268939
39	0x3e4e5407	0.20149241
40	0xbdf53e31	-0.11974753
41	0xbe1b72b0	-0.15180469
42	0xbd83fc44	-0.064446
43	0xbe55e842	-0.2088938
44	0xbd42e6d8	-0.04758343
45	0x3e06ad87	0.13152133
46	0x3ca0a1fe	0.019608494
47	0xbdf758eb	-0.12077507
48	0xbf1a1acc	-0.6019714
49	0x3e1fad0b	0.15593354
50	0x3df80e8b	0.12112149
51	0x3e27f041	0.16400243
52	0xbe680d97	-0.22661434
53	0xbf2d74fe	-0.6775664
54	0x3e06e309	0.13172545
55	0xbd73a6b5	-0.059485156
56	0x3e4e6e0f	0.20159172
57	0x3ce16d1f	0.027517853
58	0x3e12805e	0.1430678
59	0x3e260eb0	0.1621654
60	0xbebd9914	-0.37030852
61	0xbe7f369b	-0.24923174
62	0xbdc15089	-0.09439189
63	0xbdb9cd46	-0.09072356
64	0xbc61dcbf	-0.01378554
65	0x3d6ceb7d	0.057841767
66	0x3e197c9f	0.14988945
67	0x3a163096	0.0005729286
68	0x3e8d4238	0.27589583
69	0xbd363d82	-0.044492252
70	0x3ed51853	0.4162012
71	0x3e0d4594	0.13796073
72	0x3e1531cb	0.14569776
73	0x3def4443	0.11682942
74	0xbdb6881a	-0.08912678
75	0x3e927fe6	0.28613204
76	0x3ea7b85f	0.3275785
77	0x3d792ebd	0.06083559
78	0x3e749893	0.23886327
79	0xbe2bad78	-0.16765392
80	0xbe45f734	-0.19332582
81	0xbdc0e87f	-0.09419345
82	0xbe033dbd	-0.1281652
83	0x3dbabbb6	0.09117834
84	0x3d727973	0.059197854
85	0xbe0dc888	-0.13846028
86	0x3d64d7f5	0.055870015
87	0x3da04626	0.0782588
88	0xbdc1e37d	-0.09467218
89	0x3e6b147b	0.22957031
90	0xbd44749c	-0.04796277
91	0x3d3c2dda	0.045942165
92	0x3cf40a7c	0.029790156
93	0xbd125840	-0.035728693
94	0x3e961854	0.29315436
95	0x3e9f97db	0.31170544
96	0xbe20d92b	-0.15707843
97	0xbea63927	-0.3246548
98	0x3b9f57fa	0.0048627825
99	0xbe526862	-0.20547631
100	0xbe89c22f	-0.26905963
101	0x3e89aea6	0.2689106
102	0xbd99b9f0	-0.07506168
103	0x3df0e49b	0.11762353
104	0x3eb1b673	0.3470951
105	0x3e0cc98b	0.13748758
106	0xbcad5159	-0.021156954
107	0x3dd31557	0.103068046
108	0xbc72f20d	-0.014828217
109	0xbe1872e7	-0.14887582
110	0x3e6d0c49	0.23149218
111	0x3dcafd60	0.09911609
112	0x3e5e9652	0.2173703
113	0xbe18dced	-0.14928026
114	0xbe819f2a	-0.25316745
115	0xbd77cf61	-0.060500506
116	0x3d758884	0.059944645
117	0x3e9c09d5	0.3047625
118	0xbe9ce44d	-0.3064293
119	0x3dd35a3a	0.10319944
120	0xbe220e21	-0.15825702
121	0x3caeb500	0.021326542
122	0xbd6df757	-0.05809721
123	0xbe2c64fd	-0.16835399
124	0x3dfeeaf9	0.12447161
125	0x3e294572	0.16530398
126	0x3cc2a12d	0.023758495
127	0x3e114220	0.14185381
128	0xbc6fee11	-0.014644162
129	0xbe00467f	-0.12526892
130	0xbdaae382	-0.08344175
131	0xbcb388ec	-0.021915875
132	0xbd32a940	-0.04361844
133	0x3dde5129	0.10855324
134	0xbe27d7fc	-0.16390985
135	0xbdf8cef1	-0.12148846
136	0xbe15ec81	-0.14641
137	0x3a95092f	0.0011370535
138	0x3deabc70	0.11461723
139	0xbdd7cd0e	-0.10537158
140	0xbe40e258	-0.18836343
141	0x3dd3ee42	0.103481784
142	0x3d858a01	0.06520463
143	0xbcef65cd	-0.029223347
144	0x3e15cfa2	0.14629987
145	0x3e205b6e	0.15659878
146	0x3e40fa13	0.18845396
147	0xbd998bb1	-0.07497347
148	0xbd93b7c4	-0.07212785
149	0xbcb083bc	-0.02154719
150	0x3d060ea1	0.032728795
151	0xbd95cec0	-0.07314825
152	0x3d866330	0.06561887
153	0xba98ce7a	-0.0011658214
154	0x3e1e6e1f	0.15471695
155	0x38cd5bb0	9.79224e-05
156	0xbd0ed20f	-0.034868296
157	0x3dd40859	0.10353155
158	0xbd96403d	-0.07336471
159	0xbe139457	-0.14412056
160	0x3d96d73e	0.07365273
161	0x3dc2ee5a	0.09518118
162	0x3dd4c78a	0.103896216
163	0xbccd75a2	-0.025080506
164	0x3e16609d	0.14685293
165	0xbd1c8cdf	-0.038220283
166	0x3a3ca3c2	0.00071960327
167	0xbde55d6f	-0.11199462
168	0xbc25ed14	-0.010127325
169	0xbdc389e6	-0.095477864
170	0x3daa375f	0.083113424
171	0x3df79b6b	0.120901905
172	0xbc73c6b7	-0.01487892
173	0x3d93c387	0.07215028
174	0xbdb62e5e	-0.088955626
175	0xbdce535d	-0.10074494
176	0x3e204ee0	0.15655088
177	0xbd8e3d55	-0.06945292
178	0x3d99fe95	0.07519261
179	0xbe30d6a0	-0.17269373
180	0x3e2c4b7c	0.1682567
181	0x3e4dd31a	0.2010006
182	0x3de05a87	0.10954767
183	0xbdb42cf9	-0.0879764
184	0x3d91cae2	0.07118775
185	0xbdc35a7b	-0.09538742
186	0xbbaa019a	-0.005188179
187	0xbd65eb2e	-0.056132488
188	0x3e2a22cc	0.16614836
189	0x3cd74318	0.02627711
190	0xbcdd9b76	-0.027051669
191	0x3ce69ed2	0.028151903

critic.weight f4 [1, 64]
0	0xbb9956c0	-0.004679531
1	0xbdcf7ee9	-0.10131628
2	0x3c5d36ac	0.013501804
3	0xbca24f07	-0.019813074
4	0xbe5d34a8	-0.21602118
5	0x3d32927c	0.04359673
6	0xbd7ccc78	-0.061718434
7	0xbcf08475	-0.029360035
8	0xbdd83db7	-0.10558646
9	0xbd8901f7	-0.06689828
10	0x3c53a466	0.012917614
11	0x3ceb7945	0.02874435
12	0xbe724b90	-0.23661637
13	0xbda003e1	-0.0781324
14	0xb8e8a2fc	-0.0001109298
15	0xbd7451ea	-0.05964843
16	0x3d79bd9b	0.060971837
17	0x3c7d3a28	0.01545576
18	0x3d14318d	0.036180068
19	0xbbd2ec34	-0.006436849
20	0xbe0fc4bf	-0.14039896
21	0xbd4037ce	-0.04692822
22	0xbc99650f	-0.018724946
23	0x3ca80b0a	0.020513076
24	0x3d0c62e9	0.034274016
25	0x3e54f2a4	0.20795685
26	0x3d8aef77	0.067839555
27	0xbd1463a5	-0.03622784
28	0x3db7238a	0.089423254
29	0x3d1f925a	0.03895793
30	0xbd7d2f85	-0.061812896
31	0xbd009406	-0.031391166
32	0x3e0c0fd1	0.13677908
33	0xbdd986d2	-0.10621418
34	0xbd1674dc	-0.03673254
35	0xbaf98ea5	-0.0019039704
36	0xbd076694	-0.03305681
37	0xbce0ef62	-0.027457897
38	0x3d703dcb	0.05865268
39	0xbcfd5400	-0.030923843
40	0x3be9c60a	0.007134204
41	0xbd957324	-0.07297352
42	0x3be85067	0.007089663
43	0x3bb86f74	0.0056285206
44	0x3c5a2a66	0.013315773
45	0x3d82c09b	0.06384393
46	0x3c580ba9	0.013186374
47	0xbb7746d2	-0.0037731421
48	0x3e47a99f	0.19498299
49	0x3d96f600	0.073711395
50	0x3e6bca47	0.23026381
51	0xbcfd0065	-0.030883977
52	0x3d94fd85	0.072749175
53	0x3e09dcf9	0.134632
54	0x3d803248	0.062595904
55	0x3ca9b485	0.020715961
56	0x3bf9df90	0.0076255277
57	0xbdd18ae7	-0.10231572
58	0xbd3a5a2f	-0.045496162
59	0x3db35a9d	0.087575175
60	0x3ded53dd	0.11588261
61	0xbd05cf4a	-0.03266839
62	0x3e2bdf13	0.16784315
63	0xbd06e7f5	-0.032936055
