model_params_101000/30.0_V3_0.95g_0.0rm_100bz_0.0td_0.5tds_Nonelb_Noneup_64n_50000e_10md_5.0rz_41s.pth (torch, 22920 bytes, 4 tensors)

rnn.weight_ih_l0 f4 [64, 9]
000000 50 66 54 be 87 b5 b6 bd e2 9c a9 3e 09 d6 1e be
       -0.20742154 -0.08921342 0.33127505 -0.15511335
000010 30 1e 90 3c e3 cc df 3d 81 97 60 be 38 28 31 be
       0.01759252 0.10927751 -0.21932794 -0.17300498
000020 f3 6d 11 3e 1d 86 df 3d c5 ac 23 bd 48 23 53 3e
       0.14202099 0.10914252 -0.039959688 0.20618927
000030 0f f1 58 bb 79 51 7a 3e 7e 67 0f bf b9 0c 48 bf
       -0.0033102666 0.24445142 -0.5601729 -0.78144413
000040 c8 cd dd 3e ee 6c 8e be d5 b2 36 3e e6 cd d2 bd
       0.4332106 -0.27817482 0.17841657 -0.10293178
000050 90 51 24 be e7 1e bf bc 12 b3 74 3d eb 0b 31 3f
       -0.16046739 -0.023330165 0.059741087 0.6915881
000060 ca e0 5a 3d 1a db 02 3d 4e 61 93 bb 13 31 0c 3f
       0.05343703 0.031947233 -0.0044976836 0.5476238
000070 d9 c3 d9 be 65 7a 93 3e 30 80 45 3f d8 f3 c0 be
       -0.42532232 0.28804317 0.77148724 -0.37686038
000080 39 e9 01 3f db e6 db 3d d7 bf b6 bd d3 60 23 3f
       0.50746495 0.107373916 -0.08923309 0.6381962
000090 f2 e3 81 be 4f 1b 2c 3f 14 01 1f bf 15 2d a4 bf
       -0.2536922 0.6722917 -0.6211102 -1.2826258
0000a0 56 73 00 3e 6c df 95 be 35 e0 84 3e b7 d4 0b 3f
       0.12543997 -0.2927202 0.25952306 0.5462145
0000b0 47 53 b9 be 93 7e 15 3d 9c 11 2b 3e 7a 92 df 3e
       -0.36196348 0.036497664 0.16705936 0.4366644
0000c0 81 d1 8d bf cf 45 38 be ec 62 07 bf 78 b5 f1 3e
       -1.107956 -0.1799538 -0.5288532 0.47208762
0000d0 a6 ff 3d 3e 31 88 92 3e 6e 87 50 3f d3 4f aa be
       0.18554553 0.2861953 0.8145665 -0.33264026
0000e0 cd e2 00 bf 79 f6 6f 3f a9 a8 c2 be cf 74 e7 be
       -0.5034607 0.9373546 -0.38019302 -0.45206305
0000f0 59 ba ab 3e da 89 4b 3f 1f 54 95 3e e6 c1 80 bc
       0.3354061 0.7950722 0.29165742 -0.015717458
000100 2f cd 9b be 90 db c0 bd b1 ab 90 3a 3b 69 80 be
       -0.3042998 -0.09416878 0.0011037496 -0.25080284
000110 11 6d 96 be 43 d6 22 3f 2d f3 51 3f 67 1e 2f 3f
       -0.29380086 0.6360819 0.8201168 0.68405765
000120 8b 68 ad bd a6 c3 94 3e 52 15 3a bf b8 77 be 3d
       -0.084672056 0.29055518 -0.7268878 0.09300178
000130 62 97 eb bd c9 b9 89 3e 1b 12 9b be 1d 92 31 be
       -0.11503483 0.26899555 -0.3028725 -0.17340894
000140 60 53 a2 3e 9f 6f 8d bd b0 f6 58 3e 84 20 01 bd
       0.31704235 -0.06906056 0.21187854 -0.03152515
000150 78 5f 8e be 20 7d b0 be 79 c3 25 3f db b7 67 be
       -0.27807212 -0.34470463 0.6475139 -0.22628729
000160 6a 5f 79 bf 24 7b 18 3f 09 72 13 3d 02 34 96 bd
       -0.97411215 0.595629 0.035997424 -0.073341385
000170 d4 8b 5e bb 35 37 59 3f 2d 8b 9c 3d 17 fb c4 be
       -0.0033957856 0.84849864 0.07643733 -0.38472816
000180 cc 48 fa 3d 46 34 68 be 37 bb 63 be f9 e2 ec 3e
       0.12220916 -0.2267619 -0.22239386 0.46266916
000190 b3 c2 c7 bd 54 26 65 3e 2a 51 31 be fd cd b2 be
       -0.09753933 0.22377902 -0.17316118 -0.34922782
0001a0 58 28 08 3f a2 b8 71 3e d9 a9 ab 3e 3e f3 4b be
       0.5318656 0.23605588 0.3352802 -0.19917008
0001b0 f8 6b 5e bf 5b d3 f4 3e 82 91 3e 3d 36 83 67 bf
       -0.868835 0.478175 0.046525486 -0.90434587
0001c0 46 1c a0 be 6a 2a cd be 1f 16 c3 be 9a 44 c6 bc
       -0.3127157 -0.40071422 -0.38102815 -0.024202634
0001d0 86 50 da 3e a3 1a ac be 98 49 85 bd 90 fe 52 3d
       0.4263956 -0.33614072 -0.065081775 0.0515123
0001e0 31 ea bf bf 5f f6 7f 3e 1e 55 95 be 46 e6 e1 be
       -1.4993345 0.24996327 -0.29166502 -0.44120997
0001f0 1b 87 ae bf 1e 8e 3a bf d4 b3 2a 3e a0 90 af ba
       -1.3634981 -0.72873104 0.16670161 -0.0013394542
000200 58 f2 45 3f f0 f8 e4 3f 59 4d 4c bd cb 47 3f 3f
       0.7732291 1.788847 -0.049878452 0.7471892
000210 73 1c 94 bb 62 9d a0 be dc 70 9d bd a2 0f e5 3d
       -0.004519993 -0.31370074 -0.07687542 0.11184622
000220 dd a2 3a 3e bb 7c 2c 3d 42 8e 02 bf 11 58 c6 3d
       0.1822619 0.04211114 -0.5099832 0.09684766
000230 cb c6 fb 3e 5b a5 cd 3e fa 40 31 be 4c 63 56 3f
       0.49175104 0.4016522 -0.17309943 0.83745265
000240 f2 2f b2 bd 08 68 ab 3d 87 4e 8a 3e aa 4d 4c bf
       -0.08700551 0.08369452 0.27013037 -0.79806006
000250 c9 8a b2 3e a9 2e b5 be 86 e7 04 bf 87 a0 9e 3e
       0.3487151 -0.3538716 -0.51915777 0.30981848
000260 4a da 1a bf 5a 97 35 bf e4 9c 18 3c e6 ab 8c 3e
       -0.6048933 -0.7093407 0.009314749 0.27474898
000270 2f 4d 9a be 20 44 19 3f d8 66 d4 3e ce ba 7e be
       -0.3013701 0.59869576 0.41484714 -0.24875948
000280 0b 5b bf 3c 78 79 62 3e 5d 68 62 3f b8 29 c7 3b
       0.023358842 0.22116649 0.88440496 0.0060779713
000290 ea f6 df be d5 7e c3 3e 0b a5 1b 3e 4b d6 46 bd
       -0.43743068 0.38182703 0.15199678 -0.04854421
0002a0 3b 9f f8 bd 31 5c 62 3f d0 05 1e 3d 1d 0d 0b be
       -0.12139746 0.8842192 0.038579762 -0.13579221
0002b0 21 2f c4 3d 82 20 1a bf ef f7 8d 3d 07 e9 81 be
       0.095793016 -0.60205853 0.06932055 -0.25373098
0002c0 14 23 00 3e 62 0e 93 3c 81 fd da 3d 66 4a 06 bf
       0.12513381 0.017951194 0.10692883 -0.52457273
0002d0 c8 0b 99 be 5b 57 fb 3d 3b 18 1b 3f 9d 8d ce be
       -0.298918 0.12272521 0.6058385 -0.40342417
0002e0 7e 4a 0a 3f 0a 15 13 bf ec 8d bb 3e 99 00 23 3d
       0.54019916 -0.5745398 0.36631715 0.03979549
0002f0 72 47 b5 3e 01 9d 6f 3d 2a 39 b4 3d 48 85 b8 be
       0.3540607 0.05849934 0.08799966 -0.36039186
000300 d0 35 8c bf 86 12 23 3e 1a 7a e4 be a8 25 aa 3e
       -1.0953922 0.15925035 -0.44624406 0.33231854
000310 53 13 35 bc c6 61 11 bf 03 9a a6 be 43 dc a8 bd
       -0.0110519705 -0.56789815 -0.32539377 -0.082451366
000320 aa 50 91 bc 9e fa 18 3e ed e4 88 bd 79 56 80 be
       -0.017738659 0.14939353 -0.06684289 -0.25065973
000330 a9 1a a6 bd 74 69 dd be 62 71 6a bd 7a da c4 3e
       -0.08110554 -0.43244517 -0.057237037 0.38447934
000340 91 c3 dc be c7 5d 69 3d dd a7 37 bd f3 54 3b 3e
       -0.43117955 0.0569742 -0.04483782 0.18294124
000350 68 a5 43 3e df 4c d3 3c a2 d0 64 be d2 a7 dd be
       0.19106066 0.025793491 -0.22345212 -0.432921
000360 2d a7 46 be 8f 7c a5 3e 52 4b b0 be e1 93 84 bf
       -0.1939971 0.32321593 -0.34432465 -1.0357629
000370 2c 77 09 be 9b 2d b6 be 90 24 1b bf 75 51 c5 3e
       -0.13424367 -0.3558167 -0.60602665 0.3853871
000380 88 f5 6b be 6c a3 1e 3f ec 31 2f bf 4b a0 f6 3e
       -0.23042881 0.6196811 -0.6843555 0.4816917
000390 32 3c 75 3e cb 1f 02 bf e8 d3 13 3f 7d 82 80 3e
       0.23948744 -0.5082976 0.5774522 0.25099555
0003a0 cf 47 6b be 5d 54 90 bd 96 54 23 3f 1e f6 15 be
       -0.22976612 -0.07047341 0.6380094 -0.14644668
0003b0 53 2d e3 bd 75 fd 9c 3e ec 6b f2 3d ae 3c 8d bd
       -0.11092629 0.30662122 0.11836991 -0.06896339
0003c0 7e e1 78 3e 94 20 25 be 63 78 cc bd d7 c5 a5 3e
       0.24304768 -0.16125709 -0.099838994 0.32377502
0003d0 13 13 78 be db cd 62 be c1 a5 fa 3e 46 c4 25 bf
       -0.24226026 -0.2214884 0.48954585 -0.64752614
0003e0 59 8e 98 3e b7 13 93 3e db 76 85 be e7 31 4d 3e
       0.29796103 0.2872598 -0.26067242 0.20038567
0003f0 41 0d e1 bd 38 cc 5a 3f d6 af c8 be be 4f 9a 3e
       -0.10988856 0.85467863 -0.39196652 0.30138963

rnn.weight_hh_l0 f4 [64, 64]
000000 e7 a1 ac 3e e8 cd 84 be 9f 5f 77 3c a9 80 87 bd
       0.33717272 -0.25938344 0.015098481 -0.06616337
000010 ba ca 9c 3e 77 8f 0b 3e 65 2b ae 3e b8 00 83 3e
       0.30623418 0.13628946 0.34017482 0.25586486
000020 3d 9b 4e be 53 1f 15 be d1 33 93 3c b3 1e b0 be
       -0.20176406 -0.1456273 0.017969044 -0.34398422
000030 a2 48 da bd 10 45 9c 3e 73 76 a5 3d d9 ae 4e bc
       -0.10658385 0.3052144 0.08079233 -0.012614929
000040 53 c2 7a bd e6 ac ab be 1b 7f 27 3e b7 70 b9 bd
       -0.06122048 -0.3353035 0.1635708 -0.09054702
000050 9d 68 8a 3d 86 71 45 be 42 1c 79 be 2d 0d 4a be
       0.06758235 -0.19281587 -0.24327186 -0.19731589
000060 0b 07 ad be 20 bf 53 3e 4d 96 6e 3d 8f 37 97 3e
       -0.33794436 0.20678377 0.058248807 0.29534575
000070 00 b5 3c 3e b3 3f da be cb 71 7f be bb b2 49 be
       0.18428421 -0.42626724 -0.24945752 -0.19697087
000080 bd 34 e6 3d 52 1b 8c 3e 64 ce 51 3e 78 a5 d4 be
       0.11240528 0.27364594 0.20488888 -0.41532493
000090 bc 65 86 3e d8 ba ba be 80 76 52 3d ce 3c c5 be
       0.26249492 -0.36470675 0.05138254 -0.38522953
0000a0 1e 75 7b bd b8 58 6a 3d 3c b3 8b bd f4 ae a7 bd
       -0.06139099 0.057213515 -0.068212956 -0.081876665
0000b0 7f ad 11 3e c0 43 9b bd 76 a8 21 3e 24 23 b3 3d
       0.1422634 -0.07581282 0.15786919 0.08746937
0000c0 cc ca 9c 3e 1d 54 3d 3e 87 36 21 3e 09 08 ca 3c
       0.30623472 0.18489118 0.15743457 0.024662035
0000d0 9a c2 57 3d ec 95 3a 3d f6 df 17 be 14 81 c3 3d
       0.05267582 0.045553133 -0.14831528 0.09546104
0000e0 2f 2a 84 3d 55 18 72 be 3f 03 a5 bd 57 3c 51 3e
       0.064533584 -0.23642094 -0.0805726 0.20433174
0000f0 27 28 ae bd c5 66 76 3e 8c d4 9c be bb 71 be be
       -0.08503752 0.24062641 -0.3063091 -0.37196144
000100 d0 4d 09 bd 50 8e d1 3d e6 59 ee bd cb 3c 8d 3e
       -0.033521473 0.10232222 -0.116382405 0.27585444
000110 e6 52 3d be 0e 4d 3f be f9 81 05 be 2a b0 9f bd
       -0.18488654 -0.18681738 -0.13037862 -0.077972725
000120 1a 35 17 be 77 35 54 be 92 c6 63 3e bb 67 86 3e
       -0.1476635 -0.2072352 0.22243717 0.26251015
000130 f3 ca fd 3c 9c 6d d5 3c ba 1b ce 3d 23 eb d6 3e
       0.030980563 0.026053242 0.10063882 0.4197627
000140 75 86 92 bd 6f b8 41 3e e7 59 f8 bd 6f f4 da be
       -0.07154552 0.18918012 -0.121265225 -0.42764613
000150 23 ac 46 3e 0e c7 84 3e dc d4 8d be a0 95 f1 3e
       0.19401602 0.25933117 -0.2770146 0.47184467
000160 49 52 e3 3c c4 1c c2 3e 30 d3 b9 3e 95 7f cf 3c
       0.027749198 0.3791257 0.36293936 0.02532939
000170 2d 0f 6b bc 24 6c 14 3e 45 a5 95 3e fb f0 bf 3e
       -0.01434688 0.14494377 0.29227653 0.3748854
000180 29 c0 c1 3d e3 86 31 3e 7b d0 16 3c 94 ef 1e 3e
       0.0946048 0.17336611 0.009204979 0.1552108
000190 5f 8e 3f 3d 02 70 0d be b6 77 84 be 3f a8 89 3e
       0.046766635 -0.13812259 -0.25872582 0.26886174
0001a0 2a b9 62 3e 42 c7 d8 3d 3b 7e 58 be bc 03 28 be
       0.22140947 0.105848804 -0.21141903 -0.16407675
0001b0 a7 2b 93 bc 31 97 82 3e 45 1c bf 3c 30 01 9b bd
       -0.017965151 0.25505975 0.02332891 -0.07568586
0001c0 92 df 9f 3d 91 05 43 bd a9 cb 13 3e a1 bf a3 bc
       0.078063145 -0.04761273 0.14433159 -0.019988837
0001d0 a4 06 9b 3e 8f 9f 65 be 27 57 2b 3e 86 16 8a 3c
       0.30278504 -0.22424148 0.16732465 0.016856443
0001e0 aa 13 11 bd b7 2e 4c 3e 14 e4 e3 3d f8 a2 d4 3e
       -0.035419144 0.19939695 0.11127487 0.41530585
0001f0 16 dd b6 be 37 b3 db bd f5 2d 17 3e 83 36 a1 be
       -0.3571555 -0.10727542 0.14763625 -0.31486902
000200 07 71 8e be 62 96 47 bd be b6 e2 3d 29 3d 2a be
       -0.27820608 -0.0487274 0.110700116 -0.16624893
000210 e4 f5 c3 3d c2 2e 97 3d 12 dd eb bd 07 a4 a5 3e
       0.09568384 0.07381965 -0.11516775 0.32351705
000220 07 a8 31 be 1a bc 9e bd 69 d9 22 3d e3 44 8b 3e
       -0.17349254 -0.07750721 0.03975812 0.27200994
000230 32 4f 06 bd 20 9c c9 3d e3 31 2f 3e 7c a0 0d 3f
       -0.03279037 0.098442316 0.17108874 0.55323005
000240 89 32 31 3e 7b e2 56 3e c7 28 50 bd a0 d5 01 be
       0.17304434 0.20984833 -0.05082014 -0.12679148
000250 a9 07 f2 3d ea 8e 7f be c8 6a ee bd ab c4 10 3e
       0.11817867 -0.24956861 -0.11641461 0.14137523
000260 53 6f 02 be 4f d2 10 3e fa 9b b3 ba d8 bf 52 be
       -0.1273778 0.14142726 -0.0013703101 -0.20580995
000270 4a 16 af 3c a6 17 27 be de 47 4c be 61 db 66 3c
       0.021372933 -0.16317615 -0.1994929 0.01409039
000280 b2 15 6c bd cd 84 33 bc fe fb 74 be f2 05 09 3e
       -0.057637878 -0.010956955 -0.23924252 0.13381174
000290 0d ab 3b 3e 82 3a 5d 3d 2f 78 b2 3d ed 35 b7 bc
       0.1832697 0.054010876 0.087143295 -0.022364581
0002a0 b9 9d 03 be 05 42 d0 bd dd 27 44 3d a6 44 5f 3e
       -0.12853135 -0.10168842 0.04788958 0.21803531
0002b0 68 a2 7d 3d e9 21 52 3d e2 90 10 be 91 4d 32 3e
       0.06192246 0.05130187 -0.14117768 0.17412402
0002c0 14 37 aa bd bd c6 27 bd 50 42 0f 3e bd 02 9f bd
       -0.083112866 -0.040961016 0.1399014 -0.07764194
0002d0 8e 2b 93 be ea 47 07 be 12 a1 56 be 1f 33 8a 3e
       -0.28744167 -0.13211027 -0.20959881 0.26992127
0002e0 e5 27 cb bc 24 71 9f be 03 fa 8b be 56 00 3b bd
       -0.024799297 -0.31141007 -0.2733918 -0.045654617
0002f0 48 42 1d 3f 33 39 17 3d 23 3e 36 3e f9 a9 85 3d
       0.6142926 0.036919784 0.17797141 0.0652656
000300 e0 79 f3 3d 02 9f 03 3f 70 25 a1 be 34 df 72 3e
       0.1188848 0.514145 -0.31473875 0.23717958
000310 d3 f8 c4 be 4d fc 46 3d 84 1c 68 3e 0a 4d 9e 3e
       -0.38471088 0.048580457 0.22667128 0.3091815
000320 24 cb 2c 3e 31 fd 80 bc d1 58 b6 3e d1 cf 8f be
       0.16874367 -0.015745731 0.35614637 -0.2808824
000330 bf b0 62 3e 2d c7 77 3d 80 b8 d8 bb 71 9d d7 bd
       0.22137736 0.060492683 -0.006613791 -0.105280764
000340 a8 09 b3 3e 69 eb b7 be 6b b7 09 3e 1c 02 9d 3c
       0.34968305 -0.3592179 0.13448875 0.019166045
000350 7c 18 97 bd 76 e9 3e be cc b9 a5 3e 07 cf bf 3e
       -0.07377717 -0.18643746 0.32368314 0.37462637
000360 c6 50 d2 3c f7 7a 85 3e 7f 4e 1a be 35 ac 8e be
       0.025673281 0.26070377 -0.15069006 -0.2786576
000370 1d c4 6c bd 1c 84 a5 3d 28 30 a1 be 6d 29 20 bd
       -0.057804216 0.080818385 -0.31482053 -0.039102007
000380 5e 03 1e bf bd 2e a8 3d 62 f9 41 3d cd 87 b5 3e
       -0.6172389 0.082120396 0.04735697 0.3545517
000390 6a f3 9b 3e 75 84 7d 3d 81 f8 57 3e ae 46 a8 bc
       0.30459148 0.0618939 0.2109089 -0.020541515
0003a0 64 12 25 be 21 57 7e be ab b0 fc 3d ec 6a 91 3d
       -0.16120297 -0.24837925 0.12338384 0.07100472
0003b0 b8 12 75 be 2c 6c d8 bd a8 57 2c bd 3d b0 d7 3c
       -0.23932922 -0.10567507 -0.042075783 0.026329154
0003c0 d9 55 f6 3c ad 93 b1 3e 04 15 4e be 39 be 2c 3e
       0.030070232 0.3468298 -0.20125204 0.16869439
0003d0 18 06 8f 3e 62 36 c9 3d 4a 01 1e 3e 41 b2 27 be
       0.27934337 0.09824826 0.15430179 -0.16376592
0003e0 78 52 b0 bd 53 41 09 3e ce d1 f4 3e 10 69 b3 3e
       -0.0860948 0.13403825 0.47816318 0.35041094
0003f0 21 a6 b0 3e 85 33 59 be 1c fd 31 bd b4 eb 6b bd
       0.34501746 -0.2121106 -0.043454275 -0.05759783

actor.weight f4 [3, 64]
000000 1a 77 cf 3c d1 3e 85 3d 84 9d f1 3b 70 c7 1d be
       0.025325347 0.06506122 0.0073735137 -0.1540811
000010 7a bb cc bd 2f 59 83 3c 6e 3b 04 be cf 33 a2 3d
       -0.09996696 0.016033737 -0.12913296 0.07920038
000020 e6 5c 25 3d d5 c1 bc bd 74 52 4f be 0d 1b 1d bc
       0.040371798 -0.09216658 -0.20246297 -0.009588969
000030 b6 fb 11 3e 92 c5 eb 3e 57 4e 2c be de a7 2f 3e
       0.14256176 0.46049172 -0.1682676 0.1715388
000040 60 51 bd 3e 98 08 5d 3e 91 ae e7 bc fc 7e 55 3d
       0.36976147 0.2158531 -0.028281482 0.052123055
000050 a2 b2 4a 3c 18 94 f1 3d 54 9f 98 3d a4 49 d4 3a
       0.012371691 0.11795825 0.074522644 0.0016196263
000060 15 a7 dc 3e 05 6c 9e bd 9b 77 93 bc 10 be 47 3c
       0.43096223 -0.07735447 -0.018001368 0.0121913105
000070 60 69 ff bd 56 eb 6d bd ff 8b b7 bd 48 dc bf 3c
       -0.124712706 -0.058085762 -0.08962249 0.023420468
000080 0e e1 9e be ee 0f 93 be 9e 49 db bd a1 a0 c2 3e
       -0.31031078 -0.2872309 -0.10707401 0.38013175
000090 98 75 c8 3e 86 06 4a bc 33 c9 12 be ce 90 5a be
       0.39152217 -0.012330657 -0.14334564 -0.21344301
0000a0 01 1f 7e 3d e2 49 70 be 00 13 31 3e 66 ff 14 be
       0.062041286 -0.23465684 0.17292404 -0.14550552
0000b0 b8 cd c0 be 3e ca 06 bf 1a 04 0c be 94 f3 c2 ba
       -0.3765695 -0.5265235 -0.1367344 -0.0014873617
0000c0 c9 03 2c 3d 12 48 ca bd c4 af c3 3d a0 f1 52 be
       0.041995797 -0.098770276 0.09555009 -0.20599985
0000d0 d1 60 1e 3c bf f9 bb bd 3e d8 75 3e 63 3e 83 3a
       0.0096666375 -0.09178495 0.24008271 0.00100131
0000e0 02 e1 eb be 74 ab 19 3e 0d ab 4d 3e b9 6a 00 bd
       -0.46070105 0.1500681 0.20084782 -0.03135178
0000f0 42 89 cb bd 2e 5f 7a 3d 51 60 91 3c a9 d3 bb 3d
       -0.09938289 0.061125927 0.017746123 0.0917123
000100 4f b6 66 3d b8 52 d4 bd 1a a6 1c 3e 5e 14 86 3d
       0.056326207 -0.1036734 0.15297738 0.065468535
000110 8e b4 3d 3e 97 5b 0d be 01 37 0a be 24 1c 05 be
       0.18525907 -0.1380447 -0.13497545 -0.12999016
000120 04 e9 5f 3e 4f 7b 66 3d 7b 93 1f 3f d3 5d bc be
       0.21866232 0.05626994 0.6233441 -0.36790332
000130 15 27 8a bd 17 ce b3 3d e0 26 0d 3f 38 f0 66 bc
       -0.067457356 0.08779543 0.55137444 -0.014095359
000140 47 92 a0 bd ec a4 0f bd 34 2f 9d be d9 a9 1f be
       -0.078404 -0.03506939 -0.30700076 -0.15592135
000150 38 44 82 be 75 39 25 be a5 7c 15 3e 2b b6 1c be
       -0.25442672 -0.161352 0.1459833 -0.15303867
000160 3e f5 10 3d 46 6c 96 3d d4 aa da bd 45 56 73 3c
       0.03539013 0.0734487 -0.10677114 0.014852111
000170 1e 07 80 be d0 93 91 3d 9e f1 85 3d a5 bc bf 3d
       -0.2500543 0.07108271 0.065402254 0.09362153
000180 01 cd 1c 3d 8e c2 57 3d 71 88 d7 3b 2f ef 80 3d
       0.038281444 0.052675776 0.0065775444 0.06295621
000190 3f 73 86 bd e0 ef e6 3d ef 8c 61 3e bb d8 19 3f
       -0.0656495 0.11276221 0.22026418 0.6009633
0001a0 ab ce 0d be 36 92 8a 3d 08 92 9d bd 4b 2b 56 be
       -0.13848369 0.06766169 -0.07693869 -0.20914952
0001b0 b7 d8 bd 3d 7c f5 95 3d 17 36 a7 3d af 74 46 bc
       0.09269851 0.07322213 0.08164614 -0.0121127805
0001c0 8d a4 97 be 27 99 86 3c 7e 28 d1 bd a4 5a 20 3e
       -0.2961773 0.01643045 -0.102128014 0.15659577
0001d0 20 f4 49 bd 5b 33 d1 3d 0b 32 12 be d8 3a 96 be
       -0.04930508 0.102148734 -0.14276902 -0.2934177
0001e0 7c 8e 22 3e 5a 8a ea 3d da da 8a 3e eb f0 d5 bd
       0.15874666 0.1145217 0.27120095 -0.10446342
0001f0 47 2f d7 3e fd fa 4a 3e a1 07 a6 bd 82 9b 32 bd
       0.42028257 0.19822307 -0.08106924 -0.043605335
000200 e9 1f 7c bd ec 60 64 bd 7e 91 fd bd aa d1 b8 bc
       -0.06155387 -0.055756494 -0.12381266 -0.022560913
000210 cd dd 22 3d 93 37 48 3e a4 d8 0e 3e 10 7b 1d 3d
       0.039762307 0.1955245 0.1394983 0.03844744
000220 76 d8 16 be cf fa f1 3c 00 87 7c be 5f a3 5c 3e
       -0.14731011 0.02953854 -0.24660873 0.21546696
000230 4a 6d 02 3d 0a 57 4c be 1c 9f 91 be 51 50 97 bd
       0.031842507 -0.19955078 -0.28441703 -0.07388366
000240 38 2e 8b bc 2d 32 b0 bc f1 e2 43 3e f0 f0 35 3d
       -0.016989812 -0.0215083 0.1912954 0.04441923
000250 b4 bd 34 3d 2b 63 e2 3d 60 d2 2a be ad c5 f6 3c
       0.044126227 0.11054071 -0.16681814 0.030123556
000260 c0 c4 41 be 8a e9 e5 bd 67 f0 fc 3c ee fb 12 be
       -0.1892271 -0.11226185 0.030876352 -0.14353916
000270 a8 8a ec 3d 8c 05 0f 3b a1 b3 1b be cd 4c e2 bc
       0.11549884 0.0021823375 -0.15205242 -0.027624512
000280 58 da 08 3e 05 45 9f 3d 1c db ce bc 3f 1f 24 be
       0.13364542 0.07776836 -0.025250964 -0.16027544
000290 2f 4d 52 bc c2 c4 02 bd 00 0f ee bd c0 f8 8d be
       -0.012835785 -0.031925924 -0.11623955 -0.27728844
0002a0 e5 c7 1c 3d 3a bf 79 bc 94 8c 0d be ec b7 18 3e
       0.03827657 -0.015243346 -0.13823158 0.1491391
0002b0 e2 0e d1 3c 45 1f 8e 3d 5a 3c 90 bd 35 1e c0 3d
       0.025519792 0.06939558 -0.07042761 0.093807615
0002c0 79 f5 b5 3d 0e 1f 46 3d 22 b9 dc 3d 12 51 4c 3d
       0.08884711 0.04836946 0.10777499 0.049882002
0002d0 87 b1 a3 b9 95 a4 10 ba 17 98 93 3d d5 26 d9 3d
       -0.0003122205 -0.00055176887 0.07206743 0.1060311
0002e0 9f 19 98 3d ee 42 85 bb c7 f2 53 be 16 7f 74 bd
       0.07426762 -0.0040668165 -0.20698081 -0.05969151
0002f0 59 e8 59 bd 77 61 26 be d7 e0 7d 3d 66 03 36 be
       -0.0532001 -0.16248117 0.061982002 -0.17774734

critic.weight f4 [1, 64]
000000 04 71 cc 3b 91 05 f5 bb 8e 36 9b bd bc 00 08 3d
       0.0062390584 -0.00747747 -0.07578765 0.033203825
000010 47 62 e8 3d fe 70 8e 3c 6f ce d7 3d 19 48 48 bb
       0.1134687 0.017387863 0.10537421 -0.0030560552
000020 ce 6c 88 bc 8f 4a 6a bd 8b d7 9c bd f4 33 44 3c
       -0.016653445 -0.05720001 -0.07658299 0.011975277
000030 b9 de 4d bc e3 64 c6 bd 6d 48 5f be 1f 71 5b 3c
       -0.012565308 -0.09687211 -0.21804972 0.013393669
000040 37 1f de bb 43 72 8d bd 21 8a 63 3d fd 7b 9f bd
       -0.0067786234 -0.06906559 0.055551652 -0.07787321
000050 20 21 b7 3d 77 aa a6 3b 3d 5f 34 3c 8a 2a 79 bd
       0.08941865 0.005086239 0.011009035 -0.060831584
000060 5c 9a dd bd 85 2c e0 bd f0 4f 1f bd 10 eb 96 3b
       -0.10820457 -0.109459914 -0.038894594 0.0046056584
000070 ab 4a 25 3e ff 42 6a 3c 45 cf 91 3d f5 f8 8f bd
       0.16141765 0.0142982 0.07119612 -0.07029907
000080 80 75 9c 3c 5c 3c c2 3b 88 ee 55 3d 69 26 a1 bd
       0.019098997 0.0059276056 0.052229434 -0.07868654
000090 6a c0 80 be e7 20 0b 3c c8 3e 35 3d 91 e3 f9 bd
       -0.251468 0.008491731 0.044249326 -0.12201608
0000a0 da d0 07 3d ed 3c d6 3c e4 c9 5b 3d c9 f7 f5 3d
       0.03315816 0.026152099 0.053659335 0.12010152
0000b0 02 01 10 3c b9 63 4b 3e 33 df 7d 3c 4f 40 52 3d
       0.008789303 0.1986226 0.015495109 0.05133086
0000c0 a6 16 f1 bb fd 63 d0 bb 2a 90 90 bc a5 fa 99 3c
       -0.007357436 -0.006359576 -0.017646868 0.018796274
0000d0 c3 70 14 3d dd c3 af bb 3f 7a 75 bc 20 a8 e1 3d
       0.03624035 -0.005363925 -0.014982759 0.110183954
0000e0 a9 a0 fe 3c 57 11 30 3d d6 17 dc bd 66 d9 99 bc
       0.031082468 0.042985287 -0.10746734 -0.018780421
0000f0 e8 21 f3 bd dc 02 eb bc c9 ce 0c 3d 16 3b cf 3d
       -0.118717015 -0.028687887 0.034376893 0.101186916
