model_params_101000/32.0_V3_0.95g_0.0rm_50bz_0.0td_1.0tds_Nonelb_Noneup_64n_50000e_10md_5.0rz_5s.pth (torch, 22904 bytes, 4 tensors)

rnn.weight_ih_l0 f4 [64, 9]
-1.4439111 -0.30358866 -0.056931715 -0.29059035 0.021289388 -0.19002786 0.1754083 -0.2945059
0.03629262 -0.09682608 0.18568105 -0.21240708 -0.58121824 -0.2718742 0.29880014 0.2700332
-0.17528427 -0.69443697 -0.08402722 -0.15037422 0.28239596 -0.3750518 -0.011677944 0.46623665
-0.09887205 -0.57191485 0.24673788 -0.23981594 0.10626462 0.47611713 -1.2085451 0.24862415
0.09579836 0.08094202 -0.33709082 0.13778345 -0.03692412 0.1611566 0.39327392 -0.43363732
0.09582773 0.03645985 -0.21928224 0.5164364 0.3400401 -0.50004226 -0.3554262 0.017177526
-1.1646804 0.5826535 0.16651084 -1.0618354 -0.9322869 0.6953682 0.41405043 0.09446773
0.045954477 0.17409001 -0.08428905 -0.5785883 0.67184955 -0.17874132 0.087470114 0.5916467
-0.51198584 0.18930583 -0.41225827 -0.090544164 0.28829277 -0.1398243 0.08479611 0.37689072
0.19477616 -0.66038007 0.14075363 0.30745372 0.5468039 0.20938976 -0.069613345 -0.16546233
-0.4740122 -0.26907933 0.38371512 0.654297 -0.59536064 -0.57210964 0.4495609 -0.20942715
-0.064729884 0.19422233 0.5076436 -0.0595741 -0.08466379 -0.022378068 -0.06879258 0.24434483
-0.33968 0.3084717 0.31341445 0.47592807 -0.117125295 0.28194007 0.80803883 -0.09636187
-0.12990348 -0.2323111 -0.29477414 -0.16035452 -0.26468924 0.40544614 -0.0039136806 -0.14325462
0.21583077 -0.5466107 0.061970066 -0.48342398 0.113073215 0.116638444 0.36814636 -0.40993637
-0.35696015 -0.113970585 0.5535144 -0.46769282 0.005173214 -0.2925391 0.26829803 -0.44368833
0.10647892 -0.478739 0.37495255 -0.28572556 0.28575265 -0.26237106 -0.2576654 -0.44049454
-0.26190877 -0.20583473 -0.91436845 0.9258179 -0.27055925 0.014257124 -0.057563413 -0.071187764
0.049656484 -0.21631889 0.019021722 -0.9577807 0.14533426 -0.042468634 -0.18407659 -0.3233729
0.47757053 -0.05861203 0.42255473 0.44812268 -0.07710186 -0.3784546 0.29367206 0.7176475
0.10708342 -0.17699274 -0.13716714 0.36923188 -0.114817165 -1.1944096 0.5712643 -0.6839457
-0.25795972 -0.17230198 -0.8321854 0.017209982 0.3403375 0.11364558 -0.65312934 -0.17550912
-0.42219284 -0.15708774 -0.50506943 -0.12576392 -0.45153564 -0.2543081 0.43793103 -0.2086713
0.10552585 0.20033193 -0.1568893 -0.74723786 0.46917614 0.40974924 0.07597656 0.34668475
0.427031 -0.54875094 0.34744987 0.034343675 0.10434114 -0.12266132 -0.29987535 0.9044968
-0.20515822 -0.46299353 0.20635703 -0.25480318 -0.46617314 -0.62114275 -0.2927708 0.49933058
-0.1853447 -0.66633236 -0.03290921 0.31706482 0.11135427 -0.26720673 -0.009506691 -0.32412046
0.44277442 0.06380827 0.034522854 -0.46725902 0.34137154 -0.17274208 -0.35053492 0.040668678
-0.012871596 -0.14807512 0.62908244 0.35382235 0.43319026 -0.70237684 0.088383935 -0.15065843
-0.09638155 0.062970534 0.29274112 -0.20789436 -0.097645484 0.7202831 -0.34131283 0.29873264
0.20079978 -0.13526529 0.52317613 -0.8546292 -0.8400307 0.102323465 -0.28510636 -0.07506375
-0.16774806 -0.112501934 -0.63080597 -0.053917523 -0.20206028 0.2098158 -0.32250398 -0.26277664
00000000: 14d2 b8bf f96f 9bbe 3b31 69bd 42c8 94be
00000010: 1567 ae3c aa96 42be 3c9e 333e 7ac9 96be
00000020: 92a7 143d c04c c6bd 2c23 3e3e 3e81 59be
00000030: b8ca 14bf 1833 8bbe 55fc 983e cb41 8a3e
00000040: b87d 33be 9fc6 31bf 7716 acbd b3fb 19be
00000050: 3496 903e ca06 c0be d954 3fbc 92b6 ee3e
00000060: 6e7d cabd 0369 12bf dba8 7c3e 4f92 75be
00000070: 44a1 d93d a0c5 f33e 9bb1 9abf 5497 7e3e
00000080: ee31 c43d eec4 a53d 2b97 acbe 1b17 0d3e
00000090: bf3d 17bd 3c06 253e 335b c93e b605 debe
000000a0: 5441 c43d ec56 153d 868b 60be 2d35 043f
000000b0: bc19 ae3e c502 00bf 6cfa b5be e2b7 8c3c
000000c0: 3f14 95bf c828 153f d181 2a3e 39ea 87bf
000000d0: 5baa 6ebf a603 323f 6bfe d33e 4c78 c13d
000000e0: c33a 3c3d a744 323e bd9f acbd 5d1e 14bf
000000f0: 55fe 2b3f f707 37be 8823 b33d 2876 173f
00000100: 8111 03bf 63d9 413e 8413 d3be 386f b9bd
00000110: 1c9b 933e 1a2e 0fbe 95a9 ad3d d2f7 c03e
00000120: 6773 473e ab0e 29bf b821 103e 936a 9d3e
00000130: 57fb 0b3f 456a 563e 7191 8ebd f56e 29be
00000140: bab1 f2be c4c4 89be 4f76 c43e 0280 273f
00000150: 8e69 18bf c775 12bf d92c e63e 1274 56be
00000160: 1a91 84bd 38e2 463e eef4 013f f903 74bd
00000170: 3664 adbd 3652 b7bc 20e3 8cbd 8835 7a3e
00000180: 89ea adbe 01f0 9d3e dc77 a03e d8ac f33e
00000190: 63df efbd 735a 903e a2db 4e3f 5f59 c5bd
000001a0: 6b05 05be f6e2 6dbe a3ec 96be fa33 24be
000001b0: 5985 87be a396 cf3e 553e 80bb 57b1 12be
000001c0: be02 5d3e aeee 0bbf 53d4 7d3d 5983 f7be
000001d0: ee92 e73d 23e0 ee3d ae7d bc3e 2ee3 d1be
000001e0: 7bc3 b6be 6969 e9bd 1fb3 0d3f 6f75 efbe
000001f0: 1084 a93b afc7 95be 5c5e 893e 1e2b e3be
00000200: 9f11 da3d 471d f5be c8f9 bf3e 9f4a 92be
00000210: 2c4e 923e 8055 86be b8ec 83be 8088 e1be
00000220: e818 86be 57c6 52be 0d14 6abf 6702 6d3f
00000230: be86 8abe b696 693c 9dc7 6bbd e4ca 91bd
00000240: 9964 4b3d b382 5dbe 71d3 9b3c 1e31 75bf
00000250: 81d2 143e 97f3 2dbd 937e 3cbe 2291 a5be
00000260: 2084 f43e 2b13 70bd 1859 d83e 5670 e53e
00000270: 94e7 9dbd cdc4 c1be 2f5c 963e bfb7 373f
00000280: 8d4e db3d 963d 35be 8b75 0cbe f60b bd3e
00000290: 4325 ebbd 6ae2 98bf 613e 123f 1117 2fbf
000002a0: 4c13 84be ee6f 30be 1a0a 55bf f3fb 8c3c
000002b0: b840 ae3e 04bf e83d 7c33 27bf aab8 33be
000002c0: a929 d8be 9cdb 20be 3b4c 01bf 42c8 00be
000002d0: ae2f e7be ac34 82be 7f38 e03e eead 55be
000002e0: f01d d83d d023 4d3e 97a7 20be fb4a 3fbf
000002f0: db37 f03e a7ca d13e 9999 9b3d aa80 b13e
00000300: cfa3 da3e f17a 0cbf f3e4 b13e f4ab 0c3d
00000310: cfb0 d53d dc35 fbbd 4389 99be 1a8d 673f
00000320: ff14 52be 7d0d edbe 424f 533e 9075 82be
00000330: 3fae eebe 3603 1fbf 0ee6 95be 42a8 ff3e
00000340: 00cb 3dbe c294 2abf cfcb 06bd 5256 a23e
00000350: b50d e43d 52cf 88be f4c1 1bbc 1ef3 a5be
00000360: 54b3 e23e e9ad 823d d667 0d3d 933c efbe
00000370: 40c8 ae3e 4de3 30be 5079 b3be 3394 263d
00000380: 63e3 52bc 01a1 17be 8c0b 213f 3428 b53e
00000390: 1dcb dd3e f8ce 33bf a302 b53d 3446 1abe
000003a0: b163 c5bd b2f6 803d 2ae2 953e 42e2 54be
000003b0: 5bfa c7bd 7964 383f 8ec0 aebe 7cf3 983e
000003c0: 759e 4d3e fc82 0abe dfee 053f fbc8 5abf
000003d0: 410c 57bf f78e d13d 76f9 91be 06bb 99bd
000003e0: 26c6 2bbe 6a67 e6bd 807c 21bf 9fd8 5cbd
000003f0: e4e8 4ebe f4d9 563e 3e1f a5be a98a 86be

rnn.weight_hh_l0 f4 [64, 64]
0.20848596 0.27657965 0.18871322 0.11883969 0.39528835 -0.30463532 -0.1028707 -0.11269646
-0.3985026 0.3472646 0.1225395 -0.2779323 0.026866281 0.13736747 0.15106894 0.36317918
-0.20902553 0.14533833 -0.2802142 -0.15934496 -0.018425094 0.27205512 -0.19827102 -0.25332883
0.17735177 0.10391758 0.056640208 -0.68915266 0.5248177 -0.0010954174 -0.040096786 -0.0050403657
0.27866173 0.51052916 -0.029924575 -0.389001 -0.4989013 -0.008976448 -0.3607677 -0.457937
-0.3908992 -0.16996989 0.40050566 -0.4962578 -0.0039708447 -0.0046586436 -0.09617565 -0.57455045
0.21842664 0.06213662 0.019249735 0.3934198 -0.1732737 -0.19674116 -0.26299313 -0.33382097
0.59865355 0.060066484 0.13625869 0.15817194 -0.20634387 0.16163637 0.24957205 0.3815368
-0.14812072 0.4659034 0.1810211 0.067341834 0.18025646 -0.031724308 -0.33140346 -0.1413648
0.3911964 0.059102844 -0.2211051 -0.15203966 -0.042995133 0.38176084 0.28648353 -0.09033047
0.15239099 0.040037744 0.054719795 0.117676914 -0.014998717 -0.11693043 0.025528193 0.3093031
0.04291016 0.07601353 0.0878626 0.29563904 0.2761438 0.040633544 0.09319476 -0.1159913
0.09522363 -0.22530931 0.087092265 0.14891508 -0.09337627 0.23947316 0.030215157 0.23116271
-0.2119596 0.08741325 -0.19982576 -0.19119576 0.14758724 -0.11667386 -0.3678946 0.12345696
-0.3458411 0.11140268 -0.059784833 0.18754233 0.22997127 0.037132464 -0.036929257 -0.09942651
0.7355408 -0.07395777 -0.027076306 -0.08484983 0.16629153 -0.13731337 -0.21229699 -0.011956022
-0.29293385 0.35847023 0.36683616 0.2318332 -0.15155204 -0.16522264 -0.12968124 0.080195546
0.062290717 0.17125908 0.14331032 -0.09148446 0.11942882 0.2536981 0.0230149 0.19036368
0.29153675 0.012124323 -0.09339053 0.15127683 0.2523432 -0.03494678 -0.046356373 0.37838966
0.030939369 0.0703439 -0.026847884 0.41088665 0.30762213 -0.26037306 0.046830744 0.020660501
0.09752253 -0.013382152 0.075320385 -0.016558561 -0.08592597 -0.14887589 0.16191453 -0.44131437
-0.037128232 0.10983621 -0.3270842 -0.0031426097 0.2669098 0.06397428 -0.32142562 -0.3373987
0.10854283 0.0044345916 0.14542419 -0.33668065 0.09527565 0.025438014 -0.14819048 -0.23688759
0.28286913 -0.08015595 0.22465771 0.09139465 -0.04993559 0.12548912 0.31152874 0.07591789
0.40898198 -0.031697992 0.07913567 0.25776193 -0.26119766 0.06552815 0.15397775 -0.4410858
0.22507387 -0.003541068 -0.022683684 0.047383443 0.2644928 0.7165252 0.09745093 0.16593125
0.07322591 -0.5144017 -0.037449885 0.37032777 -0.2185219 -0.5112309 0.10939648 0.22962917
0.14514092 -0.0025053397 -0.08991357 0.47285813 -0.03843589 -0.22093394 -0.020173784 -0.019412242
0.0027609544 -0.50131 0.17375585 0.28524798 -0.43558267 0.07674312 0.15139344 -0.04358287
-0.3506641 -0.19808322 -0.037405133 -0.057062436 0.30193362 0.10248052 0.18401419 -0.27113187
0.21167193 0.18148084 -0.2846495 -0.17914619 0.076401986 -0.20526816 -0.15154621 -0.15270905
0.11262682 -0.12225714 0.33810672 -0.2927186 0.02183463 -0.18451056 -0.50996214 0.14740345
00000000: 587d 553e d99b 8d3e 0a3e 413e 3962 f33d
00000010: 3c63 ca3e 29f9 9bbe e0ad d2bd 67cd e6bd
00000020: 8808 ccbe aacc b13e fdf5 fa3d 244d 8ebe
00000030: ad16 dc3c 0faa 0c3e d1b1 1a3e 9ff2 b93e
00000040: ca0a 56be 92d3 143e 3c78 8fbe 532b 23be
00000050: 39f0 96bc cf4a 8b3e 8f07 4bbe 51b4 81be
00000060: b49b 353e bdd2 d43d 90ff 673d 4f6c 30bf
00000070: 745a 063f 1c94 8fba 873c 24bd a729 a5bb
00000080: c0ac 8e3e 0ab2 023f 6224 f5bc 242b c7be
00000090: fe6f ffbe f411 13bc 8bb6 b8be b876 eabe
000000a0: f123 c8be 960c 2ebe 140f cd3e 8115 febe
000000b0: dc1d 82bb 89a7 98bb bdf7 c4bd bd15 13bf
000000c0: 3cab 5f3e f882 7e3d 9fb1 9d3c 526e c93e
000000d0: a96e 31be 8476 49be 09a7 86be 95ea aabe
000000e0: 5c41 193f 4608 763d 6687 0b3e d3f7 213e
000000f0: cf4b 53be 0184 253e d18f 7f3e cb58 c33e
00000100: f5ac 17be e48a ee3e 985d 393e 84ea 893d
00000110: 2695 383e 59f1 01bd b7ad a9be efc1 10be
00000120: e54a c83e d315 723d 6069 62be 49b0 1bbe
00000130: aa1b 30bd 2876 c33e f8ad 923e 2eff b8bd
00000140: 620c 1c3e 9efe 233d dd21 603d 9800 f13d
00000150: 2ebd 75bc 3979 efbd 8020 d13c fa5c 9e3e
00000160: 90c2 2f3d fbac 9b3d 4ff1 b33d 005e 973e
00000170: b862 8d3e 5c6f 263d e5dc be3d d98c edbd
00000180: 9b04 c33d 7cb7 66be 6e5d b23d 327d 183e
00000190: 0f3c bfbd 7438 753e c785 f73c ebb5 6c3e
000001a0: f00b 59be b805 b33d 209f 4cbe d2c8 43be
000001b0: 1c21 173e b4f2 eebd ae5c bcbe 01d7 fc3d
000001c0: 1612 b1be 1727 e43d f1e0 74bd 190b 403e
000001d0: 977d 6b3e 3618 183d 2243 17bd 20a0 cbbd
000001e0: 674c 3c3f 2c77 97bd 21cf ddbc bfc5 adbd
000001f0: 5448 2a3e e09b 0cbe 6264 59be 31e3 43bc
00000200: 6dfb 95be 6989 b73e f3d1 bb3e af65 6d3e
00000210: 7530 1bbe 2030 29be 29cb 04be 903d a43d
00000220: 8d24 7f3d 8a5e 2f3e f1bf 123e 345c bbbd
00000230: 1997 f43d b8e4 813e be89 bc3c b2ee 423e
00000240: 4e44 953e 19a5 463c 8943 bfbd 50e8 1a3e
00000250: 2133 813e 5b24 0fbd 2ee0 3dbd 4abc c13e
00000260: 8f74 fd3c 7610 903d 18f0 dbbc bc5f d23e
00000270: a680 9d3e 9e4f 85be 98d1 3f3d 3640 a93c
00000280: e4b9 c73d d040 5bbc 9341 9a3d d2a5 87bc
00000290: f4f9 afbd ec72 18be eccc 253e f5f3 e1be
000002a0: c613 18bd cff1 e03d 9577 a7be 3ef4 4dbb
000002b0: 67a8 883e f304 833d e691 a4be 86bf acbe
000002c0: b44b de3d 0d50 913b 14ea 143e 6861 acbe
000002d0: e11f c33d 6263 d03c 3fbf 17be a992 72be
000002e0: 39d4 903e cd28 a4bd ac0c 663e 1e2d bb3d
000002f0: 4389 4cbd 3880 003e b280 9f3e d77a 9b3d
00000300: 1666 d13e c1d5 01bd e211 a23d 5ff9 833e
00000310: b3bb 85be 9f33 863d 58ac 1d3e ffd5 e1be
00000320: c479 663e 4311 68bb 22d3 b9bc 2415 423d
00000330: 9a6b 873e 326e 373f 5a94 c73d e2e9 293e
00000340: 77f7 953d d4af 03bf 0d65 19bd 9a9b bd3e
00000350: 34c4 5fbe 07e0 02bf 430b e03d e923 6b3e
00000360: d29f 143e a030 24bb 9b24 b8bd 761a f23e
00000370: f46e 1dbd 823c 62be 7e43 a5bc 6c06 9fbc
00000380: 21f1 343b da55 00bf 0eed 313e 060c 923e
00000390: b104 dfbe 7f2b 9d3d e206 1b3e f483 32bd
000003a0: 3f8a b3be 54d6 4abe 2036 19bd 4dba 69bd
000003b0: 0b97 9a3e 4fe1 d13d 376e 3c3e ccd1 8abe
000003c0: 87c0 583e 1dd6 393e 94bd 91be 1972 37be
000003d0: a578 9c3d d131 52be ee2e 1bbe c35f 1cbe
000003e0: e4a8 e63d f461 fabd 531c ad3e 36df 95be
000003f0: 8ade b23c 56f0 3cbe e18c 02bf eef0 163e

actor.weight f4 [3, 64]
0.03531977 -0.10980044 0.14455101 0.22658087 -0.3985849 0.44201338 -0.03679634 -0.1894054
0.1993656 0.093213126 0.04138758 -0.0010097827 0.12334969 0.2625683 0.03772521 0.046334516
0.29217863 -0.3540605 0.30434018 0.10107303 0.12828577 -0.1249275 0.2648513 -0.15535265
-0.033459567 0.038533837 -0.0928954 0.22434402 0.0854679 -0.20555754 0.2680511 -0.40702656
-0.02769168 -0.227782 -0.054199222 0.10616997 0.026563529 -0.14472291 0.11272446 -0.04239227
0.0781504 0.277418 -0.06990776 0.022653153 0.04262297 0.17655031 0.053973183 0.101326324
-0.024410764 0.15087032 -0.4306604 -0.2248523 0.058800023 -0.15212671 -0.017479442 -0.033525
0.09775267 -0.075630166 -0.03566037 -0.094619684 -0.17320693 -0.07579376 -0.059613835 0.09932961
0.042274013 -0.036555167 -0.17217314 -0.06529767 -0.07883526 -0.07548 0.10478422 0.06509669
0.17051147 -0.09496041 0.079991706 0.22733475 -0.0804261 0.07132809 -0.19970752 0.007929674
0.05138589 -0.26118666 -0.18705872 0.061917115 0.2296752 0.048729923 0.014649826 -0.0659092
0.06107453 0.1452727 0.3698275 0.18194148 -0.010305929 0.030024545 0.15133464 -0.044686902
-0.4201609 -0.26505417 0.14445694 -0.030783396 0.15652151 -0.36001194 0.3883408 0.22105561
0.18856025 -0.09527948 -0.045587 0.24518493 0.08403162 -0.09026825 0.06979178 0.14317286
0.16810586 -0.025492392 -0.078028865 -0.013712287 0.15972814 0.13759288 0.18383187 0.15481193
-0.011306234 -0.05601615 0.15606672 0.12665118 0.033975806 -0.2711706 -0.1931568 -0.341877
-0.014857255 0.16982776 0.105832934 -0.08145923 0.27097544 -0.21738154 -0.09021517 0.05723063
-0.30767152 0.09179398 -0.1996322 -0.15766358 0.010251117 -0.110818565 0.11377835 -0.061572693
-0.09384828 0.31709293 -0.022738427 -0.0047891485 -0.22164246 0.0421041 -0.2060453 0.09421825
0.072300926 -0.19717447 -0.16933016 -0.36702034 -0.009856578 0.06665692 -0.21432288 0.19785057
0.28288585 0.37963504 -0.04010216 -0.16019477 -0.10820226 0.2651999 -0.27778468 -0.097539656
-0.1393689 -0.089440614 0.07916072 -0.1945137 -0.009715629 0.0119977575 -0.10848678 -0.25407687
-0.09102074 -0.05160325 0.28181225 0.08754607 -0.08301323 -0.018481111 -0.1344114 -0.12766565
0.050615817 0.165349 -0.13091159 -0.09320042 0.13791756 0.18928258 0.100791216 0.10302211
00000000: 77ab 103d 0edf e0bd 2e05 143e d104 683e
00000010: 5213 ccbe 944f e23e c2b7 16bd 7df3 41be
00000020: 7f26 4c3e 86e6 be3d 0686 293d af5a 84ba
00000030: c39e fc3d 5a6f 863e c085 1a3d 43c9 3d3d
00000040: 7098 953e 6b47 b5be 7ad2 9b3e 60ff ce3d
00000050: 585d 033e fdd9 ffbd 979a 873e c414 1fbe
00000060: e60c 09bd a8d5 1d3d f23f bebd 70ba 653e
00000070: cb09 af3d ad7d 52be fe3d 893e c965 d0be
00000080: a9d9 e2bc af3f 69be 0100 5ebd a46f d93d
00000090: c29b d93c 3e32 14be 15dc e63d 84a3 2dbd
000000a0: 510d a03d bb09 8e3e cd2b 8fbd 1b93 b93c
000000b0: 6c95 2e3d 9bc9 343e fc12 5d3d 2d84 cf3d
000000c0: 15f9 c7bc c07d 1a3e 857f dcbe ae3f 66be
000000d0: 4bd8 703d 1bc7 1bbe 0c31 8fbc 8351 09bd
000000e0: 8d32 c83d fde3 9abd 9c10 12bd f7c7 c1bd
000000f0: 285d 31be c239 9bbd a32d 74bd 536d cb3d
00000100: 8427 2d3d dfba 15bd 284e 30be c9ba 85bd
00000110: 6174 a1bd 4295 9abd 1c99 d63d 6a51 853d
00000120: 8f9a 2e3e 9a7a c2bd b1d2 a33d 71ca 683e
00000130: 70b6 a4bd 7614 923d 2180 4cbe 77eb 013c
00000140: 037a 523d 42ba 85be 528c 3fbe cd9c 7d3d
00000150: fa2f 6b3e 0799 473d d305 703c 67fb 86bd
00000160: 4929 7a3d 5ec2 143e 085a bd3e de4e 3a3e
00000170: 33da 28bc 09f6 f53c 78f7 1a3e 9d09 37bd
00000180: 541f d7be 2eb5 87be 85ec 133e 762d fcbc
00000190: 2d47 203e 7c53 b8be 9bd4 c63e 675c 623e
000001a0: f015 413e e321 c3bd 6fb9 3abd c211 7b3e
000001b0: c518 ac3d 8fde b8bd feee 8e3d e89b 123e
000001c0: f123 2c3e 6cd5 d0bc 99cd 9fbd 80a9 60bc
000001d0: c68f 233e 26e5 0c3e 6c3e 3c3e 0587 1e3e
000001e0: c83d 39bc 3171 65bd f4cf 1f3e d9b0 013e
000001f0: 372a 0b3d dfd6 8abe e5ca 45be 810a afbe
00000200: d86b 73bc 54e7 2d3e f0be d83d 19d4 a6bd
00000210: 4bbd 8a3e 4499 5ebe bbc2 b8bd aa6a 6a3d
00000220: 1f87 9dbe 7bfe bb3d 626c 4cbe 9072 21be
00000230: 4df4 273c d8f4 e2bd a004 e93d a633 7cbd
00000240: 8733 c0bd 015a a23e f045 babc 4aee 9cbb
00000250: 3ef6 62be 5975 2c3d 8afd 52be 7ff5 c03d
00000260: 8212 943d 1be8 49be e364 2dbe 17ea bbbe
00000270: 7c7d 21bc 6c83 883d 7577 5bbe 5799 4a3e
00000280: 6ad6 903e 865f c23e 2a42 24bd 190a 24be
00000290: 2699 ddbd 48c8 873e cb39 8ebe dfc2 c7bd
000002a0: b9b6 0ebe a42c b7bd 041f a23d 992e 47be
000002b0: 4d2e 1fbc 3e92 443c 512e debd 5d16 82be
000002c0: 1569 babd ee5d 53bd b249 903e 5b4b b33d
000002d0: d702 aabd b365 97bc 24a3 09be c9ba 02be
000002e0: 8852 4f3d 4051 293e b00d 06be dddf bebd
000002f0: 433a 0d3e 4bd3 413e a06b ce3d 42fd d23d

critic.weight f4 [1, 64]
-0.014666237 0.04590294 0.11688882 0.018364811 0.03099786 -0.13840039 -0.050271366 0.051823974
-0.1211452 0.028160788 -0.11093429 -0.029666571 -0.027227502 -0.07939793 -0.0119163245 -0.015975464
0.00861572 0.16198172 -0.09967748 -0.10288814 -0.14047004 0.037573334 -0.15244465 -0.04321471
-0.0074804267 -0.028414587 -0.14811905 -0.08626557 0.04757597 0.06589553 -0.083486296 0.09537766
0.17347078 0.20002486 -0.028785625 0.006586682 -0.07441702 0.29176247 -0.12947352 -0.005978375
-0.06565532 -0.19859247 -0.015310944 -0.00017135075 0.026727501 0.00061786437 -0.04189209 -0.069767736
-0.0763692 -0.004864611 0.22389159 0.072510384 -0.089978226 0.011989431 -0.005692115 -0.0375441
0.0035827442 0.035945464 -0.08170306 0.097066194 0.028843744 0.1394534 -0.023262566 0.05172251
00000000: a84a 70bc b904 3c3d 6863 ef3d cd71 963c
00000010: 39ef fd3c d5b8 0dbe 59e9 4dbd 6045 543d
00000020: fa1a f8bd 74b1 e63c 8431 e3bd 4f07 f3bc
00000030: 360c dfbc 629b a2bd b03c 43bc fade 82bc
00000040: f328 0d3c 89de 253e b523 ccbd 04b7 d2bd
00000050: 61d7 0fbe 7fe6 193d 731a 1cbe e801 31bd
00000060: 5e1e f5bb b5c5 e8bc 85ac 17be 01ac b0bd
00000070: 05df 423d 3cf4 863d ddfa aabd 5d55 c33d
00000080: 53a2 313e 51d3 4c3e d5cf ebbc 18d5 d73b
00000090: f367 98bd e461 953e b594 04be 3fe6 c3bb
000000a0: 4c76 86bd d35b 4bbe c1da 7abc 9eac 33b9
000000b0: a2f3 da3c 2df8 213a 0a97 2bbd 63e2 8ebd
000000c0: 7567 9cbd 5167 9fbb d643 653e 5380 943d
000000d0: 8146 b8bd 526f 443c ec84 babb d8c7 19bd
000000e0: 79cc 6a3b 8d3b 133d ef53 a7bd a4ca c63d
000000f0: b749 ec3c dfcc 0e3e 2391 bebc fcda 533d
