model_params_101000/33.0_V3_0.95g_0.0rm_200bz_0.0td_1.0tds_Nonelb_Noneup_64n_50000e_10md_5.0rz_36s.pth (torch, 22920 bytes, 4 tensors)

rnn.weight_ih_l0 f4 [64, 9]
-0.24112839 -0.04096694 -0.12298587 1.2739897 -0.43249944 -0.2914308 -0.39861992 0.18440898
-0.5464858 0.17786682 0.08629991 0.12218925 0.56386477 -0.6468477 0.79236627 -0.51053303
0.35464862 0.33067313 -0.042151146 -0.35034367 -0.23500119 0.29717776 -0.21057884 0.3140822
0.13043635 -0.28504175 -0.5065917 -0.14948377 0.015002959 -0.9832801 0.24006295 -0.23211949
0.3374566 -0.0072124363 0.0124746505 0.00031396665 0.55861056 -0.4598639 -0.7204241 1.121731
-0.4628841 0.09512395 0.042029142 0.07637885 0.016918456 0.03837526 -0.10603989 0.43529996
0.040948804 0.25351888 0.0116219185 -0.43556896 0.32449713 0.20452236 0.1542215 0.20056951
0.34167624 2.0815675 -0.5151728 0.3272542 -0.056775834 0.25318822 0.33449805 -0.23012732
0.53678674 0.055668168 0.41707042 -0.23855996 0.32990345 1.0669945 0.30042583 0.40410814
-0.3925907 -0.079108976 -0.039398592 -0.74356806 -0.33088604 -0.10120042 0.51201373 0.09548833
-0.25858417 -0.4507299 0.12779693 -0.3170554 -0.05493425 0.06002381 -0.06594656 -0.22706294
-0.71522176 -0.58401823 0.55037874 0.14853494 0.19630116 -1.1594456 -0.039197017 -0.38838372
-0.1110971 -0.5671742 0.020358503 -0.547561 0.51529145 -0.23547612 -0.7467703 0.39231005
-0.2586273 0.71944517 0.5947623 -0.09192443 -0.4634071 0.5280512 -0.30099988 -0.67198664
-0.21720186 -0.12241492 0.30840623 0.31205624 0.44830272 -0.11429462 0.14046429 -0.19700816
0.47822982 -0.7635021 0.2544162 -0.35035285 -0.14091894 -0.32945824 -0.03735791 0.0018120988
-0.25094944 0.090133905 -0.28963193 0.11127274 -1.0670577 0.549775 -0.17312986 -0.053334475
0.29085582 0.016260345 -0.003819365 0.2577011 0.410495 0.49870238 -0.43910867 0.22158355
-0.21572219 -0.09547484 -0.8483777 -0.09073348 -0.3504963 0.04026142 -0.11208993 0.17533678
0.5930698 -0.23596339 0.557081 0.2853431 0.4745771 -0.029895354 0.10755407 -0.17428623
0.11649971 -0.52566904 -0.1221343 0.21251263 0.19363841 0.49183178 0.32011718 0.13956012
0.11263458 -0.54557335 0.29578617 -0.4447917 0.30910024 0.26846498 0.28883347 -0.1523627
-0.3076283 -0.17522416 0.75454724 0.03785408 0.09677012 0.027597846 -0.28933442 0.17467922
0.37394804 0.0249681 -0.18938966 -0.61231595 0.16228549 -0.17411391 0.11869797 -0.109787576
0.3757954 0.05048826 0.26109254 -0.0414102 0.11394769 -0.2055351 0.64609665 -0.30764845
-0.14380145 1.294893 -0.6227827 0.7178961 0.19920623 0.09384383 -0.067802906 0.057523023
-0.008486891 -0.6972251 0.5318871 -0.19181277 0.26695594 0.07544965 0.12236786 -0.4662363
0.89036256 0.1834756 -0.06356034 0.27066305 -0.47901332 -0.0027751268 -0.22391652 -0.0072084907
-0.18873498 1.0789794 0.73070705 0.43900824 0.2657588 0.48552302 -0.047623266 1.4976791
0.8169225 1.0526288 0.9997444 -0.20156395 -0.06026382 -0.110089995 -0.7978318 0.25268364
0.114541836 -0.31942084 -0.6244761 0.07265019 -0.33960074 -0.22285639 0.3616313 0.51951987
0.3669307 -0.23750268 0.2809833 -0.39678276 0.678856 -0.063431494 0.55552477 0.43927136
00000000: 5cea 76be f3cc 27bd 04e0 fbbd 1812 a33f
00000010: 9170 ddbe 6b36 95be e917 ccbe b5d5 3c3e
00000020: 7ee6 0bbf b822 363e 02be b03d 5c3e fa3d
00000030: 7159 103f d097 25bf 84d8 4a3f 4bb2 02bf
00000040: 8194 b53e fd4d a93e aea6 2cbd 3f60 b3be
00000050: 27a4 70be af27 983e fba1 57be 62cf a03e
00000060: 1b91 053e fef0 91be feaf 01bf 4612 19be
00000070: f9ce 753c 3fb8 7bbf 10d3 753e bbb0 6dbe
00000080: 1dc7 ac3e 4d56 ecbb 7a62 4c3c e49b a439
00000090: 1a01 0f3f 4873 ebbe b76d 38bf e294 8f3f
000000a0: 25ff ecbe 58d0 c23d c026 2c3d 846c 9c3d
000000b0: 9398 8a3c 602f 1d3d 712b d9bd a3df de3e
000000c0: efb9 273d 3acd 813e dc69 3e3c e502 dfbe
000000d0: 7d24 a63e 4f6e 513e 3eec 1d3e 1862 4d3e
000000e0: 30f0 ae3e 6738 0540 5de2 03bf dd8d a73e
000000f0: c78d 68bd e3a1 813e 5443 ab3e 7fa6 6bbe
00000100: db6a 093f 4e04 643d 418a d53e 1049 74be
00000110: 1be9 a83e 4793 883f 6ad1 993e 43e7 ce3e
00000120: a601 c9be e303 a2bd 6b60 21bd 7a5a 3ebf
00000130: e569 a9be 2a42 cfbd 5513 033f 638f c33d
00000140: 2565 84be 12c6 e6be 33dd 023e 1655 a2be
00000150: bc02 61bd 87db 753d fd0e 87bd 3083 68be
00000160: c618 37bf 3882 15bf 9fe5 0c3f 8b19 183e
00000170: 2c03 493e b768 94bf 0d8d 20bd 3bda c6be
00000180: e086 e3bd 5432 11bf e0c6 a63c f52c 0cbf
00000190: 24ea 033f a720 71be 572c 3fbf dddc c83e
000001a0: cc6a 84be 8f2d 383f 5842 183f e042 bcbd
000001b0: b243 edbe 5d2e 073f a81c 9abe 5107 2cbf
000001c0: 2a6a 5ebe acb4 fabd 6ce7 9d3e d6c5 9f3e
000001d0: ef87 e53e 4c13 eabd dfd5 0f3e 82bc 49be
000001e0: 8ada f43e e074 43bf d742 823e 7361 b3be
000001f0: 0e4d 10be c0ae a8be 9c04 19bd f283 ed3a
00000200: 727c 80be 2098 b83d a34a 94be f6e2 e33d
00000210: 5995 88bf 0ebe 0c3f f448 31be 4075 5abd
00000220: 0eeb 943e 6a34 853c 504e 7abb 66f1 833e
00000230: 672c d23e eb55 ff3e dad2 e0be cce6 623e
00000240: 47e6 5cbe 5088 c3bd 482f 59bf 7ad2 b9bd
00000250: 4074 b3be 29e9 243d 688f e5bd 7c8b 333e
00000260: 6cd3 173f 63a0 71be dc9c 0e3f 7e18 923e
00000270: c5fb f23e 1ae7 f4bc 4f45 dc3d 1778 32be
00000280: 6697 ee3d 3f92 06bf 8c21 fabd e99c 593e
00000290: 2649 463e 60d1 fb3e 66e6 a33e d9e8 0e3e
000002a0: f5ac e63d b2aa 0bbf 4971 973e bdbb e3be
000002b0: 6342 9e3e 3e74 893e fbe1 933e f804 1cbe
000002c0: 7581 9dbe f66d 33be 022a 413f e10c 1b3d
000002d0: 6a2f c63d e114 e23c a423 94be 1cdf 323e
000002e0: 1e76 bf3e e789 cc3c 5def 41be bdc0 1cbf
000002f0: 2b2e 263e eb4a 32be ec17 f33d 4fd8 e0bd
00000300: 4168 c03e c7cc 4e3d ecad 853e be9d 29bd
00000310: 685d e93d cb77 52be 9766 253f 1984 9dbe
00000320: b040 13be 0ebf a53f b06e 1fbf 0ac8 373f
00000330: b8fc 4b3e 3231 c03d 40dc 8abd 439d 6b3d
00000340: 9a0c 0bbc 587d 32bf c129 083f 916a 44be
00000350: 73ae 883e 5985 9a3d 009c fa3d 86b6 eebe
00000360: cdee 633f 07e1 3b3e ec2b 82bd 5994 8a3e
00000370: 3c41 f5be e7de 35bb 5f4a 65be 3435 ecbb
00000380: be43 41be ff1b 8a3f 9e0f 3b3f b0c5 e03e
00000390: 8a11 883e 7996 f83e 9d10 43bd f3b3 bf3f
000003a0: d521 513f 8abc 863f 40ef 7f3f c866 4ebe
000003b0: 32d7 76bd dd76 e1bd b43e 4cbf c05f 813e
000003c0: e994 ea3d 218b a3be aadd 1fbf 9fc9 943d
000003d0: 26e0 adbe 7734 64be bd27 b93e 41ff 043f
000003e0: 57de bb3e e733 73be 0bdd 8f3e 1c27 cbbe
000003f0: 82c9 2d3f 5fe8 81bd df36 0e3f 2de8 e03e

rnn.weight_hh_l0 f4 [64, 64]
-0.03967531 -0.029532809 -0.25723532 -0.044668537 0.07383982 0.0039024632 0.26173422 -0.050049983
0.27838603 -0.3077465 -0.08135059 -0.22627954 -0.02189054 0.35635376 0.31026483 -0.52802527
-0.07768393 -0.08224512 0.19621274 0.071966074 -0.09472298 0.16827981 0.06524203 0.22378896
0.10695553 0.34522116 0.09758516 0.30316564 -0.02028201 0.15279296 0.12572399 0.033394918
-0.0052580074 -0.014016936 -0.40359488 -0.030188607 -0.328352 -0.09665232 0.20431697 0.13857661
0.42440388 -0.018452358 -0.16825643 0.2206154 -0.10897399 -0.2203645 0.081725255 0.2134022
0.044191655 -0.015628956 0.027944088 -0.14981262 -0.08154932 0.026401147 0.1267895 -0.06979191
0.25687408 0.41643754 -0.04142381 0.15039043 -0.10726969 0.2384859 0.24615218 -0.21983378
0.22217496 0.17119093 -0.03329883 -0.18145163 -0.08748832 0.30229667 0.24256252 -0.04852655
-0.041978102 0.27035445 0.04133337 -0.20291872 -0.35664988 -0.009885155 -0.3551189 -0.09276642
-0.37944165 0.08352705 -0.0065516364 0.18231753 -0.091904655 0.19646554 0.050468832 -0.11514232
-0.19017471 -0.010704335 0.09968891 -0.19269422 0.2658244 -0.09682807 -0.10711213 0.3233675
-0.28537965 0.008572269 -0.04879658 0.27239496 0.00496474 0.21266454 0.2324104 0.008623605
-0.009051937 0.32952118 -0.05647959 -0.25553662 -0.18245138 -0.49973285 -0.072715156 -0.056807645
0.016881865 0.003499155 0.021639302 0.011509709 -0.026176265 0.31229144 0.14422499 0.30952576
-0.12891106 -0.22810833 -0.15350336 0.15956889 -0.030858893 -0.055115663 0.024588719 -0.14265953
-0.20212202 -0.07431069 -0.0109885605 -0.06653113 0.06060352 -0.02837301 -0.19309308 -0.32606968
0.190522 0.3445004 -0.19053361 0.16218644 0.17518853 -0.033940133 -0.6487165 0.41183108
0.10040828 0.14328451 -0.19503835 0.061717 -0.24151884 -0.68661535 0.17438088 -0.0745159
0.38622883 -0.029531574 -0.18090342 -0.11459738 -0.1144747 0.13768005 0.124912076 0.19219941
0.1624131 -0.05775201 0.4053889 0.16330318 -0.06127387 0.025460865 0.027196052 -0.20850655
0.02284215 -0.12594186 -0.06844298 0.26807967 0.117878094 -0.48959363 0.09667819 -0.23377092
0.23847094 0.053127997 -0.0007069543 -0.054037336 0.25089887 0.031430654 -0.09127955 -0.2649431
0.26991072 0.32135573 -0.06721039 0.041506726 0.18418778 -0.18279658 0.05464305 -0.058025192
-0.0902637 -0.21789 0.024509875 0.12520704 -0.31019986 0.050249092 -0.1557447 -0.034222517
-0.08383449 -0.1830167 0.455867 -0.18961515 -0.031257547 0.16135828 -0.013123011 0.19610567
0.13956985 -0.34442002 0.017519495 -0.04492831 -0.14875755 0.14391506 -0.04405883 -0.036407452
-0.16944557 0.27583864 -0.09789313 0.34833264 -0.11537794 -0.22739352 0.49437833 -0.22244555
0.41822124 0.0244992 -0.015287331 -0.45477825 -0.15298297 0.08078395 0.09772091 -0.17193826
-0.02371236 -0.15294269 0.048004568 -0.0705233 0.05127767 0.14337367 0.044084404 -0.040060867
0.045407955 0.03277917 -0.053513505 -0.07281435 0.52046114 -0.19304933 0.037617788 0.004244956
0.09803809 0.017509712 -0.18976872 -0.097390816 0.087320924 -0.3947251 0.22429869 0.03303815
00000000: 9482 22bd caee f1bc 59b4 83be 5bf6 36bd
00000010: 5539 973d 78c0 7f3b 0702 863e 3601 4dbd
00000020: 9d88 8e3e f390 9dbe 239b a6bd d3b5 67be
00000030: ca53 b3bc 0074 b63e 08db 9e3e aa2c 07bf
00000040: c118 9fbd 2170 a8bd feeb 483e f362 933d
00000050: 1ffe c1bd 8b51 2c3e 9d9d 853d ef28 653e
00000060: 800b db3d d4c0 b03e bada c73d 8738 9b3e
00000070: 7526 a6bc c275 1c3e cabd 003e 1cc9 083d
00000080: 5d4b acbb 4aa7 65bc fda3 cebe 194e f7bc
00000090: c11d a8be a7f1 c5bd 7838 513e 07e7 0d3e
000000a0: 774b d93e 6629 97bc 6a4b 2cbe 01e9 613e
000000b0: c12d dfbd 3ba7 61be 925f a73d 1b86 5a3e
000000c0: 4f02 353d 4c08 80bc 00eb e43c 7b68 19be
000000d0: 5403 a7bd 3847 d83c 1bd5 013e 10ef 8ebd
000000e0: 0085 833e 4d37 d53e 03ac 29bd f3ff 193e
000000f0: 36b0 dbbd a635 743e 510f 7c3e 1b1c 61be
00000100: d581 633e ad4c 2f3e 5b64 08bd 75ce 39be
00000110: 142d b3bd a1c6 9a3e 4f62 783e c7c3 46bd
00000120: 3bf1 2bbd e66b 8a3e 2e4d 293d edc9 4fbe
00000130: d09a b6be 58f5 21bc 25d2 b5be 52fc bdbd
00000140: 2d46 c2be 3b10 ab3d 1caf d6bb 72b1 3a3e
00000150: 8238 bcbd 432e 493e 68b8 4e3d bdcf ebbd
00000160: 29bd 42be 3c61 2fbc b329 cc3d a251 45be
00000170: 231a 883e cc4d c6bd 9b5d dbbd 6d90 a53e
00000180: 481d 92be b472 0c3c ecde 47bd 5a77 8b3e
00000190: 42af a23b bcc4 593e fefc 6d3e 054a 0d3c
000001a0: 934e 14bc 00b7 a83e 2457 67bd b2d5 82be
000001b0: 89d4 3abe fcdc ffbe afeb 94bd 22af 68bd
000001c0: d64b 8a3c 1452 653b e844 b13c 3893 3c3c
000001d0: 9b6f d6bc aae4 9f3e b7af 133e 297a 9e3e
000001e0: 4301 04be 3b95 69be fc2f 1dbe 0766 233e
000001f0: cacb fcbc f6c0 61bd 486e c93c 5715 12be
00000200: 13f9 4ebe 3430 98bd 5d09 34bc 7941 88bd
00000210: 663b 783d 846e e8bc 31ba 45be 9bf2 a6be
00000220: 3318 433e 5b62 b03e 3e1b 43be 3414 263e
00000230: 9f64 333e cf04 0bbd 4912 26bf 86db d23e
00000240: dba2 cd3d 2db9 123e 22b8 47be f7ca 7c3d
00000250: b750 77be 06c6 2fbf e790 323e cb9b 98bd
00000260: c9bf c53e 33ec f1bc bf3e 39be 08b2 eabd
00000270: b671 eabd 00fc 0c3e e7d1 ff3d eccf 443e
00000280: 9f4f 263e 5f8d 6cbd 228f cf3e f338 273e
00000290: 4ffa 7abd 4e93 d03c 41ca de3c be82 55be
000002a0: 761f bb3c e7f6 00be d52b 8cbd bd41 893e
000002b0: 126a f13d 04ac fabe 37ff c53d a561 6fbe
000002c0: ba31 743e be9c 593d e652 39ba 4156 5dbd
000002d0: d175 803e 6ebd 003d c6f0 babd 9fa6 87be
000002e0: bd31 8a3e bd88 a43e 9aa5 89bd f502 2a3d
000002f0: b99b 3c3e 072f 3bbe 64d1 5f3d d3ab 6dbd
00000300: 2ddc b8bd 8e1e 5fbe efc8 c83c 4636 003e
00000310: 84d2 9ebe fed1 4d3d 8a7b 1fbe e92c 0cbd
00000320: 6bb1 abbd bb68 3bbe 6667 e93e 792a 42be
00000330: ea07 00bd 1b3b 253e e601 57bc edcf 483e
00000340: 66eb 0e3e d257 b0be 0b85 8f3c bf06 38bd
00000350: e653 18be 785e 133e 0877 34bd fb1f 15bd
00000360: 2483 2dbe b93a 8d3e 317c c8bd a858 b23e
00000370: 454b ecbd d9d9 68be 281f fd3e c4c8 63be
00000380: 1821 d63e 8cb2 c83c b777 7abc b2d8 e8be
00000390: 91a7 1cbe 0e72 a53d e721 c83d 9510 30be
000003a0: 6c40 c2bc 029d 1cbe 70a0 443d 856e 90bd
000003b0: 8908 523d 8cd0 123e d991 343d dd16 24bd
000003c0: b1fd 393d 7343 063d fa30 5bbd b11f 95bd
000003d0: f13c 053f b9ae 45be 1c15 1a3d 4619 8b3b
000003e0: 32c8 c83d 8770 8f3c bb52 42be d674 c7bd
000003f0: 50d5 b23d 6919 cabe 8eae 653e 0353 073d

actor.weight f4 [3, 64]
0.14396048 -0.41965833 -0.00033679506 -0.14034638 -0.3932552 -0.32817078 -0.28599516 0.023866765
-0.11500333 -0.07028702 0.35784253 -0.0066083665 0.08559005 -0.011174037 -0.0444346 -0.21809562
0.09617834 0.01981659 0.08940869 0.24547288 -0.053783037 0.1295691 -0.26732478 0.12080633
0.14513294 -0.16155034 0.040299643 0.12352532 0.007967688 -0.079830304 0.020689618 -0.17435063
0.19912693 0.0022366974 0.045479465 0.21406324 -0.45789117 0.053087294 -0.26264912 -0.046331204
-0.20404746 -0.2773022 0.28404546 0.21517763 -0.17671983 0.084657125 0.09275402 0.411911
0.031401616 0.06101053 0.088480204 -0.17172232 -0.12847579 0.15048718 0.25452086 0.25604558
-0.19950126 -0.2323244 -0.061525222 -0.09523236 -0.30301404 -0.2556953 -0.14840949 0.10838725
-0.25390148 0.19023901 -0.020359555 0.19967546 0.2761276 0.15465865 0.11726325 0.061948787
-0.18809699 0.13243684 -0.14451121 -0.3700326 -0.31030348 0.011106688 0.17499392 0.012732069
-0.13676804 0.05309143 0.15967561 -0.03685457 0.0014453375 -0.09331901 0.14008687 -0.0016693368
0.0060832305 -0.19050257 -0.033707898 -0.0007038784 -0.010559702 0.21001732 0.1320001 -0.02662532
-0.34585327 0.18035278 -0.15248428 -0.707747 0.24259222 -0.16957147 0.056371473 0.15301608
0.3916266 0.04466602 -0.35062113 -0.1150732 0.17736737 -0.116738066 -0.10061608 -0.22392006
0.008160767 -0.15209156 -0.26263714 0.07985249 0.19481552 -0.10460857 -0.036491882 -0.075556315
-0.06639259 -0.031089406 0.12642251 0.04699787 0.4003045 0.25404188 -0.17680882 0.1652102
0.11809427 0.11609943 0.0022010184 -0.10450484 0.13826421 0.025835745 0.10973847 -0.051549222
0.22565752 -0.07699096 -0.08230529 0.303375 0.13739333 0.04614174 -0.10095851 0.07738165
-0.011042605 -0.020234564 -0.14850375 -0.14407983 0.054011058 0.008964598 0.095614545 -0.049688525
-0.06870503 0.26305482 0.0640941 0.0026651772 0.059033215 -0.063950956 -0.0926279 0.03587849
0.076943465 -0.05237225 0.075135924 0.27360836 0.09233064 0.07180403 0.13653482 -0.081287906
-0.121242344 0.16730654 0.06367472 -0.032841474 -0.032792382 -0.03797243 -0.02480591 -0.06432828
-0.01875265 0.096971 0.083994776 0.03367275 0.0071777683 -0.06138397 -0.1514019 -0.041022893
0.18423451 0.11931929 -0.060151376 0.003760802 -0.093240865 -0.0060887453 0.24619298 -0.1795465
00000000: 606a 133e 75dd d6be de93 b0b9 f6b6 0fbe
00000010: bf58 c9be 0006 a8be f56d 92be 3c84 c33c
00000020: de86 ebbd a4f2 8fbd 2337 b73e ff8a d8bb
00000030: d649 af3d 4f13 37bc 0e01 36bd 7554 5fbe
00000040: 26f9 c43d 6756 a23c e71b b73d 3e5d 7b3e
00000050: 9a4b 5cbd c3ad 043e cbde 88be 4f69 f73d
00000060: bb9d 143e 746d 25be 3d11 253d d8fa fc3d
00000070: e88a 023c 127e a3bd 467d a93c f988 32be
00000080: eee7 4b3e 8e95 123b ad48 3a3d 6533 5b3e
00000090: b670 eabe 1072 593d f279 86be cac5 3dbd
000000a0: d1f1 50be 8efa 8dbe 686e 913e 8657 5c3e
000000b0: 0bf6 34be b760 ad3d d2f5 bd3d 00e6 d23e
000000c0: fb9e 003d 2de6 793d 1c35 b53d fad7 2fbe
000000d0: 288f 03be 5019 1a3e 8f50 823e 6818 833e
000000e0: 0f4a 4cbe 73e6 6dbe df01 7cbd 2f09 c3bd
000000f0: a824 9bbe 7fea 82be a8f8 17be 22fa dd3d
00000100: 60ff 81be 04ce 423e 15c9 a6bc b977 4c3e
00000110: 9960 8d3e d65e 1e3e b727 f03d 03be 7d3d
00000120: 7f9c 40be 869d 073e bffa 13be ea74 bdbe
00000130: 19e0 9ebe d3f8 353c 9b31 333e 2b9a 503c
00000140: ec0c 0cbe 6676 593d 0182 233e d1f4 16bd
00000150: 7b71 bd3a 0a1e bfbd ef72 0f3e a6cd daba
00000160: d655 c73b 1b13 43be 4b11 0abd 7b84 38ba
00000170: 9a02 2dbc c80e 573e 092b 073e 581d dabc
00000180: ae13 b1be 66ae 383e d724 1cbe e82e 35bf
00000190: 186a 783e 25a4 2dbe c6e5 663d 3fb0 1c3e
000001a0: 4883 c83e b7f3 363d 9d84 b3be 7fab ebbd
000001b0: cb9f 353e 5e14 efbd ce0f cebd 4d4b 65be
000001c0: bdb4 053c e4bd 1bbe 6078 86be b489 a33d
000001d0: b87d 473e 053d d6bd 8378 15bd 45bd 9abd
000001e0: d7f8 87bd 36af febc e774 013e d780 403d
000001f0: b6f4 cc3e c711 823e 5f0d 35be dd2c 293e
00000200: 69db f13d 8ac5 ed3d f63e 103b a206 d6bd
00000210: 2295 0d3e 7ca5 d33c 90be e03d 4725 53bd
00000220: c412 673e 70ad 9dbd ad8f a8bd f853 9b3e
00000230: d6b0 0c3e 1fff 3c3d 56c3 cebd 457a 9e3d
00000240: 0bec 34bc f5c2 a5bc 5e11 18be aa89 13be
00000250: b33a 5d3d 40e0 123c 8fd1 c33d 3286 4bbd
00000260: 39b5 8cbd 1faf 863e c443 833d 41aa 2e3b
00000270: d0cc 713d b8f8 82bd b2b3 bdbd 53f5 123d
00000280: 8994 9d3d 4984 56bd dde0 993d 6516 8c3e
00000290: d917 bd3d fe0d 933d c9cf 0b3e 467a a6bd
000002a0: e84d f8bd 6852 2b3e e467 823d c884 06bd
000002b0: 4e51 06bd fb88 1bbd c435 cbbc 8cbe 83bd
000002c0: 289f 99bc bb98 c63d 7405 ac3d 70ec 093d
000002d0: 7c33 eb3b c26d 7bbd 1a09 1bbe 9f07 28bd
000002e0: f9a7 3c3e ac5d f43d 4a61 76bd ca77 763b
000002f0: 11f5 bebd 1984 c7bb 031a 7c3e 0adb 37be

critic.weight f4 [1, 64]
0.067959085 0.14969215 -0.03928145 0.040043164 0.10835208 -0.016943391 0.17476757 0.03733999
0.088430345 -0.00063958985 -0.12576368 0.17925033 0.09382293 -0.033689428 -0.012038542 0.0512154
-0.023350848 -0.007954455 -0.0010419476 -0.0124762375 0.05148912 0.012547037 0.20806758 -0.047255054
-0.009432697 0.06476713 0.038310863 -0.03346665 -0.035008967 0.006589865 -0.030752307 0.01232365
0.013882303 -0.022570878 0.0025876374 0.26323646 0.16875492 0.07646644 0.07771627 -0.14031206
-0.25904784 0.1675244 -0.01802804 -0.03599224 -0.03856184 0.015572997 -0.04421327 -0.0051631797
-0.017202724 0.06962759 0.08686303 0.09980182 0.010247697 0.032783516 -0.088335924 0.01660477
0.1082213 0.081239305 -0.01330991 -0.032847777 0.1308936 0.0030153138 0.16596457 -0.06140388
00000000: 222e 8b3d e648 193e 96e5 20bd 4d04 243d
00000010: b2e7 dd3d decc 8abc 45f6 323e d1f1 183d
00000020: f81a b53d 26aa 27ba 32c8 00be 668d 373e
00000030: 3c26 c03d edfd 09bd 4e3d 45bc 3dc7 513d
00000040: 474a bfbc 6753 02bc f691 88ba 2269 4cbc
00000050: 41e6 523d 1692 4d3c ab0f 553e 848e 41bd
00000060: 998b 1abc a1a4 843d daeb 1c3d 5314 09bd
00000070: 9065 0fbd cbef d73b 43ec fbbc 22e9 493c
00000080: 9972 633c 90e6 b8bc 5a95 293b eec6 863e
00000090: 17ce 2c3e 709a 9c3d b529 9f3d f7ad 0fbe
000000a0: eba1 84be 848b 2b3e 8aaf 93bc 996c 13bd
000000b0: 05f3 1dbd e225 7f3c f918 35bd e42f a9bb
000000c0: baec 8cbc e998 8e3d 3fe5 b13d e664 cc3d
000000d0: f5e5 273c 0248 063d 77e9 b4bd ba06 883c
000000e0: 21a3 dd3d cb60 a63d cf11 5abc 648b 06bd
000000f0: f908 063e 929c 453b 9ef2 293e a382 7bbd
