model_params_101000/34.0_V3_0.95g_0.0rm_100bz_0.001td_1.0tds_Nonelb_Noneup_64n_50000e_10md_5.0rz_29s.pth (torch, 22936 bytes, 4 tensors)

rnn.weight_ih_l0 f4 [64, 9]
00000000: 8843 133f 4bdb 11bf 0921 02bf df90 6ebf
00000010: 7597 98be a2a9 7e3e a7ab 2cbd 4116 8d3e
00000020: de48 233d e357 223f d4d6 05be 3c72 8b3e
00000030: f315 f83e 7089 b93e 8df8 c6bc 08ea fdbd
00000040: b064 19bf 26ea 4abd b6c0 ff3d 952c bbbd
00000050: 5ff1 abbe e954 2c3e 2c67 b03e 18f6 e8be
00000060: a547 873e 9268 2abf 1d3c 26bf ebe3 5d3e
00000070: 2609 c9be 422e 153e d73b 06bf 567c f5be
00000080: 1ca9 b73e ce85 7fbe bfd4 503e 14b5 08bf
00000090: 778e 233e 7a32 84be c8b8 ea3e 29a9 41bf
000000a0: 5dcf 0fbd 1c44 13be 2934 f0be 641e 04be
000000b0: 8c69 be3e ce04 a13d 76ed 51be 6ed7 a63c
000000c0: 99e2 2c3f 166a b23e e69d db3e bc7f 593e
000000d0: 893a 693e 1a28 273e d67d ddbe 6c81 6c3e
000000e0: b729 fb3d b05c 86be 11da b03e 455b 23be
000000f0: 4725 063e d1fc f1bd bc4f 7fbe fa42 bf3b
00000100: 4dbd 8fbe 283a be3e d342 59be 98c8 8d3e
00000110: 2106 073f a835 a33e e397 883e 4327 adbf
00000120: d770 f8be c456 ca3e c202 5a3e aea4 e7be
00000130: 7775 d63d 0a3f dfbe 2574 053f 401d f738
00000140: 4702 04be 80e3 b53e a523 26be 1242 2cbe
00000150: 42d3 67bd 1d60 d4be cfd1 17bd 22a1 27bf
00000160: 43ce b3bc 2eb8 353e 5b64 af3f 8467 cd3f
00000170: 827f 25be d0ad b73d e944 0b3e 9a14 9a3e
00000180: 51ea 073f b82d 623f 7b62 153f 68df 063e
00000190: 3c91 2abe d02f bc3e 1523 b5bf 530e 433e
000001a0: 3bf9 043e ab6d 8cbe 958e 9a3e 7d7d a3be
000001b0: 0fd5 803e 2892 05bf 8a04 0ebb b97a 7a3f
000001c0: 330b e93d bc22 253e b5a1 44bf ea73 07be
000001d0: 1ac4 cdbe 13c6 4bbc 386a 033d 7965 0ebd
000001e0: 3bc1 093d e904 37bf 9f4a 00bf c839 94be
000001f0: 7833 643e fec0 023e bfe8 0ebd 051b dbbe
00000200: f31c 0f3f bcf3 563f 4c50 afbd df3a 993e
00000210: 03ea 77be b880 37bf ef11 753e 0ebc 0fbd
00000220: e39a ef3c 07a4 ecbd dd1d 69bf e05d 0bbf
00000230: 1a6a d7be 0894 6c3d 8560 3f3e ab73 73be
00000240: 0cdd 05bf ef26 a23e 4f31 d7bc 2307 0a3f
00000250: 26d6 213f e5e1 abbe 28ed d6bd f042 093f
00000260: 04f1 b83e 442b 583e ae5d 81be 87f2 2ebe
00000270: 5191 81bf 82c9 8bbe 073b 3b3e f63f ff3d
00000280: efb4 e63d 40b2 1e3d 0a92 ac3e 9c61 01bd
00000290: 2c66 4bbc 49be edbe 908a 4a3d b07c f4be
000002a0: c36e 97be 4c79 30bf 3098 8dbd 7612 253f
000002b0: b3a7 6dbf e2cd bd3e bef1 c73d d32a 823d
000002c0: a8cb 9f3e 1b2e d6be 7375 86be 1cb0 503e
000002d0: d988 d73e faaf 8b3e fb8b 543e 10c0 49bf
000002e0: 5bde b4be b76b 51be 1f84 f4be d362 d0bc
000002f0: 2975 83be c967 09bf 03ba 993b 4e2e 83be
00000300: 3412 01be 5a2f 353e 3d22 3bbe 1144 17be
00000310: fe3e 90be 8e78 f7bd e935 5abe 1b09 2fbf
00000320: 3af0 253e b78b f33f fc22 6d3e c18c fc3e
00000330: 34f2 cb3d 8524 88be ffdc eb37 5820 373f
00000340: 4b14 8dbe a477 153b f1b2 81be 57d1 e8be
00000350: 8855 cd3e b5b4 fd3d 7c88 1c3f 1337 b73d
00000360: aab3 b6be c26b 85bd d28d 543e a297 573f
00000370: 53f6 08bf 0bad a73e 04a1 643f 1141 293f
00000380: 7c33 17be f7c4 81bd cd5e 073e 23fd b9be
00000390: ab98 dbbe 86fd 52bd 7466 c63d 3853 c93d
000003a0: 0016 60be e8be c43e 811e d13d 85f9 ed3c
000003b0: 809d 9ebe d856 ef3e 57a8 46bd 404c 4f3f
000003c0: b347 b83d a70e 273f 935e 533e 20ba 49bd
000003d0: ce5e ca3e c02c 2dbe 9afd d63f 251f 51bf
000003e0: ffe6 983e 5dc2 47be 6784 fbbd 5481 73be
000003f0: 4fc8 743f 1dbd 673f 4e80 37bd 0a75 d0be
0.5752492 -0.5697524 -0.5083166 -0.93189806 -0.29803053 0.24869397 -0.042155888 0.2755604
0.039864413 0.63415354 -0.13070232 0.2723559 0.48454246 0.3623767 -0.02428844 -0.123981535
-0.5991926 -0.049539708 0.124879286 -0.09139363 -0.3358259 0.16829266 0.34453714 -0.45500255
0.26421848 -0.6656581 -0.64935476 0.21668975 -0.39264792 0.14568427 -0.5243506 -0.47946423
0.35871208 -0.24953386 0.20393656 -0.53401303 0.15972315 -0.2581976 0.45844102 -0.7564874
-0.035109866 -0.1438145 -0.46914795 -0.12902218 0.371899 0.078622445 -0.2050074 0.020366397
0.6753326 0.34846562 0.42893904 0.21240133 0.22776236 0.16323891 -0.43260068 0.23096246
0.12263816 -0.2624259 0.3454137 -0.15952785 0.13100158 -0.11815799 -0.2493276 0.0058368417
-0.28074113 0.37153745 -0.21216898 0.27692103 0.52743727 0.31876874 0.2667838 -1.3527607
-0.4852359 0.39519322 0.21290115 -0.45242828 0.104716234 -0.43602782 0.5213035 0.00011783326
-0.12891494 0.3552513 -0.16224535 -0.16822079 -0.056597956 -0.4147958 -0.037065323 -0.65480244
-0.02194894 0.1774604 1.3702501 1.6047215 -0.16161922 0.08968699 0.13600506 0.30093843
0.53091913 0.8835101 0.58353394 0.1317116 -0.16656965 0.36755228 -1.4151331 0.19048433
0.12985699 -0.2742742 0.30186906 -0.31931677 0.2516255 -0.5217614 -0.0021670186 0.9784351
0.11379089 0.16126531 -0.76809245 -0.13227811 -0.40188676 -0.012437361 0.03208372 -0.03476474
0.033631545 -0.7149187 -0.5011386 -0.28950334 0.22285259 0.12768933 -0.034889933 -0.42794052
0.5590355 0.8396566 -0.08560237 0.29927728 -0.24210362 -0.71680784 0.23932622 -0.035091452
0.02924866 -0.11554723 -0.9106119 -0.54440117 -0.42073137 0.05775836 0.18689163 -0.23774593
-0.52290416 0.3167033 -0.02626863 0.5391714 0.6321739 -0.3357078 -0.10494453 0.53617764
0.3612138 0.21110255 -0.25266784 -0.17084704 -1.0122472 -0.27302176 0.18284236 0.124633715
0.11264979 0.03874421 0.3370517 -0.03158723 -0.012414496 -0.4643424 0.04944855 -0.4775138
-0.29576692 -0.68935084 -0.06913793 0.64481294 -0.92834014 0.3707114 0.097629055 0.06355824
0.31210065 -0.4183205 -0.26261482 0.2037968 0.42096594 0.27282697 0.20756523 -0.7880869
-0.35325894 -0.20451246 -0.4775705 -0.025437748 -0.25675324 -0.5367399 0.004691364 -0.25621265
-0.126046 0.17693844 -0.1827478 -0.14772059 -0.2817306 -0.12083541 -0.21309628 -0.6837327
0.1620492 1.9027013 0.23157877 0.49326137 0.09958306 -0.26590362 2.8117092e-05 0.7153373
-0.27554545 0.0022806907 -0.25331834 -0.45472214 0.40104318 0.12387983 0.6114576 0.089460514
-0.35683948 -0.06514694 0.20757225 0.8421575 -0.5350086 0.3274921 0.8930819 0.6611491
-0.14765733 -0.06336396 0.13219757 -0.3632594 -0.42889914 -0.05151131 0.0968751 0.09830326
-0.21883392 0.384269 0.10210896 0.029049644 -0.30979538 0.46745944 -0.048500385 0.80975723
0.089980505 0.6525673 0.20641546 -0.04924977 0.39525455 -0.16911602 1.6796143 -0.8168815
0.29863736 -0.19507737 -0.12281113 -0.23779804 0.95618147 0.9052294 -0.044800095 -0.40714294

rnn.weight_hh_l0 f4 [64, 64]
00000000: 8f27 7f3d b57f 62be 21ee 7a3c 3587 7dbe
00000010: 0b3e 8c3e cd79 79bd de33 72bc 753d c6bc
00000020: c990 73bd c110 753e 3c15 d83d 01e8 d03e
00000030: efc8 c0be f266 c63d 6014 a4be fb10 81be
00000040: 59dc 9bbe d2bb 49be b1dd 3bbe 4b8e 243e
00000050: 1c4d 6f3e 7e44 0f3d 33f9 17bf 3fdf 333e
00000060: 7714 9ebd e334 b53d 2f9f 3d3e 1163 27be
00000070: 9fe4 253e 2d59 ffbc 7980 ed3d 45b1 e7be
00000080: d5a6 2bbd ea6c d6bb f85a b33d e977 bc3c
00000090: bfe5 2d3b c146 93bd 02e9 07be cae3 483e
000000a0: 0668 543e 376c 88be 4aaa a73e 7545 c1bd
000000b0: 2c2b 933e 1b88 03be f676 49be 6491 a9bc
000000c0: 7a00 923d 66cc 6ebe aa53 6fbd ffd7 cdbe
000000d0: 7d2e d1be a8d2 a93e 45f5 88be 7655 203d
000000e0: 53bf 063e 064f e03d 0b8e cbbd 5e21 a53d
000000f0: 1121 dfbd e0c1 82be 43a2 88bd 739b f33b
00000100: fcbb 91bd ad7a ffbd 2300 0d3e dc09 efbd
00000110: 597d d7bc 7030 9bbd 5ec7 823e ce4c fabd
00000120: 9c5d 773e f556 373d ee87 46bd 7c4b 3fbe
00000130: 6477 ad3c b9e8 3abe 8d39 573e 3704 ffbd
00000140: 11e4 84bc 41a2 10be 55a9 fc3d 7124 fcbd
00000150: 05bd 893e 93d6 95bd df07 6dbd 9257 8b3d
00000160: c4a2 513d 028c c23e 4ba7 10be 71f8 0e3c
00000170: 479b ecbd 08fb 5d3e c904 a83e 4726 d6bd
00000180: 0bcd e5bd bb57 503b 3938 45bd 02d7 71bd
00000190: 1b9c 8dbe 5dcd a63d fe76 17bf 6b71 7b3e
000001a0: b7a1 9cbc 98b4 5fbe 8daf 8ebe d899 3ebe
000001b0: d12e 7e3e 9fff 8ebd c4e5 f4bd f6de b43e
000001c0: 7f6e 533e db82 94bd b245 97bc 316e be3e
000001d0: 9a3f 6f3e e0b0 373d 3162 e83d 118a 06be
000001e0: dc91 b4bd 8473 0ebf 89db 56be 1407 afbe
000001f0: f4af bd3e 7830 52be 595d 053d 8a03 b5bd
00000200: 4805 633e a0fc c6be 554d 2fbd 8b85 36be
00000210: 0347 1c3e d71d 4d3e db31 acbd d6d1 5cbe
00000220: 3cae e73c f293 30bd 0d35 24bd aafe 9a3d
00000230: 0055 393c d664 543e ae48 38bd 75dc 78be
00000240: 22e5 193e 2d2b 8e3e 5b73 6f3e 911f 6cbe
00000250: c72a 693d 461a 1e3f a8f7 03be 6732 053d
00000260: c869 9bbd 4224 aa3d 6143 bbbd 7cae 2dbe
00000270: 6630 05bf 8569 273e e768 0b3e 5791 a4be
00000280: 7dfc 113e 176b 5cbc 939d 29be 1de2 ddbd
00000290: 397a f9bd b026 f43e 377c d13d 2112 bc3d
000002a0: 0e21 493e 3ebe 913e 2c74 a1bd 24ba 1d3e
000002b0: 5bc5 6ebb f113 51be c70e fb3d 4868 a43d
000002c0: aac7 883e 317c b33e e495 34bd b55d 18be
000002d0: d575 33bb e8e0 083e 8490 733d be39 22be
000002e0: 75fd fe3d 9c63 643e bfef 8dbe 835c b73c
000002f0: e8cc 263b 60cb 44be a114 1a3c 1e8f 18be
00000300: 9f7c 7dbe 74cb 893d 8844 3fbe 2f7a c8be
00000310: 3202 7b3d f170 843d 36fb a4be 7e32 2fbe
00000320: 0012 b0be 4965 813e 6abf 0cbe 8e3f b23d
00000330: 44e6 96bd 76e6 903e ccb0 42bd 5ba7 093c
00000340: 55f9 62be 22b0 26be 3c49 143f 584f 433e
00000350: e1be 5e3e 5563 d53e 8030 023f e480 e7bd
00000360: 0f5e a73d 203a 343d 731b 1cbe daa4 8b3e
00000370: f8f2 29be bd1e 8f3e a596 41be dbf3 f7bd
00000380: f5c0 d0bd bc27 fcbd bb69 083f 2199 2ebe
00000390: 53d5 e53e 24e0 0bbf 2c22 7ebc 8eb4 e8bc
000003a0: 3d7e 673e 67b0 be3e f68d 913e fff8 043d
000003b0: d7b8 66bd 3d23 c83d 6492 713d 09cc 67bd
000003c0: 7310 b0bd b244 883d b247 cbbe 2744 ac3e
000003d0: dc24 6cbd b9f5 18bf 7724 8fbd 0109 c83d
000003e0: 471d 513e f432 cabd 259c 07be d2ac eabd
000003f0: b56c f83d 10e6 123f e4a4 833e b167 b4bd
0.062293585 -0.22119029 0.015315563 -0.24758609 0.27391085 -0.060907174 -0.014782874 -0.024199227
-0.05946425 0.23932172 0.10550925 0.40802005 -0.376533 0.09687604 -0.32046795 -0.25208268
-0.3044155 -0.19700554 -0.18346287 0.16069905 0.23369259 0.03497743 -0.5936462 0.1756563
-0.07718747 0.08847978 0.18517755 -0.16346385 0.16200493 -0.031170452 0.1159677 -0.45252433
-0.04190715 -0.0065437453 0.08757585 0.023006396 0.0026534644 -0.071912296 -0.13272479 0.19618145
0.20742807 -0.2664506 0.32747108 -0.09437076 0.28743875 -0.12844889 -0.19674286 -0.02069921
0.07128997 -0.2332016 -0.058429398 -0.40203854 -0.4085578 0.3316853 -0.26749626 0.039144002
0.13158922 0.109525725 -0.09939202 0.08063005 -0.10894979 -0.2553854 -0.06671574 0.0074343025
-0.07115933 -0.124745704 0.13769583 -0.116718024 -0.026304888 -0.07577598 0.2554273 -0.122216806
0.24156803 0.044760663 -0.048469476 -0.18681139 0.021175094 -0.18252839 0.21018048 -0.12451976
-0.016222032 -0.14124395 0.12336985 -0.12311638 0.26902023 -0.073163174 -0.057868835 0.06803812
0.051180616 0.37997442 -0.14126317 0.008726225 -0.11553054 0.21677792 0.3281615 -0.104565196
-0.112207495 0.0031790573 -0.04814932 -0.059042938 -0.27658162 0.08144639 -0.5916594 0.24554984
-0.01912008 -0.21846235 -0.2786831 -0.18613374 0.24822547 -0.069823496 -0.11957887 0.35326356
0.2064762 -0.07251521 -0.01846585 0.37193444 0.23364106 0.044846416 0.113468535 -0.13138606
-0.08816883 -0.5564501 -0.20982184 -0.34185088 0.37048304 -0.20526302 0.032559726 -0.08838566
0.22169983 -0.38864613 -0.04279836 -0.1782438 0.15261464 0.20030914 -0.08407947 -0.21564421
0.028281324 -0.04310984 -0.040089656 0.075681046 0.0113117695 0.20741591 -0.044991188 -0.24302848
0.15028813 0.27767316 0.23383848 -0.23058917 0.05692556 0.6175884 -0.12887442 0.03251877
-0.075885355 0.08307697 -0.09143711 -0.16961092 -0.52026975 0.16348846 0.13614236 -0.32142136
0.14256473 -0.013453267 -0.16564016 -0.10834143 -0.12181515 0.47685766 0.1022877 0.09183145
0.19641516 0.28465456 -0.07883486 0.15403038 -0.003643355 -0.20417763 0.12258678 0.080277026
0.26714832 0.35055688 -0.04408826 -0.14879496 -0.0027383466 0.13367045 0.059463993 -0.1584234
0.12450687 0.22303623 -0.27721974 0.02238298 0.0025451723 -0.19218206 0.009404332 -0.14898345
-0.2475457 0.06728259 -0.18678486 -0.3915572 0.06128139 0.06466854 -0.3222291 -0.17109105
-0.34388733 0.25272587 -0.13744894 0.08703528 -0.073681384 0.28300828 -0.047531888 0.008401717
-0.22165425 -0.16278127 0.57924247 0.19073236 0.21752502 0.41677347 0.50855255 -0.11303881
0.08172237 0.044000745 -0.15244846 0.2727421 -0.16596591 0.2795314 -0.18905123 -0.121070586
-0.10193054 -0.12312266 0.5328633 -0.17050602 0.44889316 -0.54638886 -0.015511077 -0.028406408
0.2260675 0.3724396 0.2842862 0.032464024 -0.05632862 0.09772346 0.0589775 -0.056591067
-0.085968874 0.066537276 -0.39703137 0.33645746 -0.05765234 -0.59749943 -0.06989377 0.09767342
0.20421325 -0.09873 -0.13243158 -0.11458744 0.12130109 0.573823 0.2571174 -0.0880884

actor.weight f4 [3, 64]
00000000: e2d2 083e 7aec 6dbc 236c 283d 6b79 07be
00000010: 1362 a03c be27 d0bd 1478 793e 73c9 0a3c
00000020: a8b4 903e 46e3 553e d4db 2fbe 2257 063e
00000030: 3081 34be 29b4 713e 9d16 51be 6052 c53c
00000040: 093e 3bbe 8c99 cdbc cde2 cc3d b3b6 e0bb
00000050: dfd2 2a3e 257f 053d 47da 04bf 40da e73d
00000060: 8fbc 65be 4600 403e b1ca 83be d873 89bd
00000070: 970c 3cbe d417 043e eaa0 92bd dd7e f7bd
00000080: 1075 a2bc 6200 13bd 05e6 d03c 3bf4 993d
00000090: c92a ddbc 4add 633e 78fd c9be d8ae 6e3d
000000a0: 2099 2e3e e8a4 883e b65f 62be 664e 3a3e
000000b0: 81b9 dbbd 7304 c7be ee68 ee3d 527e 6b3e
000000c0: b98c ab3d 6236 d1bd eb91 033e b33f 2b3c
000000d0: 90c7 bc3e 60c6 32be d805 4cbb afda 30be
000000e0: 6a70 d33a 76a3 64be 72bd 91be ea70 a33d
000000f0: 9833 5a3d 2dfb f33d b90b 5a3e 8f9e a0be
00000100: 8780 84be c38a 77bd 626e bc3e 44bf 3a3d
00000110: 06aa acbd 1c64 e73e b788 363c 0dad c5bd
00000120: 0728 f03c c7c2 5bbe d764 acbe 3f53 f3be
00000130: 0057 cfbd 884a 703d 2812 1d3f 0cff 3a3e
00000140: 68e4 d2bd e1ce 1fbd ec6d 9c3d 8ad3 823d
00000150: db98 60be 84f3 533e ded4 163e f745 9abe
00000160: 32d2 5cbe fe6c f03d 9e2b 95bd 5916 e0bc
00000170: 2024 33be 9708 db3c 7f22 acbd 9060 553e
00000180: 8a50 eb3d 6325 df3c 90b3 60be 6720 333e
00000190: 4c9d 013e bb70 7e3d b74c 283e bd3d a2be
000001a0: f753 0bbd 9106 303e d7be c83d 52f4 063e
000001b0: 3553 7b3e a5d3 ba3d 5d4f 733e 7e6c 1bbf
000001c0: e5ac 1dbe a1f5 153e c80b 5bbe ca14 4ebe
000001d0: 133b 34bd 7b02 d7be 93d4 873e 16ed 413e
000001e0: 388c 19bd 9fa4 703e 92bc 96bd 54d2 593d
000001f0: fc8b a23d c74d 003b 4943 bb3d e94b 023e
00000200: a408 29bc a032 dd3d e5f4 06be 707e 93bd
00000210: 1755 6d3d 1a4b 93be 0713 71bc 8128 1fbd
00000220: ec90 37be cb38 083d ff6f 9d3e 5074 f63d
00000230: fbc2 0c3d b55d c6bd e351 81be eb14 333d
00000240: 3a85 b73c 1748 343e 0b07 ed3c 1cdb f2bb
00000250: 8b88 593d c131 b5bd 4745 b73d 88fb e6bc
00000260: b53a 3a3e 1cde 9abd c7f7 e53d f76a 003c
00000270: 103f 3d3e ad63 30be 4312 aa3d 7f39 10be
00000280: 8e14 ac3d 4a51 92bc e9f9 d2bb bee8 a8bb
00000290: 83ff 01be 1fa3 90bd 6d51 113e 02b9 ab3d
000002a0: 2463 4abe 90f3 0fbe cb37 5bbd b909 0bbe
000002b0: 892a 2d3d bd0e 2a3e 465c 11be 91da 413e
000002c0: c38b 173e 5a50 1d3d be6b 593e 8a12 12bc
000002d0: 60ad e6bd 4762 df3e ddc1 ecbc 1543 6f3d
000002e0: f313 ab3b 6bb3 e1bd ea5b 4a3d 9f3e 2ebe
000002f0: cdd8 593c 54a0 d1bd a01a 46be ef7f 103d
0.13361695 -0.014521712 0.041118752 -0.13229911 0.019578015 -0.1016383 0.24362212 0.008470881
0.2826283 0.20887479 -0.17173702 0.13119176 -0.17627406 0.23603882 -0.20418783 0.024087131
-0.18285383 -0.02509763 0.10004196 -0.006857717 0.16682003 0.032591958 -0.51895565 0.11320925
-0.2243521 0.18750104 -0.2574058 -0.067115486 -0.18364178 0.12899715 -0.07159598 -0.12084744
-0.01983121 -0.035889037 0.025500307 0.075172864 -0.02699794 0.22252384 -0.39451194 0.058272213
0.170506 0.26688313 -0.22106823 0.18193969 -0.107287414 -0.38870582 0.116411075 0.22997406
0.0837645 -0.10215451 0.12848632 0.010452199 0.36871004 -0.17458487 -0.0031131413 -0.17270921
0.0016131524 -0.2232798 -0.28464848 0.07980521 0.05327186 0.11913142 0.21293534 -0.3137097
-0.2587931 -0.060435068 0.36802965 0.04559256 -0.08430867 0.45193565 0.011140994 -0.096521474
0.029315962 -0.2146102 -0.33670685 -0.4752445 -0.10124016 0.05866483 0.6135583 0.18261355
-0.10297471 -0.039015654 0.076381534 0.06388004 -0.2193331 0.20698363 0.1472964 -0.30131504
-0.21564558 0.117395386 -0.0728371 -0.027354406 -0.1749425 0.026737494 -0.08405017 0.20837617
0.11489971 0.027239507 -0.21943498 0.1749283 0.1265766 0.062119227 0.16435514 -0.31687728
-0.034015622 0.17190005 0.09802025 0.13179138 0.2454346 0.09122399 0.23760743 -0.6071242
-0.15397985 0.14644481 -0.21391213 -0.20125118 -0.04400165 -0.4199408 0.2652937 0.18938097
-0.03748724 0.23500298 -0.07360186 0.0531791 0.07936856 0.001957761 0.09143693 0.1272427
-0.0103170015 0.108006716 -0.13179357 -0.072018504 0.057942476 -0.28768235 -0.014714009 -0.038856987
-0.17926377 0.033257287 0.3074951 0.120339036 0.034365635 -0.09685842 -0.25257787 0.04372112
0.022402395 0.17605625 0.028934022 -0.007411374 0.053108733 -0.088473804 0.089487605 -0.028196111
0.18186457 -0.07561895 0.112289004 0.007838002 0.18481088 -0.17225523 0.083042644 -0.14084433
0.08402358 -0.017861027 -0.006438483 -0.005154698 -0.12695126 -0.07062363 0.14191218 0.08384897
-0.19764382 -0.14057755 -0.053520005 -0.13577928 0.042276893 0.16607185 -0.14195356 0.18931033
0.14799409 0.038406707 0.21232507 -0.008915553 -0.112635374 0.43629667 -0.028901035 0.058413584
0.005220884 -0.110205494 0.049404062 -0.17016076 0.013296318 -0.10235658 -0.19346094 0.035278257

critic.weight f4 [1, 64]
00000000: 79c4 eb3d 143b 2ebc c864 14be 5b4e ba3c
00000010: 1814 28bb ffdd f7bd 298d 48bd deb9 9abc
00000020: 8f29 cdbc aded c53d 2b2f 233e 7865 433e
00000030: f1f2 263d b0b0 a3bd 21cb 6fbe c81d ed3d
00000040: bee9 c83d 0e3a c73d 0bfd 803d 8f1b b4bd
00000050: d95f c33d 7d8c 88bd 2b88 353e 0517 1e3e
00000060: f178 093e 779a 423d b3da ad3d d32b bbbd
00000070: 5aa5 343e 760f eabd 33a4 da3d 6478 cfbd
00000080: 0f86 2c3c 9e91 5b3d f3d3 46bc 8ae7 31bd
00000090: 87e1 a5bc 5562 07be 145b e33d 4b06 143e
000000a0: 8576 ecbd 4eef eebd 6a90 70bc aaa4 ddbd
000000b0: 4079 a73c 97dc 493d 88fc 58bd 921b c3bc
000000c0: 5221 163d fa39 a7bb a63f 2a3e 22e6 ed3b
000000d0: dcb5 e9bd 922c f03d e5bd 89bd c902 e8bb
000000e0: 0e37 833c cb38 10bd 0db3 1d3e 0307 6ebc
000000f0: 3fd7 963d 684a 95bd 9a5e 8ebc 2aa9 643e
0.115120836 -0.0106342025 -0.1449157 0.02274244 -0.0025646742 -0.12102889 -0.048962746 -0.018887457
-0.02504423 0.09664474 0.15935962 0.19081676 0.04075903 -0.07992685 -0.23417331 0.11577946
0.09810208 0.0972787 0.06298264 -0.08794319 0.09539766 -0.06667421 0.17727725 0.15438469
0.13425042 0.04751059 0.08488979 -0.09139218 0.17641202 -0.1142873 0.1067585 -0.101303846
0.010530009 0.05360567 -0.012135494 -0.043433703 -0.020249141 -0.13221104 0.11101356 0.14455526
-0.11546043 -0.116667375 -0.0146828685 -0.10822423 0.020443559 0.049282636 -0.052975208 -0.023816857
0.03665287 -0.005103347 0.16625842 0.0072601 -0.1141164 0.11727251 -0.06725673 -0.00708041
0.016017463 -0.035210412 0.15400334 -0.014528039 0.07365274 -0.072895825 -0.017379094 0.22330156
