model_params_101000/35.0_V3_0.95g_0.0rm_100bz_0.00025td_1.0tds_Nonelb_Noneup_64n_50000e_10md_5.0rz_14s.pth (torch, 22952 bytes, 4 tensors)

rnn.weight_ih_l0 f4 [64, 9]
0	0x3f100b0a	0.56266844
1	0x3dba59a3	0.09099128
2	0x3f439cb2	0.76410973
3	0x3f5b2199	0.8559814
4	0x3df73133	0.12069931
5	0xbef65cc4	-0.4811765
6	0xbdc8bf87	-0.09802156
7	0xbf250fff	-0.64477533
8	0xbed9cff0	-0.42541456
9	0xbeb9f61e	-0.36320585
10	0xbe8baab4	-0.27278674
11	0xbe4cd560	-0.20003271
12	0xbdd0f61e	-0.10203193
13	0x3f36425b	0.71195
14	0xbda88d7e	-0.082301125
15	0xbe8f1ae2	-0.27950197
16	0xbf389cc6	-0.7211422
17	0x3da939ec	0.08263001
18	0x3d8d8673	0.0691041
19	0x3e6fa418	0.2340244
20	0xbf09f0a6	-0.53882825
21	0xbec199bb	-0.378126
22	0x3e026b0b	0.12736146
23	0xbea888b6	-0.32916802
24	0x3d83570f	0.064130895
25	0xbe75492e	-0.23953697
26	0x3c6d0494	0.014466424
27	0xbf33f26d	-0.7029179
28	0x3e7bb8f1	0.24582268
29	0xbeddc40c	-0.43313634
30	0xbf2f1a69	-0.68399674
31	0xbe71353e	-0.23555467
32	0xbf20364b	-0.62582844
33	0xbf7d4bd1	-0.9894381
34	0xbe3b7bac	-0.18308896
35	0x3eb8c5d4	0.3608843
36	0xbd8a86e9	-0.06764013
37	0x3d62f597	0.055409994
38	0x3dd0bd3e	0.10192345
39	0xbf4cbe07	-0.7997746
40	0xbec5e8d6	-0.38654202
41	0xbcb0b5e6	-0.021571111
42	0x3eb8106a	0.35950023
43	0xbd347a16	-0.044061743
44	0x3e16d621	0.14730121
45	0xbeae38d5	-0.34027734
46	0xbe58df63	-0.21178965
47	0xbc6e3c58	-0.014540754
48	0x3faa8a99	1.3323547
49	0xbcbcb245	-0.023034224
50	0x3e168b0d	0.14701481
51	0x3c555780	0.01302135
52	0xbe4314e8	-0.19050944
53	0xbf068680	-0.5254898
54	0xbe77db5b	-0.24204771
55	0xbea45668	-0.32097173
56	0x3e0ca640	0.13735294
57	0xbe86ae5f	-0.2630491
58	0xbda6eb47	-0.08150344
59	0xbe4cb709	-0.19991697
60	0x3e0ce71a	0.13760033
61	0xbea01e56	-0.31273144
62	0x3e27445f	0.16334675
63	0x3e3abf8a	0.18237129
64	0xbe3dcf97	-0.1853622
65	0xbe86dfe6	-0.26342696
66	0x3ec58df4	0.38584864
67	0xbf09e21a	-0.5386063
68	0xbe954637	-0.29155132
69	0xbef77f72	-0.4833942
70	0xbed74bcc	-0.42050016
71	0xbeabb3b3	-0.33535537
72	0x3cea0466	0.02856655
73	0xbe17fa44	-0.14841563
74	0x3e624cbc	0.22099584
75	0x3e10ea0f	0.14151786
76	0x3ea3ca56	0.31990308
77	0xbcee8163	-0.02911443
78	0x3f07c165	0.5302947
79	0xbe2392c4	-0.15973955
80	0x3e9c9ba9	0.3058751
81	0xbe9c71c7	-0.30555555
82	0x3e2cbce0	0.16868925
83	0x3da63138	0.081148565
84	0xbf12a026	-0.5727562
85	0xbc4bb505	-0.012433295
86	0xbe1eae83	-0.15496258
87	0xbea5faa1	-0.32417777
88	0xbec6901b	-0.3878182
89	0x3e39eb4e	0.18156168
90	0xbe6ee474	-0.23329335
91	0x3ee4abfb	0.4466246
92	0xbc5c4500	-0.013444185
93	0xbf6be4d5	-0.92146045
94	0x3f326a15	0.6969312
95	0xbdd5f728	-0.10447532
96	0x3d9c9f2b	0.076475464
97	0x3e2ce116	0.16882738
98	0x3ea3e946	0.3201391
99	0x3e7b4da8	0.24541342
100	0x3ebec9c8	0.37263322
101	0xbf0e5f1d	-0.5561388
102	0xbeeb5600	-0.4596405
103	0x3de2ad57	0.11068218
104	0xbf0e0aed	-0.5548542
105	0x3e3791b8	0.17926681
106	0xbeb857e0	-0.36004543
107	0xbe6bf648	-0.23043168
108	0x3e56ee87	0.20989428
109	0xbe6a628a	-0.22889152
110	0x3f06e1b6	0.5268816
111	0x3fbc946b	1.4732794
112	0x3e60eaef	0.2196462
113	0xbee21009	-0.4415286
114	0xbea0c9a3	-0.31403837
115	0x3e9729d3	0.29524097
116	0x3f5b0872	0.8555976
117	0xbe8bf398	-0.27334285
118	0xbe0cb8ad	-0.13742323
119	0xbdf0a178	-0.11749548
120	0xbf8956e8	-1.0729647
121	0xbea933c3	-0.33047304
122	0x3e62aefd	0.22137065
123	0xbefbde5f	-0.49193093
124	0xbe12c1f1	-0.14331795
125	0x3e959273	0.29213294
126	0x3fa15dd6	1.2606761
127	0xbe912311	-0.28347066
128	0x3f2b17ff	0.6683349
129	0x3f30213c	0.6880071
130	0xbf17ed90	-0.59346867
131	0x3dfa28ad	0.122147895
132	0xbe5bde9b	-0.21471636
133	0x3c10b0bc	0.008831199
134	0xbd159b20	-0.03652489
135	0x3e2481f3	0.16065197
136	0xbec50665	-0.3848144
137	0xbe4d41e0	-0.2004466
138	0x3f4d2322	0.80131733
139	0xbe338b5a	-0.17533627
140	0x3f312165	0.6919158
141	0xbce3b404	-0.0277958
142	0xbe279d4a	-0.16368595
143	0xbead951a	-0.33902818
144	0xbf40b677	-0.7527842
145	0x3ee2a816	0.44268864
146	0x3e0b79b0	0.13620639
147	0x3e6ab588	0.22920811
148	0x3e99e893	0.30060253
149	0xbe3d34d7	-0.18477188
150	0xbce48c74	-0.027899005
151	0xbe776e4b	-0.24163167
152	0xbcc18178	-0.023621306
153	0xbe37c598	-0.1794647
154	0xbeebb2cd	-0.46034852
155	0x3eba05d6	0.36332577
156	0x3fb2a1f3	1.3955673
157	0x3dafa312	0.08576025
158	0x3f35bf91	0.7099543
159	0xbe69f595	-0.22847588
160	0x3e25a463	0.1617599
161	0x3e970d6c	0.29502428
162	0x3f17acc2	0.5924798
163	0x3e3154a8	0.1731745
164	0xbeadbe34	-0.33934176
165	0x3e9e23d0	0.30886698
166	0x3c3d5700	0.011556387
167	0x3ef9983e	0.48748964
168	0xbe991701	-0.29900363
169	0x3d9b6b1c	0.07588789
170	0xbdb234ef	-0.087015025
171	0xbec4d43d	-0.38443175
172	0x3e2e8c16	0.17045626
173	0x3de620bf	0.112367146
174	0x3fbfdf4e	1.4990022
175	0xbe6439b0	-0.22287631
176	0x3f33fa50	0.7030382
177	0x3eb510f0	0.35364485
178	0x3e9fc718	0.31206584
179	0xbdb58c07	-0.08864599
180	0x3dea80a7	0.1145032
181	0xbe11e4ed	-0.14247485
182	0x3da7e7c8	0.08198506
183	0x3fbf015d	1.4922291
184	0xbc27f6ed	-0.010251743
185	0x3e5c06bb	0.21486942
186	0xbf508335	-0.81450206
187	0x3edd3161	0.43201736
188	0x3e39724a	0.18110004
189	0x3eb16226	0.34645194
190	0xbdcc0e31	-0.09963644
191	0x3e820ea4	0.25401795
192	0xbec60a65	-0.38679805
193	0xbe3293ab	-0.17439143
194	0xbe62f395	-0.22163232
195	0x3d29f2a5	0.04149117
196	0xbcbcbaf4	-0.023038365
197	0x3e26df79	0.16296186
198	0xbecd4a35	-0.40095678
199	0x3db0177f	0.085982315
200	0x3dda9856	0.10673587
201	0xbe88f820	-0.26751804
202	0xbd623731	-0.055228416
203	0xbe8025a3	-0.25028715
204	0x3e2c6995	0.16837151
205	0x3e89299f	0.26789567
206	0x3e7a75f7	0.24459063
207	0xbedf8523	-0.43656263
208	0x3e9e81b8	0.30958343
209	0xbdb6d57e	-0.08927439
210	0xbf55efea	-0.83569205
211	0x3ee95e03	0.45579538
212	0xbf092924	-0.535784
213	0xbf4f16b3	-0.8089401
214	0xbe9e627e	-0.3093452
215	0xbcefb863	-0.029262727
216	0x3ebf446f	0.37356898
217	0x3dc3ba26	0.09556989
218	0x3e116bb8	0.14201248
219	0xbecf7636	-0.40519875
220	0x3e4fb961	0.2028556
221	0x3d960584	0.07325271
222	0x3e05a245	0.13050182
223	0xbea37333	-0.31923828
224	0x3d170666	0.036871336
225	0x3d8078c3	0.062730335
226	0xbdd21ac4	-0.102590114
227	0x3e828d2a	0.25498325
228	0x3f855322	1.0415995
229	0x3e8f7196	0.28016347
230	0x3e732028	0.23742735
231	0xbba89f71	-0.00514596
232	0x3f25226c	0.6450565
233	0xbf2a6410	-0.66558933
234	0xbdf48acc	-0.11940536
235	0x3f0333be	0.5125083
236	0x3e7bc3ac	0.24586362
237	0xbf02ec3b	-0.5114171
238	0x3e180a9d	0.14847799
239	0xbe1b0e5f	-0.15142201
240	0x3e5f10b7	0.2178372
241	0x3ef61bd0	0.48068094
242	0x3d884d16	0.06655328
243	0x3f2dc637	0.67880577
244	0xbf21bef5	-0.63182
245	0x3ee29f37	0.44262096
246	0x3fc03e58	1.5019026
247	0xbec86486	-0.39139193
248	0x3f2bb116	0.67067087
249	0xbe88aa31	-0.26692346
250	0xbf2057ab	-0.6263377
251	0xbe42ddd3	-0.19029932
252	0xbe2fe68d	-0.17177792
253	0x3f36c66f	0.71396536
254	0x3dbdfb28	0.0927642
255	0x3f934346	1.1504905

rnn.weight_hh_l0 f4 [64, 64]
0	0x3d598993	0.053109717
1	0xbd006caf	-0.03135365
2	0xbd982f91	-0.074309476
3	0x3e0b3e77	0.13598047
4	0x3df4848c	0.11939344
5	0x3d5b9ad6	0.05361446
6	0xbe7954ee	-0.24348804
7	0x3caddb53	0.021222746
8	0xbd4e0f26	-0.050307415
9	0xbe514789	-0.20437445
10	0xbea3db1b	-0.32003102
11	0x3ec1062f	0.3770003
12	0x3eca630a	0.39528686
13	0x3ee82c6a	0.45346385
14	0xbec312a5	-0.38100162
15	0x3eb9d05c	0.36291778
16	0x3d9ffd09	0.078119345
17	0x3d6c93ec	0.057758257
18	0x3e704629	0.23464264
19	0xbe5ab018	-0.21356237
20	0xbdd44b88	-0.10365969
21	0xbe4d0630	-0.20021892
22	0xbe397826	-0.18112239
23	0x3e524fdc	0.20538276
24	0xbeec04b3	-0.46097335
25	0x3ea59ca3	0.32346067
26	0xbe1da11a	-0.15393487
27	0x3e935482	0.28775412
28	0x3d9716fe	0.07377432
29	0xbed738d3	-0.4203554
30	0xbe7db639	-0.24776544
31	0x3e5c8da4	0.21538407
32	0x3cf832d3	0.030297672
33	0x3e7e0173	0.2480524
34	0x3dd0143d	0.1016011
35	0x3cd273e6	0.02569003
36	0xbee8039f	-0.45315263
37	0xbd28307b	-0.04106186
38	0xbe907424	-0.28213608
39	0xbe965e3b	-0.29368767
40	0x3e1c6783	0.15273862
41	0xbe0f262c	-0.13979405
42	0x3da22e51	0.079189904
43	0x3ea73089	0.32654217
44	0xbeb78b17	-0.35848305
45	0xbd89b21e	-0.06723426
46	0x3d5dd856	0.054161392
47	0x3d851061	0.06497265
48	0x3e2917e3	0.16513018
49	0xbea87a0c	-0.32905614
50	0x3d484c5a	0.04890094
51	0x3cca4d9c	0.02469521
52	0x3e7a3919	0.24435844
53	0xbda18ec0	-0.078885555
54	0xbdb71610	-0.08939755
55	0x3d61b812	0.055107184
56	0xbe8ff58d	-0.28117028
57	0x3e60e923	0.21963935
58	0xbe5009cd	-0.20316239
59	0x3e4242c7	0.18970786
60	0xbe3f8e4d	-0.18706627
61	0xbe9116b8	-0.28337646
62	0xbe7fc5d5	-0.2497781
63	0x3e386776	0.18008217
64	0x3d13536c	0.03596823
65	0x3e44af46	0.19207487
66	0x3edd9849	0.43280247
67	0x3f365277	0.7121958
68	0xbc578be1	-0.013155908
69	0xba3579f9	-0.00069227774
70	0xbd9aee2c	-0.07564959
71	0xbd49bf0e	-0.04925447
72	0xbe770bdc	-0.24125618
73	0xbdafee7b	-0.085904084
74	0x3c8cda7e	0.017194029
75	0x3ea3d324	0.31997025
76	0xbe94d9f4	-0.29072535
77	0xbd5ac4cc	-0.053410336
78	0xbdda280e	-0.10652171
79	0xbbc5bd25	-0.0060345107
80	0x3e0cd3c9	0.13752665
81	0xbd2206ee	-0.03955739
82	0xbe36ff96	-0.17870936
83	0xbe381c0e	-0.17979452
84	0xbf03718e	-0.51345146
85	0x3c6a1244	0.014286581
86	0x3d015ac8	0.031580716
87	0xbd852d58	-0.06502789
88	0x3eeb9aa2	0.46016413
89	0x3dab2b5e	0.08357881
90	0xbe092357	-0.13392387
91	0xbed4e38b	-0.41579852
92	0xbe634c6f	-0.22197126
93	0xbe2c40dd	-0.16821618
94	0xbe05747c	-0.13032717
95	0xbd930f42	-0.071806446
96	0xbe583e8f	-0.21117614
97	0x3e894781	0.26812366
98	0x3d8768a8	0.066117585
99	0xbe8b2952	-0.27179962
100	0x3de6dcbf	0.11272573
101	0xbb60c4b6	-0.0034296936
102	0xbe92b879	-0.28656366
103	0x3cb4f582	0.022089723
104	0x3d9cdeab	0.07659658
105	0x39a7c1c4	0.0003199709
106	0xbe7b8801	-0.245636
107	0xbcc85a97	-0.02445726
108	0x3e70fba0	0.23533487
109	0xbe3b1c89	-0.18272604
110	0xbdfad8e9	-0.122484036
111	0xbdc24105	-0.09485058
112	0xbd7ff18b	-0.062486213
113	0x3f0901fa	0.5351864
114	0x3e62c0e0	0.22143888
115	0x3ee31ca9	0.44357803
116	0x3df0b778	0.11753744
117	0x3e143a24	0.14475304
118	0xbc69a15a	-0.014259661
119	0xbe6d3c87	-0.2316762
120	0x3df99f27	0.12188559
121	0x3eb66985	0.3562738
122	0xbe55dd60	-0.20885229
123	0xbdb34e57	-0.087551765
124	0xbe7e66f5	-0.24843962
125	0x3d8014d1	0.062539704
126	0x3e96bb6a	0.2943986
127	0x3e211ede	0.15734431
128	0x3e77dd38	0.24205482
129	0x3d9bac1c	0.07601187
130	0x3d5f7bb2	0.054561324
131	0x3eb3eba1	0.35140708
132	0x3f0e13c5	0.55498916
133	0xbcf3d0ed	-0.02976271
134	0xbb692afe	-0.0035578604
135	0xbd036d0c	-0.032086417
136	0x3d83e034	0.06439248
137	0x3d6a877c	0.057258114
138	0x3e491bdb	0.19639532
139	0x3e1aa2d5	0.15101178
140	0x3da62071	0.081116565
141	0x3dc9e1e4	0.09857538
142	0x3ecd22ab	0.40065512
143	0x3e7311bd	0.23737235
144	0x3e293bb2	0.16526678
145	0xbdf3ad93	-0.11898341
146	0x3d50324b	0.050829213
147	0xbd8deb5e	-0.06929658
148	0x3e86b9c0	0.2631359
149	0x3dc2fc97	0.09520834
150	0xbc5cd9fc	-0.013479706
151	0x3e0b1d36	0.13585362
152	0x3e3bcb21	0.18339206
153	0xbdaebb2c	-0.08531794
154	0x3e0655e8	0.13118708
155	0x3e99cb2b	0.30037817
156	0xbe46b2c8	-0.19404137
157	0x3e07e179	0.13269605
158	0xbe5ca252	-0.21546295
159	0x3e5a51f1	0.2132032
160	0x3e1a52a0	0.15070581
161	0x3d01fbb2	0.031734176
162	0xbec62881	-0.38702777
163	0x3e86c518	0.26322246
164	0x3d8ff57b	0.070292436
165	0x3e845d2e	0.2585234
166	0xbcb3c2c3	-0.021943456
167	0x3e8e1c97	0.27756187
168	0x3db1caca	0.08681257
169	0x3e22dd11	0.15904643
170	0xbea1970c	-0.31560552
171	0x3e70b00b	0.23504655
172	0xbdb5db1c	-0.088796824
173	0x3def12f8	0.1167354
174	0xbec439fe	-0.38325495
175	0x3dbb16d9	0.09135217
176	0x3cf17687	0.029475464
177	0xba824257	-0.0009937984
178	0xbd56378f	-0.05229908
179	0x3e43139c	0.19050449
180	0xbe0cabcc	-0.1373741
181	0xbde68a49	-0.112568446
182	0xbdfcff78	-0.12353414
183	0x3eafa32d	0.3430418
184	0x3ddf6bfa	0.10909267
185	0xbecddbc2	-0.40206724
186	0x3d57490d	0.0525599
187	0x3e7e93e4	0.24861103
188	0xbd59dbc6	-0.053188108
189	0xbddfdfe6	-0.10931377
190	0xbe9f4c1e	-0.3111276
191	0x3e614ac2	0.22001174
192	0x3e0c95ca	0.13729015
193	0xbe925883	-0.28583154
194	0x3e99f113	0.30066738
195	0x3eb23510	0.34806108
196	0x3bd64af2	0.006539696
197	0x3dcfbf3c	0.10143897
198	0x3d843a0c	0.06456384
199	0xbe2c9d8f	-0.16856979
200	0xbe30fe26	-0.1728445
201	0xbcb5da25	-0.022198746
202	0x3f1048da	0.5636116
203	0x3e690d97	0.2275909
204	0xbd4d4559	-0.050114963
205	0x3eaa1441	0.33218578
206	0x3e8af8b2	0.27142864
207	0xbe99d176	-0.3004262
208	0x3cb7d743	0.022441512
209	0xbcfd2a59	-0.030903982
210	0xbf0d8529	-0.5528131
211	0xbd839537	-0.06424945
212	0x3cf3856f	0.029726712
213	0x3d45d86b	0.048302095
214	0xbe0933ea	-0.1339871
215	0x3eaf9915	0.3429648
216	0x3ea2944f	0.31753775
217	0xbeda5469	-0.42642525
218	0x3ec314e0	0.38101864
219	0x3e1aeb0a	0.15128723
220	0x3d2fc0a8	0.04290834
221	0xbe88fd0c	-0.2675556
222	0xbd8b78fe	-0.06810187
223	0x3e2ba4f7	0.16762148
224	0x3de3f84d	0.11131344
225	0x3df63d9c	0.1202347
226	0x3e1e5d45	0.15465267
227	0x3dd4d20f	0.10391628
228	0x3c025fe9	0.007957437
229	0x3e3069ab	0.17227809
230	0xbe68f435	-0.22749408
231	0x3dd94a8e	0.10609923
232	0x3d164af6	0.036692582
233	0x3dfd8260	0.12378383
234	0x3e4ccce0	0.20000029
235	0xbe03e5ab	-0.1288058
236	0x3e4c20d8	0.19934404
237	0x3d5756d0	0.052573025
238	0xbe176321	-0.14783908
239	0xbcede0b4	-0.02903781
240	0xbe769797	-0.24081264
241	0xbd61f1a7	-0.0551621
242	0x3f1a8a41	0.6036721
243	0xbde708e9	-0.11280996
244	0xbd48d206	-0.04902842
245	0x3e2473fe	0.16059873
246	0x3d8c10b7	0.068391256
247	0x3e1df0a8	0.15423834
248	0x3d730ac3	0.059336435
249	0x3e5c5d51	0.21519972
250	0xbdb728d0	-0.08943331
251	0xbde982a5	-0.114018716
252	0xbe6c4741	-0.23074056
253	0x3d9689e2	0.07350518
254	0xbe6f3415	-0.23359711
255	0xbd91bc90	-0.071160436

actor.weight f4 [3, 64]
0	0xbd9a8433	-0.07544746
1	0x3db47466	0.08811264
2	0x3eaa9256	0.3331477
3	0x3e688a54	0.22709018
4	0x3ceab771	0.028651925
5	0xbdaf0c5b	-0.085472785
6	0x3e0392a5	0.12848909
7	0xbde38cc9	-0.11110837
8	0x3e19ccf8	0.15019596
9	0x3cf8cad1	0.030370148
10	0x3e19d9ee	0.1502454
11	0x3d3ef576	0.04662081
12	0xbe79f8bf	-0.24411295
13	0x3dafe678	0.0858888
14	0xbe3aedc9	-0.1825477
15	0xbe4141a7	-0.188727
16	0x3d4877c4	0.048942342
17	0xbe3c9858	-0.1841749
18	0x3e074ec5	0.13213642
19	0xbe96aedb	-0.2943028
20	0xbe2a9f78	-0.16662395
21	0x3d89d6c6	0.06730418
22	0xbd952c4a	-0.07283838
23	0x3d2fe66b	0.042944353
24	0x3ef1c6fe	0.47222131
25	0xbdfd3478	-0.12363523
26	0xbca793cf	-0.020456223
27	0xbd9c7ef5	-0.07641403
28	0xbe357f63	-0.17724375
29	0xbc890934	-0.016728021
30	0x3dc251e5	0.094882764
31	0xbd4c9aae	-0.0499522
32	0x3dea6d2a	0.11446603
33	0x3e85e304	0.26149762
34	0x3d64aea5	0.055830617
35	0x3d3c4853	0.04596741
36	0x3e052cde	0.13005397
37	0x3eb1f513	0.3475729
38	0xbcdc1eab	-0.026870092
39	0xbd4bdfee	-0.049774103
40	0x3d883ddb	0.06652423
41	0x3d39a80b	0.045326274
42	0xbebf1b2b	-0.37325415
43	0x3c8896b8	0.01667343
44	0xbcdbdad5	-0.026837746
45	0x3e6c6694	0.23086005
46	0x3d876bd4	0.066123635
47	0xbda1d3fa	-0.079017594
48	0x3bf4b2bb	0.0074675954
49	0xbc58b96a	-0.0132278
50	0x3da8f387	0.08249574
51	0xbdc7e669	-0.09760744
52	0xbcff1d5b	-0.031141927
53	0x3e644708	0.22292721
54	0x3ca02a58	0.019551441
55	0xbe3ae10e	-0.18249914
56	0xbded5d9f	-0.115901224
57	0xbdd7a0d6	-0.10528724
58	0x3df525fb	0.11970135
59	0x3ebbba6d	0.3666567
60	0x3c436567	0.011926032
61	0x3e7b69b6	0.24552044
62	0x3c3be1e6	0.011467433
63	0xbe899e31	-0.26878503
64	0xbb1489f6	-0.002266524
65	0x3e2130b2	0.15741232
66	0xbe9c9e9e	-0.30589765
67	0xbd2b2ac8	-0.041788846
68	0xbee0dff4	-0.43920863
69	0x3e0b82a7	0.13624059
70	0x3d2c44f6	0.042057954
71	0x3eaa93d6	0.33315915
72	0xbe4504da	-0.19240132
73	0x3dd0f92a	0.10203774
74	0xbe0e3b8f	-0.13889907
75	0xbe402df1	-0.18767525
76	0x3d830f6d	0.063994266
77	0xbb35e85d	-0.0027756908
78	0x3d6b826b	0.057497423
79	0x3df88b89	0.12135989
80	0xbe1008b9	-0.14065827
81	0x3bf6832b	0.0075229607
82	0xbe45c072	-0.19311693
83	0x3dae041c	0.084968776
84	0xbd92e248	-0.07172066
85	0x3c34772a	0.011014739
86	0xbe137932	-0.14401701
87	0x3df315e7	0.11869412
88	0xbe61a09a	-0.22033921
89	0x3df6508d	0.120270826
90	0xbe7a04ca	-0.2441589
91	0x3e847c12	0.25875908
92	0xbd892b21	-0.06697679
93	0x3c97bd93	0.018523013
94	0xbdb42b63	-0.08797338
95	0xbde41e6f	-0.11138617
96	0x3c5a0af4	0.0133082755
97	0x3e3d9fd3	0.18518
98	0x3ebb340c	0.36563146
99	0xbdc6ab3f	-0.09700631
100	0xbd5ed48e	-0.054401927
101	0xbe9114fc	-0.28336322
102	0x3e71e7dd	0.23623605
103	0x3c0c38c6	0.008558458
104	0x3e49a917	0.19693409
105	0xbe20a659	-0.15688457
106	0x3d845e73	0.06463327
107	0xbe8bea0d	-0.27327004
108	0xbc511b3a	-0.012762839
109	0x3d5c2614	0.05374725
110	0xbe1ac277	-0.15113245
111	0x3ddf8695	0.10914341
112	0x3e2f98b2	0.17148092
113	0xbdc52f4e	-0.09628163
114	0xbe7e5e91	-0.24840762
115	0x3e46e5c3	0.19423585
116	0x3e63777d	0.2221355
117	0x3e766fe2	0.24066117
118	0xbd8125a2	-0.06306006
119	0x3e1dd9cc	0.15415114
120	0xbdf1d01a	-0.1180727
121	0x3e6a906b	0.22906654
122	0xbe912efe	-0.28356165
123	0xbd097d5c	-0.033566818
124	0xbd676727	-0.056494858
125	0x3bab07e2	0.0052194456
126	0x3c92f4d9	0.017939018
127	0x3da56a45	0.0807691
128	0x3cf27bf9	0.02960013
129	0xbddd1616	-0.10795228
130	0x3ca4c2ea	0.020112474
131	0xbe172ca0	-0.14763117
132	0x3e591365	0.21198805
133	0xbdf52829	-0.119705506
134	0xbc1286e3	-0.008943292
135	0xbd8120fa	-0.06305118
136	0x3ce702a4	0.028199501
137	0xbcf2c186	-0.029633295
138	0xbd664302	-0.056216247
139	0x3e466241	0.19373418
140	0xbb56c236	-0.0032769567
141	0x3d599414	0.053119734
142	0x3e333918	0.17502248
143	0xbd3c23ee	-0.045932703
144	0x3d648e98	0.05580005
145	0x3e03ff65	0.12890394
146	0xbd4c1322	-0.049822934
147	0x3e11a736	0.14223942
148	0x3e04ddd9	0.12975253
149	0x3da0b71f	0.078474276
150	0x3e0c5bf8	0.13706958
151	0xbe14fbe0	-0.14549208
152	0xbe09e2f2	-0.13465479
153	0xbdd3482f	-0.10316502
154	0x3e461e5d	0.1934752
155	0xbd7c9a9e	-0.061670892
156	0xbc8ea080	-0.017410517
157	0xbb5670fb	-0.003272115
158	0x3cf597d0	0.029979616
159	0x3de46fb8	0.11154121
160	0xbdde66ce	-0.10859452
161	0xbe7a54c4	-0.24446398
162	0xbe4a0030	-0.19726634
163	0x3ca0a2a8	0.01960881
164	0xbd60a7b9	-0.054847453
165	0xbd86df6d	-0.06585584
166	0xbdb0a515	-0.08625237
167	0xb99dd125	-0.00030101198
168	0xbe456109	-0.19275297
169	0x3d44a49d	0.04800855
170	0x3e0f8814	0.14016753
171	0x3e021d60	0.12706518
172	0x3d1a40b9	0.03765938
173	0xbe809dbc	-0.25120342
174	0x3c9ff168	0.019524291
175	0x3d0c57a5	0.03426327
176	0xbe174654	-0.14772922
177	0x3dc62e0c	0.096767515
178	0x3dbd19b9	0.09233422
179	0xbde0239e	-0.109442934
180	0xbde8a0f7	-0.113588266
181	0xbe8b56f4	-0.27214777
182	0x3cf1cf59	0.029517816
183	0xbcc4b943	-0.02401412
184	0x3d9a4bf4	0.07534018
185	0xbdc4190f	-0.09575092
186	0xbcca2464	-0.024675556
187	0xbe3246d9	-0.17409839
188	0xbd88b29e	-0.066746935
189	0xbdc11aa5	-0.0942891
190	0x3caed8c7	0.021343602
191	0x3cc7bac1	0.024381043

critic.weight f4 [1, 64]
0	0xbcd6d68a	-0.026225347
1	0xbdcc1257	-0.099644355
2	0xbba07023	-0.0048961802
3	0xbddf8c53	-0.109154366
4	0x3d7a9e04	0.06118585
5	0xbd4a0485	-0.049320716
6	0x3c5819f3	0.0131897805
7	0x3ce63867	0.028103067
8	0xbc8049d0	-0.015660197
9	0xbcb95cae	-0.0226272
10	0x3db81d56	0.089899704
11	0x3cbd0c14	0.023077048
12	0x3d91f61d	0.071270205
13	0xbcd6d542	-0.026224736
14	0xbcd3facd	-0.025876427
15	0x3d034034	0.03204365
16	0x3d09c72e	0.03363722
17	0x3e160ee9	0.14654125
18	0xbd7fd8c2	-0.062462576
19	0x3e3474c3	0.17622666
20	0x3d7ebb44	0.06219031
21	0xbcec836c	-0.02887126
22	0x3d9f2c25	0.07772092
23	0xbde9f2dc	-0.11423275
24	0xbe3bfd9f	-0.18358468
25	0x3c5c64c4	0.013451759
26	0x3c341362	0.010990949
27	0xbe998bcc	-0.2998947
28	0xbccdd7c7	-0.025127305
29	0xbd0a378c	-0.03374438
30	0xbd02609b	-0.03183041
31	0x3d2bded4	0.041960552
32	0xbbb3990e	-0.005480892
33	0xbe0fb73c	-0.14034742
34	0xbdd17749	-0.1022783
35	0xbb813a97	-0.003943752
36	0xbd722e8f	-0.059126433
37	0x3ca06f65	0.019584367
38	0xbce8a506	-0.028399002
39	0xbd2f489b	-0.04279385
40	0xbd73e337	-0.05954286
41	0xbc4118ea	-0.011785725
42	0x3e1d0473	0.15333728
43	0x3d38bb71	0.045100633
44	0xbd958169	-0.07300074
45	0xbd57d81b	-0.05269633
46	0xbaaa972f	-0.0013015027
47	0x3d6e27bc	0.058143362
48	0x3b80b01c	0.003927244
49	0x3d280cdb	0.041027885
50	0x3e01091f	0.12601136
51	0xbd42f9a3	-0.047601353
52	0xbcdb8fa8	-0.0268019
53	0xbe292d46	-0.16521177
54	0x3bb1eae0	0.0054296106
55	0xbc792586	-0.0152067
56	0x3d890918	0.066911876
57	0xbcc9529a	-0.02457552
58	0x3e8366ca	0.2566436
59	0x3b3f1ab1	0.0029160196
60	0xbd4418a1	-0.04787505
61	0xbc3f2e7f	-0.0116688
62	0xbcabf796	-0.020992082
63	0x3dfbcd31	0.122949965
