model_params_101000/37.0_V3_0.8g_0.0rm_100bz_0.0td_1.0tds_Nonelb_Noneup_64n_50000e_10md_5.0rz_49s.pth (torch, 22912 bytes, 4 tensors)

rnn.weight_ih_l0 f4 [64, 9]
000000 d9 43 c0 bc 25 f4 14 3e a0 04 bf 3c 20 e5 63 bf
       -0.023469852 0.14546259 0.023317635 -0.8902149
000010 dd f3 19 3f 10 8e 5a bd f6 f8 0b 3f e4 09 1a bf
       0.6013773 -0.053358138 0.5467676 -0.6017134
000020 88 38 85 be 49 ed 69 3f c4 3f 61 be 54 de 20 3e
       -0.26019692 0.91377693 -0.21996981 0.15709811
000030 97 43 d6 3f 84 11 cb 3c 35 1c b3 3e c0 48 cb be
       1.6739377 0.024788626 0.34982458 -0.3970394
000040 e1 76 07 3d ca aa d9 be 76 b0 17 3f 36 b0 ac bd
       0.033072356 -0.42513114 0.59253633 -0.08432047
000050 52 15 54 be d3 85 5b bf 88 ce 94 be 20 10 26 3e
       -0.20711258 -0.85751075 -0.2906382 0.16217089
000060 67 90 7f bd 95 5d c6 be 04 ad 6a bd 63 a0 dd 3d
       -0.062393572 -0.38743272 -0.057293907 0.10821607
000070 df 4b e5 3e 94 55 5c be 6b 84 54 bf c0 b8 74 3e
       0.44784448 -0.2151702 -0.83014554 0.23898602
000080 05 9c ea bd 02 54 de 3e dd 84 62 3e 0b b1 1b 3f
       -0.114555396 0.43423468 0.22120996 0.6081702
000090 1a 5c e0 3e 12 18 c9 bd b0 fc dc 3e 1c 22 4c 3e
       0.43820268 -0.09819044 0.43161535 0.19934887
0000a0 26 1d 80 3d ab 6e a5 3e 44 a6 c2 3b bb a4 cf 3e
       0.062555596 0.32310995 0.0059402306 0.40555367
0000b0 4b 96 6d 3e 54 20 4c 3d 36 8e 80 3e c6 b3 9b bc
       0.23201863 0.049835518 0.25108498 -0.019006621
0000c0 03 82 20 3f 6f 8b 04 be 48 6e 2e bf fb 78 84 3e
       0.6269838 -0.12943815 -0.68137026 0.2587355
0000d0 42 bd 23 be 96 ac 0d bf b8 65 6d be 9e fa db 3e
       -0.15990165 -0.5534147 -0.23183334 0.42964643
0000e0 8a 7a 99 3d 98 ba 93 3e 58 d9 50 3e f0 08 dd 3d
       0.074940756 0.28853297 0.2039541 0.1079272
0000f0 95 d3 0a be 86 26 b2 3e d7 f3 ec 3e 43 a1 85 3e
       -0.13557275 0.34795016 0.46279785 0.26099595
000100 4e 42 f6 3d ea af be be 9d ae 17 bf 2b 53 bd be
       0.12024365 -0.37243587 -0.59250814 -0.36977515
000110 fa b8 ef 3c b9 bc 48 be 6d ad 12 bf 6c 84 1d 3f
       0.029263008 -0.19603242 -0.57295877 0.61530185
000120 0d 06 0a bf 21 27 b1 3e b6 60 96 be 7d 34 c1 3e
       -0.5391548 0.34600165 -0.2937066 0.37735358
000130 ef d9 e4 be 16 e2 2f 3e a7 9e dc be 2e c8 a1 bf
       -0.4469752 0.17176089 -0.43089792 -1.2639215
000140 c4 f5 0a be a2 02 02 bd 3a c8 e2 be 87 72 8a 3f
       -0.13570315 -0.031740792 -0.44293386 1.0816201
000150 12 96 3c be 38 a1 a3 be 58 17 a2 3e 09 94 98 bd
       -0.18416622 -0.31958938 0.31658435 -0.074501105
000160 00 75 31 bd d0 5c 99 be 93 a4 f3 be 49 36 93 3c
       -0.04332447 -0.29953623 -0.47586498 0.017970221
000170 34 3e 49 3d 9b 18 b0 be d5 92 cb be 6e d6 01 3f
       0.049131587 -0.34393772 -0.3976046 0.5071782
000180 e3 c2 a4 be 35 12 70 be a0 a2 7e 3e 8a 31 d6 3e
       -0.32179937 -0.23444445 0.24866724 0.4183467
000190 65 37 85 be fb 68 e9 3e 20 b5 05 3f b1 77 0b 3e
       -0.26018825 0.45587906 0.522295 0.13619877
0001a0 98 56 3c 3f 7f 03 3a 3e e8 a7 07 3e 1c 7f f9 bc
       0.7356963 0.18165396 0.13247645 -0.030456118
0001b0 f2 e9 c7 3e 7f 96 40 bf 8c 9f f5 bb c2 0c 6e bf
       0.39045674 -0.7522964 -0.007495826 -0.92988217
0001c0 d8 2d 13 be 30 33 9d 3d cd fc f7 bd 49 78 2a 3d
       -0.14372957 0.07675779 -0.12108765 0.04161862
0001d0 44 08 68 be 6e 94 3a be 95 15 f8 3d a6 17 4f be
       -0.22659403 -0.18220684 0.121134914 -0.20223865
0001e0 40 0c a0 bd 19 d7 a9 3d ba c0 05 3d 44 25 f8 bd
       -0.078148365 0.0829298 0.0326545 -0.12116483
0001f0 44 0b 58 3d 50 88 c1 3e 60 04 9b be 7b af 2c 3f
       0.05274512 0.3779931 -0.30276775 0.6745526
000200 37 bc 84 3e 4c 25 a2 bf ac 92 39 be 07 a3 22 3d
       0.25924847 -1.2667632 -0.18122357 0.039706256
000210 24 8c f7 bd 1b 54 4d 3d f2 80 9e bd d9 b5 46 be
       -0.120872766 0.050129037 -0.07739438 -0.19405307
000220 53 24 b8 3e 08 a6 13 3e f4 51 d1 3e 80 81 27 bf
       0.35965213 0.14418805 0.40882838 -0.65431976
000230 79 ad e0 bd ef ee 52 be de 14 2f 3f fe a8 e1 3d
       -0.10970587 -0.20598958 0.68391216 0.11018561
000240 29 6a 87 be 95 8c fe be 6e f3 11 3f c8 4a 9e be
       -0.2644818 -0.4971663 0.5701207 -0.3091643
000250 b8 e5 3f bf 6a 6f 90 be 63 d1 ab be df d6 73 3e
       -0.749599 -0.28210002 -0.33558187 0.23812436
000260 81 1d 8b 3d 87 f5 2a be 06 5e b7 3e f0 a5 02 3e
       0.06792737 -0.16695224 0.35813922 0.12758613
000270 5f 16 0a bf 7b b1 c0 3e 8f b9 e7 3d 80 6d 2e 3e
       -0.53940386 0.37635407 0.11314689 0.17033958
000280 0b 2b 3b 3e 9c c0 c7 3e a9 8c 2b 3e 5b 79 79 3f
       0.18278138 0.39014137 0.16752876 0.974508
000290 3b e4 14 be ff a4 b7 bd c2 54 37 3f df 97 d0 be
       -0.14540188 -0.089670174 0.71613705 -0.40740868
0002a0 eb a6 ab 3e f1 c1 8f 3f af e7 fa bd d9 2e 0e 3f
       0.33525786 1.1231061 -0.122512214 0.55540234
0002b0 f3 6f 19 3e 60 8c 6d 3f 90 1b 6f be 57 6b bf bd
       0.14984111 0.9279232 -0.23350358 -0.09346645
0002c0 c0 3e 2e 3f a8 e4 ed bb af 98 25 3e 24 68 75 be
       0.680645 -0.007259924 0.16171525 -0.23965508
0002d0 8e 22 ec be 78 14 cf 3d 3c 6a 70 bd a7 5d bd 3f
       -0.46120113 0.10111326 -0.058695063 1.4794205
0002e0 cd 64 c1 be fc 40 1a 3f f5 3e d6 bd 9c 84 ff 3e
       -0.37772217 0.6025541 -0.10461227 0.4990586
0002f0 e4 06 38 be 8c ba 6a 3e 08 57 c0 be cf 1e 9c 3d
       -0.17971379 0.22922724 -0.375664 0.07623064
000300 a8 93 b2 bc 56 60 73 3d 7d 7a 9a 3e 11 24 fb 3e
       -0.021798924 0.059418045 0.30171576 0.49050954
000310 15 18 34 be 63 2a 8c 3d d0 ab 84 be eb 4e ae be
       -0.17587312 0.06844022 -0.25912333 -0.34044585
000320 b7 be 5b be 16 fe 55 3f ee e8 51 3e 8d 24 28 be
       -0.2145947 0.8359083 0.20499012 -0.16420193
000330 0e 3f 7e 3d 75 75 f3 be 33 7f 81 3e d8 5a 3e 3f
       0.062071852 -0.4755055 0.25292358 0.74357367
000340 49 9f 07 be 7a 3b eb 3e 57 95 3b bf c2 17 96 3e
       -0.13244356 0.45943815 -0.7327475 0.29315
000350 ce f3 e8 3d e4 46 b8 3e 03 4e 29 be 04 60 d6 bd
       0.11374627 0.35991585 -0.16533665 -0.10467532
000360 c9 6b 84 3e 1a e1 b9 be f0 13 9d be b2 74 58 3e
       0.25863484 -0.3630455 -0.30679274 0.21138266
000370 b7 67 11 bd 8c 42 8d 3d 55 25 bb be 43 e4 28 3e
       -0.0354993 0.068974584 -0.3655192 0.16493325
000380 d6 b9 0f bf 1d 48 0e be 13 47 7f be 6a fa 27 bd
       -0.5614294 -0.13894697 -0.24929456 -0.041010298
000390 a8 65 42 be a4 14 b2 be 85 86 da be 12 68 dc be
       -0.18984091 -0.34781373 -0.42680755 -0.4304815
0003a0 dd f4 bb be 42 70 75 bd 72 7a b6 3e 8c 1a c2 bd
       -0.36710253 -0.05992151 0.35640293 -0.0947772
0003b0 50 51 09 3f e2 29 37 bf 3a 68 4c be 4c 54 24 bf
       0.536397 -0.71548283 -0.19961634 -0.64191127
0003c0 55 af 4c be 83 64 e9 3e 3c 79 49 be f9 f2 11 3f
       -0.19988759 0.45584497 -0.19675153 0.5701137
0003d0 ef a5 17 3e b2 91 c3 be 8f 43 8e be 93 23 27 be
       0.14809392 -0.38197094 -0.27785918 -0.16322164
0003e0 34 35 8a be d5 74 a4 bd bc 6f 3e be 17 67 d5 3d
       -0.26993716 -0.080300964 -0.18597311 0.104200535
0003f0 8b 08 8a 3e f7 2a e6 bc d0 d2 64 bd b6 34 cd be
       0.26959643 -0.02809666 -0.05586511 -0.40079278

rnn.weight_hh_l0 f4 [64, 64]
000000 7e 79 7c 3e 5a b8 f8 bc e0 8c a7 3d b1 30 14 bc
       0.2465572 -0.030361343 0.08181167 -0.009044812
000010 af dc 12 bd 97 81 22 3e 7f fb 58 3e 4d 82 ec 3d
       -0.03585499 0.15869747 0.21189688 0.115482904
000020 e1 9b 4c be bb 84 c1 3c 41 5e 09 bd 27 07 08 3e
       -0.19981338 0.023622861 -0.033537153 0.13283978
000030 41 4b ed 3d dd 13 aa 3e 00 53 04 3f 75 1a cb bc
       0.11586619 0.3321828 0.5168915 -0.02479289
000040 a4 72 c5 bb 67 84 07 be c7 26 be 3e 60 f1 16 bf
       -0.006025629 -0.13234101 0.3713896 -0.5896206
000050 c3 fb 85 3e 22 5f 4d 3e 0c 87 c9 bc ae 7c ac 3d
       0.2616864 0.20055822 -0.024600528 0.08422218
000060 14 ce 96 bd 5c ab 0e 3d aa dd 9f 3e df b4 41 be
       -0.07363525 0.03483139 0.31223804 -0.18916653
000070 93 bc 4b be e9 46 16 3e 37 97 c5 3e b4 bc bd bd
       -0.19896154 0.14675488 0.3859193 -0.09264508
000080 e6 a3 f9 bd 9a 60 3a be 00 5a 81 bd 38 92 24 3d
       -0.12189464 -0.18200913 -0.06315994 0.040178508
000090 db 68 e1 3d 70 87 03 be e0 0a 09 3d 20 9d a3 3e
       0.11006328 -0.12844634 0.033457637 0.31955814
0000a0 66 a7 7f be b9 21 83 3d 19 a8 14 3f 44 aa ef 3d
       -0.24966201 0.064029165 0.58068997 0.117023975
0000b0 20 2b 25 bd 7e 84 23 bd a0 9c 28 3e d7 8d 08 be
       -0.04032433 -0.039921276 0.16465998 -0.13335358
0000c0 aa a8 35 be c2 17 39 bd 23 2a 03 be 90 cc 5b be
       -0.17740121 -0.045188673 -0.12809043 -0.21464753
0000d0 6e 1f da 3d 09 30 89 3e 68 7c cb 3e 97 ac 81 3e
       0.10650526 0.2679446 0.39743352 0.25326988
0000e0 5e 13 e4 3e 59 69 c2 3d ca dd 13 3d 6b 0f e3 3c
       0.44546026 0.0949275 0.036100186 0.027717313
0000f0 67 47 57 3e 07 c3 27 3e fe 9b 45 be 96 68 b3 be
       0.21023332 0.16382991 -0.19297788 -0.3504073
000100 82 3d 00 be 9b 4e b2 3e 07 bf ab 3c cd 82 05 bf
       -0.12523463 0.34825596 0.020965112 -0.5215271
000110 3e a3 4f 3e 63 e3 2e 3d ef 03 2b be b4 af ab 3e
       0.20277116 0.04269732 -0.1670072 0.33532488
000120 58 70 9b bb ee 38 9b 3d 81 58 67 be db ca c6 be
       -0.004743617 0.07579218 -0.22592355 -0.3882664
000130 58 10 bc 3c 8b 43 67 be 0e 30 b2 be 0c 3e ff bd
       0.022957012 -0.2258436 -0.34802288 -0.124630064
000140 86 3a 74 3e 03 94 49 be 91 9d 95 3d 89 d8 00 be
       0.2385045 -0.19685368 0.07305444 -0.12582602
000150 d8 80 7f bd aa 08 f2 3e 7e 12 03 be a3 17 19 3b
       -0.062378734 0.47272235 -0.12800023 0.0023360036
000160 14 f4 cb 3e 7d 24 54 3f e3 b0 5f 3e 23 ef 83 3e
       0.39834654 0.82868177 0.2184482 0.25768384
000170 18 c1 1e 3e 41 98 80 be 9d 14 d4 3c d2 0f 4a 3e
       0.15503347 -0.2511616 0.025888735 0.19732597
000180 ed 64 2b bd 6d aa fc 3c 0c 5b e2 3d ff 02 7f 3e
       -0.041844297 0.030842984 0.11052522 0.24903487
000190 5d 1b 9d 3d 83 62 71 3e a8 fd d9 be 78 fe 53 3e
       0.07671235 0.23572735 -0.42576337 0.20702541
0001a0 b3 e8 23 3e ea b4 97 bd 03 62 ab 3d d3 ec 58 be
       0.16006736 -0.074075535 0.083683036 -0.21184091
0001b0 60 20 d7 3c c2 16 65 be e5 5a 93 bd 0e b4 04 be
       0.026260555 -0.22371963 -0.07195071 -0.1295931
0001c0 84 fe f0 3d f3 60 a4 3e 4f 2d 05 be 85 f1 9f 3e
       0.11767295 0.32105216 -0.13005565 0.31238952
0001d0 b2 fc 1d bd dc df 8e bc f0 1e 28 3e 65 f0 a0 3e
       -0.038571067 -0.017440729 0.16418052 0.31433406
0001e0 22 6a 0c be 4e 6c a1 3e 99 e2 51 3c 11 99 d5 bd
       -0.13712361 0.31527942 0.012810373 -0.10429586
0001f0 1c 75 72 be 31 23 bb 3d 02 97 56 be 24 dd 00 bb
       -0.23677486 0.091375716 -0.20956042 -0.001966306
000200 f4 4a 07 bc 3f 58 b1 3a 95 ff 13 be a5 23 07 3c
       -0.008257616 0.0013530328 -0.14452966 0.008248244
000210 8d 2b 67 be d7 d9 09 3e 74 92 91 bd 13 91 74 3d
       -0.22575207 0.13462006 -0.07108012 0.059708666
000220 49 48 0e 3e 55 09 14 be 0f 46 2a be 50 13 15 bc
       0.13894762 -0.14456685 -0.16628288 -0.009098843
000230 c6 a7 6d 3d 94 a4 c3 3e 2b bb 9f 3d 83 99 00 be
       0.05802133 0.382115 0.07799371 -0.1255856
000240 f6 1b 73 3c 91 38 0d be ef af fb 3d 1b 8d 3a bd
       0.014838209 -0.1379111 0.12289416 -0.045544725
000250 ee 1b 96 be 84 59 00 be 26 fd 22 3e cb c6 b8 bd
       -0.29318184 -0.12534148 0.15916881 -0.09022292
000260 5d ea 1f be 8f b6 29 bd 2e db f9 bd 41 55 69 be
       -0.15616746 -0.041433867 -0.12200008 -0.22786428
000270 43 bf a2 3d b1 0a 92 3d 8d 89 89 be 32 0d 9d bd
       0.079466365 0.071309455 -0.26862755 -0.076685324
000280 5b 6c 5b 3d f4 1c 3f be ce 3c e1 3d 77 c1 39 3e
       0.053570133 -0.18663388 0.10997926 0.18140207
000290 97 15 16 3d 47 32 56 3d 2f dc c6 3e 55 12 40 be
       0.036641683 0.052294042 0.38839862 -0.18756993
0002a0 61 4c 90 bd 5c 84 2f be d4 dd 8a be d4 09 b6 3d
       -0.07045818 -0.17140335 -0.27122366 0.08888593
0002b0 e9 1c 50 3d 66 26 71 be 4c 7b 8c be 3c 94 a7 3e
       0.05080882 -0.23549804 -0.27437818 0.3273028
0002c0 f5 d8 9a be ee c6 1f 3e 11 07 ae 3c 2a a0 1a bf
       -0.3024365 0.1560323 0.021243604 -0.6040064
0002d0 99 e2 d2 3d 87 87 0e bd e5 2a ab 3c 97 4e dc 3d
       0.10297126 -0.034797218 0.020894477 0.10757177
0002e0 fc fa 0f 3e 6a 20 0c 3e dc 8e 59 3d 01 61 c9 bc
       0.14060587 0.1368424 0.053114757 -0.024582388
0002f0 06 95 1a be 3e 5f 16 bd 22 ab 97 3e d4 ba 96 3e
       -0.1509591 -0.036711924 0.2962275 0.29439414
000300 9e 42 eb 3d 02 34 73 bc e7 06 90 be d2 56 87 3c
       0.114873156 -0.014843943 -0.28130266 0.016520891
000310 b1 24 d4 3d 97 d6 6f 3d 9c 45 b6 3e 18 59 48 be
       0.10358561 0.05855426 0.35599983 -0.19565237
000320 35 93 99 be 68 1c ad 3d fd d4 70 3e c8 72 ba bd
       -0.29995123 0.08452684 0.23518749 -0.09103924
000330 f3 76 1c be 52 d8 9c 3d 52 36 99 bd 53 3b 4a 3e
       -0.1527975 0.07658447 -0.07481064 0.19749193
000340 f0 25 15 bd cc a5 24 3d ea ec 46 be ed 54 3c be
       -0.036413133 0.04019718 -0.19426313 -0.18391772
000350 2d fd 18 be f6 9a c2 3c 5d 4c d5 3d e4 46 3d 3d
       -0.14940329 0.023755532 0.10414956 0.046210185
000360 40 09 b8 be 23 24 08 bd 32 35 01 bb 49 db 97 3d
       -0.35944557 -0.033237588 -0.0019715545 0.07414872
000370 e7 ff 6d be d3 52 8d 3d 62 9f 45 bd 00 88 ae bd
       -0.2324215 0.06900563 -0.048247702 -0.08522034
000380 f6 a7 33 bd b6 56 bd bd 80 5b c2 3e d3 9c 09 be
       -0.043861352 -0.092450544 0.37960434 -0.1343873
000390 d5 7b 44 3e 1a 42 c4 3d 8e d9 0f be ca 2e 0e bd
       0.19187863 0.0958292 -0.14047834 -0.03471259
0003a0 da f7 d8 bd 76 43 26 bc 88 e3 67 3e 0a a2 bb bc
       -0.10594149 -0.01014792 0.2264539 -0.022904415
0003b0 63 47 94 3c 82 a2 ca bd 36 7f 52 3e 7d a6 5c be
       0.018100446 -0.09894277 0.2055634 -0.21547885
0003c0 37 ea 92 3d 93 ee 55 be e2 66 7d 3c b3 e5 0b bf
       0.07173579 -0.2089179 0.015466424 -0.5464737
0003d0 3b 28 89 be eb 3b 57 be c7 38 90 bd c2 7f 16 bd
       -0.26788506 -0.2101895 -0.070420794 -0.036742933
0003e0 fb b8 63 be a8 01 cb 3d 0a 7d 3e 3e 0f a9 2c 3e
       -0.22238533 0.09912425 0.18602386 0.16861366
0003f0 11 b5 74 3e 62 67 02 3e 31 09 ab be 56 0c ca bd
       0.23897196 0.1273475 -0.3340545 -0.09865634

actor.weight f4 [3, 64]
000000 c6 f1 70 be cc c3 f0 be 9b ce 7c 3e 90 3c 8f b9
       -0.23529729 -0.4702438 0.24688189 -0.00027320208
000010 d5 08 cc bd 65 3f 4b 3e a0 b8 33 be 9c 28 1d 3e
       -0.09962622 0.19848402 -0.17550898 0.15347522
000020 5b 49 98 3e bf e2 05 3e df 51 6c bd 85 de 68 3c
       0.29743466 0.13074778 -0.057695266 0.014213209
000030 4f 8b 47 bd f2 c6 94 bd fd 75 19 3e 0e c2 03 be
       -0.04871684 -0.07264508 0.14986415 -0.12866995
000040 bd c7 88 3e 33 3c 6e be 4f 51 4c be 72 38 00 3d
       0.26714888 -0.23265152 -0.19952892 0.03130383
000050 e1 b0 fc be 61 5e 3d 3e e2 a5 d7 bc 3e 67 db 3d
       -0.49353698 0.18493034 -0.026324216 0.10713051
000060 37 96 f0 be ac 7e ab bd 14 71 64 3e a7 8b 7e be
       -0.46989605 -0.0837377 0.22308761 -0.2485796
000070 c9 af 7d 3e 68 6e 60 bd 2d ab f4 3b 4c db a9 3e
       0.24774088 -0.05479279 0.007466695 0.33175123
000080 81 f7 a3 3e 64 22 ac bd ad 32 b4 bd 6d c5 77 3e
       0.32024768 -0.08404997 -0.08798728 0.24196406
000090 69 19 2c 3d 22 8e 03 3f 8d bd 5b bb 4c eb 82 3d
       0.04201642 0.5138875 -0.003352973 0.063925356
0000a0 2c e7 75 be 25 db c1 bd a3 6c ca bd db b7 b1 3e
       -0.24013966 -0.094656266 -0.09884002 0.34710583
0000b0 b8 41 40 3e 53 ba 9f be 31 ee 8a be dc 8b 48 3e
       0.1877507 -0.31196842 -0.2713485 0.19584602
0000c0 84 6a d9 3d 38 87 d2 bd 0a 2a 80 3d 80 a4 28 be
       0.10616019 -0.10279697 0.06258018 -0.16469002
0000d0 95 73 12 3e 67 55 0a 3e 11 f1 85 be 97 c8 94 3c
       0.14301904 0.13509141 -0.26160482 0.018162055
0000e0 e7 82 25 bc 0d 4c de 3e 97 a4 88 bd 1e 2e c3 bd
       -0.01010201 0.43417397 -0.06672018 -0.095302805
0000f0 02 3c fb bd 5c d4 2c 3e 3a 55 5b 3f 50 6b bf bd
       -0.12267305 0.16877884 0.8567692 -0.0934664
000100 9b ca 89 be ed ba 6e 3e 9b ef 29 be f2 66 09 bf
       -0.26912388 0.23313494 -0.16595308 -0.5367271
000110 e7 74 29 3e 1f 90 43 3d 68 be 04 bc 9b 25 8c bc
       0.16548501 0.047744866 -0.008102037 -0.017107775
000120 d7 41 d7 3d f7 e5 46 be 39 7e 84 be 65 4b db bd
       0.10510605 -0.19423662 -0.2587755 -0.1070774
000130 62 41 0b 3e 11 0d 31 be 27 71 c5 be f2 a7 5e bd
       0.1359916 -0.1729014 -0.3856289 -0.054359384
000140 c5 e8 e6 bd 92 ec ee bc b9 12 e8 bd 1e 4e 05 3e
       -0.11274866 -0.02916554 -0.11331696 0.1301808
000150 b7 72 41 3e 12 59 df bc 47 45 bd be b3 dc a8 be
       0.18891416 -0.027264152 -0.36966917 -0.3298088
000160 63 ad 86 3e 25 63 e7 bc 1d 67 bf bd bf 02 35 3e
       0.2630416 -0.028245518 -0.09345839 0.17676829
000170 b8 d1 26 be b1 51 55 be d2 5b 00 be c4 a5 f9 bd
       -0.16290939 -0.20831944 -0.12535027 -0.121898204
000180 e3 46 82 3d 19 a3 a4 3e 70 b8 25 be a7 1b 5c 3d
       0.06361177 0.32155684 -0.16183639 0.05373731
000190 71 1e c0 bd 4e 39 ad be 4e 35 02 bf 27 c0 4e be
       -0.09380806 -0.33832783 -0.50862586 -0.20190488
0001a0 81 a1 03 3e c5 6c 3e 3e b2 e3 92 bb eb ec 6c bd
       0.12854578 0.1859618 -0.00448271 -0.05784313
0001b0 80 eb 71 3e c8 19 12 3e 76 98 77 3d 24 47 e3 bd
       0.23624992 0.14267647 0.060448132 -0.11097553
0001c0 93 12 ac be 09 e1 da 3e a8 22 a4 be ea d6 fa 3e
       -0.3360792 0.42749813 -0.3205769 0.4899209
0001d0 c9 50 75 be 40 2f c1 bd ab 07 4a 3e 56 25 3e be
       -0.23956598 -0.0943284 0.19729488 -0.1856893
0001e0 d4 ad 26 be 3e 6c 40 be d3 0f 93 3c a6 fe 53 3d
       -0.16277248 -0.18791291 0.017951882 0.051756524
0001f0 c7 57 91 be a4 27 67 be 1e 52 54 be 3a a4 75 3e
       -0.2838728 -0.22573715 -0.2073445 0.23988429
000200 f4 ad 94 3e f6 57 f1 3d 6f bd 34 3b 97 d9 78 3e
       0.29038966 0.11784355 0.0027578732 0.24301754
000210 e1 a2 4c 3c d5 a8 49 be e8 11 cc 3d 28 92 8d bd
       0.012490005 -0.1969331 0.09964353 -0.06912643
000220 a8 f0 4d be b1 0a d2 3d 49 78 27 3e e0 cf 22 3e
       -0.20111334 0.102559455 0.16354479 0.1589961
000230 54 fd 3e bd 7c 9a 1b 3e 28 37 8c 3d 92 7f 44 3e
       -0.04662831 0.1519565 0.06846458 0.19189289
000240 a7 74 90 3c de 96 20 3e ba 79 19 3e 7d 97 25 be
       0.01763375 0.15682551 0.14987841 -0.1617107
000250 bd 56 c5 3d 94 00 e8 bd 04 ab 73 3e 97 a3 27 3e
       0.09635685 -0.11328235 0.23795706 0.16370998
000260 a5 61 74 3d 05 d2 41 3d 32 0c 90 bd 83 67 37 3d
       0.059663434 0.04731943 -0.07033576 0.04477645
000270 cd 1c bb bd 03 ed 80 3d ec 3b 04 39 1e ae e6 bd
       -0.09136353 0.062952064 0.00012610824 -0.11263679
000280 27 5e 50 be d6 17 53 be 31 b4 6a 3d f1 c6 3a be
       -0.20348416 -0.20614561 0.05730075 -0.18239953
000290 72 f2 f3 bd 52 40 d8 bd 44 3d 8b 3e 68 85 1e 3e
       -0.11911477 -0.10559143 0.2719518 0.15480578
0002a0 ce 12 87 bb 04 eb 8e bd 54 bb fc bb b7 be 1b be
       -0.0041221147 -0.069784194 -0.007712761 -0.1520947
0002b0 fc 7c 84 be e3 79 03 3e 32 65 e2 3d d6 fd 17 bd
       -0.25876606 0.12839465 0.11054458 -0.03710731
0002c0 a8 b0 0f 3d e3 ce 4a be 9e cd 31 3e a0 89 48 be
       0.035080582 -0.19805484 0.17363593 -0.1958375
0002d0 e3 14 00 3e 72 d6 6d 3d cf cf 93 bc c2 48 be 3d
       0.12507968 0.05806584 -0.018043427 0.09291221
0002e0 d1 5b d9 3d 9b e5 9e bd 85 24 ab bc ac 38 cd bc
       0.10613216 -0.077586375 -0.020891437 -0.025051437
0002f0 28 e4 7f 3e f2 a0 1b 3d 03 f4 98 be b9 62 aa bc
       0.24989378 0.037995286 -0.29873666 -0.020799028

critic.weight f4 [1, 64]
000000 b7 6f 65 3d 6a ba 4f 3d 11 aa bf 3c 8f c0 ab 3d
       0.056014743 0.050714888 0.023396524 0.08386337
000010 3e 78 ae bc b1 1d 40 3c cc c8 99 bb 4d 47 03 3d
       -0.02129757 0.011725829 -0.0046931263 0.03205042
000020 40 7a 46 bd 1e 85 3a bc c7 eb 70 b8 b5 da b7 3d
       -0.04845643 -0.011384277 -5.7440044e-05 0.08977262
000030 43 cf ec bc 65 2a 3b 3d 6e 49 b4 3d d0 f0 1c 3d
       -0.028907424 0.045694727 0.08803068 0.038315594
000040 b8 08 75 bd c4 9e 28 3d e3 46 75 3d e0 97 ec 3c
       -0.059822768 0.041167036 0.059882056 0.028881013
000050 b9 52 40 3e 26 98 7e bd 10 4b 84 bb 27 a3 3f 3a
       0.18781556 -0.06215682 -0.0040372685 0.00073103834
000060 42 bb a6 bb 3b f4 98 3b 33 43 aa 3d b4 3d c1 bc
       -0.005088241 0.0046677864 0.083135985 -0.023588993
000070 f6 f8 ab bd ca 3d 3e bb fa 51 a6 3d 3c 9c 36 3c
       -0.08397095 -0.0029028528 0.081211045 0.011145648
000080 bc cd 3b 3b 12 fe 32 bd 40 d5 43 3a f8 3b 1d bd
       0.0028656563 -0.04369933 0.00074704364 -0.03838727
000090 a5 40 17 bd 84 d2 81 3e 26 4a 1e 3e c3 a8 18 3c
       -0.036926884 0.25355923 0.15457973 0.00931758
0000a0 92 f4 0e 3d 8a 8a 47 bc 33 f9 3f bc 7b 35 11 bc
       0.03490121 -0.012179026 -0.011717129 -0.008862848
0000b0 1a a8 2d bc 3b 53 b1 3b d6 93 09 3d f0 f2 1d ba
       -0.010599161 0.005411533 0.033588253 -0.0006025275
0000c0 9b 36 d1 3b 7d b0 27 bd 10 3f 44 3c 49 cd a4 bd
       0.0063846833 -0.040939797 0.011977926 -0.080469675
0000d0 0f 39 23 3d 2b 9c fa 3c 1c b1 95 3c a8 d3 3a bd
       0.039849337 0.030592045 0.018272929 -0.045612007
0000e0 de 83 e7 bc 89 31 40 bc 17 6b 46 bd ea 28 db bc
       -0.028261121 -0.01173056 -0.048441973 -0.026752908
0000f0 4e 29 07 3d 2d 67 31 bc 37 90 89 be 3c d3 c4 bd
       0.032998376 -0.010827822 -0.2686784 -0.09610602
