model_params_101000/38.0_V3_0.95g_0.5rm_100bz_0.0td_1.0tds_Nonelb_Noneup_64n_50000e_10md_5.0rz_21s.pth (torch, 22920 bytes, 4 tensors)

rnn.weight_ih_l0 f4 [64, 9]
0	0xbec3127b	-0.38100037
1	0x3e8e400a	0.27783233
2	0xbed4ed3c	-0.41587245
3	0xbf14462d	-0.5791958
4	0x3d8ba3e1	0.06818367
5	0x3ef8a750	0.4856515
6	0xbeb651d2	-0.356093
7	0x3ee38dad	0.44444028
8	0x3ea73fba	0.32665807
9	0xbef13e4e	-0.47117847
10	0xbeefb15d	-0.46815005
11	0x3e77c73e	0.24197099
12	0xbef8e841	-0.48614696
13	0x3eca2fe2	0.39489657
14	0x3e9e4b5a	0.30916864
15	0x3c5c8f5a	0.013461912
16	0x3e9ea8b9	0.309881
17	0x3e1629ee	0.14664432
18	0x3f5d4121	0.86427504
19	0xbec806d5	-0.39067712
20	0xbd8ad0c1	-0.06778098
21	0x3f077657	0.5291495
22	0x3e6c537d	0.23078723
23	0x3f12daab	0.5736491
24	0xbdea0afc	-0.11427876
25	0xbcf2fb60	-0.02966088
26	0xbf1bf9ae	-0.60927856
27	0xbe390ea2	-0.18071988
28	0x3e57c000	0.21069336
29	0x3d97bd1a	0.07409115
30	0x3e7b2f1c	0.2452969
31	0x3f12865d	0.5723627
32	0xbe8fa8b1	-0.2805839
33	0x3e9ba5f0	0.30400038
34	0xbf25de26	-0.64792097
35	0x3eb4b4ac	0.35294092
36	0xbe1eb173	-0.15497379
37	0xb93c444a	-0.00017954517
38	0xbe49cd94	-0.19707328
39	0xbf04a53f	-0.51814646
40	0x3ed3e818	0.4138801
41	0x3e420fd8	0.18951356
42	0xbe052c27	-0.13005124
43	0xbe99495e	-0.29938787
44	0x3ef3f6c3	0.47649202
45	0x3f565fee	0.8374013
46	0xbf2599a4	-0.6468756
47	0xbeaf0c80	-0.34189224
48	0x3ffc5577	1.9713582
49	0x3e9b413c	0.30323207
50	0xbe01b48e	-0.12666532
51	0x3f126091	0.571786
52	0x3e271d80	0.16319847
53	0x3eae4ff3	0.3404537
54	0xbe785a64	-0.24253231
55	0xbc36ce0b	-0.011157523
56	0xbcf550b3	-0.029945707
57	0xbe99c5ae	-0.3003363
58	0xbeebc652	-0.46049744
59	0xbec69e49	-0.38792637
60	0xbed28562	-0.41117388
61	0xbf4c4a2b	-0.7980067
62	0x3e75e768	0.24014056
63	0xbef53c05	-0.47897354
64	0x3f16b6f4	0.58872914
65	0xbe8da96a	-0.27668315
66	0xbfea63e4	-1.8311734
67	0x3cd62d3d	0.026144618
68	0xbecca5fe	-0.39970392
69	0xbe96411e	-0.29346555
70	0xbe7203a7	-0.23634206
71	0x3c33c5b8	0.010972433
72	0x3db474ae	0.088113174
73	0x3d2c88bd	0.04212259
74	0xbf2015ef	-0.6253347
75	0xbf02b411	-0.5105601
76	0xbee403cf	-0.44534156
77	0xbe283934	-0.16428071
78	0xbe16cd0b	-0.14726655
79	0x3f9d0bd1	1.2269231
80	0x3ed86b40	0.42269325
81	0x3f2f804a	0.6855513
82	0x3f86bd05	1.0526434
83	0xbd8ab0a4	-0.06771973
84	0x3dc933a9	0.098243065
85	0x3ee74106	0.45166796
86	0x3e593f23	0.21215491
87	0x3f2ae7f6	0.66760194
88	0x3ef9b991	0.48774388
89	0x3e45ec0c	0.19328326
90	0x3eeba5ab	0.46024832
91	0xbee7f363	-0.45302877
92	0xbe81b5d6	-0.25334042
93	0xbf7dd998	-0.99160147
94	0x3e9dcf47	0.30822203
95	0x3e1d19c6	0.15341863
96	0x3ed3c9a2	0.4136477
97	0xbd813f48	-0.06310898
98	0xbe935737	-0.28777477
99	0x3ddda848	0.10823113
100	0xbe328d72	-0.1743677
101	0x3e185966	0.14877853
102	0x3cb10c87	0.021612419
103	0x3ed0d4fc	0.40787494
104	0x3e64f1cb	0.22357862
105	0x3e8398ea	0.25702602
106	0x3e8d793a	0.2763155
107	0x3ece2ef8	0.4027021
108	0xbee05520	-0.43814945
109	0x3ead3414	0.33828795
110	0x3e7fc24b	0.2497646
111	0xbf284eaa	-0.6574503
112	0x3e82e162	0.25562578
113	0xbe7ec8c4	-0.24881274
114	0xbeb370d2	-0.35047013
115	0xbeae582e	-0.3405165
116	0x3ea1e1bb	0.3161753
117	0x3ea6e76b	0.32598433
118	0x3cffa88c	0.0312083
119	0xbef35e6b	-0.47532973
120	0xbd21b748	-0.03948143
121	0xbe6080d9	-0.21924151
122	0xbecc3d12	-0.39890343
123	0xbeb45dc0	-0.35227776
124	0x3f0f1a4f	0.5589952
125	0x3ec2f13c	0.38074672
126	0xbeddbba1	-0.43307212
127	0xbe603d1d	-0.21898313
128	0x3eeed2af	0.46645114
129	0xbedf63bc	-0.4363078
130	0xbead12d8	-0.3380344
131	0xbd9c8b6d	-0.07643781
132	0xbeab1f9f	-0.33422562
133	0xbf8c1fae	-1.0947168
134	0xbeed6d3a	-0.46372396
135	0xbef32aa6	-0.47493476
136	0x3eaf3d32	0.34226376
137	0xbd726227	-0.059175637
138	0x3e9c4024	0.30517685
139	0x3e411980	0.18857384
140	0x3eec434c	0.46145093
141	0xbf700f42	-0.9377328
142	0xbf3fd048	-0.74927187
143	0xbe9ae28c	-0.30250967
144	0x3e81b359	0.25332144
145	0xbcdd4228	-0.027009085
146	0xbe3b82ee	-0.18311664
147	0x3fdd1d0c	1.7274489
148	0xbeee70d6	-0.46570462
149	0x3ec6fc23	0.3886424
150	0x3e9dff88	0.30859017
151	0xbe810444	-0.25198567
152	0x3ed99476	0.4249608
153	0xbe9a240a	-0.3010562
154	0xbee91afd	-0.45528403
155	0x3f690ea7	0.9103798
156	0x3eebae40	0.4603138
157	0x3e293c88	0.16526997
158	0x3e4307f9	0.1904601
159	0xbeab335a	-0.33437616
160	0xbf566c31	-0.83758837
161	0x3ee3ca7a	0.44490415
162	0xbf098b91	-0.53728586
163	0x3e8f008b	0.27930102
164	0xbde99768	-0.114058316
165	0x3ed2e9c5	0.41193977
166	0xbeb951b9	-0.36195162
167	0x3e226bff	0.1586151
168	0x3eb2aaf6	0.34896058
169	0x3f465792	0.7747737
170	0x3f3053c8	0.6887784
171	0x3f44f1bf	0.76931375
172	0x3ea33c63	0.3188201
173	0x3e050ade	0.12992427
174	0x3f76ebed	0.96453744
175	0xbe211001	-0.15728761
176	0xbe6c389e	-0.23068473
177	0x3f997424	1.1988568
178	0x3e5be5d3	0.2147439
179	0x3e3da31f	0.18519257
180	0x3ea26718	0.3171928
181	0xbe844a74	-0.25838053
182	0x3e59db3c	0.21275038
183	0x3e90f38e	0.28310817
184	0x3d98e998	0.074664295
185	0xbef32334	-0.47487795
186	0xbec5a30a	-0.3860095
187	0x3f12a08b	0.5727622
188	0xbea22d9c	-0.31675422
189	0x3d3af5f2	0.045644708
190	0x3e8c722e	0.27430862
191	0xbe5c05f0	-0.2148664
192	0x3f23b72c	0.63951373
193	0xbde5c3a9	-0.1121896
194	0xbeb7d02e	-0.35901016
195	0xbed02e76	-0.40660447
196	0x3dbc837a	0.09204765
197	0xbe46fae8	-0.1943165
198	0xbea47cf9	-0.32126597
199	0xbde2b76e	-0.11070143
200	0x3e24959e	0.160727
201	0x3c3f91ea	0.0116925035
202	0xbe3ac73b	-0.18240063
203	0xbe957db0	-0.29197454
204	0xbebbf34d	-0.3670906
205	0x3ee1b149	0.4408057
206	0xbe9f0b69	-0.31063393
207	0xbf59782d	-0.84949
208	0x3f1881aa	0.5957285
209	0x3eb5a7d6	0.3547961
210	0xbec8a653	-0.39189395
211	0x3f06c500	0.5264435
212	0xbe5e85ed	-0.21730776
213	0x3caaf798	0.020870015
214	0xbd6f6904	-0.05844976
215	0x3cb0951b	0.021555474
216	0xbe38b4df	-0.18037747
217	0x3e4c29d6	0.19937834
218	0xbe5ed92c	-0.21762532
219	0xbdbb2d08	-0.091394484
220	0x3f22f450	0.6365404
221	0xbf325398	-0.69658804
222	0xbe98950b	-0.2980121
223	0xbefd8801	-0.49517825
224	0x3ef5ed07	0.480324
225	0xbe405368	-0.18781817
226	0x3efe9d21	0.49729255
227	0xbe7d8cb3	-0.24760704
228	0xbf11c902	-0.5694734
229	0x3e74a848	0.23892319
230	0xbeea0d9f	-0.45713517
231	0xbeb52560	-0.35380077
232	0xbdad2b01	-0.08455468
233	0x3e9e6308	0.3093493
234	0xbc7ca2ca	-0.015419671
235	0x3f528462	0.8223325
236	0x3e2af244	0.1669398
237	0xbfc39e66	-1.5282714
238	0xbe3cb2c2	-0.18427566
239	0xbe8be6a5	-0.27324405
240	0x3e3a7d58	0.18211877
241	0x3f089d38	0.53364897
242	0x3e2a3016	0.16619906
243	0xbeb1e8df	-0.3474798
244	0xbe9e4b0f	-0.3091664
245	0x3cb31daa	0.02186473
246	0x3e56d145	0.20978267
247	0x3dd89873	0.105759524
248	0x3e600a82	0.21879008
249	0xbdf18bb0	-0.117942214
250	0x3f3d275f	0.738882
251	0xbca8c95d	-0.02060383
252	0xbf54b4c5	-0.8308833
253	0x3e0fdeea	0.14049879
254	0x3e50a2da	0.20374623
255	0xbe529a50	-0.20566678

rnn.weight_hh_l0 f4 [64, 64]
0	0xbd5ee212	-0.054414816
1	0x3e803e8f	0.25047728
2	0xbdce1093	-0.10061755
3	0x3d607a2a	0.054804005
4	0x3d6e7999	0.058221433
5	0xbdc55405	-0.09635166
6	0x3d386369	0.04501668
7	0x3e9018c8	0.28143907
8	0x3d650b99	0.055919264
9	0x3e1ac284	0.15113264
10	0x3cf2adfd	0.02962398
11	0x3e9d6212	0.30738884
12	0x3ebc5c9c	0.36789405
13	0x3df0ec64	0.11763838
14	0x3f07d0a4	0.53052735
15	0x3d2ff326	0.042956494
16	0xbeb88e7f	-0.36046216
17	0xbde4afce	-0.111663446
18	0x3d771f3c	0.06033252
19	0xbd81288e	-0.06306563
20	0xbdfb5033	-0.12271156
21	0xbe2fd4ab	-0.1717097
22	0x3e7d4537	0.24733435
23	0x3d677107	0.056504276
24	0x3ee922ab	0.45534262
25	0x3e7106f0	0.23537803
26	0x3e759927	0.23984204
27	0x3e9edf8b	0.31029925
28	0xbe86e938	-0.26349807
29	0x3e019890	0.12655854
30	0x3dd4077f	0.10352992
31	0x3d85bd85	0.065302886
32	0xbcd764a5	-0.026293108
33	0x3e0bf6a8	0.1366831
34	0xbdf9a247	-0.12189155
35	0xbe6ce910	-0.23135781
36	0x3e201a72	0.15635088
37	0xbe8a6630	-0.27031088
38	0xbdf22781	-0.11823941
39	0xbc6854de	-0.01418039
40	0x3d38016e	0.04492324
41	0x3e262530	0.16225123
42	0x3ddcc10d	0.10779009
43	0xbe45ab55	-0.19303639
44	0xbc97e247	-0.018540515
45	0x3e4322cf	0.19056247
46	0xbdcc0dda	-0.099635795
47	0xbb74967c	-0.003732114
48	0x3e84b944	0.25922596
49	0x3d86b4d5	0.0657746
50	0xbe3764bd	-0.17909522
51	0x3d152f06	0.0364218
52	0x3d882fc4	0.066497356
53	0x3d822393	0.063544415
54	0xbe41dc0b	-0.18931596
55	0xbe467be6	-0.19383201
56	0xbe53b838	-0.20675743
57	0xbd1da48a	-0.038486995
58	0x3e60335f	0.21894597
59	0xbe166f10	-0.14690804
60	0x3d968c41	0.0735097
61	0xbeb8ff91	-0.36132482
62	0x3e31fc43	0.17381386
63	0xbcb2f7ec	-0.021846734
64	0xbe752acc	-0.23942107
65	0x3e290e7e	0.16509435
66	0xbd1123c1	-0.03543449
67	0xbed6516a	-0.4185899
68	0x3ef69403	0.481598
69	0xbc302556	-0.010751089
70	0x3c654881	0.013994337
71	0xbe304e10	-0.17217278
72	0xbdb2b9a1	-0.08726812
73	0x3e0e729c	0.13910908
74	0xbe9bf079	-0.30456904
75	0x3e1dab6a	0.1539742
76	0xbe311fc5	-0.17297275
77	0x3d8e1fb7	0.06939643
78	0x3e72b312	0.23701122
79	0xbe983a78	-0.29732108
80	0x3f06b467	0.5261902
81	0x3cb52237	0.022111041
82	0x3dbad431	0.091225035
83	0x3edc1f09	0.42992428
84	0x3e99b2f7	0.30019352
85	0x3eaaafbd	0.33337203
86	0xbdf4a84f	-0.11946165
87	0x3dcea8ac	0.10090765
88	0xbcae0494	-0.021242417
89	0x3e01f35d	0.12690492
90	0xbeaf91b0	-0.34290838
91	0x3e867e1b	0.26268086
92	0x3d8ce34f	0.06879293
93	0x3e26664e	0.16249964
94	0xbde0512d	-0.10952983
95	0xbc88f0b1	-0.016716333
96	0xbdf775ed	-0.120830394
97	0x3d07efc4	0.033187643
98	0xbe0efa68	-0.1396271
99	0xbe53b058	-0.20672739
100	0xbcf729f8	-0.03017138
101	0xbe8f9064	-0.2803985
102	0x3f083da8	0.5321908
103	0xbc5d349e	-0.013501314
104	0x3ede5671	0.43425325
105	0xbe03a398	-0.12855375
106	0xbe0ffd13	-0.14061384
107	0xbf0cce89	-0.5500265
108	0x3e8b71e4	0.2723533
109	0xbc215aa8	-0.009848274
110	0x3d83822e	0.06421314
111	0xbed619b2	-0.4181648
112	0xbdd57827	-0.10423308
113	0x3e9e19c4	0.30879033
114	0xbe304b17	-0.17216145
115	0xbe7ea2ce	-0.24866793
116	0x3df2e4ad	0.11860023
117	0x3d709f4c	0.058745667
118	0x3d9a790e	0.075426206
119	0xbe9e3278	-0.3089788
120	0xbc90e515	-0.01768736
121	0x3d4684f1	0.048466627
122	0xbe89d4c1	-0.2692013
123	0xbe158e70	-0.14605117
124	0xbcfc65fa	-0.030810345
125	0x3d694d7e	0.056958668
126	0x3e566d61	0.20940162
127	0x3e7156aa	0.23568216
128	0x3b3ef339	0.0029136671
129	0xbebe20ad	-0.37134305
130	0x3e9cd2d1	0.3062959
131	0x3e80bad7	0.25142547
132	0xbd58d7b0	-0.05294007
133	0x3e187fa3	0.1489244
134	0x3e189ba4	0.14903122
135	0xbe23839e	-0.15968177
136	0xbbb68beb	-0.0055708787
137	0xbdb316b0	-0.08744562
138	0x3ec12b66	0.37728423
139	0x3de55c6b	0.11199268
140	0xbd622ad8	-0.05521664
141	0x3e16417a	0.14673415
142	0x3d0adbf3	0.033901166
143	0x3d5d5342	0.05403448
144	0xbc8485b5	-0.016177038
145	0xbe08a9da	-0.13346043
146	0x3e3fd752	0.18734482
147	0x3d9dd946	0.07707457
148	0xbe4d15a0	-0.2002778
149	0xbde5a5f6	-0.11213295
150	0x3d99e007	0.07513433
151	0xbea334a4	-0.318761
152	0xbe81fcad	-0.2538809
153	0xbed72e52	-0.42027527
154	0x3af02005	0.001832009
155	0x3dfd4d9c	0.123683184
156	0xbba51bed	-0.0050387294
157	0xbd1d43c7	-0.038394716
158	0xbd92b424	-0.07163265
159	0xbe2d8a6a	-0.16947332
160	0xbdc6264e	-0.09675275
161	0x3d9c2405	0.07624058
162	0xbe024a96	-0.12723765
163	0xbe956cb7	-0.29184505
164	0x3e7582cf	0.23975681
165	0xbcccf078	-0.025017008
166	0xbef4f9e1	-0.47846892
167	0x3d323adb	0.04351316
168	0x3de5b904	0.112169296
169	0x3cda03d8	0.026613161
170	0x3cac3bde	0.02102464
171	0xbd75f5f9	-0.06004903
172	0x3ead7e38	0.3388536
173	0xbda997f0	-0.08280933
174	0x3e2e48a9	0.17019905
175	0x3e171fc3	0.1475821
176	0x3e5f282e	0.21792671
177	0xbedf01eb	-0.4355615
178	0x3e8542ce	0.2602753
179	0xbd4eb146	-0.05046203
180	0x3e6ef30b	0.23334901
181	0x3e0e3a13	0.13889341
182	0xbd8f0ef8	-0.06985277
183	0x3e1d7cdc	0.15379661
184	0xbec8c3b9	-0.39211825
185	0xbead207b	-0.33813843
186	0xbe49301e	-0.19647262
187	0xbe58a6f9	-0.21157445
188	0x3daa7998	0.083239734
189	0xbca5159a	-0.020151902
190	0x3e3aeb18	0.18253744
191	0xbe41d3b6	-0.18928418
192	0x3dafba9f	0.08580517
193	0xbe18f165	-0.14935835
194	0xbe04f0ad	-0.12982436
195	0x3d991ce9	0.07476217
196	0x3e2e04db	0.1699404
197	0x3e2e4700	0.17019272
198	0x3dac4a3e	0.08412598
199	0xbd6a937b	-0.057269555
200	0xbe0ec69d	-0.13942952
201	0x3da5dd57	0.08098858
202	0xbe216cba	-0.15764132
203	0xbc5ce879	-0.01348316
204	0x3dae6c7b	0.08516785
205	0xbc9cc5bf	-0.019137261
206	0x3e88474a	0.2661689
207	0xbde3c3d4	-0.111213356
208	0xbe144c4a	-0.14482227
209	0x3e694756	0.22781119
210	0x3e928d2b	0.28623328
211	0x3e2d0c5b	0.16899244
212	0x3e9cbecd	0.3061432
213	0x3c8b0fe6	0.016975354
214	0xbdb9d696	-0.09074132
215	0xbd335639	-0.0437834
216	0x3da3cdc1	0.07998229
217	0x3e46cf19	0.19414939
218	0xbcb83d96	-0.022490304
219	0x3c4806bd	0.012208638
220	0xbdd52a3b	-0.104084454
221	0x3d1c9488	0.038227588
222	0xbe1a6f0d	-0.15081425
223	0xbe299780	-0.16561699
224	0x3db14fe8	0.08657819
225	0xbccb61ee	-0.02482697
226	0x3f355ffd	0.7084959
227	0xbe72a643	-0.23696236
228	0x3e410149	0.18848146
229	0x3cd5d9ec	0.02610489
230	0xbca9b18a	-0.02071454
231	0xbd7f0db6	-0.062268935
232	0xbe98b0ca	-0.2982238
233	0x3e504def	0.2034223
234	0xbe626c8a	-0.22111717
235	0x3eea4200	0.4575348
236	0x3c38621d	0.011253861
237	0xbdc40f68	-0.09573251
238	0x3e8ac392	0.27102333
239	0x3df59d5c	0.119929045
240	0x3dfe99f2	0.124317065
241	0xbd45b330	-0.04826659
242	0x3e015ae3	0.12632327
243	0x3ca31494	0.019907273
244	0x3bfa65f0	0.0076415464
245	0xbe1b5cb2	-0.15172079
246	0xbe98514d	-0.29749528
247	0x3da67dd3	0.08129468
248	0x3e8a0b42	0.26961714
249	0xbebbe21b	-0.36695942
250	0xbd08f0b6	-0.033432685
251	0xbb002f1f	-0.0019559336
252	0xbe15cc39	-0.14628686
253	0x3ec18c3a	0.37802297
254	0xbc11559a	-0.008870507
255	0xbd03b90c	-0.032158896

actor.weight f4 [3, 64]
0	0xbcbf5af9	-0.023358809
1	0xbe451872	-0.19247606
2	0xbd8c3e83	-0.06847861
3	0xbdb23bf0	-0.087028384
4	0x3e26616b	0.162481
5	0xbecd0e23	-0.40049848
6	0x3d923887	0.07139688
7	0x3eb7294c	0.35773695
8	0x3e797ab3	0.24363212
9	0xbe1649fd	-0.14676662
10	0x3eb5bfd0	0.35497904
11	0xbd990452	-0.07471527
12	0x3e37906d	0.17926188
13	0x3c6220bc	0.01380175
14	0x3d7719c9	0.060327325
15	0x3e2f5207	0.17121135
16	0xbe4eeaf0	-0.20206809
17	0xbd82dc8a	-0.06389721
18	0x3cf5a1d8	0.0299844
19	0xbdb16387	-0.086615615
20	0xbd4939a5	-0.04912724
21	0xbcbf6bd1	-0.02336684
22	0xbd9bd4e7	-0.07608967
23	0xbce95128	-0.028481081
24	0x3e8df823	0.27728376
25	0x3d0fa12f	0.035065826
26	0xbd7219ca	-0.059106626
27	0xbe2fc67d	-0.17165561
28	0xbd9d236d	-0.076727726
29	0xba9f62b1	-0.001216015
30	0x3d9d1850	0.07670653
31	0x3f2abb0e	0.6669167
32	0x3e508459	0.20362987
33	0x3d77e1f1	0.06051821
34	0xbe6028a9	-0.2189051
35	0xbcfd395c	-0.03091114
36	0x3db64d38	0.08901447
37	0x3e1470f5	0.14496215
38	0xbc8fbec0	-0.017547011
39	0xbe0ec73c	-0.1394319
40	0x3db747e6	0.089492604
41	0x3ea55492	0.32291085
42	0x3e201513	0.15633039
43	0x3e340d1b	0.17583124
44	0x3d23b50a	0.039967574
45	0x3e43b959	0.19113673
46	0xbed18897	-0.40924522
47	0x3e0bda45	0.13657482
48	0x3d8c7279	0.068577714
49	0xbe8baf6f	-0.27282283
50	0xbd8b24a5	-0.06794099
51	0x3f2969f2	0.66177285
52	0xbdb070f6	-0.086152956
53	0x3daae862	0.08345105
54	0xbdc4dede	-0.09612821
55	0x3db1ed4f	0.08687841
56	0x3bb4f643	0.0055225207
57	0x3c5d7e72	0.013518916
58	0xbda549d6	-0.08070724
59	0x3e1c38ca	0.15256038
60	0x3c2cc932	0.010546016
61	0xbe8de78f	-0.27715728
62	0x3dcfe8f3	0.101518534
63	0x3e20c13f	0.15698718
64	0x3cc87a3d	0.02447235
65	0x3d6ed41f	0.058307763
66	0x3e257750	0.16158795
67	0x3e89e210	0.26930285
68	0x3d3a678f	0.045508917
69	0x3e33a482	0.17543224
70	0x3d362d23	0.04447664
71	0xbe064b3f	-0.13114642
72	0xbee36fde	-0.44421285
73	0x3e00614c	0.12537116
74	0xbe3973bf	-0.1811056
75	0xbda3e1ff	-0.0800209
76	0xbd21ad25	-0.039471764
77	0xbda5a770	-0.08088577
78	0x3e4b6d80	0.1986599
79	0xbdec255a	-0.11530562
80	0x3db244c7	0.087045245
81	0x3e8a8b18	0.27059245
82	0xbe8267ee	-0.25469917
83	0xbdc1b720	-0.094587564
84	0x3a5bb786	0.0008381534
85	0xbb90fb67	-0.0044245007
86	0xbe278d1f	-0.16362427
87	0xbcbc1fbe	-0.022964355
88	0xbdc726fe	-0.09724234
89	0xbd0875bd	-0.03331541
90	0xbea11959	-0.3146465
91	0x3e00e26c	0.12586373
92	0x3df0bc74	0.117546946
93	0xbe57ce6f	-0.21074842
94	0xbd930749	-0.07179124
95	0xbecb247d	-0.39676276
96	0xbe09f076	-0.13470635
97	0x3eabe448	0.33572602
98	0x3f66f4ff	0.90217584
99	0xbbe18f03	-0.0068835034
100	0xbefb01ff	-0.4902496
101	0xbdeaa809	-0.114578314
102	0x3e776b34	0.24161988
103	0x3b25a6e5	0.002527648
104	0x3e274aeb	0.16337173
105	0xbdb6224b	-0.088932596
106	0xbdc721eb	-0.09723266
107	0xbe0186d0	-0.12649083
108	0xbe9689c9	-0.29401997
109	0x3d02de1b	0.031950098
110	0x3dbfb2cf	0.09360277
111	0x3dd39a2f	0.103321426
112	0x3e7e517a	0.24835768
113	0x3daa7206	0.083225295
114	0xbddc74a6	-0.107644364
115	0xbeb71b8b	-0.357632
116	0x3e88a148	0.26685548
117	0xbe29db24	-0.16587502
118	0x3cfe6008	0.03105165
119	0x3ddcbac4	0.1077781
120	0x3e5186b9	0.20461549
121	0x3db2ab0f	0.08724033
122	0x3e216622	0.15761617
123	0x3def262b	0.11677202
124	0x3d80c4b0	0.06287515
125	0x3e881cf4	0.2658459
126	0x3dbadee4	0.09124544
127	0x3d61fb87	0.055171516
128	0xbdc48aa3	-0.09596755
129	0xbcbf34f2	-0.023340676
130	0xbe52f91b	-0.20602839
131	0xbde80018	-0.11328143
132	0xbdd8955c	-0.10575363
133	0xbd0bf0c3	-0.034165155
134	0xbd81d091	-0.06338609
135	0xbd67ac5a	-0.05656085
136	0x3d4860dc	0.048920497
137	0x3da61681	0.08109761
138	0xbdc7bbb0	-0.097525954
139	0x3b99a9e4	0.004689442
140	0xbd85e0e0	-0.06537032
141	0x3dd029bf	0.101642124
142	0xbd78ec44	-0.060772195
143	0xbdc414b5	-0.09574262
144	0xbe09f343	-0.13471703
145	0x3bcde773	0.0062836944
146	0x3d037b57	0.032100048
147	0x3d8899d7	0.066699676
148	0xbdcf0773	-0.10108843
149	0xbe286f71	-0.16448762
150	0x3d2ba367	0.04190388
151	0x3d89d005	0.0672913
152	0xbd0bc228	-0.03412071
153	0x3d6621e9	0.056184683
154	0x3e2299ca	0.15878978
155	0xbd6e639a	-0.058200456
156	0xbdc22314	-0.09479347
157	0x3d1b2893	0.03788049
158	0xbde40eee	-0.1113566
159	0xbd4e38c5	-0.05034711
160	0xbd806a65	-0.06270293
161	0xbdfb1e04	-0.122615844
162	0xbea51d9e	-0.3224916
163	0xbe010ada	-0.12601796
164	0x3de5a95b	0.112139426
165	0x3abc0fb6	0.0014347944
166	0xbe15d605	-0.14632423
167	0xbd16fa5f	-0.036859866
168	0xbcbe3789	-0.02321984
169	0xbd22f633	-0.039785575
170	0x3d1c381c	0.038139448
171	0x3d4f127f	0.05055475
172	0x3e0ae6d9	0.13564624
173	0xbcebcb07	-0.028783334
174	0x3dd51078	0.10403532
175	0xbdaa1a54	-0.08305803
176	0xbe532839	-0.20620812
177	0x3d9fa4ce	0.07795106
178	0x3bb1bd6b	0.0054241917
179	0xbd8a81f9	-0.067630716
180	0xbd49264c	-0.04910879
181	0xbda750df	-0.08169722
182	0xbdc7752c	-0.09739146
183	0xbcb478f5	-0.022030333
184	0x3b50d927	0.0031867714
185	0x3d83c2cb	0.06433638
186	0xbe3a8376	-0.18214211
187	0xbe057355	-0.13032277
188	0x3cc21953	0.023693716
189	0x3cc6d70a	0.02427246
190	0xbe1bf5f2	-0.1523054
191	0xbe34a128	-0.17639601

critic.weight f4 [1, 64]
0	0x39afc067	0.00033521952
1	0xbb9947ad	-0.004677734
2	0xbd8c54c0	-0.06852102
3	0xbcce4865	-0.025181005
4	0xbc7e5319	-0.015522742
5	0x3e22e361	0.1590705
6	0xbd3ac4d7	-0.045597877
7	0xbe07966f	-0.1324098
8	0x3d0e8f13	0.034804415
9	0x3da417d3	0.080123566
10	0x3d25ad16	0.04044827
11	0xbc902535	-0.017595867
12	0x3c5740c3	0.013137999
13	0xbd6d5b01	-0.057948116
14	0xbd0e9dd7	-0.034818497
15	0xbd0dc104	-0.034607902
16	0x3cd37db9	0.025816785
17	0xbd56d44d	-0.05244856
18	0x3d5a022e	0.053224735
19	0x3e0391a5	0.12848528
20	0x3c84a243	0.016190654
21	0xbd4f5d5f	-0.050626155
22	0x3d14ea17	0.036356058
23	0xbd3e23a9	-0.046420727
24	0xbd1945e4	-0.03742017
25	0x3daa05ac	0.08301863
26	0x3dc7613b	0.09735342
27	0x3cd87754	0.026424088
28	0xbc3355a2	-0.010945709
29	0x3dd60187	0.1044951
30	0xbdb673ca	-0.08908804
31	0xbe6b8880	-0.2300129
32	0x3d03950f	0.032124575
33	0xbd763a35	-0.060114104
34	0xbe52a47d	-0.2057056
35	0x3d23ddb4	0.040006354
36	0x3e952382	0.29128653
37	0xbc39c7b7	-0.01133912
38	0x3be92274	0.007114703
39	0xbd1a6876	-0.037697278
40	0x3ca0653d	0.019579524
41	0xbdbba891	-0.09163011
42	0x3d1e5271	0.03865284
43	0x3cbb314f	0.02285066
44	0x3dcc98ed	0.09990106
45	0xbd564550	-0.052312195
46	0x3d93b0b7	0.0721144
47	0xbda150aa	-0.078767136
48	0x3ca42177	0.020035489
49	0x3d08e872	0.033424802
50	0x3e5c225a	0.21497479
51	0x3dd56ad3	0.10420766
52	0x3b2bb410	0.0026199855
53	0x3cbff254	0.02343098
54	0xbd626fd0	-0.055282414
55	0xbbb0bd05	-0.0053936266
56	0x3c9cbb75	0.019132355
57	0x3d0cf602	0.0344143
58	0xbdc59935	-0.096483625
59	0xbd9b3dc1	-0.07580138
60	0xbd3a8e85	-0.045546073
61	0x3daee4dc	0.08539745
62	0x3cb2e7f4	0.02183912
63	0xbc250b07	-0.01007343
