model_params_101000/40.0_V3_0.95g_0.0rm_40bz_0.0td_1.0tds_Nonelb_Noneup_64n_50000e_10md_5.0rz_44s.pth (torch, 22912 bytes, 4 tensors)

rnn.weight_ih_l0 f4 [64, 9]
000000 a4 e8 54 3c e7 5b c1 3d 1e 88 9c bd 88 94 e4 bd
       0.012994919 0.09441357 -0.0764315 -0.111611426
000010 c7 c9 b4 3d 2c dc 8c bd d8 27 19 3f 35 8b 99 3e
       0.088275485 -0.06877932 0.5982642 0.2998902
000020 3f 08 17 3f c7 f1 80 3e 97 b5 7a 3e 12 0f fa be
       0.5899696 0.2518446 0.24483334 -0.48839623
000030 4a d5 7b 3f 46 11 bf 3c 7f cc 9e 3e 45 fe ee 3e
       0.9837233 0.023323666 0.31015393 0.46678367
000040 ad b5 b3 3b ef 05 4b 3f 66 a7 b6 be 49 7f 97 3d
       0.005484304 0.7930593 -0.3567459 0.073973246
000050 dc 40 55 3f cb 9c 72 bf de 27 ae be 55 69 88 be
       0.8330209 -0.947705 -0.3401479 -0.26642862
000060 08 4d 41 3c 15 0c 03 be b3 32 20 3d 72 7d a6 bd
       0.011798151 -0.12797578 0.03911085 -0.081293955
000070 93 f6 62 3d 5e 9e f4 bd 6c 8d 1c 3f c1 1d 8c 3d
       0.055410933 -0.11944269 0.6115329 0.068416126
000080 9d fa 09 3f 50 c9 e5 be 54 6b 72 3e 5e 9f 07 bf
       0.5389803 -0.44880152 0.23673755 -0.5297755
000090 0c 45 97 bd 2b 27 54 3e e6 52 8a bd 77 44 be be
       -0.073862165 0.20718066 -0.06754093 -0.3716161
0000a0 a5 37 ad bd 38 db 3a 3e a4 af 26 3e 6e 62 65 3e
       -0.08457879 0.18247688 0.16277939 0.22400829
0000b0 2a b7 e6 be 67 89 34 3f 07 9b cd bc 12 43 5f be
       -0.45061618 0.7052216 -0.025098337 -0.21802929
0000c0 aa 70 4d be e1 ac 51 bf f2 a5 c3 bd cf 67 5c be
       -0.20062509 -0.8190442 -0.09553136 -0.21523975
0000d0 02 72 6d 3d 28 fc fa 3e a2 56 f0 3e 4c 9c a8 be
       0.057970054 0.49020505 0.46941096 -0.32931745
0000e0 54 b4 11 3e a4 85 f8 3e 45 bc 7d be 81 e2 df bd
       0.14228946 0.4853946 -0.2477885 -0.10931874
0000f0 8c 8e 82 3c 28 65 03 3e d1 9f 27 3c a6 64 5c be
       0.015937112 0.12831557 0.010230974 -0.2152277
000100 04 2d 4e bf fc 59 d5 be 53 31 8f 3f 5f 09 1c 3e
       -0.8053744 -0.41670215 1.1186928 0.1523795
000110 17 88 35 3e ea 30 cd bc 2a a3 82 3e 83 72 75 3d
       0.17727695 -0.025047738 0.2551511 0.05992366
000120 69 28 67 be 05 a6 e9 be 37 7a 55 3e ef 61 27 3f
       -0.22574009 -0.45634475 0.20847403 0.6538381
000130 09 f2 48 3f bc b1 1b 3d de 28 4a bd 0d b8 5e 3e
       0.78494316 0.038011298 -0.04935538 0.21749897
000140 e3 2b 5b be 9b 0d 1f 3e 63 72 87 be b2 b1 e7 be
       -0.2140346 0.15532534 -0.26454458 -0.45252758
000150 41 41 aa bf dd 0f 1b be 39 5e c4 be 90 7c 99 3e
       -1.3301164 -0.1514277 -0.38353136 0.29977846
000160 e0 6d 6a 3e ac 9d 26 3e b2 f5 dc 3e fe 33 a0 3d
       0.22893476 0.16271085 0.431562 0.07822417
000170 82 ce 3d bf e6 8a c2 3f 5d fc 03 bf f2 93 18 3e
       -0.7414323 1.5198638 -0.5155695 0.14900187
000180 65 cc 0a be 37 27 74 3e 3e 93 fa bd 46 e8 b7 be
       -0.13554533 0.23843084 -0.122351155 -0.35919398
000190 37 04 23 bf 22 0a 82 3e 22 5c 5e 3d db 52 fb 3d
       -0.63678306 0.25398356 0.054287083 0.12271663
0001a0 2f 6e 07 3d 37 0d bc bb 26 3d 1e 3f 9b 76 68 3f
       0.033064064 -0.00573888 0.61812055 0.9080598
0001b0 e5 19 01 3f bd 0b f2 3e 7b 83 38 be d4 94 76 bd
       0.50430137 0.4727458 -0.18018906 -0.060200527
0001c0 b3 c7 89 3e fb 04 9d 3e e2 78 83 bc a2 08 0b 3d
       0.2691017 0.30667862 -0.016048852 0.03394378
0001d0 d2 0c 45 3f 2e c8 87 3e 5a 3a bb be 4b 92 d6 be
       0.7697269 0.26519912 -0.36567956 -0.41908488
0001e0 bd 8c d0 3f 57 e3 88 bf 1a 2e 56 3f d3 c5 03 be
       1.629295 -1.0694379 0.83664095 -0.12868433
0001f0 b3 e4 0e be 0e 0f 58 bd 7a 46 88 3d 39 b6 fb 3e
       -0.1395443 -0.052748732 0.06654067 0.49162462
000200 82 4b bd 3d 49 c1 21 bf 98 3c 40 3e 67 ef 2a 3d
       0.092429176 -0.63185555 0.18773115 0.041732218
000210 fb 1b 6c be eb d0 d0 3e 00 95 1f be 36 24 30 3f
       -0.23057549 0.40784392 -0.15584183 0.68805254
000220 e7 b9 80 be 74 62 7a 3e f1 ae 9c bd 4c aa 0e be
       -0.25141832 0.2445162 -0.07650555 -0.1393215
000230 bc 62 90 bd b6 96 ce be 7f fe fb 3c 22 ec 2d bd
       -0.07050082 -0.40349358 0.030761002 -0.042461522
000240 98 ad 14 3e d8 aa 11 3f 9b 82 cc 3d 11 9a a5 3e
       0.14519346 0.5690131 0.099858485 0.32344106
000250 cb e8 9f bc 80 ea a7 be 15 32 af be 33 cd 69 be
       -0.019520184 -0.32796097 -0.34217897 -0.22832184
000260 70 09 2a 3f 07 8a 69 be 0e a8 22 bc 17 ec 38 3e
       0.6642065 -0.2280656 -0.009927763 0.18058811
000270 08 d9 3c bf 72 9b 95 3e 07 64 c5 be 17 7c 31 bf
       -0.73768663 0.29220158 -0.38552877 -0.6932997
000280 71 ca 54 be a0 36 0b 3e 3e 6d ba be 44 7e e5 3e
       -0.2078035 0.13595057 -0.3641147 0.44822896
000290 b3 9c 74 be b7 ab 9d 3f d8 d4 6c be 02 75 33 3c
       -0.23887901 1.2318028 -0.23128068 0.01095319
0002a0 a5 6f 06 3f bd 90 ae 3e 0e 6c fe be bf 8d 01 3f
       0.52514106 0.34094802 -0.49691814 0.5060691
0002b0 f5 7a 95 3e 24 fb bf be f1 53 19 3f 76 c0 d8 3e
       0.2919537 -0.37496293 0.5989371 0.42334336
0002c0 c9 01 22 be f8 67 f9 3d ec 1a af 3e 2b 2e 81 bd
       -0.15820993 0.121780336 0.34200227 -0.06307634
0002d0 6e 6d 41 be eb 9d 87 3e 3a 35 2e bf d6 e5 cd bf
       -0.188894 0.2648767 -0.6804997 -1.6085765
0002e0 2e 64 95 3e 89 d3 fd be 6e e0 72 3d 6b cb 83 bd
       0.29177994 -0.4957545 0.059296064 -0.06435283
0002f0 c4 79 82 3e 50 90 8f bd 1f ee d2 be bd 29 07 3e
       0.25483525 -0.07009947 -0.41197297 0.13199516
000300 12 75 85 be c3 9f 2a bd 00 21 b9 3d c8 d2 be be
       -0.2606588 -0.041656267 0.090394974 -0.37270188
000310 40 6a cc be 0e 64 f8 3d 17 47 31 3d 6a 10 ac 3d
       -0.39924812 0.12128459 0.043280687 0.08401568
000320 d3 0a f1 bb b0 8d 32 bf 83 ba e7 be b4 88 59 bd
       -0.0073560267 -0.6974745 -0.45259485 -0.053108886
000330 6a 18 90 3e fa 7b 10 be 0a e9 69 3e 49 34 07 bf
       0.28143626 -0.14109793 0.22842804 -0.52814156
000340 de 85 39 bf 47 5d 9b be c6 fc 36 bf 4b bd f4 3d
       -0.7246989 -0.30344602 -0.7147945 0.11950167
000350 4c 2b ac be 71 84 af 3d 69 b6 9c 3e fe 4b 1f 3f
       -0.33626783 0.08570183 0.30607918 0.6222533
000360 41 fe be 3d 6a 49 cc 3e 1e 87 c4 3d 4f 85 68 3f
       0.09325839 0.3989976 0.09596084 0.9082841
000370 60 42 9c bd b7 dc 98 3e b1 78 f2 3e fd de 90 be
       -0.076298475 0.29855892 0.47357705 -0.28295127
000380 43 c9 66 3e a2 b7 f7 3d b6 e1 10 be 62 0b 64 3d
       0.22537713 0.12095572 -0.14148602 0.055674918
000390 32 e4 a4 3e 63 bb 84 3e b1 8e 87 3e a6 e7 82 be
       0.3220535 0.25924215 0.26476052 -0.2556736
0003a0 56 25 28 3f 52 2c d0 3d f2 a9 07 3f af 3e ca bd
       0.6568197 0.101647034 0.5299369 -0.09875237
0003b0 bb a5 dc 3d 79 b0 1a 3f 65 a6 da 3c 17 c9 81 3e
       0.10773798 0.60425526 0.026690671 0.25348732
0003c0 71 58 cb be ec b2 c2 be d4 59 4d 3f 55 8b 1d bf
       -0.39715913 -0.38027132 0.8021519 -0.6154073
0003d0 86 74 f9 3e 4a ec dd be 39 74 47 bf 92 a4 dd 3d
       0.48721713 -0.43344337 -0.77911717 0.10822405
0003e0 0c fd 59 3e f5 d2 8d bd 56 8e c5 3a 9c c9 03 bd
       0.21287936 -0.069250025 0.0015072327 -0.03217469
0003f0 a8 cd 9c 3e 61 25 f6 be ce 31 fa 3e 4c 17 b9 be
       0.30625653 -0.48075393 0.48866123 -0.36150587

rnn.weight_hh_l0 f4 [64, 64]
000000 0b 62 b8 bb 0f ad 20 be a0 6a 9f 3b 1b 46 7f be
       -0.005626922 -0.15691017 0.0048650056 -0.24929087
000010 5d 48 86 be f4 3f 46 be 62 ef 8a be 5a e1 c3 3b
       -0.26227084 -0.19360334 -0.2713576 0.0059777917
000020 47 1b 64 3e 08 f5 ae 3d 04 78 60 be 97 09 8f be
       0.2227603 0.0854283 -0.21920782 -0.27937004
000030 59 19 2f 3d e7 0e 8a 3d bb 28 34 bc 9f 23 ec 3e
       0.042748783 0.06741124 -0.010996039 0.46120927
000040 19 57 82 be 6e 43 4c bc aa bf d3 bb 04 99 1b be
       -0.25457075 -0.012467248 -0.006462057 -0.1519509
000050 bd 9a ef bc 48 fe d4 3e 4e d6 a9 3b ec bc cf 3d
       -0.02924859 0.4160025 0.005183018 0.10143456
000060 93 3d 5f be 4b 1e 42 be 7e 36 0a be 8a 9c 46 be
       -0.21800832 -0.18956868 -0.1349735 -0.19395652
000070 db 13 90 3c 41 36 8a be 53 af ca 3d 5c 4a 94 3c
       0.017587593 -0.26994517 0.09896722 0.018101864
000080 ca 10 fb bd d4 62 1c 3d 5d e5 3e be ee 53 85 be
       -0.12259062 0.038180187 -0.18642183 -0.26040596
000090 45 18 58 3d 52 0f b2 3e c4 d5 41 3e 91 2d 6f be
       0.05275752 0.34777313 0.18929201 -0.23357226
0000a0 14 82 df 3d 8b ed 92 be 81 a4 26 bd 9a d1 5b 3e
       0.10913482 -0.28696856 -0.040684227 0.21466675
0000b0 ad 72 85 bd 09 9b 8d be 97 80 95 be 63 fc d6 be
       -0.06516013 -0.27657345 -0.2919967 -0.4198943
0000c0 c8 4b 6b bc b9 f3 fd bd a7 7f 71 3d 03 41 aa 3d
       -0.014361329 -0.12400002 0.05895963 0.08313181
0000d0 9b 64 0e bf 4e fd f5 3d 54 91 16 be 9d 2b 2b 3d
       -0.5562226 0.12011205 -0.14703876 0.04178964
0000e0 31 87 eb bd 0c f9 6a bd 62 97 22 3c 26 b8 02 bd
       -0.11500395 -0.057366416 0.009923788 -0.0319139
0000f0 56 2c a9 be 2e f6 42 bd bb 22 a4 3d c0 2c 09 bd
       -0.33041638 -0.047598056 0.08014437 -0.033489943
000100 5e 4c 64 3c d5 94 bb 3d ff 2d 79 bc ec 81 aa 3c
       0.013934223 0.09159247 -0.01520872 0.020813905
000110 c7 e2 bf 3d f7 bf 9c be dd 62 d4 3d 2e 42 77 bc
       0.09369426 -0.30615208 0.10370419 -0.015091462
000120 17 80 37 3e c0 9a 20 3e f2 77 f6 3e f9 c7 d4 bd
       0.17919956 0.15684032 0.48138386 -0.10389704
000130 0d 63 fc be bd da 25 3d e2 48 43 3e d2 54 9e bd
       -0.4929432 0.04049181 0.19070771 -0.07731022
000140 fd 70 aa 3d 6c 4c 85 be 52 52 f5 3d 3b ff 2a 3e
       0.08322332 -0.26034868 0.11978592 0.16698925
000150 fd 65 44 be 4a 60 a6 3e ff 7d 21 3e dd 38 fb bc
       -0.1917953 0.32495338 0.1577072 -0.030666763
000160 a3 2f 09 3e 87 dc 04 3f e8 3d 4c 3e 5a 44 0f 3e
       0.13397078 0.51899 0.1994549 0.13990918
000170 99 b3 2e 3e 8b 4b d2 3b 6e d6 05 3e 33 72 63 3e
       0.17060699 0.006417697 0.1307008 0.22211532
000180 dd d1 57 3e f4 34 b4 3d 14 e9 19 3c ee c0 a4 3e
       0.2107615 0.087991625 0.009393949 0.32178444
000190 90 df c7 3d 59 5f b8 bd bb e6 d9 3e 7e 4b f4 bd
       0.09759438 -0.09002561 0.42558846 -0.119284615
0001a0 04 f6 63 3e bc ea 80 bd b7 84 27 be ee 23 b9 bd
       0.22261816 -0.06294772 -0.1635922 -0.09040056
0001b0 95 0a 05 3d 31 8d 44 be 88 3e 94 3e e2 20 a2 3e
       0.032480795 -0.19194485 0.28953958 0.31665713
0001c0 44 d6 85 be ab c2 08 be bd 7a de bd 66 6a d7 be
       -0.26140034 -0.1335551 -0.10863254 -0.42073363
0001d0 a9 8b bc ba 69 46 8c bd 01 b3 b8 be 79 21 e3 3d
       -0.0014384884 -0.06849367 -0.3607407 0.11090369
0001e0 1c 79 cb bd 9b cc 82 3d b5 c1 24 be 1a 3d 1f 3e
       -0.09935209 0.06386682 -0.16089518 0.15550652
0001f0 47 57 5f 3c 38 6f e6 bd bf bf 17 be 2f b8 2c be
       0.013631648 -0.11251682 -0.14819239 -0.16867135
000200 97 1c ec bd 31 29 32 3e d5 59 1d be e6 06 2d be
       -0.115288906 0.17398526 -0.153663 -0.16897163
000210 d0 eb ee 3c ce 27 a5 3d e1 0f a0 be a7 0f 83 be
       0.029165179 0.08064233 -0.31262115 -0.2559788
000220 74 7e 4a bd a0 3a af 3d ba f2 1f be 82 53 ca bc
       -0.049437 0.08556104 -0.15619937 -0.024698023
000230 8b c0 40 bd 75 dd 5c be ce 68 d6 3d 74 02 86 3c
       -0.047058623 -0.21568854 0.10469209 0.016358592
000240 59 99 8b be 4f 00 9f 3e ac d3 af 3d 33 3a 16 bf
       -0.27265432 0.31054923 0.08585295 -0.58682555
000250 f1 60 7e 3e df 5f 08 be 7c 25 81 be 37 ae c6 3d
       0.24841668 -0.13317822 -0.2522391 0.097011976
000260 82 1b c4 be 88 11 2b 3e cb 33 a4 bd ed bf 07 be
       -0.38302237 0.16705906 -0.08017691 -0.13256808
000270 8f d5 90 bd 8a d1 8e be 25 42 33 be eb 19 9f 3e
       -0.07071983 -0.2789424 -0.17505701 0.3107446
000280 0f 98 b9 bd 92 7b b3 bd 09 e5 5e 3e c3 4d ca 3d
       -0.09062206 -0.087638035 0.21767057 0.09878113
000290 4f c2 87 3e 3c 7d db bd 34 be 7a be fa a5 5e 3d
       0.26515433 -0.10717246 -0.24486619 0.054357506
0002a0 7a cb 5d 3e a9 42 09 be c1 c9 ac 3e 5b 0f 73 bd
       0.21659651 -0.13404335 0.33747676 -0.059340816
0002b0 42 e5 25 3e 66 29 0b 3e 38 f3 ee 3c af 6d b7 bc
       0.16200736 0.13590011 0.02916871 -0.022391168
0002c0 d2 d7 6c 3e 9c c1 7b be 5e 64 2d 3e fe c7 1c be
       0.23129204 -0.24585575 0.16932818 -0.15310666
0002d0 f3 6c b1 3e d5 ae e8 3d 00 32 ec 3c 1c 98 63 be
       0.34653434 0.113614716 0.028832436 -0.22225994
0002e0 8f d8 1b be 80 99 50 3e 20 e6 a0 3e 47 75 1c 3c
       -0.1521933 0.20371056 0.3142557 0.0095494455
0002f0 79 55 c9 3e 52 d5 69 bc 94 07 f0 3d ec ca b7 bd
       0.39323023 -0.014272051 0.117201954 -0.08974251
000300 35 b5 67 3d ca 85 bf 3d 47 de 11 3f f1 91 fa 3d
       0.056569297 0.0935169 0.56979793 0.12234867
000310 b9 06 ac 3d 72 58 84 3e ec 04 b8 be 37 ce 03 3d
       0.0839972 0.25848728 -0.35941255 0.032179084
000320 50 de f7 3e 8c 5a 36 3d 1b dc 69 be a4 a4 9b 3e
       0.48411798 0.044519946 -0.2283787 0.30399048
000330 4a e9 8f be e0 bc 06 be bc 17 3d 3d 99 66 9f bd
       -0.28107673 -0.13157988 0.046165213 -0.07783241
000340 0b 56 8c be a6 e7 24 be 1e 7d 48 3e 1b ad 58 3e
       -0.27409396 -0.16103992 0.19578978 0.21159784
000350 00 67 04 3e 33 34 07 be 10 38 5e 3d ed 44 8c 3d
       0.12929916 -0.13203506 0.054252684 0.06849084
000360 28 36 71 3c c1 01 90 3d 99 fa b5 3e 52 ea 3c 3e
       0.0147223845 0.070315845 0.35542753 0.18448761
000370 c0 28 2c 3e 09 73 82 be 13 c3 01 3e a9 d9 ec bd
       0.1681242 -0.2547839 0.12672071 -0.11564953
000380 0c 59 2a 3e f7 be 39 3e f8 3f ec bd 53 60 86 be
       0.16635531 0.18139254 -0.115356386 -0.26245365
000390 ef d0 87 3e 9f 0a ce 3c 54 ea ba bd 08 fc 80 3e
       0.2652659 0.025151549 -0.09126726 0.25192285
0003a0 92 f8 48 be 70 79 8a bd f2 0e d5 3c 9d e2 95 be
       -0.19626072 -0.067614436 0.026008103 -0.29274455
0003b0 01 4c 5c 3e 7e 18 04 be 39 7f 9d 3d e5 72 d0 3c
       0.21513368 -0.12899968 0.076902814 0.025445411
0003c0 49 2d 90 bd e8 15 1a be 15 04 0d 3e 81 04 43 3d
       -0.070398875 -0.15047419 0.13771088 0.047611717
0003d0 dd c2 49 3b ec 43 03 3d d5 3a be 3e 90 16 41 3e
       0.0030786314 0.032047197 0.3715426 0.18856263
0003e0 bf 3c 86 3e f5 f1 2b 3d cb cf 07 be bc 54 1a bd
       0.2621822 0.041978795 -0.1326286 -0.037678465
0003f0 d6 f0 39 be d3 91 8a 3e 0d f3 38 3e 09 92 75 3e
       -0.18158278 0.2706438 0.18061467 0.23981489

actor.weight f4 [3, 64]
000000 56 b0 4c be d2 be 87 be 25 3e 4b 3e ae 54 36 bd
       -0.19989142 -0.26512772 0.19847925 -0.04451435
000010 c3 ec b8 bd 2e e0 2f 3e ae 40 17 be 64 dd b9 be
       -0.09029534 0.17175362 -0.14770767 -0.3630172
000020 fd 30 c4 3c 1a 16 54 be 2d 72 c6 be 74 80 3d 3e
       0.02394914 -0.20711556 -0.38758984 0.18506032
000030 de 09 ac be 7b 35 d7 3d f1 60 e1 3d ac 83 15 be
       -0.33601278 0.105082475 0.11004818 -0.1460101
000040 03 bc 98 3d 27 0c a8 3d a6 ae 5b be 7a dc ef bd
       0.074577354 0.08205443 -0.21453342 -0.117119744
000050 d9 51 81 3e 34 1a 8e 3d e8 7f 0b 3e ef 86 d8 3e
       0.25257757 0.069385916 0.13623011 0.42290446
000060 ec 35 1e 3d 34 73 9c be b1 b6 92 3d 24 42 b4 bd
       0.038625643 -0.30556643 0.07163752 -0.08801678
000070 8a ca 94 3d ff 59 67 3d 3c 46 d2 bd 16 42 b7 3e
       0.07265194 0.05648231 -0.102673024 0.35792607
000080 09 2a c3 bc 7e 16 2b 3c 4b 33 52 be 0c da ac bd
       -0.023823755 0.010442374 -0.20527379 -0.08440027
000090 12 ce 08 bf e7 57 2a 3d d3 da 83 be b6 14 75 3d
       -0.5343944 0.041587736 -0.25752887 0.059834205
0000a0 6b 56 bf bb 84 0c a6 3d 5d 6a af 3e b7 47 49 3e
       -0.0058391592 0.08107856 0.34260836 0.19656263
0000b0 c9 d2 10 3e 91 77 92 be f3 bc 8a 3d 3f bf a7 be
       0.14142908 -0.28606847 0.067743205 -0.32763097
0000c0 3e e5 90 3e e4 7f 9e 3d fb 4b bc bc 21 ab 06 3e
       0.28299898 0.07739237 -0.022985449 0.13151218
0000d0 e3 f6 b2 3e 9c 73 23 3d b0 60 9d 3e 40 4b 14 3e
       0.34953985 0.039905176 0.3073783 0.1448183
0000e0 43 2c 54 bd 34 cc a1 3e ad 33 89 3d fa 96 aa bc
       -0.051800024 0.31601107 0.066993095 -0.020823944
0000f0 6d 2e 7b be 29 8f 93 be 7a 44 2f 3e 04 47 1e bd
       -0.24529429 -0.2882016 0.17115965 -0.038641945
000100 d8 ae 8b 3c 83 9e 18 be 25 34 23 bc 88 a7 2f 3d
       0.017051145 -0.14904217 -0.009961163 0.04288438
000110 4e b4 11 bd 5c 17 88 3d ad f5 2a 3e a3 49 de 3d
       -0.035572343 0.066450804 0.1669528 0.10853889
000120 56 5e d6 bd 99 49 c7 bd ba cd e8 3c 6f 98 30 3e
       -0.10467212 -0.097308345 0.02841841 0.17245649
000130 a2 ad d2 bd 15 3c 90 3d 89 00 56 be b5 9e 21 3e
       -0.10287024 0.0704271 -0.20898642 0.15783198
000140 5f 1e 12 3e d8 6e f5 bd 4d c9 04 3f 4f 76 84 be
       0.14269398 -0.119840324 0.5186966 -0.25871512
000150 50 df 78 bd f4 2d 60 3e 6b a5 68 bd 3c 08 f1 bd
       -0.060759842 0.2189253 -0.05679838 -0.11769149
000160 32 2d b6 3e 88 7d 87 3e c8 f2 cd 3e 8d 7c c7 be
       0.35581356 0.2646296 0.4022429 -0.38962212
000170 65 30 d4 bd 9b 3f 0d 3e f2 25 2e 39 fa ff e5 3d
       -0.10360793 0.13793795 0.00016608069 0.11230464
000180 47 ff 4e 3e 55 92 6f 3e 75 f0 4e 3e bc c9 1a be
       0.20214568 0.23395665 0.20208915 -0.15116018
000190 f2 88 ad 3c 14 80 aa 3c bf 3f 18 3e 42 bd 2a 3e
       0.021183465 0.020813026 0.14868067 0.16673759
0001a0 3e b5 81 3e 68 3b 52 bd 0a 69 08 3e 19 67 6f be
       0.2533359 -0.051326185 0.13321319 -0.23379172
0001b0 a7 21 86 bb d5 d8 0a 3e 7c 8a 34 bd ba cb 2c be
       -0.004093367 0.13559277 -0.04407738 -0.1687459
0001c0 1d 83 78 3d 44 2a 8c 3d d6 8d 1d 3e 06 8d 69 be
       0.060671914 0.06843999 0.15386137 -0.22807702
0001d0 43 46 c7 bc 89 e4 d2 bd d4 fd 87 3c eb e1 72 3d
       -0.024325496 -0.10297496 0.016600527 0.059297483
0001e0 f1 bd 9a bd f4 1c db be f4 f8 92 3e 18 e4 a5 3d
       -0.0755576 -0.42795527 0.2870556 0.08100146
0001f0 63 cf 7b bc 61 e0 08 bf a5 8c 03 be 2a 6f 0b 3e
       -0.015369269 -0.53467375 -0.1284662 0.13616624
000200 a7 c0 c1 3d df d1 4d 3e 0c d6 99 bd ff 96 8e 3d
       0.09460574 0.2009959 -0.07511529 0.06962394
000210 fe ac 98 3d 34 98 96 bc d0 fd 51 3c d6 93 ef 3d
       0.07454871 -0.018383123 0.012816861 0.11698119
000220 8e a8 20 3d 49 b2 4b 3e a3 f4 d6 3d 50 ca 3b be
       0.039223246 0.19892229 0.104958795 -0.18338895
000230 24 40 6d 3e 82 d8 b2 bd ec 02 d0 bc bc 88 b4 3c
       0.23168999 -0.08732702 -0.025392018 0.022037856
000240 21 3e 10 be 82 d9 22 bd 32 4a 38 be ce 83 2f 3e
       -0.140862 -0.039758213 -0.17997053 0.17140123
000250 2f f5 00 be ac d1 4e be ad e0 2c bc bf f8 cb bd
       -0.1259353 -0.20197171 -0.010551614 -0.09959554
000260 a8 ed 44 be cd 6a 39 bc 2f d8 78 be da f2 66 3e
       -0.19231284 -0.011316967 -0.24301217 0.22553578
000270 a9 67 bc bc e3 4a 10 be 46 31 b1 bc d0 ca 33 be
       -0.022998648 -0.14091067 -0.02162994 -0.17557836
000280 0b 77 eb bb 88 93 05 be f8 a7 7a bd 94 3b 2b 3e
       -0.007185822 -0.1304456 -0.061195344 0.16721946
000290 a4 6f 75 3e 5d 9f 99 3c 10 3e d2 3c 66 34 e7 bd
       0.23968369 0.018752748 0.02566436 -0.11289291
0002a0 a9 91 e8 bd 6e 9e 2b bd f2 ee 7c be 3c 62 de bc
       -0.113559075 -0.041899137 -0.24700525 -0.027146451
0002b0 b6 b3 c5 bd fa 56 c9 3c e2 ab 62 bb 7b bb 63 3e
       -0.09653418 0.024577606 -0.0034587313 0.22239487
0002c0 79 9f c9 bd 42 d6 e4 bd aa d4 ab bd 93 5c c1 bb
       -0.0984487 -0.11173679 -0.08390172 -0.0059009283
0002d0 ba 9e dc bd ee 0d ba 3d b2 5c 22 be b2 a9 b3 bd
       -0.10772462 0.09084688 -0.15855673 -0.08772601
0002e0 63 2d 19 3c 30 d1 ae 3d 02 1d 40 be 5d ff 75 bb
       0.0093492 0.08535993 -0.18761066 -0.0037536242
0002f0 3b 5d 58 3e ea 1a d9 3e ec ac 2f 3d f7 2f ab bd
       0.21129315 0.42403346 0.04288952 -0.08358758

critic.weight f4 [1, 64]
000000 71 49 ad 3d 68 bf ad 3d 90 f5 a8 39 60 25 0e 3c
       0.084612735 0.084837735 0.00032226415 0.008675903
000010 2f c6 6a 3c 16 a5 63 bd 85 67 5b bc 13 a3 78 3c
       0.014329477 -0.05557736 -0.01339138 0.015175599
000020 de e3 a3 bc f2 bf 80 3d 9a c6 30 3e 01 60 f3 3d
       -0.020006116 0.06286611 0.1726326 0.11883546
000030 3f df f7 3b 07 30 8c be c0 9c 69 bd 49 28 4f bc
       0.007564455 -0.27380392 -0.057034254 -0.012643882
000040 6f 32 1a bd 6a f6 9d bc 45 de 26 be 5c 7d a2 3d
       -0.037645753 -0.019282538 -0.16295727 0.07934067
000050 70 12 d5 bd 92 42 d7 bc 82 ca 0d 3d 1b 5a ae 3c
       -0.10403907 -0.02627686 0.034616955 0.0212832
000060 e7 83 a4 bd 4b 9c 1a 3d 95 a4 f1 bd bf bc 11 3e
       -0.08032971 0.03774671 -0.1179897 0.14232157
000070 80 08 ce 3c 43 27 dd 3c 33 2b 5b 3d 6c 5e 35 be
       0.025150537 0.02699626 0.053507995 -0.177118
000080 72 5a 2a bc 9d 34 2e bd 44 54 a9 3d 25 7b 0a 3d
       -0.01039754 -0.042530645 0.082680255 0.033808846
000090 32 21 a0 3d dc 03 1d 3c 04 7a 07 bd 8c fa 44 bd
       0.078188315 0.00958344 -0.033075348 -0.048090503
0000a0 7e 5f c0 bd 32 6f 18 3c 28 f4 0b be a7 fb bb 3b
       -0.09393214 0.009303855 -0.13667357 0.0057367864
0000b0 9e 0d 1b bd d4 4b 12 3d 1b 45 56 bd 20 94 f7 3c
       -0.037854783 0.035716847 -0.052311998 0.030221999
0000c0 fc 99 8f bd c2 ad 11 bd 79 bb 1d be 58 ee aa 3c
       -0.07011792 -0.0355661 -0.15403546 0.020865604
0000d0 95 33 8d be 43 79 d8 3d 14 b0 fd bd 14 f4 d9 3b
       -0.27578416 0.10570004 -0.123871 0.006651411
0000e0 27 22 1b 3d 06 79 c9 3c f1 a8 cc 3c dd 71 bf 3c
       0.037874367 0.024593841 0.024982901 0.023369724
0000f0 d2 bc 4c 3d d7 b6 78 3e 1e 3d 24 bd fe 0b 78 3c
       0.04998476 0.24288498 -0.04009735 0.015139578
