model_params_101000/45.0_V3_0.7g_0.0rm_100bz_0.0td_1.0tds_Nonelb_Noneup_64n_50000e_10md_5.0rz_13s.pth (torch, 22912 bytes, 4 tensors)

rnn.weight_ih_l0 f4 [64, 9]
00000000: 6e63 943d 7fb4 9a3e 1540 91be fffd 303f
00000010: 9ab0 b73e 0152 483e aa0d 2f3f 04ac f43e
00000020: 88ce 0b3f e783 69bf dfc5 ffbd c670 4a3e
00000030: 65ba 93bf a861 2e3e f1d3 333c e94d 3abd
00000040: 1041 7dbe 9f38 b5be f786 65be fc65 bfbe
00000050: 7b08 9dbe e1e0 063d cf37 083e ebb2 f53e
00000060: 3485 8d3d d4af 6b3d 1bf8 8b3e f8af ba3e
00000070: a2fc aa3d bad4 5a3e b921 69bf 2101 94be
00000080: 5226 863d 545b 9bbe 6f9d 833e dc28 55be
00000090: ce11 e9bc 9f63 5cbe e2f8 e53d 037b 7bbd
000000a0: 3c07 083e 7361 893e a409 c23d fad4 093e
000000b0: 821b 393f bf1d d7be 3b67 3dbe 4e45 d1bd
000000c0: 4618 a33e 07ca dabd cd2a d5be 9340 0f3d
000000d0: bc64 34be f7bb a63e b865 613f 2e56 81bd
000000e0: f44d f4be 9a28 013d d839 463d 2ed8 6e3d
000000f0: d8d9 e63e ec36 983e d049 49be daee b5be
00000100: f180 0a3c 63cb eb3d 6cb4 293f 3e23 e23d
00000110: 458d e13c 437a a3be ef33 843e 7773 50be
00000120: 297f 43bf 81ae aabd 7790 3e3e 7786 38bf
00000130: 02bb c43e 6f62 8abe 5609 9b3e 3e42 ad3e
00000140: e9f3 213e 519a b33c 5388 b33e 8aed 2bbe
00000150: 17f9 9ebe 2d0d 413f 56b4 083f d6c5 b3bd
00000160: 8041 2f3f ca12 ba3a 74c5 b13f ede0 83bf
00000170: f5aa 9c3c 4697 4440 98e0 7ebe 9988 ce3e
00000180: 8705 eb3e 600b c03d 568b 2e3d 5392 6ebe
00000190: f189 463f 6424 e53d bd37 563e 1821 bb3c
000001a0: 1508 bb3d 9681 d4bd 1c58 033e ec18 a9be
000001b0: 556e 9e3e e37c 393f 98e7 38bd 20a8 aa3e
000001c0: 4168 f6be 1834 3c3e 0a2f 213d b64e c43e
000001d0: dca9 803d 05e4 c2be cc58 e7be d6da c9be
000001e0: d133 68bf 1427 a1be 94a6 b23d 0fae 3e3e
000001f0: 5a97 143e eea0 64be 203c f1bd 79bb bebc
00000200: 8e71 fdbd 09c0 d0bd d662 98be 56b7 0b3e
00000210: 0314 aa3e d51a 20be 2239 86be 713b ba3d
00000220: d20e 353f 00c7 413e e37c 783e 3351 6abe
00000230: 7254 913e 6fe3 1e3f 0284 da3e 1277 4abe
00000240: 759c d43e cff1 8f3d ca23 26bf 0e7c 063f
00000250: 2b01 fbbd 9bb1 00be 910c bc3e 974a 8cbc
00000260: c03e 25bd 7c5e 52bf b088 eb3e 2620 063e
00000270: 824b 79bf 86e1 a93e 73fc 4e3b 499a a0be
00000280: b75b c0be cabb eb38 dace 723e 829b 623d
00000290: 2e1e b23e 9946 1b3f 6d94 9bbe f300 203e
000002a0: 85d3 ddbe ec4e 89be 389e d4bd 389d 24bf
000002b0: 1bf8 fabe 6314 e83d 7f94 a83e afa6 913e
000002c0: 6168 17be d3a5 efbe af02 3dbf 575f 7ebe
000002d0: 9eb8 173d 006e a1bd db09 ac3e 991e a8be
000002e0: 45e9 11bf 7ab7 a83c 6e67 2439 3bc7 4f3e
000002f0: feb3 c63c 116e e33e 81aa 56bf 4804 0c3f
00000300: e279 2240 0ee2 0abf 7fb4 4c3f 6e68 b9bd
00000310: 37af 8e3e 0c73 3ebf 21bf a6be c364 f3be
00000320: b828 e5bd 0674 7fbd 0414 be3e 826c 34be
00000330: 7bf2 653e ddbc 93bd a7a0 98bd 5434 8fbb
00000340: b2e6 7b3d ec5c 9f3e 297c acbe b109 c0be
00000350: e543 af3e 5541 e2bd 479a 2cbf 9498 afbd
00000360: 42b3 9fbe cdba ec3e fc8c 66be d8d2 a73e
00000370: aef3 05bf d01c c6be 5bee d7be b008 033f
00000380: 6342 c43d f515 4b3d d029 86bd 078f ca3c
00000390: 194f b03f 7ca4 ddbe a8cc 893e 9155 77be
000003a0: fd56 cbbd 44ac e2bd 9825 0e3f 6761 583e
000003b0: 4eb7 3f3e 417d 2bbe 5063 063f 83f0 a23e
000003c0: cd82 e5be 45c8 7d3e 6cd1 75bd b74a 0cbe
000003d0: e916 23bf fc60 e03e 682d 943e 8459 a43e
000003e0: 80ee 39bd 56c5 fa3c 282c 843e 9720 38bd
000003f0: 42c6 82be 8dcf ffbe 8ffd 923e 793f 0e3e
0.07245527 0.30215833 -0.28369203 0.6913757 0.35876924 0.19562532 0.68380225 0.47787488
0.54612017 -0.9121689 -0.12488913 0.19769582 -1.1541258 0.1702944 0.010975824 -0.045484457
-0.2473185 -0.3539476 -0.22414766 -0.37382495 -0.30670533 0.032929305 0.1330254 0.47988066
0.06910172 0.05754073 0.27337727 0.36462379 0.08348967 0.21370211 -0.9106708 -0.2890711
0.06550278 -0.30343115 0.2570605 -0.20816368 -0.028450873 -0.21522377 0.11229111 -0.06139661
0.1328401 0.2683216 0.09474495 0.1346015 0.723076 -0.42014882 -0.1849641 -0.10218297
0.31854457 -0.10683065 -0.41634217 0.034973692 -0.17616552 0.3256528 0.88045835 -0.063152656
-0.47715724 0.03153286 0.048395008 0.058311634 0.45088077 0.29729402 -0.19657063 -0.35533792
0.008453594 0.11513402 0.66290927 0.11041878 0.027533183 -0.31929216 0.25820872 -0.20356546
-0.76365906 -0.08334065 0.18609796 -0.7208018 0.38423926 -0.27028224 0.3028056 0.338396
0.158157 0.02192417 0.35064945 -0.16789833 -0.31049415 0.7541073 0.5340017 -0.087779686
0.6845932 0.0014196273 1.3888383 -1.0303017 0.019124487 3.071733 -0.24890363 0.4033859
0.45902655 0.093771696 0.04261335 -0.23298006 0.7755423 0.111885816 0.209197 0.022842929
0.09132401 -0.10376279 0.1282658 -0.33026826 0.30943552 0.72456187 -0.04514274 0.33331394
-0.48126414 0.18379247 0.0393515 0.38341302 0.06282398 -0.3806459 -0.45184934 -0.3942477
-0.90704066 -0.31475127 0.087231785 0.18621086 0.14510861 -0.22327015 -0.11779046 -0.023282753
-0.123751745 -0.10192878 -0.29762906 0.13644156 0.33218393 -0.15635236 -0.26215464 0.09093369
0.7072574 0.18923569 0.2426639 -0.22882538 0.2838474 0.62065786 0.4267884 -0.19771984
0.41525617 0.07028543 -0.6489836 0.5253304 -0.12256082 -0.12567751 0.36728337 -0.017125411
-0.040343046 -0.8217542 0.46002722 0.13098201 -0.9738084 0.33179873 0.0031583577 -0.3136771
-0.37569973 0.00011240652 0.2371172 0.055324085 0.3478865 0.606546 -0.30386677 0.15625362
-0.4332544 -0.26818025 -0.1038174 -0.64302397 -0.49017414 0.113320135 0.32925794 0.28447482
-0.14785911 -0.468062 -0.7383222 -0.24841057 0.0370413 -0.07882309 0.3360127 -0.32835844
-0.56996566 0.020595301 0.0001567879 0.20290844 0.024255749 0.44419912 -0.8385392 0.5469403
2.5386891 -0.5425118 0.79962915 -0.090531215 0.27868053 -0.743943 -0.32567695 -0.47537813
-0.11189407 -0.062366508 0.37124646 -0.17619517 0.2245578 -0.07213757 -0.07452517 -0.0043702517
0.061499305 0.3112558 -0.33688477 -0.37507394 0.34231487 -0.11047617 -0.6742291 -0.08574024
-0.3119145 0.46236268 -0.22514719 0.3277805 -0.5232495 -0.38693857 -0.42174038 0.5118513
0.09582975 0.049581487 -0.06550944 0.024726404 1.3774139 -0.43289554 0.26913953 -0.24153735
-0.09928701 -0.11068013 0.55526114 0.21130906 0.18722269 -0.16747 0.5249529 0.3182412
-0.44826356 0.24783428 -0.060014173 -0.13700376 -0.63706833 0.43823993 0.28940892 0.32099545
-0.045393467 0.030611675 0.2581494 -0.044952955 -0.25541884 -0.49963036 0.28709075 0.138914

rnn.weight_hh_l0 f4 [64, 64]
00000000: ef24 d03e 00d5 933e 2b08 cdbd 2ba0 5c3b
00000010: 3899 a2be 65b8 c2be 1b78 8f3e 21f6 90be
00000020: adf5 223e 7ba3 e33c 5b19 a53e 1dc7 363e
00000030: e715 883d 72f4 3fbe 4d53 6dbd 3283 6b3e
00000040: 2ed2 133f 7d65 9fbe 4692 a83d 0374 25bf
00000050: d0be c0bd 67c2 ab3e e13c 0a3e 0595 78bd
00000060: 1a22 e43d d7f0 35bc 3263 8fbe fec6 aebd
00000070: 6bdb a33d 8762 44be 8c39 c53d 6e55 1cbe
00000080: 0053 8c3e b098 6dbe a173 2bbd 8ab3 f2bd
00000090: a611 763e 6ccb 893e c8d1 dbbb 77ce 5e3e
000000a0: 5f8e ddbd 95d2 8abe 2794 8d3e 8bda 643d
000000b0: 394d cb3e e8f0 dcbd af6e 8f3e 0082 40be
000000c0: 796b 2a3e f96a 91be da12 6abe b204 2fbe
000000d0: 27fa 953e ba34 3e3d 2d43 1b3e 5d3f 983c
000000e0: 9cb0 c83e 8b21 2c3e 7fa8 8bbe d5b5 07bd
000000f0: f322 6cbe e061 423e 2452 89be f7c3 dabe
00000100: 0f3b e13c 31d7 9ebc c528 553e 1e93 10bd
00000110: ad48 19be 9021 38bd b856 fcbd b5b5 10be
00000120: c353 ef3c 7c61 a33e b3b5 27bd 82cc e13e
00000130: de05 073e c767 b7bd 3892 413e 8dbf bc3e
00000140: 4782 92be fd01 973d 2e35 f23d 714e 8f3c
00000150: b2ca c13d a12b ff3d f271 923e 1a55 22be
00000160: 6bad 54be 0fb5 e6bb 4cf1 28be 5ccc 1f3e
00000170: 77e2 60be 55bc 483d c844 90be 9ca3 193e
00000180: 1644 babd 8318 4d3e dcd7 733d de63 5b3e
00000190: 4aec 69bd ec93 c33d a40a 14bd e028 23bc
000001a0: 9ff9 443e 704a 133d 6d91 c9bc 35a4 0bbe
000001b0: 0c99 f03d d2e8 0cbe e274 3f3e 4112 0abe
000001c0: b3f4 7dbe d60f 093e 3a07 7e3e 33c8 703c
000001d0: 4261 d23d 209e d7bd 8e92 493e 5d5c 493e
000001e0: f490 80be dd6c 0d3e bbd4 f63d e1a7 87be
000001f0: 1046 b93e 7174 58bd cabe 8fbe f54e 1d3e
00000200: 366f 32be 216a 2a3f 7e72 833c b8d7 f53a
00000210: 44b9 59bd 285d f7bd cd5a 023e 36cc 6bbe
00000220: bf71 e9bd 8c10 fabc f931 893e 7473 bf3e
00000230: 5f74 993e 695c c4bd 4918 0a3f 6f0c c23d
00000240: ad76 3fbe a74d 963d 3ecd a43d fb87 d03d
00000250: 19cd 4dbe b129 523e 4667 403e aca9 9e3e
00000260: 0bf5 55bd 048c eebe 0031 a13d a730 9dbd
00000270: f218 233e 42f6 37be 1bcb 993c c35d bcbd
00000280: 5b17 3c3e 97f3 88bd 621a fbbe 704d 3c3b
00000290: f680 64bd fa45 06bd 17bc 713e 91ce e6bc
000002a0: 0ef2 dabd 6afa 2abc d89a 96be cbb3 91bd
000002b0: 2ac2 a4be 963a 443e d7ad f7bd 5027 b33d
000002c0: 60d1 2f3d eaf6 cbbd 4960 853c 3c2b 1ebe
000002d0: 0847 ed3a cd38 c5bd 9f53 67bd 4675 bfbd
000002e0: 8f34 983e 4d79 823e 295b 7fbe be2c 1e3e
000002f0: e86a d0be e688 0fbe 0bf0 4fbe 22d2 55be
00000300: 8868 4d3e f0c3 e43d 60d9 e0bd 5988 61be
00000310: b4a3 b73d 2b72 543e 0b31 a93a 121a 57be
00000320: 2538 20be b20a 01bf 4459 57bd 328f 183e
00000330: b260 bd3b ea8e 9c3e 1887 e4be 1a4f 6f3d
00000340: 882f 753e b158 173e 88d7 c63d 95bb 76bd
00000350: b252 593e e2b4 12be 9083 833e 7e44 c7be
00000360: 2b4d 2c3e 7ab0 49be c253 203e db16 943c
00000370: 3596 2ebe d3aa 82bd 5ef5 ffbe e1b9 893d
00000380: 362d 9a3e c446 b9be 6bd5 49bd 3a8c dcbd
00000390: 0aa1 dbbd dd37 813e a37b cabd 829e 09bd
000003a0: 74a4 363e 1a14 cbbd fb4e 613e 8ea8 d33d
000003b0: 0c04 1dbd 5edb c4be a284 ca3e cdc5 703e
000003c0: e854 22be d26a 193d 51c8 debe d67f 2cbe
000003d0: 8cac 25bd 9f8d 2d3e b8a6 3b3d 440b 3b3d
000003e0: cecf 8c3d 140f acbe fd7d a33d 9775 bfbe
000003f0: 4ab3 4b3e cde1 8bbc db58 633e 65f0 48be
0.40653178 0.28873444 -0.100113235 0.0033664803 -0.31757522 -0.38031307 0.2802132 -0.2831278
0.1591403 0.027787914 0.32245907 0.17849393 0.066448025 -0.18745592 -0.05794077 0.22999266
0.57742584 -0.31132117 0.082310244 -0.64630145 -0.094113946 0.33546755 0.13499786 -0.06068899
0.11139317 -0.011104784 -0.28005368 -0.085340485 0.08000835 -0.1917821 0.09630117 -0.15266964
0.27407074 -0.23202777 -0.04185832 -0.118506506 0.2403017 0.2691301 -0.0067083575 0.21758448
-0.10818171 -0.27113786 0.27652094 0.05587248 0.39707354 -0.10788137 0.28014132 -0.18799591
0.1664256 -0.28401926 -0.22858754 -0.17091635 0.29292414 0.046437003 0.15162344 0.018584901
0.39197242 0.1680967 -0.2727699 -0.033132393 -0.23060207 0.18982649 -0.2682048 -0.42727634
0.027493982 -0.01938972 0.20816334 -0.035296552 -0.1496913 -0.044953883 -0.12321228 -0.14131816
0.029214745 0.31910312 -0.040944766 0.4410134 0.13185832 -0.08955341 0.18903434 0.36864892
-0.2861502 0.07373426 0.118265495 0.017493458 0.09462489 0.124594934 0.28602558 -0.15852776
-0.20769279 -0.007040627 -0.16498297 0.156053 -0.2196139 0.049007732 -0.28177476 0.15003818
-0.090950176 0.20028882 0.05953203 0.21424815 -0.05711011 0.09549698 -0.03614296 -0.009958476
0.19235848 0.03595966 -0.024605477 -0.13636859 0.117479414 -0.13760689 0.18696931 -0.13483526
-0.24800377 0.13384947 0.24807444 0.014696169 0.10272457 -0.10528207 0.19684812 0.1966414
-0.2511059 0.1381106 0.12052294 -0.2649527 0.36186266 -0.052845422 -0.28075248 0.15362151
-0.17425236 0.6656819 0.016045805 0.0018756306 -0.0531552 -0.12078315 0.1272995 -0.23027119
-0.113986485 -0.030525468 0.2679594 0.3739277 0.29971597 -0.09587938 0.53943306 0.09475028
-0.18697615 0.0733903 0.08046959 0.10182186 -0.2009777 0.20523717 0.18789396 0.30988824
-0.052235644 -0.46591198 0.07870674 -0.07675295 0.15927485 -0.17965034 0.018773606 -0.09197571
0.18368284 -0.06687086 -0.49043566 0.002873268 -0.05578705 -0.03278158 0.23606907 -0.02817467
-0.106906995 -0.01043568 -0.2941501 -0.07114371 -0.32179385 0.19162974 -0.12093704 0.08747733
0.042924285 -0.099592045 0.016281264 -0.1544618 0.0018102834 -0.096299745 -0.05647623 -0.0934854
0.297276 0.2548317 -0.24937119 0.15446755 -0.40706563 -0.14017066 -0.20306413 -0.2088094
0.20059407 0.111701846 -0.10978961 -0.22024669 0.08966771 0.20746677 0.0012908293 -0.21006039
-0.15646417 -0.50406945 -0.052575365 0.14898375 0.0057793492 0.30577785 -0.44634318 0.058425047
0.23943913 0.14779927 0.09709078 -0.060237486 0.21222952 -0.14326814 0.25686312 -0.38919443
0.16826312 -0.19696227 0.15656951 0.018077305 -0.17049487 -0.063802384 -0.49991888 0.06724907
0.30112618 -0.36186802 -0.049275797 -0.107689336 -0.10724075 0.25237933 -0.09886863 -0.03359843
0.17836171 -0.099159434 0.22002785 0.10334884 -0.038333938 -0.38448614 0.39554316 0.23512955
-0.15852702 0.037455387 -0.43512204 -0.1684564 -0.040447757 0.16948555 0.045813292 0.04566504
0.06875573 -0.33605254 0.07983015 -0.373944 0.19892612 -0.017075444 0.22201864 -0.19622953

actor.weight f4 [3, 64]
00000000: 1a9e b0bd 3656 8b3d f20b 3ebe 5fe7 2a3d
00000010: 4fe7 32be 8eee febc cc74 bdbd bf4e 2bbe
00000020: a77a a3bd 6fc3 b7be b289 dbbe 099a 2dbe
00000030: 9c03 fbbd e0c8 7f3e 95bf 5ebe eac8 79be
00000040: 0dce 11bd 87a3 feba 1a04 353e 6b41 b83c
00000050: c20a 54be d92f 2ebf f019 353c ba2a a5bd
00000060: c91c 14be 5950 c13d 851f 873d 438c 353e
00000070: 82d6 e73d 91b9 cc3d 2261 74be 0b34 563d
00000080: b612 2a3d 4245 d83e 5aeb 0a3e 0b78 ecbc
00000090: 3373 31be d725 09be 6db5 10be 23b7 8b3e
000000a0: a9d2 8c3e 84a6 26be f5b3 06bd 44b5 82bc
000000b0: 4e64 8c3e bc09 fdbe 2311 0e3d c2aa 713e
000000c0: b9fd 71bd bc03 953d 2395 29be b64f a6bd
000000d0: 7f44 803d 1a8e 3dbe b973 923e 0e13 433d
000000e0: d53e 1e3e 4ea8 6bbd d4e3 8bbe 9c81 933d
000000f0: 4c83 f93d 54da 14bd d33d 8fbc 4786 cfbe
00000100: 08b8 61be bd54 9ebe 0d05 ce3d 5d3f 91be
00000110: f074 f2bc c218 ff3e 78ec a9bb f3f9 cf3e
00000120: 5c9a 08bd 7ae1 d23d 945a 4f3d b756 433e
00000130: 6d69 9ebe bf66 60be 4832 2d3b 08e9 e9bd
00000140: c4b9 37be 7108 883d d2c4 bc3d f104 b63e
00000150: b58d 6bbb 3c0e b23d e9cf b5bc 17db aabd
00000160: 1eaf 25bb 377e 163e 33ef 60bd a333 8ebe
00000170: 978f 82be 7dac a73d 65c6 5e3f efc0 a23d
00000180: f357 02be e58a ed3c 9cd7 9d3d ae88 d03c
00000190: 66d2 9f3d 99ca 37be ea42 25bd 892a bcbd
000001a0: e740 873c 8aa1 e73c 7d6d 643e def7 cdbe
000001b0: 428f cdbd 6c0c 3d3e 54f6 babe be22 e03d
000001c0: aba2 c03e 7fef 4d3e dd0d ef3d b834 4f3e
000001d0: 4c84 aabe a7f8 423e f3d9 cf3c b8a4 42be
000001e0: 7296 6cbe c485 f2bc 0693 79bd 13ab 0c3e
000001f0: 8670 173e 351d 773d 6d4a 28bd 8b31 063d
00000200: 8b03 073e 4b19 2c3e 9543 8cbb 386b 043e
00000210: 36fe b43d bcf1 81be 4985 363d f48d 40be
00000220: b0e2 6b3d e98b 863d 8232 2e3e 8a91 a13c
00000230: e093 883e e9a9 043d 25f3 a73d fcea 623e
00000240: b0e3 223e 2a47 96bd ba92 07be 43b4 82be
00000250: 61eb bf3d bed8 9a3e 8ded 81bd 8652 c73d
00000260: 6a5c ed3c b0d3 28be 15f7 00be d8b0 fd3d
00000270: 4974 fe3d b577 54bd 5415 b7be 2709 8ebc
00000280: b6f7 413d 4d84 6bbe 14e8 bfbd b653 6e3d
00000290: 8dda 353d 7721 4d3e 84d4 f93c 5b7c 06be
000002a0: baec 5bbe 4910 cb3d 627c 5cbe db24 3f3e
000002b0: c466 05bd 007c 263e 1fb2 2d3e 73c0 0fbe
000002c0: b5d9 39be bdc2 cebd f792 4eba f25d 8abd
000002d0: 2c24 243e bcee bc3d 11c2 ecbd a6a5 853d
000002e0: 0977 8a3d dc5d ed3d 73fa 343e 5dfa 0cbe
000002f0: 9c48 fabd 4ac5 6fbc 234f eb3d a210 103e
-0.086239055 0.06803553 -0.18559244 0.04172456 -0.1747105 -0.031119611 -0.09250793 -0.16729258
-0.079823785 -0.35891291 -0.4287849 -0.16953291 -0.12256548 0.24978971 -0.2175277 -0.24393049
-0.035596896 -0.0019427397 0.17677346 0.022492131 -0.20707229 -0.6804176 0.011053547 -0.0806479
-0.14464106 0.09439153 0.06597809 0.17729287 0.11320211 0.099963315 -0.23865178 0.052295726
0.04152175 0.4224034 0.13566342 -0.028865835 -0.17329101 -0.13393341 -0.14131708 0.2728816
0.2750447 -0.16274458 -0.032886464 -0.015955575 0.27420276 -0.4942149 0.03468431 0.23600295
-0.05907986 0.07276103 -0.16560797 -0.081206724 0.062630646 -0.18511239 0.28603914 0.047625594
0.15453656 -0.057533555 -0.27322257 0.072024554 0.12183246 -0.036341026 -0.017485535 -0.40532133
-0.22042859 -0.30924025 0.10059557 -0.28368655 -0.029596776 0.49823576 -0.00518566 0.40620384
-0.033350334 0.102969125 0.05062349 0.19076048 -0.30939808 -0.21914195 0.0026427675 -0.114214
-0.17941958 0.06642235 0.09217228 0.35550645 -0.0035942618 0.08694121 -0.022193866 -0.08342569
-0.002528138 0.14696585 -0.05491562 -0.2777377 -0.25500175 0.081871964 0.87021476 0.079469554
-0.12728862 0.028996894 0.0770714 0.025455799 0.07803802 -0.17948379 -0.040347017 -0.091878004
0.01651044 0.02827527 0.22307391 -0.4022817 -0.1003709 0.1846177 -0.36516058 0.109441265
0.37624106 0.20110892 0.11672566 0.20234954 -0.3330406 0.19040166 0.025372481 -0.19008148
-0.23104265 -0.0296048 -0.060931228 0.13737135 0.14789018 0.06033059 -0.041086603 0.03276209
0.13184945 0.16806524 -0.0042805173 0.12931526 0.088375494 -0.2537974 0.044560704 -0.18804151
0.057589233 0.065696545 0.17011455 0.019722719 0.2667532 0.0323886 0.08200673 0.22159952
0.15907168 -0.07337792 -0.13239565 -0.25528154 0.09371067 0.30243486 -0.06344137 0.09732537
0.02897473 -0.16487002 -0.12594254 0.12387246 0.124245234 -0.051871974 -0.3575846 -0.017338349
0.047355376 -0.22999687 -0.09370437 0.0581853 0.04439788 0.20032297 0.030496843 -0.13133375
-0.21477023 0.099152155 -0.21531823 0.18666403 -0.032568708 0.1625824 0.16962479 -0.14038257
-0.18149455 -0.10095737 -0.0007880176 -0.067562 0.16029423 0.092252225 -0.11560453 0.065257356
0.067609854 0.11590168 0.17673664 -0.13767381 -0.122208804 -0.01463444 0.114897035 0.14068845

critic.weight f4 [1, 64]
00000000: 4337 f03c 174f cf3c 80ab 8e3b 0b52 933c
00000010: 236d 343c 2d79 4fbd 5c47 2c3b 842a 3dbc
00000020: 996c 6a3d 2210 9cb9 6f33 273e eae5 70bc
00000030: 048f aa3c 2c5d 18bc d1fc 793c f039 443c
00000040: a791 a73c caf6 3ebc e327 ec3c 934e 28bd
00000050: e79a 313d 6fb3 083e 28b0 99bc 4a57 b83c
00000060: fd60 2d3c 0533 0bbd a638 6cbc bf53 f63b
00000070: 86d5 07bd e036 ec3c 2ac8 92be c635 31bc
00000080: 7277 03bc 1baa 1bbd 0187 a3bb bfb2 613d
00000090: 75be 0fbc 28f8 4c3d bec7 243c d2ca 63bd
000000a0: f6da de3a 1974 ccbc 61b5 08bd a0b7 d33b
000000b0: dbdc b7bc 3270 08bc 8963 8d3d ce08 cc3c
000000c0: db27 81bc 7c67 fbbc 4290 ef3b fd1a babc
000000d0: 394c 083d 6c15 133d 0da5 b0bb c540 753d
000000e0: 4fa8 65bd 88cd c53b 15fe 033d 4503 c63c
000000f0: 35d8 f03c a144 07bd ba9c 5d3c 586c 1fbb
0.029323226 0.025306268 0.0043539405 0.017983457 0.011012348 -0.05065267 0.002628765 -0.011545781
0.057232473 -0.0002976666 0.16328214 -0.014703253 0.020820148 -0.009299558 0.01525803 0.011976704
0.020455195 -0.011655519 0.028827613 -0.04109056 0.043360617 0.13349698 -0.018760756 0.02250256
0.010582206 -0.033984203 -0.014417803 0.0075173075 -0.033162616 0.02883476 -0.28668338 -0.010816043
-0.008024083 -0.038004022 -0.004990459 0.055102106 -0.008773436 0.050041348 0.010057388 -0.055613346
0.0017002511 -0.024957703 -0.0333761 0.006461099 -0.02244418 -0.008327531 0.069037504 0.024906542
-0.015766075 -0.030688994 0.007310898 -0.022717947 0.033275817 0.0359091 -0.0053907693 0.059876222
-0.056068715 0.006036464 0.032224733 0.02417148 0.02939997 -0.033024434 0.013526136 -0.0024326053
