model_params_101000/5.0_V3_0.95g_0.0rm_150bz_0.0td_1.0tds_Nonelb_Noneup_64n_50000e_10md_5.0rz_43s.pth (torch, 22912 bytes, 4 tensors)

rnn.weight_ih_l0 f4 [64, 9]
0.02571808 0.31023753 -0.5460251 -0.20355903 0.23655422 -0.14334753 -0.37406918 -0.30270082
-0.00031381258 -0.54035366 0.030536328 -0.4633147 -0.13164337 -0.44606882 -0.3506291 -0.3612895
0.28870717 0.17748117 -0.00946654 -0.35108462 -0.12713939 -0.10373459 -0.820339 0.29597116
0.5934791 0.21509293 -0.092325084 0.47265667 -0.52670354 -0.19202296 0.2961101 -0.22046101
0.27455533 -0.5277571 0.018547049 -0.58798844 0.10709624 -0.099376045 0.34277484 -0.044156536
-0.35604092 -0.17318343 -0.098726936 -0.24126545 -0.6627482 0.09002178 -0.16134788 0.042017814
1.0881917 -0.31605205 0.037906233 0.12281804 0.08119823 0.11863145 -1.0072378 0.41423497
-0.058639474 -0.41464046 0.37041557 -0.37200415 -0.109158285 -0.65061146 0.2373268 0.07454947
0.90423125 0.32620496 -0.13074656 0.07388141 -0.020270143 0.5394777 0.15242113 0.26451498
1.1003866 -0.18900925 0.20507261 1.001406 -0.3847159 -0.20980693 -0.12180965 0.40321168
0.21954298 -0.029417537 -0.36252385 -0.3791524 0.6340604 -0.37806806 -0.42081204 0.061665848
0.35252693 0.28970024 1.0706879 0.7724752 0.99089456 -0.4144915 -0.632395 0.2749013
1.0160676 0.25441 -0.28228638 -0.2794283 0.3468059 0.48578066 -0.4636706 0.75801826
-0.090090156 0.7318323 0.28656137 0.3706478 0.4486769 0.10362144 -0.09516128 0.4209387
-0.11287245 -0.4039994 -0.07147572 0.21984391 -0.049540233 1.427354 1.0183686 0.1376045
0.11410555 0.006942905 0.3474698 1.0438718 1.0285203 0.25902015 -0.021694297 -0.5306756
0.4461653 0.013091618 -0.059404586 0.745156 -0.032432348 0.26713315 -0.6953864 -0.12278918
0.13734062 -0.022972262 -1.5624412 0.6538114 -0.3741166 0.20236729 0.10289422 0.58881485
-0.28222093 0.35243425 0.03781694 -1.420207 0.13330501 0.04284703 0.33707997 -0.4920451
-0.20692891 0.26272163 0.12874804 -0.3968731 -0.61813504 -0.40378574 -0.058640584 0.07441022
0.2542229 0.27981305 0.36326587 -0.57467526 -0.31043398 0.522041 -0.26023433 -0.7817226
0.28169233 0.11593689 -0.3220615 0.21807443 0.43592495 0.058481254 0.6450694 0.35013968
0.3268486 0.9058406 -0.054334868 0.16014378 0.031521063 0.18277565 -0.31342176 0.57839376
-0.06521126 -0.9215194 -0.7820824 -0.4194639 0.057911806 -0.5701911 0.6906912 0.24068485
-0.7208785 0.10182785 -0.51792014 0.11671977 -0.066433854 -0.035444036 -0.16413857 -0.4802121
0.25755644 0.7059509 -0.111699946 0.124439605 0.016374933 0.20350955 0.14413847 0.5725608
-0.5149056 0.527164 0.88947207 0.027858142 -0.048112147 -0.35102051 0.29484162 -0.013741504
-0.7992792 -0.4071973 0.4331482 -0.40907595 0.5102191 -0.6143749 0.4819667 0.10621636
-0.1813375 1.2647976 0.7967734 0.34012616 -0.0052360273 -0.40016612 0.80737436 1.2842506
0.6933426 -0.14877228 -0.23486197 -0.2946806 -0.034824606 0.22651567 0.06457017 -0.61742723
-0.4028937 0.41860825 -0.33207566 -0.47127336 0.46182773 -0.68983454 -0.62062347 0.42667595
-0.45000654 -0.19098976 0.2565464 0.22186057 -0.039545134 -0.1610724 0.2376843 -0.41617408
00000000: b9ae d23c 74d7 9e3e 4dc8 0bbf c771 50be
00000010: 453b 723e b2c9 12be ff85 bfbe 9afb 9abe
00000020: 3687 a4b9 9e54 0abf 5227 fa3c 9637 edbe
00000030: 85cd 06be 2263 e4be a885 b3be f0fa b8be
00000040: 6dd1 933e a0bd 353e 8c19 1bbc 5dc1 b3be
00000050: d430 02be cd72 d4bd bd01 52bf 8889 973e
00000060: 3fee 173f 5241 5c3e ef14 bdbd 0e00 f23e
00000070: 0bd6 06bf aba1 44be be9b 973e 88c0 61be
00000080: 8492 8c3e 171b 07bf fbef 973c 6986 16bf
00000090: 4655 db3d ab85 cbbd 2f80 af3e 7cdd 34bd
000000a0: ff4a b6be ff56 31be 5931 cabd 4a0e 77be
000000b0: dea9 29bf 575d b83d 6138 25be df1a 2c3d
000000c0: de49 8b3f 93d1 a1be 9143 1b3d 0688 fb3d
000000d0: 424b a63d 0cf5 f23d 2bed 80bf 9b16 d43e
000000e0: f22f 70bd c14b d4be 1ca7 bd3e 5477 bebe
000000f0: 618e dfbd 798e 26bf cc05 733e 64ad 983d
00000100: b37b 673f 5604 a73e 6de2 05be 234f 973d
00000110: 920d a6bc 361b 0a3f 4914 1c3e 826e 873e
00000120: 78d9 8c3f a48b 41be 8efe 513e 122e 803f
00000130: 7cf9 c4be a1d7 56be 5677 f9bd c371 ce3e
00000140: e0cf 603e 0cfd f0bc ba9c b9be 4320 c2be
00000150: c851 223f 2392 c1be ad74 d7be 5495 7c3d
00000160: 697e b43e 9753 943e 4d0c 893f efc0 453f
00000170: 44ab 7d3f 3b38 d4be a4e4 21bf ddbf 8c3e
00000180: 810e 823f 0742 823e d787 90be 3a11 8fbe
00000190: 8b90 b13e 3eb8 f83e 3c66 edbe 7c0d 423f
000001a0: 3081 b8bd 5d59 3b3f 2cb8 923e 8cc5 bd3e
000001b0: fbb8 e53e 7a37 d43d ebe3 c2bd 4785 d73e
000001c0: ac29 e7bd 02d9 cebe dd61 92bd c31e 613e
000001d0: b3ea 4abd 89b3 b63f e759 823f 32e8 0c3e
000001e0: 2cb0 e93d 4f81 e33b 90e7 b13e 979d 853f
000001f0: 8ea6 833f 4a9e 843e 3db8 b1bc 5bda 07bf
00000200: c76f e43e 3a7e 563c 3952 73bd 8bc2 3e3f
00000210: c8d7 04bd adc5 883e d804 32bf e578 fbbd
00000220: 05a3 0c3e 5330 bcbc 13fe c7bf 2f60 273f
00000230: 368c bfbe 5f39 4f3e 34ba d23d 92bc 163f
00000240: 437f 90be 4372 b43e f0e5 1a3d 58c9 b5bf
00000250: 1c81 083e 5e80 2f3d bf95 ac3e 56ed fbbe
00000260: 2ce5 53be 7383 863e 87d6 033e f332 cbbe
00000270: 193e 1ebf 01bd cebe 1c31 70bd 6364 983d
00000280: 8129 823e a843 8f3e fcfd b93e eb1d 13bf
00000290: 34f1 9ebe 7ba4 053f 6f3d 85be f91e 48bf
000002a0: fa39 903e 5270 ed3d 3fe5 a4be e74e 5f3e
000002b0: 8e31 df3e 0a8a 6f3d 4523 253f 8245 b33e
000002c0: b358 a73e 2be5 673f 3d8e 5ebd bbfc 233e
000002d0: 3b1c 013d 8a29 3b3e d178 a0be 9d11 143f
000002e0: 7b8d 85bd b2e8 6bbf 8d36 48bf f9c3 d6be
000002f0: ee34 6d3d 0bf8 11bf 23d1 303f 1776 763e
00000300: 7e8b 38bf 1f8b d03d 6a96 04bf c60a ef3d
00000310: 790e 88bd c42d 11bd f113 28be 5cde f5be
00000320: 70de 833e 33b9 343f f1c2 e4bd 31da fe3d
00000330: b924 863c cf64 503e 0999 133e 5893 123f
00000340: dad0 03bf 38f4 063f 71b4 633f c236 e43c
00000350: 3e11 45bd f6b8 b3be 7bf5 963e 0c24 61bc
00000360: 909d 4cbf 2a7c d0be 9ac5 dd3e 6772 d1be
00000370: b89d 023f ac47 1dbf 57c4 f63e f787 d93d
00000380: 8ab0 39be e3e4 a13f 57f9 4b3f 0425 ae3e
00000390: fb92 abbb 93e2 ccbe 16b0 4e3f 5362 a43f
000003a0: e77e 313f c357 18be a87f 70be 60e0 96be
000003b0: 3fa4 0ebd b9f3 673e 5e3d 843d b60f 1ebf
000003c0: 1548 cebe d253 d63e d205 aabe be4a f1be
000003d0: af74 ec3e ff98 30bf 2ee1 1ebf 4575 da3e
000003e0: 4267 e6be d292 43be 0d5a 833e 6b2f 633e
000003f0: 14fa 21bd 2af0 24be 8363 733e c514 d5be

rnn.weight_hh_l0 f4 [64, 64]
-0.11976079 -0.22305483 0.11353724 0.3641809 -0.13335852 -0.06657823 -0.13181223 -0.03170919
-0.11476014 -0.4907627 -0.12571043 -0.27232814 -0.005054622 -0.025047133 -0.38935098 -0.12829882
-0.017907696 0.12707572 -0.007280895 -0.20133214 0.15930602 -0.07233604 -0.12878922 0.08764151
0.05141981 0.022918293 0.3510193 -0.020695033 -0.0694865 -0.117974974 -0.27612764 -0.0071728723
0.041603573 0.07851928 0.010723787 -0.074350536 0.342522 -0.07413181 -0.20037532 0.3357715
0.19503379 0.12242832 0.039111033 -0.29508877 0.17019163 0.26201564 -0.22600266 0.42175364
-0.27561408 -0.44722882 0.18317294 -0.3370152 -0.2517112 0.076661 0.15055516 -0.11022954
0.11094107 0.22138362 -0.24451143 0.024225133 -0.26301444 -0.010975767 0.08845446 -0.22243743
0.110524945 0.2011068 -0.16257824 -0.07643838 0.32356358 -0.16868864 -0.3399915 -0.23878644
0.2352942 0.11797186 -0.5768193 -0.4472672 -0.048551545 -0.051040906 -0.54764706 -0.21198677
0.15070228 0.112841725 -0.050759755 -0.15239261 0.20911184 -0.36304182 -0.42031264 0.041627586
0.26296142 0.12539914 -0.5143937 -0.24928641 0.22901109 0.010334298 0.1051762 0.22296342
0.14997333 0.033555772 0.055665098 -0.13114911 0.40161407 -0.12141453 -0.3396531 -0.14735998
0.035663456 0.3552773 -0.26204124 -0.2552258 0.044642508 -0.14321864 0.17227332 -0.09336282
0.14567715 0.010423871 -0.042975146 0.17075983 -0.29616576 0.15800138 -0.1759047 0.22830589
0.233558 -0.3463072 -0.11059984 -0.032503743 0.08109924 0.12729396 -0.35217232 -0.21509023
-0.08831258 -0.012004811 -0.016923532 -0.09316983 0.04557235 -0.06330491 0.2338289 0.073342755
-0.035347976 0.07944447 -0.3178153 -0.22810449 0.18411478 0.11390672 0.17391406 -0.19868466
0.064364806 -0.20421891 0.29839107 0.31277642 0.29651764 -0.16944498 -0.19640127 -0.0077388533
0.33821043 0.1166291 0.50922966 -0.048947435 0.2276412 0.15079474 0.08921907 0.028928563
-0.07513665 -0.092455804 -0.069240995 -0.113271676 -0.19651544 -0.13146567 -0.2908472 0.2319529
-0.26918244 -0.09084699 0.26476398 -0.2718398 -0.17022657 -0.030861083 -0.05775936 0.39113653
-0.36575854 0.17786627 0.11271663 0.28951564 0.12717848 0.21322434 0.08949071 0.17061424
0.24004577 -0.17375025 0.088285 0.1590979 0.1783383 0.12228777 -0.14994317 -0.035442118
0.045288105 -0.09224175 0.0042083506 0.1946667 -0.47771075 -0.21663843 -0.18106942 0.0016720382
0.068358675 0.08387567 0.0344472 0.09807548 -0.31889397 0.2111742 0.15032843 0.1239656
0.41354486 -0.09022488 0.002951333 0.1917168 -0.08417662 -0.21400529 -0.07054655 -0.18924497
0.24650191 0.11347847 0.22528449 0.09356928 -0.011529838 -0.07807672 -0.08364718 -0.025702761
0.11617699 -0.060095616 0.12954456 0.08768541 0.11906831 0.121882655 -0.3091423 0.24344954
0.20781252 0.3542335 -0.19000265 0.0375876 -0.36186948 0.305771 0.16349639 0.14946668
0.18463968 0.1784755 -0.18706484 -0.021939056 -0.049055215 -0.36316752 0.056855448 -0.09210623
-0.029518122 -0.07393865 -0.17325641 -0.09337565 -0.45778152 -0.10663366 -0.15322341 0.059282582
00000000: 2545 f5bd 7c68 64be 3686 e83d eb75 ba3e
00000010: 238f 08be 2b5a 88bd c9f9 06be 7fe1 01bd
00000020: 5d07 ebbd 4045 fbbe 3cba 00be 986e 8bbe
00000030: 3ea1 a5bb a52f cdbc 0359 c7be c460 03be
00000040: 29b3 92bc 2320 023e 9394 eebb 032a 4ebe
00000050: 1e21 233e eb24 94bd 52e1 03be 647d b33d
00000060: 949d 523d 25bf bb3c cdb8 b33e a188 a9bc
00000070: f04e 8ebd dd9c f1bd 9a60 8dbe 6a0a ebbb
00000080: 8268 2a3d b7ce a03d d3b2 2f3c 1845 98bd
00000090: 0b5f af3e 6bd2 97bd 302f 4dbe 3eea ab3e
000000a0: f0b6 473e b3bb fa3d e432 203d e015 97be
000000b0: b746 2e3e ea26 863e 3e6d 67be 18f0 d73e
000000c0: 4a1d 8dbe 2dfb e4be b091 3b3e 428d acbe
000000d0: 4ae0 80be 7100 9d3d 222b 1a3e 06c0 e1bd
000000e0: 1235 e33d 63b2 623e 3461 7abe c973 c63c
000000f0: d4a9 86be b4d3 33bc 9d27 b53d a3c6 63be
00000100: e75a e23d f1ee 4d3e e97a 26be ba8b 9cbd
00000110: 20aa a53e b7bc 2cbe 5e13 aebe 6f84 74be
00000120: f6f0 703e 3b9b f13d 6eaa 13bf 3500 e5be
00000130: fcdd 46bd 4510 51bd 9932 0cbf 0f13 59be
00000140: b351 1a3e 9019 e73d 76e9 4fbd cf0c 1cbe
00000150: 6a21 563e 9ee0 b9be 3833 d7be b081 2a3d
00000160: e1a2 863e a268 003e 4eaf 03bf f044 7fbe
00000170: e281 6a3e 3051 293c 9f66 d73d 8650 643e
00000180: 9c92 193e c771 093d 1601 643d f44b 06be
00000190: 5ca0 cd3e 2ea8 f8bd 03e7 adbe 89e5 16be
000001a0: d813 123d e8e6 b53e 452a 86be f5ac 82be
000001b0: 10db 363d e8a7 12be 6b68 303e 0235 bfbd
000001c0: 642c 153e e2c8 2a3c b506 30bd aadb 2e3e
000001d0: 0aa3 97be 1dcb 213e 5d20 34be 05c9 693e
000001e0: d429 6f3e 2d4f b1be 2b82 e2bd a522 05bd
000001f0: 5c17 a63d 5959 023e ee4f b4be 9d40 5cbe
00000200: 3add b4bd d4af 44bc 38a3 8abc d3cf bebd
00000210: 13aa 3a3d 01a6 81bd d870 6f3e ba34 963d
00000220: 0ac9 10bd c8b3 a23d b0b8 a2be 3994 69be
00000230: 9688 3c3e ed47 e93d 8716 323e fe73 4bbe
00000240: b2d1 833d c31e 51be b7c6 983e 3b24 a03e
00000250: 29d1 973e fc82 2dbe 6a1d 49be 3596 fdbb
00000260: eb29 ad3e 3ddb ee3d e05c 023f 1b7d 48bd
00000270: c61a 693e f069 1a3e 7db8 b63d 98fb ec3c
00000280: 3ee1 99bd 7859 bdbd 39ce 8dbd fbfa e7bd
00000290: 583b 49be f09e 06be ede9 94be 1085 6d3e
000002a0: 48d2 89be fd0d babd 258f 873e 962e 8bbe
000002b0: e04f 2ebe 62d0 fcbc 1495 6cbd 0c43 c83e
000002c0: b444 bbbe 9322 363e fad7 e63d 653b 943e
000002d0: 133b 023e 7b57 5a3e e846 b73d 80b5 2e3e
000002e0: 8fce 753e 96eb 31be c4ce b43d 8fea 223e
000002f0: 519e 363e 0372 fa3d b48a 19be c12b 11bd
00000300: 0580 393d 3ee9 bcbd 34e6 893b b556 473e
00000310: 8196 f4be 77d6 5dbe 436a 39be 4b28 db3a
00000320: a2ff 8b3d 02c7 ab3d 8218 0d3d ccdb c83d
00000330: 1246 a3be 0d3e 583e b2ef 193e ade1 fd3d
00000340: 27bc d33e d2c7 b8bd 276b 413b 6951 443e
00000350: cb64 acbd 3424 5bbe b67a 90bd 6fc9 41be
00000360: ff6a 7c3e 6667 e83d fab0 663e 40a1 bf3d
00000370: a5e7 3cbc b0e6 9fbd 364f abbd 998e d2bc
00000380: 34ee ed3d d226 76bd 54a7 043e 6994 b33d
00000390: 16da f33d 9d9d f93d e647 9ebe d64a 793e
000003a0: cecc 543e 185e b53e 0e90 42be 75f5 193d
000003b0: f546 b9be 048e 9c3e 996b 273e cb0d 193e
000003c0: 2f12 3d3e 48c2 363e ed8d 3fbe 89b9 b3bc
000003d0: 1fee 48bd 18f1 b9be 42e1 683d 31a2 bcbd
000003e0: fdcf f1bc 266d 97bd 216a 31be bc3b bfbd
000003f0: 5762 eabe c062 dabd 99e6 1cbe 4bd2 723d

actor.weight f4 [3, 64]
-0.07711172 0.35575184 -0.10781647 -0.11269967 0.1356886 -0.11750121 0.19933322 -0.026941799
-0.16531622 -0.1112563 -0.020439235 0.2146272 -0.14370592 -0.15530296 -0.28584072 0.08369538
0.2255321 0.18014768 -0.14150181 -0.1791889 0.14508037 0.31472436 -0.13450237 -0.13676886
0.07128938 -0.08847325 -0.04584378 -0.003772559 0.21925588 -0.01312224 -0.12946786 0.15793003
0.20329005 0.083236076 0.05237519 -0.02253123 0.07545212 0.03913154 -0.08000657 -0.25066417
0.12829064 0.07575648 -0.15169856 -0.24832186 0.06262142 0.103488624 0.33744356 -0.08186434
-0.030471858 0.13373964 0.14544965 -0.124418 0.02681513 -0.11937007 -0.13464272 -0.033824164
0.03033082 -0.16534021 0.040750254 0.21037158 0.100529164 -0.20979097 -0.25378627 -0.045139167
0.29553488 -0.059753936 0.02944735 0.08390386 -0.12271724 -0.19262663 0.16912316 -0.2147488
0.102979176 -0.019780656 -0.11734885 -0.10545356 0.08689161 -0.07725372 0.13241012 -0.30703053
-0.08987818 -0.1349645 -0.10334128 -0.15462284 0.0580089 -0.22364159 0.016352734 0.31431073
-0.19046746 -0.0322624 0.22634958 -0.20941347 -0.09218595 -0.22088496 -0.11054837 -0.16259198
0.023822587 0.14767618 -0.2661592 0.0059911218 -0.14876333 -0.065792665 -0.21319576 -0.03098895
-0.019226607 -0.049596567 0.38328746 -0.10103576 0.0055549964 -0.08326505 -0.25684425 -0.0056183734
0.017717326 -0.24073987 0.3175199 0.26930478 -0.34651121 0.16040823 0.07771234 0.13611856
0.00056553504 0.073250085 0.03775502 0.19696635 0.26896188 -0.11350828 0.009395771 -0.021998277
-0.11729307 -0.1337436 0.115482174 0.09628644 0.065000445 0.21612898 -0.19432072 0.096908994
0.024390128 -0.03912742 0.13785449 -0.08382155 0.015937118 0.1840632 0.051329277 0.11157507
-0.010646925 0.020622185 0.18151449 0.13348225 -0.07301435 -0.049409 0.010251665 -0.13208881
0.11235064 0.131158 -0.11433532 0.1597842 -0.025704287 0.09623719 0.1275512 0.058978293
-0.112545975 -0.13647556 0.122851655 -0.013643446 0.056333706 -0.029808009 0.14679457 0.08630964
0.024030304 0.031338025 -0.13499555 0.18797308 -0.09238877 -0.082631975 -0.003944043 0.13580352
-0.12310153 -0.0077314144 -0.28045446 -0.09653219 0.1360016 -0.018750262 -0.047214843 -0.10310208
-0.13232726 -0.008303288 -0.13203938 -0.16516137 -0.3204754 0.17827183 0.058127984 0.00015513352
00000000: c0ec 9dbd 1b25 b63e e2ce dcbd 16cf e6bd
00000010: f4f1 0a3e 79a4 f0bd 021e 4c3e 0cb5 dcbc
00000020: a848 29be 58da e3bd 2f70 a7bc 3cc7 5b3e
00000030: a527 13be bd07 1fbe b759 92be 7c68 ab3d
00000040: e3f1 663e a278 383e dae5 10be 4c7d 37be
00000050: f38f 143e 8d23 a13e fdba 09be 230d 0cbe
00000060: 2b00 923d 7731 b5bd b0c6 3bbd 0a3d 77bb
00000070: 9d84 603e aafe 56bc 3993 04be 69b8 213e
00000080: 442b 503e ad77 aa3d 5e87 563d 6a93 b8bc
00000090: a486 9a3d 6548 203d 7cda a3bd 0e57 80be
000000a0: 9f5e 033e 3726 9b3d de56 1bbe 1648 7ebe
000000b0: a93f 803d d8f1 d33d 67c5 ac3e 7ea8 a7bd
000000c0: 1ea0 f9bc 0bf3 083e c1f0 143e ddce febd
000000d0: 67ab db3c 4c78 f4bd c8df 09be 358b 0abd
000000e0: 5778 f83c f24e 29be bde9 263d a66b 573e
000000f0: 3ce2 cd3d 72d3 56be 46f0 81be d9e3 38bd
00000100: 5950 973e 8bc0 74bd 923b f13c c9d5 ab3d
00000110: 2d53 fbbd ea3f 45be 9f2e 2d3e 1ce7 5bbe
00000120: bfe6 d23d 0b0b a2bc 9854 f0bd 09f8 d7bd
00000130: 3af4 b13d 3337 9ebd 8596 073e 1b33 9dbe
00000140: 0d12 b8bd 2234 0abe 98a4 d3bd 7355 1ebe
00000150: be9a 6d3d 4d02 65be 2bf6 853c 56ed a03e
00000160: e709 43be 9425 04bd 2fc8 673e 7c70 56be
00000170: fdcb bcbd ab2f 62be 2f67 e2bd 837e 26be
00000180: 9627 c33c 6d38 173e 0546 88be 2c51 c43b
00000190: 6a55 18be 4ebe 86bd fd4f 5abe 8adc fdbc
000001a0: 1e81 9dbc c525 4bbd 413e c43e d6eb cebd
000001b0: b006 b63b de86 aabd 1781 83be 551a b8bb
000001c0: ed23 913c 8384 76be f891 a23e 51e2 893e
000001d0: eb69 b1be 0e42 243e a627 9f3d aa62 0b3e
000001e0: 6a40 143a 2404 963d 02a5 1a3d 8cb1 493e
000001f0: 5fb5 893e 0777 e8bd b8f0 193c bb35 b4bc
00000200: 5937 f0bd 15f4 08be eb81 ec3d d331 c53d
00000210: f41e 853d ea50 5d3e 03fc 46be 3978 c63d
00000220: cecd c73c 1344 20bd ba29 0d3e a2aa abbd
00000230: 8f8e 823c 107b 3c3e a63e 523d 7881 e43d
00000240: 7170 2ebc dbef a83c efde 393e 92af 083e
00000250: 8c88 95bd 1761 4abd 99f6 273c 4a42 07be
00000260: 1818 e63d 484e 063e a328 eabd 789e 233e
00000270: cc91 d2bc 0118 c53d c89c 023e 3993 713d
00000280: 817e e6bd 40c0 0bbe a699 fb3d c388 5fbc
00000290: 2cbe 663d ed2f f4bc 5151 163e 1cc3 b03d
000002a0: 33db c43c 4d5c 003d 463c 0abe 047c 403e
000002b0: 5336 bdbd f43a a9bd 083d 81bb 1410 0b3e
000002c0: a81c fcbd ce57 fdbb ba97 8fbe abb2 c5bd
000002d0: 0144 0b3e 269a 99bc 5a64 41bd 2f27 d3bd
000002e0: cc80 07be 840a 08bc 5535 07be 1020 29be
000002f0: 5a15 a4be e48c 363e 9c17 6e3d 56ab 2239

critic.weight f4 [1, 64]
-0.031991135 -0.15812987 0.010557542 0.01874219 -0.07000535 -0.001498221 -0.096154064 0.2239224
0.08530982 -0.013279211 0.114173256 -0.028086945 0.070121564 0.08971823 0.2392978 0.31867996
0.09918793 0.042938124 0.101018116 0.035169218 -0.11009655 -0.27497202 0.06996022 -0.06633231
0.066047885 0.062159285 -0.005032389 0.08226657 -0.01844262 0.053041883 -0.043983154 -0.025676282
-0.19164446 -0.05464482 0.04790713 0.030764636 0.017878637 -0.0023842687 0.09580108 0.062480867
-0.07756618 -0.017136216 -0.12887898 0.015489557 -0.06026183 0.026624354 0.013693028 0.06488645
-0.020294603 0.10194813 -0.20891774 -0.087134555 0.14256981 0.062756725 0.09348416 -0.08380047
0.008018481 -0.016386982 -0.025735343 -0.02734693 -0.16292354 0.06668056 0.046451405 0.09512519
00000000: 2309 03bd ccec 21be 8af9 2c3c 3989 993c
00000010: f75e 8fbd f45f c4ba 6cec c4bd ea4b 653e
00000020: eab6 ae3d 0c91 59bc abd3 e93d 9816 e6bc
00000030: e59b 8f3d 31be b73d 7c0a 753e 052a a33e
00000040: 0b23 cb3d e3df 2f3d 96e2 ce3d 990d 103d
00000050: 4d7a e1bd 22c9 8cbe 4e47 8f3d 3cd9 87bd
00000060: 1d44 873d bc9a 7e3d bde6 a4bb 607b a83d
00000070: fa14 97bc 7242 593d ae27 34bd 1157 d2bc
00000080: 723e 44be 3fd3 5fbd 443a 443d 1e06 fc3c
00000090: 3876 923c 6441 1cbb 5b33 c43d f0eb 7f3d
000000a0: 04db 9ebd 4061 8cbc daf8 03be e9c7 7d3c
000000b0: 1cd5 76bd 511b da3c b958 603c 30e3 843d
000000c0: de40 a6bc 2eca d03d 88ee 55be 9a73 b2bd
000000d0: d2fd 113e 9986 803d a074 bf3d 959f abbd
000000e0: f25f 033c fe3d 86bc edd2 d2bc ab06 e0bc
000000f0: 6ed5 26be d18f 883d d443 3e3d ffd0 c23d
