model_params_101000/53.0_V3_0.95g_0.0rm_100bz_0.0td_1.5tds_Nonelb_Noneup_64n_50000e_10md_5.0rz_1s.pth (torch, 22912 bytes, 4 tensors)

rnn.weight_ih_l0 f4 [64, 9]
1.1901604 0.24772516 -0.19672173 0.4246428 -0.5402028 0.24183527 0.6057224 -0.298192
0.22809039 0.13765794 0.2786546 0.049110353 0.02599735 -0.33268368 0.044974785 -0.024671124
-0.11852656 0.21774891 0.8981779 0.04751877 0.041289862 -0.22981246 0.7005511 0.08001042
0.77137494 -0.13767062 0.07185421 0.6814438 0.08935844 0.19094124 0.9108831 0.34198183
-0.33756885 -0.21493657 -0.16967759 -0.3012635 0.44402775 -0.7240102 0.25059575 0.45805454
0.090813525 0.13710096 0.7285511 -0.307075 0.31593704 -0.4515765 0.31708458 -0.12865677
0.67122906 -0.034725048 -0.0900201 -0.036964525 -0.09766018 -0.13959102 -0.26625177 -0.40177768
0.2479806 -0.027064813 -0.039971154 -0.14836647 -0.63446486 -0.7091433 0.24834946 -0.016204432
-0.24912545 -0.2880144 0.084778756 0.25037023 0.6952927 -0.19582725 -0.3663511 -0.1736453
-0.25096652 -0.16526853 -0.2999398 -0.68455464 0.4126839 -0.39826322 -0.49575484 -0.98374355
0.2874182 0.6607593 -0.065749094 -0.09876868 -0.022108385 -0.508327 -0.37677446 0.26697275
-0.4183719 -0.081720576 -0.7496524 -0.15689525 -0.065569274 0.3083351 0.23798312 0.41066
0.44983524 0.22011152 0.10547489 -0.9643301 0.13601887 0.33464122 0.6115875 -0.43189108
-0.34331226 0.030860437 -0.38364905 0.0016560226 0.46238387 -0.640702 -0.3889026 0.59696364
0.13658825 0.28648728 0.15028563 0.10615833 -0.11129006 -0.5175824 -0.21934563 0.29315567
0.26647487 -0.52529746 -0.21365796 0.03175871 -0.22506385 0.099426046 0.10856867 -0.50680023
0.45790404 0.50015646 -0.24447386 0.051101808 -0.71646035 -0.068564266 0.53183055 0.75481653
0.70971155 0.61689657 0.44630492 -0.83066714 -0.023908118 0.38757968 0.16773179 -0.3585388
0.2992832 0.34541264 0.44904086 -1.0922792 0.38206846 -0.3042107 0.19518025 -0.061505273
-0.31702933 0.26256388 -0.5481949 0.9436501 1.4901583 -0.30347025 0.3852335 -0.024930391
0.33541727 0.07903476 0.90794337 0.5007523 -0.93504155 1.2498622 -0.19532187 -0.043409947
-0.2226231 -0.2700412 0.51869714 0.21402456 -0.29118744 -0.069258705 0.41958505 0.19622865
-0.24781618 0.19296587 0.41113374 0.17920056 -0.93966395 0.59970707 0.14349034 -0.16090219
0.139317 -0.41940597 0.48202756 -0.056128897 -0.5869489 -0.40514416 0.9469335 0.34127104
-0.30345184 -0.19146493 -0.14749752 -0.031485647 0.2420897 0.26846704 -0.19531842 0.109386265
0.34483144 -0.35312772 -0.12592751 0.019633837 0.054586787 -0.87076426 0.95295334 0.082753316
-0.5839158 -0.25198853 -0.86744076 0.377459 0.2181757 0.27782524 -0.24103995 0.6427633
0.5942405 -0.6513477 0.5015759 0.5405961 0.14421931 -0.032070104 0.3978359 0.793025
-0.040538285 -0.6380712 -0.44273627 -0.41537046 -0.07082857 -0.113375396 0.050606463 -0.3361791
-0.08540885 0.43525487 0.24397328 0.08384568 -0.074288584 0.11090695 -0.019507881 0.30394566
0.37041974 -0.065305814 0.3371409 -0.143863 0.22749595 -0.18349484 0.031965125 -0.4808711
0.10044803 -0.1813981 -0.12092236 -0.1948676 -0.09216411 -0.03462949 -0.6863544 1.0690244
00000000: 2d57 983f aaab 7d3e 6c71 49be c86a d93e
00000010: bb4a 0abf aaa3 773e a010 1b3f 9fac 98be
00000020: 8790 693e 34f6 0c3e d1ab 8e3e f027 493d
00000030: 65f8 d43c 8455 aabe 7b37 383d 191b cabc
00000040: 0ebe f2bd 92f9 5e3e fdee 653f 0ba3 423d
00000050: 8f1f 293d f553 6bbe 5157 333f 81dc a33d
00000060: d478 453f 87f9 0cbe 4d28 933d 1a73 2e3f
00000070: 8f01 b73d 1a86 433e a32f 693f 3e18 af3e
00000080: d3d5 acbe 5518 5cbe f6bf 2dbe 363f 9abe
00000090: 9b57 e33e bc58 39bf 164e 803e 2086 ea3e
000000a0: 71fc b93d 3264 0c3e 5382 3a3f ef38 9dbe
000000b0: 80c2 a13e 0935 e7be e958 a23e 9abe 03be
000000c0: abd5 2b3f da3b 0ebd 755c b8bd 1d68 17bd
000000d0: 0f02 c8bd f3f0 0ebe 2752 88be ceb5 cdbe
000000e0: a0ee 7d3e 07b7 ddbc cbb8 23bd 61ed 17be
000000f0: 4a6c 22bf 6a8a 35bf 524f 7e3e 28bf 84bc
00000100: be1a 7fbe a076 93be 7ca0 ad3d 8730 803e
00000110: b4fe 313f f086 48be 5f92 bbbe 13d0 31be
00000120: af7e 80be 273c 29be b691 99be f93e 2fbf
00000130: 4e4b d33e 28e9 cbbe 94d3 fdbe 9ed6 7bbf
00000140: 7a28 933e 8627 293f 76a7 86bd 3c47 cabd
00000150: a51c b5bc b821 02bf 95e8 c0be a7b0 883e
00000160: d734 d6be 1e5d a7bd 38e9 3fbf 26a9 20be
00000170: 2f49 86bd 19de 9d3e d9b1 733e 0742 d23e
00000180: ce50 e63e ea64 613e 3803 d83d 56de 76bf
00000190: 8848 0b3e 1856 ab3e 0091 1c3f d420 ddbe
000001a0: a0c6 afbe 07cf fc3c a66d c4be e60e d93a
000001b0: 94bd ec3e 0c05 24bf 3e1e c7be 9cd2 183f
000001c0: cadd 0b3e 76ae 923e 7ae4 193e 8a69 d93d
000001d0: 0bec e3bd 4880 04bf 249c 60be 8018 963e
000001e0: 656f 883e e579 06bf 27c9 5abe 6c15 023d
000001f0: 2377 66be e29f cb3d 4059 de3d a9bd 01bf
00000200: 6672 ea3e 410a 003f 5b57 7abe 2150 513d
00000210: f269 37bf 6c6b 8cbd 0c26 083f a83b 413f
00000220: a8af 353f efec 1d3f 1482 e43e 9aa6 54bf
00000230: f5da c3bc d870 c63e e2c1 2b3e 6692 b7be
00000240: a63b 993e edd9 b03e afe8 e53e cecf 8bbf
00000250: 7a9e c33e 81c1 9bbe 55dd 473e f4ec 7bbd
00000260: ab51 a2be c66e 863e 8056 0cbf 0e93 713f
00000270: 82bd be3f 7460 9bbe 533d c53e d23a ccbc
00000280: d0bb ab3e fadc a13d fa6e 683f 4d31 003f
00000290: e25e 6fbf 7cfb 9f3f 7502 48be a1ce 31bd
000002a0: 4ff7 63be d742 8abe 56c9 043f 4129 5b3e
000002b0: 8516 95be 82d7 8dbd dad3 d63e 2af0 483e
000002c0: 86c3 7dbe d898 453e 1f80 d23e 5a80 373e
000002d0: d18d 70bf 6786 193f 22ef 123e 8bc3 24be
000002e0: 1ea9 0e3e 61bc d6be 51cc f63e 6ae7 65bd
000002f0: 4842 16bf 0e6f cfbe 3c6a 723f 14bb ae3e
00000300: 0a5e 9bbe 620f 44be 9709 17be 18f7 00bd
00000310: 5de6 773e 8374 893e 8d01 48be e805 e03d
00000320: bf8d b03e 28cd b4be 24f3 00be 24d7 a03c
00000330: 6596 5f3d 68ea 5ebf c0f4 733f 927a a93d
00000340: 827b 15bf a404 81be 9910 5ebf 4e42 c13e
00000350: 7369 5f3e 1c3f 8e3e 2dd3 76be 238c 243f
00000360: 2520 183f b9be 26bf 4767 003f 8264 0a3f
00000370: 3aae 133e f15b 03bd 26b1 cb3e b003 4b3f
00000380: 790b 26bd a258 23bf 54ae e2be 70ab d4be
00000390: 920e 91bd 5c31 e8bd b948 4f3d ab1f acbe
000003a0: d6ea aebd bad9 de3e 22d4 793e 49b7 ab3d
000003b0: 9d24 98bd 2f23 e33d fece 9fbc c49e 9b3e
000003c0: a8a7 bd3e 0ebf 85bd bb9d ac3e d350 13be
000003d0: b3f4 683e 12e6 3bbe dded 023d bd34 f6be
000003e0: b2b7 cd3d 6cc0 39be 24a6 f7bd 5f8b 47be
000003f0: 89c0 bcbd a7d7 0dbd ecb4 2fbf cbd5 883f

rnn.weight_hh_l0 f4 [64, 64]
0.20580861 -0.3066563 0.008234285 0.08451023 -0.37664482 -0.33274412 -0.047487877 -0.08794418
0.33077538 -0.13535617 0.03507381 0.016823728 0.17342712 0.07429671 0.053298328 0.022542695
-0.10058983 0.020639094 -0.026090963 -0.056254078 -0.17955273 -0.26972228 -0.3417747 -0.06213279
0.81953114 -0.39317438 -0.2519098 0.13443644 -0.18911506 -0.27698612 -0.08835466 0.4191374
-0.12696622 -0.1737965 -0.12843558 -0.20596872 0.0812863 -0.07933224 -0.23040064 0.07356954
0.29132742 0.15926397 0.19606066 0.1063847 0.3366175 0.025378402 0.2755045 -0.05395813
0.11586573 -0.26238322 0.026343785 0.37172574 0.27123585 0.3068543 0.19408858 -0.0057099545
-0.17472439 -0.0008200878 0.060894303 -0.021178843 -0.044032652 -0.21758021 -0.10707352 -0.09743014
0.100876 0.10943848 0.12153646 0.29394644 0.21131758 0.15817142 0.2479651 0.014715517
-0.31058782 0.19686729 -0.100249134 0.35877237 -0.18594806 -0.06259015 0.23767297 0.022083895
-0.041933253 0.07186076 -0.0093887 0.21510345 0.012992286 -0.05794171 -0.26641795 -0.5916325
-0.22448885 0.05941041 -0.07857838 0.029916272 -0.2889563 0.3420063 -0.51119703 -0.2913566
0.065758646 -0.03742473 0.1571761 0.24728008 0.13982624 0.23730749 0.013343588 -0.24822122
0.26738098 -0.12426311 -0.0484477 0.0011064495 -0.079615094 -0.033953793 -0.19591004 -0.013388163
0.14390098 0.29478833 0.071135044 -0.14836329 -0.106189504 -0.114322014 0.18849193 0.030976571
0.15073103 0.4475542 0.07356817 -0.120780386 0.44772422 -0.013755918 -0.18735147 0.1611951
0.421915 -0.25554425 0.14568716 0.11021766 -0.031338964 0.2942891 -0.12708412 0.09335146
0.06290307 -0.27062982 -0.47659904 -0.22478248 0.08953145 0.058770616 -0.03450406 0.16204758
0.63009596 0.22859117 -0.4017622 -0.032071266 -0.10243336 0.09774512 0.006249764 0.3699255
-0.052072905 0.06493204 0.19702224 0.23115307 -0.08523887 -0.24411742 0.019965352 0.17491703
-0.6329819 0.14509463 0.28779048 -0.11995497 -0.13926488 -0.025489716 0.2282073 0.40727746
-0.092333324 0.37693137 0.25610104 0.4193312 0.14075285 -0.096309975 0.4801955 0.0042189644
-0.4081816 -0.3042312 0.042218532 0.3039666 0.060457334 0.017323088 -0.16016829 -0.2142184
-0.14728424 0.59337765 -0.22307307 -0.18288437 -0.25616512 0.11175291 -0.12782864 -0.17126472
-0.22977105 0.049571287 0.10441702 -0.047985822 0.19298328 -0.11024134 -0.39819667 -0.2762907
-0.07870614 -0.17353362 0.21372294 -0.18800598 -0.14872889 -0.0704436 0.37187338 -0.05881498
-0.15236163 -0.21265838 -0.032584786 -0.27987343 -0.31064194 -0.47654182 -0.020562695 0.070675984
0.044107255 -0.21962337 0.15909445 -0.095252305 -0.13053936 0.0517318 -0.19163366 0.43775788
0.119697034 0.45390555 0.26689008 -0.017028445 -0.42772952 0.07557183 0.18388134 -0.28106183
-0.07741639 -0.2224217 0.39556715 0.14356077 -0.13453738 0.1841373 -0.019607535 0.3585835
0.024081288 -0.21497267 -0.21025518 0.5641363 -0.2700098 0.1605807 0.07963989 -0.044784334
-0.11889992 0.13366051 -0.09346147 0.20809522 0.21594554 -0.16310939 -0.29071525 0.042002637
00000000: 7ebf 523e 0e02 9dbe 18e9 063c b313 ad3d
00000010: 97d7 c0be 705d aabe a682 42bd 141c b4bd
00000020: 645b a93e cf9a 0abe 8ea9 0f3d ead1 893c
00000030: e196 313e e028 983d 594f 5a3d 75ab b83c
00000040: 0a02 cebd 5113 a93c b7bc d5bc ad6a 66bd
00000050: acdc 37be 0a19 8abe 18fd aebe f47e 7ebd
00000060: cbcc 513f 274e c9be 52fa 80be b5a9 093e
00000070: 61a7 41be 20d1 8dbe 4af3 b4bd 2d99 d63e
00000080: 6f03 02be b6f7 31be 9e84 03be 77e9 52be
00000090: 6f79 a63d f178 a2bd 25ee 6bbe a1ab 963d
000000a0: de28 953e 1816 233e 20c4 483e 39e0 d93d
000000b0: 2159 ac3e 5ee6 cf3c ed0e 8d3e 3303 5dbd
000000c0: 034b ed3d 1857 86be ecce d73c d652 be3e
000000d0: 6ddf 8a3e 021c 9d3e 28bf 463e 921a bbbb
000000e0: f3ea 32be 29fb 56ba 4e6c 793d 417f adbc
000000f0: 955b 34bd 59cd 5ebe 5d49 dbbd 7489 c7bd
00000100: 1498 ce3d 4821 e03d 1ce8 f83d 2680 963e
00000110: a363 583e b0f7 213e 90ea 7d3e 5a19 713c
00000120: 5e05 9fbe 9497 493e 6b4f cdbd 03b1 b73e
00000130: 2b69 3ebe 442f 80bd 8b60 733e 49e9 b43c
00000140: 34c2 2bbd bc2b 933d 10d3 19bc 1444 5c3e
00000150: 99dd 543c 4954 6dbd ef67 88be 3a75 17bf
00000160: 68e0 65be 5458 733d b4ed a0bd f812 f53c
00000170: 15f2 93be 731b af3e cfdd 02bf b12c 95be
00000180: 78ac 863d ac4a 19bd c6f2 203e fd36 7d3e
00000190: 9c2e 0f3e bc00 733e 119f 5a3c b42d 7ebe
000001a0: 29e6 883e a87d febd 1871 46bd 4906 913a
000001b0: 3d0d a3bd 2213 0bbd a49c 48be 075a 5bbc
000001c0: c75a 133e 7fee 963e 40af 913d 8cec 17be
000001d0: e279 d9bd a921 eabd 0704 413e 94c2 fd3c
000001e0: 3c59 1a3e d325 e53e e9aa 963d b55b f7bd
000001f0: 1c3c e53e 8060 61bc 10d9 3fbe 5410 253e
00000200: 3e05 d83e b2d6 82be 042f 153e ccb9 e13d
00000210: 495d 00bd 10ad 963e 5722 02be 0d2f bf3d
00000220: 53d3 803d fe8f 8abe ca04 f4be 612d 66be
00000230: 445c b73d 75b9 703d 2154 0dbd cdef 253e
00000240: f84d 213f ce13 6a3e c6b3 cdbe 295d 03bd
00000250: 95c8 d1bd 982e c83d d2ca cc3b e066 bd3e
00000260: 664a 55bd 17fb 843d 33c0 493e 64b3 6c3e
00000270: b791 aebd ebf9 79be 618e a33c 731d 333e
00000280: 1a0b 22bf b093 143e 4659 933e f4aa f5bd
00000290: 749b 0ebe cfcf d0bc 2daf 693e ac86 d03e
000002a0: 4119 bdbd 26fd c03e ad1f 833e 94b2 d63e
000002b0: 8421 103e 2a3e c5bd 2fdc f53e 3d3f 8a3b
000002c0: 2efd d0be 31c4 9bbe 57ed 2c3d 83a1 9b3e
000002d0: 1ca2 773d 26e9 8d3c 2803 24be 115c 5bbe
000002e0: aed1 16be 99e7 173f 446d 64be 0a46 3bbe
000002f0: 1328 83be b6de e43d 83e5 02be 0560 2fbe
00000300: 1a49 6bbe 430b 4b3d 97d8 d53d c88c 44bd
00000310: 699d 453e 36c6 e1bd 6fe0 cbbe fa75 8dbe
00000320: af30 a1bd ccb2 31be 30da 5a3e a484 40be
00000330: 634c 18be bc44 90bd 3066 be3e fae7 70bd
00000340: b004 1cbe 1ec3 59be a077 05bd 924b 8fbe
00000350: 760c 9fbe 4afd f3be 1973 a8bc 92be 903d
00000360: cfa9 343d f3e4 60be a8e9 223e a413 c3bd
00000370: 1cac 05be b9e4 533d 9d3b 44be cd21 e03e
00000380: b823 f53d 4f66 e83e d1a5 883e 3d7f 8bbc
00000390: 5dff dabe 67c5 9a3d 644b 3c3e 56e7 8fbe
000003a0: 7c8c 9ebd 84c2 63be c787 ca3e 9801 133e
000003b0: 2bc4 09be 7d8e 3c3e fb9f a0bc 4298 b73e
000003c0: 1f46 c53c cc21 5cbe 224d 57be 3d6b 103f
000003d0: b93e 8abe 446f 243e 3d1a a33d c76f 37bd
000003e0: cd81 f3bd 4dde 083e ba68 bfbd ea16 553e
000003f0: d420 5d3e 2606 27be a1d8 94be f50a 2c3d

actor.weight f4 [3, 64]
-0.12728718 0.06534711 -0.1312395 0.017703725 -0.083983175 -0.023172548 0.32422727 -0.3209092
0.13059439 -0.0010270508 -0.18233588 -0.037402723 -0.18827045 0.28709325 0.012340933 -0.042077616
0.21692453 -0.39766207 -0.24270882 -0.33975413 0.089702755 -0.018814474 0.12264112 0.08870163
-0.35950732 -0.068326674 0.009943074 0.14138661 0.047847584 0.13214609 0.016049786 0.22538404
-0.0054099103 0.46233225 -0.26163986 0.17913572 0.15574591 0.04112777 -0.14396249 -0.04081834
-0.25893718 0.21523514 -0.008404725 0.26537162 0.2342817 -0.53004867 0.062984124 -0.015642589
-0.027109811 -0.42972502 -0.10286497 0.0045052036 0.14835556 0.017480532 0.60313714 -0.41707614
0.13678777 -0.03821404 -0.05429767 0.08914928 0.09495863 0.181787 -0.13689794 0.31563175
-0.039107833 -0.014129814 0.020155298 0.2771608 0.24415329 0.055977523 0.08618491 0.041067578
-0.05732004 0.032556955 0.067535155 0.032079667 -0.014233554 -0.36653492 -0.009891212 0.07508963
-0.4557674 0.08698538 0.13040411 0.29418686 -0.13435186 -0.08289472 -0.23321024 0.11887371
0.19035992 0.20649591 -0.19954804 -0.034103 -0.0052818586 -0.1138525 -0.13796234 -0.37202504
0.3113661 0.043716095 0.0041706786 0.13533925 -0.07483185 0.036461294 -0.15475519 -0.39413568
0.066764325 -0.4215446 -0.18035011 -0.08952062 -0.20683499 0.14137928 -0.3676751 -0.11405271
0.15164119 0.12610352 0.0854037 0.029115923 -0.050956134 0.050533906 -0.08412659 0.3773304
0.0688166 -0.14706999 0.29550433 -0.0434398 -0.1266371 0.048613705 0.1381529 -0.50212044
0.04368064 -0.016033607 0.049841266 -0.10178229 0.0060668807 -0.13188395 -0.20998205 0.12344636
-0.009185241 -0.07856675 0.12681714 -0.054844093 0.15078685 0.08740083 0.01066952 0.039446995
0.082140476 0.15525466 0.028475052 0.011267247 0.038414855 0.10371226 0.037532702 0.026105944
0.030052776 -0.05721576 0.09190475 -0.0363494 0.039223276 -0.009442066 -0.002867551 0.051355124
-0.086305246 -0.22622278 0.10109845 -0.17135157 0.016286094 -0.098728515 0.21228378 0.2015981
0.09316167 0.080158174 0.16921349 -0.0742784 -0.14488296 0.2294042 0.06563576 0.1743436
-0.12948303 0.16798264 -0.09941256 -0.039817847 -0.10038779 -0.09659722 -0.27323273 -0.015050926
-0.048951887 0.05281167 -0.113219716 -0.018593859 -0.06717041 -0.15703699 -0.086942054 -0.012131933
00000000: 9257 02be b5d4 853d a663 06be 6707 913c
00000010: 5fff abbd 5bd4 bdbc 1e01 a63e 364e a4be
00000020: 89ba 053e 1b9e 86ba 42b6 3abe 9933 19bd
00000030: f8c9 40be e3fd 923e a031 4a3c 9459 2cbd
00000040: 7721 5e3e 5d9a cbbe a988 78be 41f4 adbe
00000050: 14b6 b73d d020 9abc 442b fb3d 33a9 b53d
00000060: 5811 b8be dbee 8bbd 46e8 223c a7c7 103e
00000070: d4fb 433d 4e51 073e d77a 833c 13cb 663e
00000080: 9e45 b1bb d0b6 ec3e a9f5 85be 5b6f 373e
00000090: db7b 1f3e 9875 283d e76a 13be 2231 27bd
000000a0: 6a93 84be 9a66 5c3e f9b3 09bc cade 873e
000000b0: 8be7 6f3e 45b1 07bf d2fd 803d e324 80bc
000000c0: 6515 debc eb04 dcbe dfaa d2bd 63a0 933b
000000d0: 85ea 173e 5533 8f3c 3267 1a3f 018b d5be
000000e0: 1812 0c3e 5386 1cbd 3c67 5ebd e693 b63d
000000f0: ac79 c23d 5f26 3a3e f92e 0cbe 7c9a a13e
00000100: 892f 20bd bc80 67bc b91c a53c 05e8 8d3e
00000110: 5203 7a3e b048 653d b781 b03d 7a36 283d
00000120: 6bc8 6abd 715a 053d df4f 8a3d f865 033d
00000130: da33 69bc 77aa bbbe c00e 22bc 98c8 993d
00000140: 585a e9be 6425 b23d a888 053e a99f 963e
00000150: 8993 09be b5c4 a9bd aace 6ebe 0f74 f33d
00000160: b6ed 423e aa73 533e 5256 4cbe 96af 0bbd
00000170: 7113 adbb 802b e9bd 0046 0dbe 117a bebe
00000180: 616b 9f3e a60f 333d 30aa 883b 5f96 0a3e
00000190: 7141 99bd 7058 153d 2578 1ebe 27cc c9be
000001a0: bcbb 883d b2d4 d7be b3ad 38be 9656 b7bd
000001b0: 8dcc 53be bbc5 103e e93f bcbe 7894 e9bd
000001c0: d447 1b3e 4821 013e 23e8 ae3d 8484 ee3c
000001d0: 61b7 50bd a4fc 4e3d 904a acbd 7331 c13e
000001e0: b8ef 8c3d 8499 16be 584c 973e efed 31bd
000001f0: 28ad 01be 2a1f 473d f477 0d3e f78a 00bf
00000200: 79ea 323d e958 83bc 5b26 4c3d 3c73 d0bd
00000210: afcc c63b 960c 07be 8905 57be 72d1 fc3d
00000220: b17d 16bc 9be7 a0bd 5adc 013e 33a4 60bd
00000230: de67 1a3e 35ff b23d 36cf 2e3c 2c93 213d
00000240: 4439 a83d 14fb 1e3e 8344 e93c 429a 383c
00000250: e558 1d3d 1867 d43d e4bb 193d 22dc d53c
00000260: 3d31 f63c 135b 6abd 8f38 bc3d 1ce3 14bd
00000270: 96a8 203d e5b2 1abc 86ed 3bbb c059 523d
00000280: cec0 b0bd f2a6 67be b40c cf3d c976 2fbe
00000290: 6a6a 853c 2d32 cabd eb60 593e bb6f 4e3e
000002a0: 8ccb be3d f829 a43d 4d46 2d3e 461f 98bd
000002b0: 335c 14be efe8 6a3e 0b6c 863d 2187 323e
000002c0: 3397 04be a403 2c3e d098 cbbd 0a18 23bd
000002d0: 1d98 cdbd c3d4 c5bd 29e5 8bbe 2998 76bc
000002e0: c681 48bd 0d51 583d bddf e7bd 2652 98bc
000002f0: a490 89bd 4ece 20be ad0e b2bd 04c5 46bc

critic.weight f4 [1, 64]
0.12632596 0.02204026 0.065556474 -0.096371286 -6.309311e-05 0.143087 -0.08907517 -0.031754892
-0.04465582 -0.026717197 0.060734034 -0.05144051 0.10351683 -0.030493466 0.074195765 0.054757368
0.07860246 0.19410434 0.009133716 0.14295344 0.13950685 0.054260824 -0.11644656 -0.031160297
0.09322528 -0.08736807 0.06236782 -0.036913566 0.024472166 -0.00023082097 -0.068873964 0.116069406
-0.07937567 -0.18901874 0.13163465 -0.049759667 0.031260323 0.032133684 0.032726366 0.014213417
0.099875495 0.11010205 0.04512862 0.019327443 -0.02203749 -0.02432015 0.12137868 0.037185784
-0.08357109 0.034550533 -0.012678539 0.004685695 0.014262264 -0.025606787 -0.09725273 -0.09625947
-0.07928083 0.16702361 -0.12931137 0.058096796 -0.034091745 -0.02159486 0.04910742 0.32206333
00000000: 985b 013e c68d b43c 7942 863d 4f5e c5bd
00000010: db50 84b8 6685 123e 0b6d b6bd 6b11 02bd
00000020: 05e9 36bd 06de dabc 40c4 783d 49b3 52bd
00000030: a200 d43d 6fcd f9bc f3f3 973d 4349 603d
00000040: 54fa a03d 4ac3 463e 95a5 153c 6362 123e
00000050: e2da 0e3e 9940 5e3d 897b eebd e143 ffbc
00000060: e5ec be3d 08ee b2bd 6675 7f3d ae32 17bd
00000070: da79 c83c 8808 72b9 cb0d 8dbd ccb5 ed3d
00000080: b68f a2bd 218e 41be 3ccb 063e cbd0 4bbd
00000090: d30a 003d 9c9e 033d 150c 063d 64df 683c
000000a0: 868b cc3d 2f7d e13d cad8 383d 9654 9e3c
000000b0: f787 b4bc 0d3b c7bc 6395 f83d 1f50 183d
000000c0: 5227 abbd dc84 0d3d a6b9 4fbc 758a 993b
000000d0: 45ac 693c 53c5 d1bc 702c c7bd af23 c5bd
000000e0: fd5d a2bd 3d08 2b3e 336a 04be e8f6 6d3d
000000f0: c9a3 0bbd b4e7 b0bc dd24 493d 7ce5 a43e
