model_params_101000/55.0_V3_0.95g_0.0rm_100bz_2.5e-05td_1.0tds_Nonelb_Noneup_64n_50000e_10md_5.0rz_2s.pth (torch, 22944 bytes, 4 tensors)

rnn.weight_ih_l0 f4 [64, 9]
-0.20023055 -0.0008560476 -0.029701527 0.14173807 -0.1372438 0.031830672 -0.019711157 -0.57861733
-0.26182956 0.2873618 0.294521 -0.66833705 -0.21675597 0.15468282 0.28741786 0.16069736
-0.0572866 0.3627237 -0.27694878 0.44684625 -0.18642366 -0.06456797 -0.56166816 0.066688456
-0.19030602 0.55769664 0.28828192 -0.25185096 -0.28072163 0.64940524 0.91165525 -0.3070196
0.8981795 0.4128776 1.2620221 0.5334698 0.010049023 0.2743424 0.31125975 -1.4255403
0.3358444 -0.5016851 0.20234111 0.08383322 0.3556521 -0.13355297 0.09728829 -0.43464217
-0.067733884 0.45602244 -0.3948478 0.33937427 0.5250578 0.48478872 0.5326067 0.2542771
0.5468215 0.72981256 -0.3829756 -0.13081568 -0.5800245 -0.012757715 -0.39842117 0.1547993
0.4684664 -0.20698786 -0.4556176 -0.19663072 -0.03206758 0.085425265 0.82463527 -0.37253425
-0.2639024 -0.85308886 -0.26407048 0.09246517 0.293907 -0.093616344 0.34867388 -0.37425992
0.09726279 0.63851774 -0.08343141 0.044362023 0.7297787 -0.3563673 0.586085 0.10127444
-0.83307254 0.20251468 -0.25837272 -0.041247986 0.63139534 -1.5191265 0.10073044 -0.7207815
-0.30598786 -0.37476608 -0.33269092 -0.78611916 -0.16862775 -0.07982062 -0.12869349 0.79160625
0.38720393 0.8640113 -0.16586371 0.04135125 0.26129404 -0.58660156 -0.032898452 0.79054123
0.53244686 -0.2063591 -0.19379136 -0.404583 -0.0076028425 0.37866238 0.47253564 -0.28173935
0.8092959 -0.26002654 0.57164145 0.85142785 0.31905597 -0.004251391 -0.33801284 0.54892325
-0.6266171 -1.3029836 0.23837975 0.10669637 0.0033175913 -0.5973393 0.030806107 -0.37020633
0.1889759 -0.3662927 0.37564275 -0.008877115 -0.040669598 -0.6665624 0.729041 0.45215666
-0.31684226 -0.09550973 -0.19514857 0.63938236 0.2706971 -0.14301462 -0.13664888 -0.63632417
0.21632257 -0.67934996 -0.25940323 -0.30130345 -0.3488065 -0.015489379 -0.05326487 -0.6291675
-0.41281897 -0.059472255 0.5508969 -0.4510387 -0.14176552 1.767253 -0.23525928 0.27488843
-0.0355543 -0.18303417 0.3126758 -0.28240192 0.2255297 -0.36339217 -0.7702092 0.110914916
-0.2519509 0.3176389 -0.12413135 0.34737253 0.39075053 -0.5683394 -0.16996871 0.7268174
-0.30057034 0.44361857 -0.009836395 0.3688631 0.059996776 -0.3065759 0.36993453 -0.22510609
-0.89176786 0.15228127 -0.0802919 -0.18644336 -0.011738842 -0.100024045 0.5331777 -0.762496
-0.08178372 0.5305805 0.22922392 -0.17298765 -0.2475725 -0.4727132 -0.42435145 -0.2778977
0.036277775 -0.05245363 -0.5625178 -0.3919546 -0.10922014 0.42874473 0.2018622 -0.021034323
-0.5193715 0.706892 0.41674793 -0.024768373 0.01198475 -0.13301863 0.04521774 0.03461824
0.311645 -0.69194716 -0.07998604 -0.599674 -0.97238445 0.3054829 -0.68427575 -0.6136995
-0.17845257 -0.0939786 -0.33443022 0.36439252 0.11035069 -0.094161235 -0.35041216 0.35274294
-0.5194081 -0.00015700946 -0.63351774 0.39356595 -0.28142044 0.049944744 0.8643652 -0.48793837
-0.19007482 -0.0978168 0.30904052 0.057357565 -0.8022438 0.4353844 0.17550138 -1.625104
00000000: 3d09 4dbe 6268 60ba 9e50 f3bc c923 113e
00000010: a489 0cbe e160 023d 4b79 a1bc 4420 14bf
00000020: 860e 86be 1621 933e 75cb 963e 2318 2bbf
00000030: 47f5 5dbe 2c65 1e3e 6f28 933e d98d 243e
00000040: 5ba5 6abd ecb6 b93e 3bcc 8dbe 08c9 e43e
00000050: d8e5 3ebe 363c 84bd 7cc9 0fbf f593 883d
00000060: 95df 42be 35c5 0e3f b099 933e 9cf2 80be
00000070: bfba 8fbe 6c3f 263f 3d62 693f ac31 9dbe
00000080: 17ef 653f b164 d33e f189 a13f 7a91 083f
00000090: a8a4 243c 9b76 8c3e 705d 9f3e 1b78 b6bf
000000a0: ccf3 ab3e 6f6e 00bf 8232 4f3e c0b0 ab3d
000000b0: 0818 b63e 1cc2 08be 153f c73d 6b89 debe
000000c0: 10b8 8abd c67b e93e 7e29 cabe 77c2 ad3e
000000d0: 306a 063f 3a36 f83e ea58 083f 9c30 823e
000000e0: 7efc 0b3f ffd4 3a3f 6115 c4be 8cf4 05be
000000f0: 7c7c 14bf bc05 51bc dcfd cbbe b583 1e3e
00000100: d4da ef3e a0f4 53be b646 e9be 9059 49be
00000110: 4b59 03bd 71f3 ae3d 4c1b 533f cfbc bebe
00000120: 371e 87be 0864 5abf 3f34 87be 615e bd3d
00000130: fa7a 963e edb9 bfbd 6285 b23e ff9e bfbe
00000140: b731 c73d e675 233f 16de aabd f4b4 353d
00000150: c7d2 3a3f c675 b6be ab09 163f f968 cf3d
00000160: 3e44 55bf 0260 4f3e 6e49 84be a6f3 28bd
00000170: 20a3 213f bd72 c2bf c34b ce3d 2385 38bf
00000180: 71aa 9cbe 57e1 bfbe 7756 aabe 1b3f 49bf
00000190: c1ac 2cbe fe78 a3bd 3ac8 03be b5a6 4a3f
000001a0: 983f c63e d82f 5d3f 2dd8 29be ee5f 293d
000001b0: 55c8 853e 852b 16bf 87c0 06bd e960 4a3f
000001c0: 704e 083f cd4f 53be 3e71 46be 8125 cfbe
000001d0: 4421 f9bb 09e0 c13e 31f0 f13e 2440 90be
000001e0: 042e 4f3f 3322 85be 1857 123f 2df7 593f
000001f0: 4e5b a33e 414f 8bbb 0510 adbe 3c86 0c3f
00000200: fa69 20bf 2bc8 a6bf d219 743e a083 da3d
00000210: f26b 593b 3aeb 18bf 175d fc3c af8b bdbe
00000220: e682 413e b78a bbbe 3f54 c03e 5271 11bc
00000230: 2a95 26bd d5a3 2abf 6ea2 3a3f 1481 e73e
00000240: 2639 a2be 9b9a c3bd 07d5 47be 90ae 233f
00000250: cf98 8a3e 6d72 12be afed 0bbe 24e6 22bf
00000260: aa83 5d3e e1e9 2dbf 80d0 84be 7244 9abe
00000270: c496 b2be 2ac7 7dbc 442c 5abd 1f11 21bf
00000280: 025d d3be 2e99 73bd 9407 0d3f 8bee e6be
00000290: fb2a 11be 5935 e23f cfe7 70be 2dbe 8c3e
000002a0: 63a1 11bd 4f6d 3bbe 0b17 a03e fc96 90be
000002b0: 42f1 663e 8a0e babe 6e2c 45bf 5c27 e33d
000002c0: b5ff 80be 91a1 a23e 9438 febd d0da b13e
000002d0: 7410 c83e b17e 11bf 470c 2ebe b510 3a3f
000002e0: 5be4 99be f921 e33e d528 21bc a0db bc3e
000002f0: 2ebf 753d 84f7 9cbe 0f68 bd3e 3682 66be
00000300: e64a 64bf 9fef 1b3e 1470 a4bd 02eb 3ebe
00000310: 4654 40bc 68d9 ccbd 557e 083f f032 43bf
00000320: 397e a7bd 20d4 073f adb9 6a3e ad23 31be
00000330: a583 7dbe 7707 f2be 9844 d9be 9b48 8ebe
00000340: 0198 143d 9ed9 56bd 2b01 10bf 46ae c8be
00000350: cfae dfbd 6e84 db3e f7b4 4e3e 2c50 acbc
00000360: 88f5 04bf e0f6 343f fc5f d53e 0be7 cabc
00000370: af5b 443c 0936 08be 3d36 393d dbcb 0d3d
00000380: ef8f 9f3e 7323 31bf b9cf a3bd 3c84 19bf
00000390: 30ee 78bf 4168 9c3e b22c 2fbf 691b 1dbf
000003a0: 45bc 36be da77 c0bd 703a abbe a891 ba3e
000003b0: 8bff e13d 9bd7 c0bd 3969 b3be b99a b43e
000003c0: eef7 04bf e8a2 24b9 382e 22bf 7a81 c93e
000003d0: 5716 90be dc92 4c3d 0a47 5d3f 0fd3 f9be
000003e0: f9a2 42be 2d54 c8bd 8f3a 9e3e c4ef 6a3d
000003f0: da5f 4dbf b4ea de3e a2b6 333e 6803 d0bf

rnn.weight_hh_l0 f4 [64, 64]
0.13205703 -0.32314697 -0.15981387 -0.09797264 -0.009919769 -0.15581937 0.082832046 0.007700224
0.046870444 0.121818505 -0.1552356 -0.27959895 -0.13414815 0.13302203 -0.24042085 0.04382011
-0.10025601 0.16108756 0.021677827 -0.19692884 0.029550351 -0.43169576 0.32679686 -0.24049717
-0.11604899 0.27613607 -0.043730535 0.003479389 -0.18669426 0.18950924 -0.08947001 -0.18411274
-0.44600466 -0.007080143 -0.25503662 0.5068488 -0.25083318 0.009768145 0.20243199 -0.12833376
-0.15476404 0.09452009 0.32157496 0.38325462 -0.0012241432 -0.21091333 -0.10238521 -0.10865024
0.1192952 0.0085956 -0.038749695 0.037386164 -0.046489008 0.042842865 0.098536536 0.07439272
0.1518392 0.04356777 -0.19077922 -0.29401726 -0.17889887 0.1926062 -0.015613955 -0.07241082
0.1652109 -0.35574523 0.08429885 0.02605498 -0.06466413 -0.09109267 -0.03656967 0.057099037
0.03435269 -0.057408355 0.2077502 -0.023946013 -0.074838825 -0.057542115 -0.08305929 0.15924367
-0.22684745 -0.22097966 -0.08875791 -0.28870952 0.080504306 0.0210037 0.365416 0.23257051
-0.27408746 -0.257893 -0.14493379 -0.03239757 -0.3490673 0.018941594 0.09475561 -0.13834251
-0.5456177 0.064216346 0.141934 -0.013701413 -0.2636381 0.010955357 -0.2551455 0.10076023
-0.23445567 -0.054277707 0.017795505 0.13095474 0.0828671 -0.16568373 -0.09993899 0.06266831
0.031798154 0.3533785 0.20334975 -0.25286976 0.09590497 -0.026432615 0.28084406 0.15882869
0.17099872 0.13334697 -0.027138954 -0.17455971 0.0276528 0.08632672 -0.21323647 0.0071575316
0.037634447 -0.41537258 -0.001258975 0.056336615 0.38701427 0.12479021 -0.15230677 -0.27477646
-0.03360862 0.011617386 -0.32901633 -0.20812781 -0.038689602 -0.18747431 0.37213203 -0.03489738
-0.34272772 0.35343227 -0.17003427 -0.061687417 -0.16796894 0.15912642 0.03560034 0.16162317
-0.16785538 -0.6051722 0.033335436 -0.19178906 0.1654087 -0.052528698 0.023097113 -0.039899155
0.2890904 0.10851538 0.15779936 -0.16687933 -0.36870286 0.29451567 0.007633478 0.03837642
0.0679782 -0.3091432 -0.3001187 0.043607663 0.066157095 -0.0019498403 -0.24521074 0.08540937
-0.16935258 -0.0044524306 -0.254955 0.34902194 -0.2844494 0.21246146 -0.008079681 0.23406656
-0.16702121 -0.18956555 -0.047613833 0.07000311 0.07675036 -0.16848198 0.21930574 -0.27987862
-0.044096913 -0.0003951198 -0.1532531 -0.088474505 -0.101551645 -0.17207198 0.14000829 -0.24874505
-0.014979093 0.197853 -0.21232556 -0.36093223 -0.110723935 0.20154077 -0.2540596 0.214479
0.12884971 0.09955483 -0.009182277 -0.08319007 0.24225074 -0.08113625 -0.15974778 -0.07867804
0.0006475118 -0.17307593 -0.08470053 -0.06729604 -0.16436397 0.034566943 0.0197682 -0.14718184
-0.1587357 0.30250525 -0.19018117 -0.027045898 -0.29016358 -0.12098446 0.36813802 0.06784229
-0.023047574 -0.14346799 0.21182293 0.24724734 -0.093445554 -0.273379 -0.01138317 -0.065565765
-0.04473987 0.008294211 -0.018712182 -0.25787288 0.07720158 0.22689627 -0.14411202 -0.12901998
-0.012532295 0.021620072 0.21682991 -0.10945084 -0.11410823 0.17732845 -0.27810425 0.12863936
00000000: f539 073e 8573 a5be 3fa6 23be e1a5 c8bd
00000010: 8786 22bc 1d8f 1fbe d9a3 a93d 2952 fc3b
00000020: 39fb 3f3d fb7b f93d 15f6 1ebe 9827 8fbe
00000030: 225e 09be ed36 083e e230 76be b77c 333d
00000040: 0653 cdbd 23f4 243e b395 b13c b7a7 49be
00000050: 9413 f23c 3a07 ddbe eb51 a73e e444 76be
00000060: 18ab edbd b561 8d3e ca1e 33bd 7606 643b
00000070: c82c 3fbe b60e 423e 0d3c b7bd 0d88 3cbe
00000080: b95a e4be 8b00 e8bb 2994 82be d8c0 013f
00000090: 356d 80be 920a 203c 554a 4f3e ed69 03be
000000a0: 777a 1ebe c093 c13d 79a5 a43e f339 c43e
000000b0: 6e73 a0ba aaf9 57be 56af d1bd 0484 debd
000000c0: 0b51 f43d 8fd4 0c3c 00b8 1ebd 3c22 193d
000000d0: 426b 3ebd 007c 2f3d 86cd c93d 365b 983d
000000e0: bc7b 1b3e 1e74 323d a15b 43be 6e89 96be
000000f0: 4431 37be 8f3a 453e add1 7fbc 204c 94bd
00000100: 0c2d 293e 3d24 b6be e0a4 ac3d 4171 d53c
00000110: a16e 84bd cb8e babd 14ca 15bd aee0 693d
00000120: 68b5 0c3d 0625 6bbd 78bc 543e 6e2a c4bc
00000130: 1945 99bd 48b1 6bbd fd1a aabd c610 233e
00000140: b34a 68be 7e48 62be b5c6 b5bd bcd1 93be
00000150: 71df a43d f40f ac3c ce17 bb3e f726 6e3e
00000160: 3155 8cbe 8d0a 84be 8669 14be 50b3 04bd
00000170: f3b8 b2be 672b 9b3c 3b0f c23d a9a9 0dbe
00000180: 9aad 0bbf dc83 833d 2657 113e e47b 60bc
00000190: 93fb 86be 197e 333c 6ea2 82be 615b ce3d
000001a0: 2615 70be 4d52 5ebd e1c7 913c 0019 063e
000001b0: 3ab6 a93d ffa8 29be d0ac ccbd 3e58 803d
000001c0: c83e 023d 07ee b43e eb3a 503e 2578 81be
000001d0: d369 c43d 3689 d8bc cbca 8f3e fda3 223e
000001e0: 4a1a 2f3e 1c8c 083e 8352 debc c8bf 32be
000001f0: 2088 e23c 10cc b03d a95a 5abe ba89 ea3b
00000200: 9426 1a3d b7ab d4be 3104 a5ba 39c1 663d
00000210: bc26 c63e 0292 ff3d 4ef6 1bbe 80af 8cbe
00000220: 31a9 09bd d956 3e3c d474 a8be 751f 55be
00000230: fd78 1ebd 44f9 3fbe 1788 be3e 8ef0 0ebd
00000240: 027a afbe 13f5 b43e 771d 2ebe f2ab 7cbd
00000250: 0d00 2cbe 09f2 223e aad1 113d 8b80 253e
00000260: 48e2 2bbe 91ec 1abf bd8a 083d 5a64 44be
00000270: e660 293e 5528 57bd 2836 bd3c 4c6d 23bd
00000280: a803 943e 503d de3d 2896 213e 6ae2 2abe
00000290: 9fc6 bcbe c2ca 963e 4122 fa3b 9830 1d3d
000002a0: 2838 8b3d 0448 9ebe 29a9 99be f39d 323d
000002b0: 5f7d 873d c991 ffba 8618 7bbe 1ceb ae3d
000002c0: c36a 2dbe b2e5 91bb 7689 82be 01b3 b23e
000002d0: 5aa3 91be 7f8f 593e a360 04bc 25af 6f3e
000002e0: 9c07 2bbe 791d 42be b906 43bd ca5d 8f3d
000002f0: 4b2f 9d3d 8a86 2cbe af91 603e 404c 8fbe
00000300: f79e 34bd 1528 cfb9 61ee 1cbe 1f32 b5bd
00000310: 4ffa cfbd a333 30be 555e 0f3e 06b7 7ebe
00000320: df6a 75bc fa99 4a3e df6b 59be 1ccc b8be
00000330: 3bc3 e2bd b460 4e3e 1a14 82be 62a0 5b3e
00000340: 2ef1 033e 67e3 cb3d 4371 16bc 8e5f aabd
00000350: 9410 783e c32a a6bd ec94 23be f421 a1bd
00000360: c8bd 293a d13a 31be 7977 adbd 82d2 89bd
00000370: 074f 28be 1196 0d3d ecf0 a13c d6b6 16be
00000380: 9d8b 22be f8e1 9a3e dabe 42be 5c8f ddbc
00000390: 5290 94be b3c6 f7bd 967c bc3e e6f0 8a3d
000003a0: 44ce bcbc 46e9 12be 1ce8 583e 682e 7d3e
000003b0: 6260 bfbd 55f8 8bbe 7a80 3abc 5847 86bd
000003c0: 2741 37bd 71e4 073c 4a4a 99bc ea07 84be
000003d0: dd1b 9e3d 7f57 683e 1a92 13be d01d 04be
000003e0: 4154 4dbc 941c b13c a908 5e3e c327 e0bd
000003f0: 93b1 e9bd 9795 353e ae63 8ebe 09ba 033e

actor.weight f4 [3, 64]
-0.11130718 -0.3275591 0.21436445 -0.43541017 -0.1100637 0.020202748 -0.07275425 -0.25488272
0.3082116 -0.18647358 -0.007628216 -0.14136565 -0.010035083 -0.41589966 0.29861334 -0.3420092
0.12884426 0.2922396 -0.18022494 -0.12554675 -0.15115233 0.23538032 0.18492067 0.3179182
0.033865478 0.28618202 0.35894197 -0.21287353 0.057584822 0.098748975 0.4426179 -0.05437594
0.04013876 -0.29565853 0.031132635 -0.26306152 0.049695857 -0.028525727 0.19817548 -0.044954844
-0.08028707 0.017550334 -0.2129606 -0.075261645 0.22210966 0.13213739 -0.071961194 0.32482305
0.25839996 -0.21167584 -0.08499277 0.6586063 -0.038013387 0.19170086 -0.024918595 -0.044914354
-0.079392925 0.056783516 -0.29798672 0.08914626 -0.1905534 -0.18464777 0.28174537 -0.3041446
0.08323194 0.37982655 -0.45075366 0.14803824 -0.24996078 -0.1420153 -0.007901218 -0.010047753
-0.049269855 0.04840831 0.14912531 0.10100356 0.31065425 -0.021292835 -0.19429235 0.20129994
0.18824567 -0.1430921 -0.0043319184 0.09343263 0.12873527 -0.5298823 -0.06274617 -0.12588654
-0.113027684 -0.017532837 -0.113127306 0.002685741 -0.5181596 0.08921463 -0.11972398 -0.3099165
-0.18309803 -0.021164106 -0.14039963 0.02527537 -0.28631988 0.08022141 0.014833308 -0.40614685
-0.023536153 -0.08260228 0.0033183014 -0.11835961 0.004450809 -0.1989718 -0.19410357 -0.101407394
0.16677684 -0.13968249 -0.031282697 -0.40383995 -0.04125012 -0.09091283 0.05997363 0.331259
-0.111230075 0.12977862 0.0132867545 -0.24819036 0.2608636 0.2051282 -0.15578854 0.22312304
0.0342494 0.015423495 0.04677228 0.099342756 0.16253506 0.030308483 0.05519 0.122027926
-0.060495574 0.07604455 -0.11891365 -0.040301833 -0.08757003 0.17218213 -0.01326607 0.0715936
-0.07259358 0.054281577 0.13475539 -0.103108026 0.06272097 0.045594595 -0.040358383 -0.13131674
0.13725683 -0.10348348 -0.075779006 0.12735416 0.2017998 -0.093335256 -0.10328113 0.19136608
0.083374545 0.13169672 -0.059785802 0.049193915 0.12284165 -0.12392193 -0.080301724 0.22461575
-0.08384981 0.06926243 0.118280336 0.0815763 -0.089497745 0.008764775 0.124516174 -0.024154996
-0.19220482 0.11631672 0.11325614 -0.13065226 0.121155925 -0.02825143 -0.04486986 -0.086035885
0.112963736 -0.051366635 0.09204011 0.12830554 -0.08144244 -0.026073065 -0.1659042 0.079161994
00000000: 05f5 e3bd d4b5 a7be 5b82 5b3e 15ee debe
00000010: 1469 e1bd 3c80 a53c 2e00 95bd fd7f 82be
00000020: e9cd 9d3e eef2 3ebe 1df6 f9bb 28c2 10be
00000030: 306a 24bc cdf0 d4be d9e3 983e d41b afbe
00000040: c0ef 033e 6ea0 953e e38c 38be 548f 00be
00000050: adc7 1abe 8a07 713e d85b 3d3e 2dc6 a23e
00000060: 87b6 0a3d 7386 923e 3ec7 b73e 85fb 59be
00000070: 10de 6b3d e73c ca3d d09e e23e 4eb9 5ebd
00000080: 8a68 243d 8e60 97be de09 ff3c 00b0 86be
00000090: e28d 4b3d c9ae e9bc 83ee 4a3e 9222 38bd
000000a0: 8c6d a4bd b8c5 8f3c 5812 5abe c722 9abd
000000b0: b770 633e 064f 073e 6460 93bd 354f a63e
000000c0: 004d 843e 8dc1 58be b010 aebd 6c9a 283f
000000d0: edb3 1bbd 3b4d 443e 1522 ccbc 1df8 37bd
000000e0: c298 a2bd d595 683d b791 98be 5092 b63d
000000f0: 6e20 43be 4e14 3dbe ee40 903e d7b8 9bbe
00000100: 8275 aa3d a078 c23e 2fc9 e6be 5697 173e
00000110: b8f5 7fbe 756c 11be 1c74 01bc 559f 24bc
00000120: 30cf 49bd cb47 463d 4eb4 183e f4da ce3d
00000130: 130e 9f3e 506e aebc 93f4 46be 9221 4e3e
00000140: 79c3 403e bc86 12be c4f2 8dbb 9b59 bf3d
00000150: 2ed3 033e 5ea6 07bf 1081 80bd 67e8 00be
00000160: 0f7b e7bd 06a1 8fbc 4aaf e7bd 4203 303b
00000170: 1ca6 04bf 29b6 b63d d931 f5bd 60ad 9ebe
00000180: 0d7e 3bbe 5960 adbc ecc4 0fbe 4b0e cf3c
00000190: 8598 92be 1f4b a43d 6707 733c 7bf2 cfbe
000001a0: e4ce c0bc 622b a9bd dc77 593b 8666 f2bd
000001b0: 18d8 913b 43bf 4bbe 16c3 46be aeae cfbd
000001c0: 8cc7 2a3e ed08 0fbe 4922 00bd 1cc4 cebe
000001d0: e3f5 28bd 8130 babd e9a6 753d c89a a93e
000001e0: 98cc e3bd b0e4 043e b0b0 593c 9d25 7ebe
000001f0: ea8f 853e 200d 523e 0887 1fbe 5e7a 643e
00000200: 1949 0c3d d4b2 7c3c 4a94 3f3d 3774 cb3d
00000210: 976f 263e 7f49 f83c e90e 623d c7e9 f93d
00000220: 35ca 77bd 3fbd 9b3d 0089 f3bd 8913 25bd
00000230: ea57 b3bd 8350 303e ee59 59bc aa9f 923d
00000240: f1ab 94bd 5c56 5e3d 51fd 093e 4d2a d3bd
00000250: da73 803d 66c1 3a3d d54e 25bd e577 06be
00000260: 0e8d 0c3e 26ef d3bd 0632 9bbd 2169 023e
00000270: 9ba4 4e3e 8e26 bfbd 0f85 d3bd 78f5 433e
00000280: 46c0 aa3d 81db 063e f5e1 74bd 8f7f 493d
00000290: 6794 fb3d c8ca fdbd 3b75 a4bd ac01 663e
000002a0: 73b9 abbd 76d9 8d3d f63c f23d 7a11 a73d
000002b0: 984a b7bd 219a 0f3c 5602 ff3d b3e0 c5bc
000002c0: 57d1 44be 7637 ee3d d6f2 e73d b5c9 05be
000002d0: 9920 f83d 8b6f e7bc 75c9 37bd 9533 b0bd
000002e0: 8859 e73d d265 52bd 867f bc3d 8762 033e
000002f0: 4bcb a6bd 2e97 d5bc cae2 29be af1f a23d

critic.weight f4 [1, 64]
0.038205378 -0.06785107 0.104461744 0.13044746 0.1283734 0.002623886 0.031023456 0.06568434
-0.021792354 -0.004751008 -0.10347658 -0.029543072 0.005872086 0.069144316 -0.06461378 -0.0036622367
-0.1973875 -0.05517283 0.19878049 -0.006564745 0.025981043 0.119060814 0.015813658 -0.021590691
-0.02872991 -0.14962102 -0.00077798805 0.08673165 0.1152246 -0.13355711 0.0018338558 0.08172116
-0.0037524495 0.15425573 0.055901285 0.06813914 0.060369983 -0.012693936 -0.05242088 0.093007274
0.22559236 0.006355519 -0.0011145611 0.026661895 -0.10379468 -0.030197756 -0.023935564 -0.091523156
-0.0838991 0.09508296 -0.0027259027 0.04297876 -0.02158743 -0.055778068 -0.12265437 -0.020487629
0.014821896 0.08494762 0.14642076 0.0049806247 -0.017594714 -0.001064331 -0.047369752 0.08275908
00000000: 3e7d 1c3d 80f5 8abd 0af0 d53d 0594 053e
00000010: 5174 033e 81f5 2b3b e724 fe3c 8385 863d
00000020: e185 b2bc 58ae 9bbb 87eb d3bd 5004 f2bc
00000030: a16a c03b 899b 8d3d 3b54 84bd 2302 70bb
00000040: f31f 4abe e8fc 61bd 1d8d 4b3e 131d d7bb
00000050: 32d6 d43c 28d6 f33d a58b 813c f6de b0bc
00000060: fd5a ebbc 4136 19be e5f1 4bba 5da0 b13d
00000070: e0fa eb3d 32c3 08be fd5d f03a 6c5d a73d
00000080: a8eb 75bb 37f5 1d3e bff8 643d 898c 8b3d
00000090: 8446 773d 3afa 4fbc 47b7 56bd 997a be3d
000000a0: af01 673e f541 d03b 7716 92ba 0c6a da3c
000000b0: 4e92 d4bd 4961 f7bc 8414 c4bc 7e70 bbbd
000000c0: 4bd3 abbd dbba c23d 0fa5 32bb 7f0a 303d
000000d0: 1fd8 b0bc 8b77 64bd 3732 fbbd acd5 a7bc
000000e0: 8ad7 723c 05f9 ad3d 53ef 153e 8234 a33b
000000f0: ca22 90bc 0681 8bba c906 42bd 987d a93d
