model_params_101000/65.0_V3_0.25g_0.0rm_100bz_0.0td_1.0tds_Nonelb_Noneup_64n_50000e_10md_5.0rz_31s.pth (torch, 22920 bytes, 4 tensors)

rnn.weight_ih_l0 f4 [64, 9]
00000000: 761f 50bf b267 4b3e 4e92 81bc b755 1cbf
00000010: c0a8 fe3d b368 d0bc df49 a43e 327c ab3d
00000020: 9475 e5be 5279 fabe ff66 0e3e bfa3 f6be
00000030: 9662 113f c1e9 8bbd 0ad1 803d a9ba 72be
00000040: a34e 90bd 4a26 843e 5867 3fbe 5046 d83e
00000050: f075 b9be b786 463f c5db debe b2e5 2c3f
00000060: 85bd 80be ac39 34bd 4e77 533c a004 993e
00000070: 604a 8f3e 20b0 913d 44c6 ccbe 6756 94be
00000080: 3550 9fbe c3bd 8cbe 970c f03e 3f40 e03e
00000090: 4a85 17bf 2a6c 533d 9ca7 fb3d 6224 74be
000000a0: 0e16 f6be 9bdb 8abe 549a 86be 251d 3abf
000000b0: 8588 263e 9c28 7f3e 093c 21be 1ef1 87bc
000000c0: bfd7 8d3e 37f3 96be cd4e 82be 9c45 0f3e
000000d0: 00d2 9a3e cb7c 3b3e f5e8 303e 03f5 063d
000000e0: 62dc 4ebf 1216 693e 9d78 c1ba 5990 46be
000000f0: 4c91 c1be ca4d aebe 937d 913d be64 4dbf
00000100: ea2b a3be dbb0 f23d 2309 2d3f 6050 093e
00000110: 0773 ae3e 39bb 753d 3fb5 813d 0ef3 903d
00000120: 9354 e23d b9f8 113e 6f91 b1be 34fb 963e
00000130: 427f b73d 13c2 3a3f 18d3 ba3e fb62 433f
00000140: c88d a9be ce4b 5d3d 06e8 a5be 1833 93be
00000150: bf0f 4dbe d19c 78bd 6dac b2be dc2e 82be
00000160: da92 06be b3d1 01be 4925 d3be ff5b cebe
00000170: f6a4 113e 91a1 bf3e 9f33 72be c566 153d
00000180: 0e8c a53c b27c 893d a8e4 c53e 0809 323f
00000190: 42be 493b b8e6 143f c6a0 0a40 ebf5 5bbf
000001a0: 3543 923f b278 71bc 5367 613e 0057 e3be
000001b0: 7d48 2a3f 9b67 b1be a6c6 bfbe ce08 9e3f
000001c0: a289 b5be b92f ae3e 2572 e53e 12d1 8dbc
000001d0: 3cc4 613d 1923 2cbe 5cfe eb3c 3c69 143f
000001e0: 7a08 2f3e 210e f93d 45d4 a1be a499 b0be
000001f0: 71ae 7d3e 8729 233f 5742 4f3f bd2e fc3e
00000200: 5373 f83c bffe 8bbe 9246 f43d acdd 8a3c
00000210: cff6 233e 4ce7 473e 2ea7 02be 0ba5 1bbf
00000220: 8304 ff3e 87d4 d8be bc2e 46bf 40e6 83bd
00000230: 3bfb 2cbf dd01 a7bf 9445 00bf 9208 233e
00000240: 5716 b3be aef2 a2bd fed6 2abd 8705 bb3d
00000250: 5398 af3c 0f4e 853e 3325 863e db84 8b3d
00000260: eaaa adbe 861e c4bd 9130 3fbf aeae 833e
00000270: 925a 81be b1c8 913d 366a 2ebe a511 133f
00000280: dc0a 61be acc4 113d 1286 cc3e 22e0 5b3e
00000290: 015e 863e 2e78 dfbe 63af bebe 397d 903d
000002a0: 84b2 373f 68d4 9d3e ce02 51bd 4301 6e3e
000002b0: 8318 fdbe 9c6c 7a3c 7d4e 3e3f d464 7dbe
000002c0: 53fa 1d3e 41a0 5dbe 9a7e 15bf b71b e5bc
000002d0: aa05 57bd 5794 5ebf ac5b 8cbe 99dd c23e
000002e0: a7ea f93d f78e 0cbf d4dc dfbd 4967 18be
000002f0: 9758 cdbd 15ea b13c f719 3d3e 96cb dcbd
00000300: e339 633f bdb7 f2be 2a6c 8f3e d8ec d5bd
00000310: 452a 863d 5efb 1f3e dcbc 153f 28b6 723b
00000320: d64a 063f d2cf c23f eea9 c23e 5ef7 313f
00000330: 620c f3be 279c 163f c02d 29be 6553 0a3e
00000340: 7673 efbd 3c42 1dbe 88f9 cbbe 0261 85be
00000350: 183a 513e 9b5b f3be 0b8d b9bd fc47 d4bc
00000360: 80cb d53e 2623 d83b 6f40 a93d f2e0 793f
00000370: 908c b3be 565d 613d c673 52be a70a 973e
00000380: 88ed 1f3e 03f9 f6be b7c6 8c3e 14c8 aebe
00000390: b7ae 23bd fccb 193a 5b31 e03e 5178 8ebe
000003a0: fb64 89bd da6f d73e 6bf3 843f b461 f43d
000003b0: d04b 143e 62fd 1bbf fd6f 9ebe 7610 9ebe
000003c0: ffaa 92be 1eee 073f b624 2cbd d256 61bf
000003d0: 3289 fe3d 046a 913e 6c4b 88be ca63 0d3f
000003e0: 1d6b a63d 2504 3bbe 9250 213d dbc2 de3d
000003f0: c761 38bf 0b56 4abf b00a d1be 32a5 9a3e
-0.81298006 0.19863775 -0.015816834 -0.6106829 0.1243453 -0.02544055 0.3208761 0.08373298
-0.44816267 -0.48920685 0.13906477 -0.48171803 0.56791055 -0.068316944 0.06289871 -0.23704018
-0.07046249 0.25810462 -0.18691766 0.42241144 -0.36222792 0.7754931 -0.43527046 0.6753799
-0.25144592 -0.044000313 0.012906862 0.2988634 0.2798643 0.07113671 -0.39995015 -0.2897217
-0.3111588 -0.27488527 0.46884605 0.43799016 -0.5918776 0.051616825 0.12287828 -0.23842004
-0.480637 -0.2712067 -0.26289618 -0.7270072 0.16263016 0.24917835 -0.15745558 -0.016594466
0.27703664 -0.29482433 -0.25450745 0.13991398 0.30238342 0.18309323 0.17276366 0.032948505
-0.8080503 0.22762325 -0.0014760677 -0.19391002 -0.37806165 -0.34043723 0.071040295 -0.80231845
-0.3186944 0.11850139 0.67592067 0.13409567 0.34072134 0.059993003 0.06333398 0.07077609
0.110512875 0.14255036 -0.3468127 0.29488528 0.089598194 0.72952384 0.36489177 0.7632291
-0.33115983 0.05402737 -0.32403582 -0.2874992 -0.20025538 -0.060696427 -0.34897175 -0.25426376
-0.13141957 -0.1267765 -0.41239384 -0.40304562 0.14223084 0.37427953 -0.23652504 0.03647496
0.020208385 0.06713237 0.38651013 0.6954503 0.0030783569 0.5816455 2.1660628 -0.85922116
1.142676 -0.014738249 0.22012071 -0.44402313 0.6651686 -0.34649357 -0.37456244 1.2346437
-0.35456568 0.34020784 0.44813648 -0.017311607 0.055118784 -0.16810264 0.028807811 0.57973075
0.17093077 0.12160898 -0.3160726 -0.34492218 0.24773575 0.6373524 0.809606 0.49254408
0.030328428 -0.27342793 0.11927523 0.016951405 0.16012119 0.19521827 -0.12759086 -0.6079871
0.4980813 -0.42349645 -0.7741506 -0.06440401 -0.6757085 -1.3047444 -0.5010617 0.15921238
-0.3497798 -0.07956444 -0.04170894 0.09131914 0.021434939 0.26036116 0.26200256 0.068124495
-0.3391946 -0.095761344 -0.7468348 0.25719208 -0.25264412 0.07118357 -0.17032704 0.574488
-0.21976799 0.03558795 0.39946038 0.21472219 0.26243594 -0.43646377 -0.37243184 0.07055134
0.7175677 0.30826116 -0.051028065 0.23242669 -0.49432763 0.015284684 0.74338514 -0.24745494
0.15427522 -0.21643163 -0.58396304 -0.027967317 -0.052495636 -0.869451 -0.2741369 0.3805969
0.122029595 -0.5490565 -0.109307915 -0.1488315 -0.10026663 0.021718064 0.18466936 -0.107810184
0.88760203 -0.47405806 0.2801221 -0.10445565 0.06551031 0.15623233 0.584913 0.0037034843
0.5245794 1.5219672 0.3802027 0.6951808 -0.47470385 0.5883202 -0.16521358 0.13508375
-0.11691944 -0.15357298 -0.39838815 -0.26050574 0.20432317 -0.47530827 -0.09060105 -0.025913231
0.4175682 0.006595987 0.08264243 0.97608864 -0.35068178 0.055020653 -0.20551977 0.29500315
0.15617955 -0.48236856 0.27495357 -0.34137022 -0.039961543 0.0005866883 0.43787655 -0.2782617
-0.067087136 0.42077523 1.0386785 0.11932698 0.14482045 -0.60933506 -0.30944815 -0.30871934
-0.28646085 0.53097713 -0.042027198 -0.880231 0.12428512 0.28401196 -0.26620042 0.5523039
0.08125899 -0.182633 0.03938348 0.108770095 -0.72024196 -0.7903754 -0.40828466 0.3020416

rnn.weight_hh_l0 f4 [64, 64]
00000000: 5d08 e63e 261f c7bd a52f 593d 59b5 353e
00000010: 044a 253e 5b1d 06be 9670 54be a534 ccbd
00000020: d9d1 a33e 3523 7fb9 4fe3 623d 1c35 253c
00000030: 2543 cdbd 6f0b e53d 4eb5 a5bd 9350 e73d
00000040: e20f 12bd 59d5 403e b026 bc3d 5510 fbbd
00000050: 7321 503c c296 ccbd 7d6d 8dbe 8bfd 673c
00000060: f0eb 95bd 0d12 fd3d 1faf 923b 704b 82be
00000070: b16e 1cbe 4d98 693e 2992 a7be 2f8b 52be
00000080: d4b5 fbbd dab7 22be 8f3a e23d 6476 583e
00000090: 4389 01be 6c3d 0a3e a7a9 87bd b7ea 0e3d
000000a0: eb14 d13d 56ce f1bd 0902 d7be 45d8 aebe
000000b0: 3632 22be d2ab 0abe 4ba5 ab3d 7e2b 823e
000000c0: bd38 523c 62f3 10be 4445 3d3c 386a 9abe
000000d0: df3b abbd 933e 813e 6c91 f2bd 4bcc 9c3e
000000e0: bb19 333d 03a5 833e 4900 c93d 1f8c bcbe
000000f0: a16f fd3e cbee c23e b690 cfbd eacd a13e
00000100: 764e 433e 5e40 b13d 0f46 ffbd 99ba 733d
00000110: 7c34 253d ed0e 73bd f153 04be bd27 5f3e
00000120: 868d 3cbd e931 63be c9de a4be 3665 a0bd
00000130: 884b 8d3e 79fa f9bc 5540 9cbd af91 07be
00000140: e9dd 24be 15e7 7cbe 5154 abbb 61e4 6b3e
00000150: d93f 9cbe e875 30be ad07 e93e fc80 b9bd
00000160: b570 28be 39e6 c6bc 5080 9dbd 8ba7 7f3e
00000170: 8d1c 34be 8f71 a7bd 1b41 303d 1fbd c33e
00000180: 5ea4 15be b3e7 4b3e c017 7b3c 05cf e2be
00000190: ee6f 8cbd f93c 223e b74c b43d c405 573e
000001a0: 07f4 21be 3b7e 06be 1444 073c f7b4 68be
000001b0: 99cf a33e 87fa 753d c918 163e 4910 20be
000001c0: fef5 5d3e 1fc9 a03e 5671 873d 2dd6 853d
000001d0: ce61 83be b090 20be c37a 06bf dfb2 873d
000001e0: 9fda 79be a2aa acbe 952d 14bc 37c4 713e
000001f0: 9088 a8bd 7a01 c0be d112 143e 6fb1 95bc
00000200: 15f7 923d e7b1 4d3d f7e9 943e 8b05 1b3e
00000210: cfed 813e a26f 22be f5a9 223e 1462 073d
00000220: ec21 5a3e a728 94be eed8 bb3c febe b4bd
00000230: 7ffc b0bd 65de 473e 40c4 65be 9f83 16be
00000240: 8f11 6ebe c6a8 1cbc b097 083e e81d 58be
00000250: 3f3c e9bd 9c6b 063d aa8e c63e 9666 2d3d
00000260: 450b b53d 8582 f1bd 1f31 8e3d 0a6e 10be
00000270: 2140 b03e f163 0f3e 1149 32be ff41 2ebe
00000280: 28d9 ec3d e00a dd3e 4c05 eabd 37fb a5be
00000290: e3df 983c 26d5 133e 00cc de3d a5d4 e23d
000002a0: 1663 75be 6d9e 99bd e578 b2bd 4f1c 813e
000002b0: 6693 ff3d 09da 053f e57b 8a3e 2e0c a7be
000002c0: 1bc5 6e3e f133 7e3d a8d1 45bd f352 103e
000002d0: 966e 47be 94ba ca3e dd35 6ebe 7e3b afbe
000002e0: 86b5 1cbd 9aae 60be 85d0 373e f79a 85bd
000002f0: 04ed 0ebe 34dd 23be d8f7 ba3b 59c5 64be
00000300: 284a 97bd 6890 af3e de68 8ebd 19d3 8abe
00000310: e894 2a3e 455d 22be bcc0 adbe 2018 b23e
00000320: 24cf 14be 92f1 433e 0a16 a4bd 75e8 ebbe
00000330: ae1a 3539 33ca 85bd fd66 bfbe 8007 f53d
00000340: 5e69 363e 5012 ba3d 7f0e 343d 1b6e 4dbe
00000350: fa3d 7b3c c0a1 ef3c edb1 14bf b88e 2dbe
00000360: 50b0 68be a989 a83e 0093 9cbe 985b 603e
00000370: bf19 443e f515 ccbe d189 cb3d e5dd 34be
00000380: cfed 88bd afd0 86be 72b8 85be d01f 7a3e
00000390: 592a 2f3e 3126 95bc 78e5 92be 38f6 e7bc
000003a0: 4961 c5bc 2181 0ebe 1f28 f13d 107b af3e
000003b0: a162 7d3d b731 3c3e dad0 99be 2766 443e
000003c0: 0a1f 1bbe 1a30 4cbe 6323 55be 6928 55be
000003d0: 4ff7 833e 0e1d babd 410c b23d 7897 163b
000003e0: e40d 233e 4fa8 f7be a7da 193d 12ff 173e
000003f0: b542 533c 4ad6 653e 97e2 e4be 4b36 84be
0.44928256 -0.09722738 0.053023953 0.1774496 0.16141516 -0.13097136 -0.20746073 -0.09970979
0.3199604 -0.0002433181 0.05539256 0.010083463 -0.100225724 0.111838214 -0.08091222 0.11294665
-0.03565968 0.18831386 0.091870666 -0.122589745 0.012703287 -0.09989692 -0.27622595 0.01415957
-0.07320392 0.123569585 0.0044764425 -0.2544818 -0.152766 0.22812004 -0.327287 -0.20560907
-0.1229054 -0.15890446 0.110463254 0.21138912 -0.12650017 0.13499993 -0.066241555 0.03489181
0.10209068 -0.118069336 -0.4199374 -0.34149376 -0.15839466 -0.13542107 0.083811365 0.25423807
0.01283091 -0.14155343 0.011552159 -0.30159163 -0.08361029 0.25243053 -0.11844143 0.30624613
0.04372571 0.2571183 0.098145075 -0.36825654 0.4949923 0.3807281 -0.10135023 0.31602412
0.19072899 0.08654855 -0.124645345 0.059504125 0.040333256 -0.059340406 -0.12922646 0.21792503
-0.046033405 -0.22187008 -0.32201222 -0.078318045 0.27596688 -0.030514942 -0.07629458 -0.13239168
-0.16100277 -0.24697526 -0.005228557 0.23036338 -0.30517462 -0.17232478 0.4551367 -0.09057805
-0.16449244 -0.0242797 -0.07690489 0.24966256 -0.17589016 -0.081759565 0.04303084 0.38230225
-0.14613482 0.19912605 0.015325487 -0.44298568 -0.068572864 0.15843572 0.08803695 0.20998293
-0.15815745 -0.1313409 0.008255977 -0.22725283 0.31994322 0.060053375 0.14657892 -0.15631212
0.2167587 0.31403443 0.06613414 0.065349914 -0.25660557 -0.15680194 -0.5253107 0.06625914
-0.24399804 -0.33723933 -0.009044071 0.23610006 -0.08229172 -0.37501127 0.14460303 -0.018273083
0.071760334 0.05021849 0.2908475 0.15138833 0.25376746 -0.15862897 0.15885146 0.03305252
0.21302003 -0.28937265 0.022930589 -0.08825491 -0.0864191 0.1951843 -0.22438145 -0.14698647
-0.23248886 -0.009561723 0.13339114 -0.21105158 -0.11388444 0.032817468 0.3878072 0.04233416
0.0884004 -0.11792473 0.06942963 -0.14104477 0.34423926 0.14002968 -0.17410685 -0.17017363
0.11564857 0.4317236 -0.114267915 -0.32418224 0.018661445 0.14436778 0.10878754 0.11075715
-0.2396358 -0.075009204 -0.08714465 0.2521691 0.12479286 0.5228582 0.2704765 -0.3262648
0.23317377 0.062061254 -0.048295647 0.14094143 -0.19475779 0.39595473 -0.23262735 -0.34225076
-0.03825905 -0.21941605 0.17950638 -0.06523698 -0.13957602 -0.16002351 0.005705815 -0.22340907
-0.07387191 0.3428986 -0.069535956 -0.2711418 0.16658366 -0.15855892 -0.33936107 0.3478403
-0.14532143 0.1913512 -0.08012016 -0.46075788 0.00017271444 -0.06532707 -0.3738326 0.11964321
0.17813632 0.09085524 0.043959137 -0.20061533 0.015334601 0.029251933 -0.58083993 -0.16948974
-0.22723508 0.32917526 -0.30580902 0.2190994 0.19150446 -0.39860502 0.09938396 -0.17662771
-0.066859834 -0.26331088 -0.26117283 0.24426198 0.17105998 -0.018206688 -0.28690696 -0.028315648
-0.02409424 -0.13916446 0.117752306 0.34273577 0.061861638 0.1837834 -0.30042154 0.19179593
-0.15148559 -0.19940224 -0.2081428 -0.20816197 0.2577462 -0.09087573 0.086937435 0.0022978466
0.15923268 -0.48370597 0.03756204 0.14843395 0.012894322 0.22445026 -0.44704124 -0.25822672

actor.weight f4 [3, 64]
00000000: 258a a53c 1e91 82be 8b41 37be 8801 903e
00000010: 0c28 19bd 1569 af3d 7580 0a3d 897e 783d
00000020: 9355 c5be 318f d43c c390 34be 56ab f8be
00000030: 3a7a 0e3d 99d7 b2bd 14e1 91be a26d d63e
00000040: b68d 2ebd 2b33 db3d 097f 8ebd 7e99 d03d
00000050: 6683 493c 9645 cdbd 187e 4bbe 80cf 933e
00000060: 1282 81bd d45a 253e 0a35 81bd 4cd5 7a3c
00000070: d082 99be f098 74bd 52a4 00be 4b1e 02be
00000080: f0b8 82bc e605 53be d437 31be 72a1 ae3e
00000090: 59d4 2b3e 19cd 913d 90c0 ec3c b0af 783d
000000a0: 76f4 093d f17b 873e 26db dfba f9e2 8f3d
000000b0: e706 c7bd 19d2 a6bd 6508 7bbe fa5d dfbd
000000c0: 1df4 7d3d ad09 f23c a0dc 5a3d 4d48 9dbe
000000d0: 9a57 49be f451 8e3c f703 7dbe 74d4 813e
000000e0: 7cf5 efbc 1b6e ae3d 728b 5d3e d899 e7bc
000000f0: 2c8b b23c f05c 103e 2705 cbbb 1edf 9e3c
00000100: c017 41be 15df 293e 4fe8 1d3d ffc5 1e3d
00000110: aa0a 1ebe 67b6 2b3d 14b6 cc3e 2b6f a5bd
00000120: b421 c5bd 742f c8be 13ed c33d dc86 ab3d
00000130: 36d2 7a3e 4cfc d53d afbc b2bd 1e8b 683d
00000140: 4979 babe f543 73be 3b0e dabd fac2 943e
00000150: 1a6c 52bb ccd2 903e 2c2a e83d 3974 1f3e
00000160: 0f0e ec3c f52f a63d c045 9ebe 46a2 5c3e
00000170: 45ad 963d 97a3 d4be 50b9 883c 9d11 e13d
00000180: ba40 6f3d 6e65 05be ef34 76bd cb2e d73c
00000190: 6f09 85bd 4a4b 0a3e c82e cb3e 8f1b 8dbe
000001a0: 1094 3d3e e189 e53d b0c4 02bb 1d71 393d
000001b0: c6d0 283e 57fb 51be a426 b63d 0adc cf3c
000001c0: 7f9b 7cbe 9035 7f3e a874 12bf f184 b73c
000001d0: 9535 df3c 8d1a 7dbd d437 e4bd a788 133c
000001e0: 540f f3bc bcea b4be c8aa f63d 7af6 ae3d
000001f0: be9d d1be c44e 263e 7d55 973d 0578 993e
00000200: 6ffb c23d 23dc a73d f2c1 b53d be74 3ebe
00000210: 51c3 e23d 0964 db3b 75fd 68be f782 17bd
00000220: 3823 8b3e 296a 453e d9f5 d23c 4ade 893e
00000230: a2f3 d1bd 7020 c53b f1f3 6a3e 5547 a1be
00000240: c9b3 2c3e a75e 923d 6771 173e 4ef1 68be
00000250: 9279 333d cdee eebd eb5b a93d 8896 69be
00000260: 8db4 db3c 7716 12be 330e 473e 5827 36be
00000270: 46d8 243e 78a4 6c3e 22cc 8c3d 3166 643d
00000280: a658 83bb 3a74 0c3e 6d26 c73d ec95 4abe
00000290: c1aa 0bbd 2317 fcbd a97b 66be 22b2 063e
000002a0: 3055 f6bd a542 72be 7b44 9abd 02b9 febd
000002b0: e52c 91bc 7403 123e e4d1 c23d 4cef 803d
000002c0: 5f36 ea3d 3db7 09be a020 843e bfbb 403e
000002d0: 61cc ad3d 750c e93d c957 443e 1825 25be
000002e0: 3969 863d f6b2 e33d e64d 69be 3faa ea3c
000002f0: 751a 3f3e a8f4 17be b5cd 3bbd 4246 4cbe
0.020207474 -0.2550134 -0.17896096 0.28126168 -0.037391707 0.08564965 0.033813912 0.06066755
-0.3854185 0.025947185 -0.17633347 -0.4856822 0.034784533 -0.08732528 -0.28492033 0.41880518
-0.042615615 0.10703119 -0.06957824 0.10185526 0.012299394 -0.10023038 -0.1987232 0.28869247
-0.06323637 0.1614793 -0.063089445 0.015309643 -0.29982615 -0.059716165 -0.12562683 -0.12706868
-0.015957326 -0.20607719 -0.17306453 0.34107548 0.16780223 0.071191974 0.028900415 0.060714424
0.0336804 0.26461747 -0.0017078861 0.070257135 -0.097181134 -0.08145542 -0.24514921 -0.109065965
0.062000383 0.02954563 0.05343306 -0.30719224 -0.19662324 0.017373063 -0.24708544 0.253574
-0.02929186 0.08517095 0.21635225 -0.0282716 0.021794878 0.14097953 -0.0061956826 0.0193935
-0.18856716 0.16589005 0.038551625 0.038763043 -0.15433756 0.041922 0.39982665 -0.08077844
-0.09625569 -0.39098704 0.09566703 0.08375332 0.24494252 0.104485124 -0.08727395 0.056773297
-0.36420658 -0.23756392 -0.106472455 0.29055005 -0.003210789 0.28285825 0.11336169 0.15571679
0.028815297 0.08114616 -0.3091259 0.21546277 0.07357267 -0.4153106 0.016689926 0.109896876
0.058411337 -0.13026974 -0.060109075 0.02626743 -0.0649594 0.13505283 0.3968413 -0.27560088
0.18513513 0.11207939 -0.001995366 0.04527389 0.16485891 -0.20506035 0.08894089 0.025373477
-0.24668692 0.24922776 -0.57209253 0.022402259 0.02724723 -0.0617929 -0.11143461 0.009004748
-0.029670395 -0.35335338 0.12044293 0.085431054 -0.4094066 0.16240984 0.073893525 0.2997438
0.095206134 0.081962846 0.08874883 -0.18599221 0.1107241 0.0066952747 -0.22752936 -0.036990132
0.27175307 0.19278778 0.025751995 0.26927406 -0.102515474 0.0060158297 0.22944619 -0.31499735
0.16865458 0.0714696 0.14789353 -0.227483 0.04381711 -0.116666414 0.08269485 -0.2281133
0.026819492 -0.14266382 0.1943901 -0.17788446 0.16098127 0.23109615 0.06874873 0.05576152
-0.0040083705 0.13716212 0.09724126 -0.19783753 -0.03409839 -0.123091005 -0.2250811 0.1315389
-0.12027967 -0.23658235 -0.07532593 -0.12437631 -0.017721603 0.1425913 0.0951269 0.06295642
0.11436152 -0.13448806 0.2580614 0.1882162 0.08486248 0.11379329 0.19174112 -0.16127431
0.065630384 0.111181185 -0.22783622 0.028645633 0.18662436 -0.14839423 -0.045850474 -0.19948676

critic.weight f4 [1, 64]
00000000: f5ad cebc 5853 cd3c 14a0 f9bc 5fcf ac3b
00000010: 450a c83a 1748 c13c 4bac 0abd b730 18bb
00000020: b9ad 573c 7883 bb3c 3bc1 923c 6bf7 263e
00000030: 578e bf3b 94ce 90bc fa88 8e3b 64e0 98bc
00000040: a64c de3b 5493 3f3b 54b4 beba bf81 1d3d
00000050: c29d eb3b d93e ad3b fa62 aa3b abfb 33bd
00000060: dbaa 3e3c ffb9 123c 84b8 2d3b a3fd ebbb
00000070: 3a56 bbba 4076 553a 0576 cbb9 a665 083c
00000080: 8157 fe3b 3030 49bb 0490 863b 925f 8bbc
00000090: dfd3 4fbc 7526 f73c 09aa c93c eb54 2f3c
000000a0: 7989 e93c a18e 043c 77d5 18bc 6d72 253c
000000b0: acf9 8c3c fd4e 8a3b cc7a c53c 78fb 9b3c
000000c0: 777c d33c 2c3c ec3c e4a0 313e b6b6 d4bc
000000d0: bc35 293b 3030 c3bb c573 16bc 6616 7ebb
000000e0: 4d8e 4ebc f69f ebb9 33d5 05bc 2aaf 803a
000000f0: cbca 3a3c f86f 55bc dffc 38bd b270 4abc
-0.025229434 0.025064155 -0.030471839 0.005273744 0.001526185 0.023593945 -0.033855718 -0.0023222396
0.013163977 0.022889838 0.017914405 0.1630532 0.0058458257 -0.01767663 0.004349825 -0.018661685
0.0067840395 0.0029232102 -0.0014549592 0.038453814 0.007190437 0.005287033 0.005199787 -0.04394118
0.011637415 0.008955478 0.0026507685 -0.0072018667 -0.0014292665 0.0008142926 -0.0003880711 0.008325016
0.007761896 -0.0030698888 0.0041065235 -0.017013345 -0.012684791 0.030169705 0.024617212 0.010701398
0.028507935 0.008090646 -0.009328238 0.010098082 0.017208897 0.004220842 0.024106406 0.019040808
0.025816185 0.028837286 0.17346531 -0.02596603 0.0025819382 -0.005956672 -0.009182875 -0.0038770675
-0.012607169 -0.00044941873 -0.008168506 0.0009817828 0.011400889 -0.013027184 -0.04516303 -0.01235597
