model_params_101000/75.0_V3_0.95g_0.05rm_100bz_0.0td_1.0tds_Nonelb_Noneup_64n_50000e_10md_5.0rz_36s.pth (torch, 22928 bytes, 4 tensors)

rnn.weight_ih_l0 f4 [64, 9]
000000 78 63 8f be 0b d0 3c 3e 04 e0 fb bd dc 26 7e 3f
       -0.28005576 0.18438737 -0.12298587 0.99278045
000010 b1 71 6f be 04 f0 69 be e2 af d8 be 7c db 41 3e
       -0.23383214 -0.22845465 -0.42321688 0.18931383
000020 7e e6 0b bf cf a8 17 3d 04 c5 c0 3e 5c 3e fa 3d
       -0.5464858 0.037026223 0.3765031 0.12218925
000030 a7 38 28 bf e4 2d a7 be 24 ed 44 3f 12 7b 17 bf
       -0.65711445 -0.326522 0.7692435 -0.59172165
000040 63 e1 46 3e fd 4d a9 3e ed ff e3 3d db 76 20 3e
       0.19421916 0.33067313 0.11132798 0.1567034
000050 27 a4 70 be 62 30 91 3f 95 58 43 be 36 3b b7 3e
       -0.23500119 1.134289 -0.1907676 0.35787362
000060 b3 10 ab 3e 36 7e 42 3e fe af 01 bf 71 b6 52 3d
       0.33411178 0.18993458 -0.5065917 0.05144352
000070 6f 3c ef 3b 3f b8 7b bf 8c 2c de 3e 4d 51 97 be
       0.0073009054 -0.9832801 0.43393362 -0.29554215
000080 81 6e ea 3e 21 94 24 bd ad f6 b6 3c e4 9b a4 39
       0.45787433 -0.04018033 0.022334421 0.00031396665
000090 0b f4 e1 3e 59 32 1a bf b7 6d 38 bf ff 8a 81 3f
       0.44131503 -0.60233074 -0.7204241 1.0120543
0000a0 b3 7f c9 be 0b 7b 7e 3e 86 e7 0d 3e fd fa 32 3d
       -0.3935524 0.24851625 0.1385785 0.043696392
0000b0 93 98 8a 3c a3 66 00 3a c5 9a 38 bd a3 df de 3e
       0.016918456 0.00048981066 -0.045069475 0.43529996
0000c0 17 e0 a9 be c0 2a ba 3e 2f 97 8a bd 4b f7 dc be
       -0.3317878 0.3636074 -0.06767117 -0.4315742
0000d0 20 d1 90 3e 4f 6e 51 3e aa 20 c6 3d 9e 40 ae 3e
       0.2828455 0.20452236 0.09674199 0.34033674
0000e0 30 f0 ae 3e 7e be 57 3f c6 f9 a9 be 96 d3 80 3e
       0.34167624 0.84275043 -0.33198375 0.25161427
0000f0 60 fa 3a be f1 4f 5e 3e 54 43 ab 3e be f0 9e be
       -0.18259573 0.21710183 0.33449805 -0.31043047
000100 a7 55 10 3f 4e 04 64 3d 45 25 89 3c ba 1a 48 be
       0.56380695 0.055668168 0.016741404 -0.19541445
000110 cf 38 77 3e c7 0c 87 3f 08 53 71 3e 43 e7 ce 3e
       0.24142765 1.0550774 0.2356683 0.40410814
000120 e4 75 23 be d9 f1 20 3c 6b 60 21 bd 6b 88 15 bf
       -0.1596294 0.009823286 -0.039398592 -0.5841128
000130 d0 d6 a4 be da d1 d5 bc 07 30 17 3f 87 42 31 3e
       -0.3219514 -0.026101042 0.5905766 0.17310534
000140 25 65 84 be a6 9d f5 be ad 78 42 3e 16 55 a2 be
       -0.25858417 -0.4797184 0.18991347 -0.3170554
000150 e5 df b7 3e aa fb 1e 3d 2a aa 29 bd d4 de 0c be
       0.35913005 0.038814224 -0.041422047 -0.13756877
000160 61 a4 02 bf 38 82 15 bf 29 9c e2 3e 12 00 5d 3e
       -0.5103207 -0.58401823 0.44259766 0.21582058
000170 2c 03 49 3e f6 30 ed be 3c bf 11 3e 00 f0 c3 3a
       0.19630116 -0.46326417 0.14233106 0.0014948845
000180 67 4c 1f be 56 5b 36 be e0 c6 a6 3c 36 d8 d8 bd
       -0.15556489 -0.1780828 0.020358503 -0.10588114
000190 c2 31 f5 3d a7 20 71 be c9 24 01 3e 7d 84 38 3e
       0.11972381 -0.23547612 0.12611689 0.1801929
0001a0 f7 fb 19 be 9d bb 19 3f e0 97 db 3e e0 42 bc bd
       -0.15037523 0.600519 0.4288931 -0.09192443
0001b0 47 a7 e5 be 55 31 ae 3e a8 1c 9a be ea 93 ba be
       -0.44854185 0.34022012 -0.30099988 -0.36440974
0001c0 b7 d1 b1 be f5 21 71 be 3b 8a 4a 3e 80 7d 92 3e
       -0.34730312 -0.2354811 0.19779293 0.28611374
0001d0 ef 87 e5 3e c1 54 8f be 5d 1f 17 3d 82 bc 49 be
       0.44830272 -0.2799435 0.036895145 -0.19700816
0001e0 4b f9 ab 3e a4 4e 54 bf 7e ee 22 3e 3f 83 86 be
       0.33588633 -0.82932496 0.1591129 -0.26272008
0001f0 7b 5f d9 be c0 ae a8 be 28 23 1b 3d be 49 a7 3d
       -0.42455658 -0.32945824 0.037875324 0.08168362
000200 72 7c 80 be d0 67 fc 3e 47 0e a4 bd 6f 0e 54 3e
       -0.25094944 0.49297953 -0.08010536 0.20708631
000210 95 cf 5e bf 45 cd 2f 3f f4 48 31 be 00 85 4c be
       -0.87035495 0.6867259 -0.17312986 -0.1997261
000220 9b 3c df 3d 6a 34 85 3c 46 20 05 be 3e 95 a2 3c
       0.109002315 0.016260345 -0.13000593 0.019846555
000230 4d c9 9d 3d 82 ef 5e 3e aa 67 db be cc e6 62 3e
       0.07704411 0.21771052 -0.42852527 0.22158355
000240 67 1f 0e be bd 28 93 be 48 2f 59 bf 45 03 a6 be
       -0.13879167 -0.28742018 -0.8483777 -0.3242437
000250 af 7e 22 3d 1e e3 c3 3e aa f4 f7 bb e4 35 05 be
       0.039671596 0.38259214 -0.007567008 -0.13008839
000260 6c d3 17 3f eb 93 73 be b3 a7 e1 3e 7e 18 92 3e
       0.5930698 -0.23786895 0.44073257 0.2853431
000270 e0 56 03 bf c4 b9 86 bd be 2a e9 be af 1e 52 bd
       -0.51304436 -0.06578401 -0.45540422 -0.051298793
000280 28 79 85 3e 3f 92 06 bf a5 a8 96 bc ad 64 ab 3e
       0.26068997 -0.52566904 -0.018390963 0.33475247
000290 26 49 46 3e cf b3 0a 3f 70 1b c4 3e a0 09 30 3e
       0.19363841 0.54180616 0.38302183 0.17191172
0002a0 24 06 f3 3d da ed 03 bf 49 71 97 3e a4 b0 b0 be
       0.118664056 -0.5153481 0.29578617 -0.34509766
0002b0 a9 00 5e 3d 3e 74 89 3e e6 2d 9f 3e 97 45 ae be
       0.05419985 0.26846498 0.31089705 -0.34037468
0002c0 33 bf 9e be 57 3d 28 be 45 70 0c 3f e1 0c 1b 3d
       -0.31005248 -0.1642965 0.5485881 0.03785408
0002d0 65 02 35 3e 87 69 92 bb a4 23 94 be 71 13 b9 3e
       0.17676695 -0.0044681462 -0.28933442 0.36147645
0002e0 d5 f4 67 3e 2b 92 23 bd ee f9 1d 3d b9 84 0c bf
       0.2265199 -0.03993432 0.03856843 -0.5489002
0002f0 2b 2e 26 3e f7 99 ba be cd 0c 59 3d 4f d8 e0 bd
       0.16228549 -0.3644559 0.052990723 -0.109787576
000300 b5 ea cf 3e 65 06 9e bd 57 4c ac 3e d9 02 22 bd
       0.40608755 -0.077160634 0.33651993 -0.039553497
000310 70 9b 01 3d cb 77 52 be a5 c0 c8 3e d7 98 41 bd
       0.031642377 -0.2055351 0.39209476 -0.0472649
000320 b0 40 13 be 60 5c f3 3e 7a 90 ca be 96 27 74 3f
       -0.14380145 0.47531414 -0.39563352 0.95372903
000330 35 1e c1 3d c5 c1 24 3e 40 dc 8a bd d4 50 40 be
       0.0942959 0.16089542 -0.067802906 -0.18780833
000340 33 26 de bd 58 7d 32 bf e7 0c 35 3f 65 cf 99 be
       -0.1084713 -0.6972251 0.7072281 -0.30041042
000350 98 3b 94 3d 96 01 a3 be 8a b7 b2 3e 86 b6 ee be
       0.07237929 -0.31837147 0.34905654 -0.4662363
000360 4e d8 59 3f e6 2e de 3e ec 2b 82 bd d8 da 3f 3f
       0.8509568 0.43395156 -0.06356034 0.74943304
000370 02 e9 8b be 26 1c 36 3e 6a e6 80 be 70 e1 49 3e
       -0.27326208 0.17784175 -0.25175792 0.19714904
000380 be 43 41 be 86 14 3e 3f 98 91 59 3f b0 c5 e0 3e
       -0.18873498 0.74250066 0.84987783 0.43900824
000390 01 d5 a9 3e 50 a1 0d 3f 7d 85 0c be 04 2d d0 3f
       0.33170322 0.5532427 -0.13722797 1.6263738
0003a0 47 96 3e 3f 8a bc 86 3f da 0e 89 3f 2c 7a a1 be
       0.74448055 1.0526288 1.0707657 -0.31538522
0003b0 32 d7 76 bd 2a e2 1e 3f a1 4e 81 bf c8 87 dd 3e
       -0.06026382 0.6206385 -1.0102121 0.43267655
0003c0 1f fb 26 be 9e b8 49 be aa dd 1f bf 0a 8d 06 3e
       -0.16306733 -0.19699332 -0.6244761 0.1313974
0003d0 d4 92 0b bf 77 34 64 be 83 77 9e 3f 72 16 df 3e
       -0.54520917 -0.22285639 1.2380222 0.43571812
0003e0 ed 74 18 3f e2 5d 83 be c2 96 bd 3e 1c 27 cb be
       0.59553415 -0.25657564 0.37029082 -0.39678276
0003f0 2a 98 44 3f b4 d0 33 bd df 36 0e 3f f2 2b 17 3f
       0.76794684 -0.043900207 0.55552477 0.5905143

rnn.weight_hh_l0 f4 [64, 64]
000000 4c 39 d6 bb 31 1f 05 bd ae e5 15 be b5 92 7d be
       -0.006537592 -0.03250045 -0.14638397 -0.24762996
000010 08 40 3f be 74 6d 4e 3d 69 9f 9c 3e 09 81 8b 3d
       -0.1867677 0.05039735 0.3059037 0.06811721
000020 66 fa 04 3f 1f 83 10 be 1d 76 c0 3c 99 02 3d 3e
       0.5194458 -0.14112519 0.02349382 0.18458022
000030 e7 43 8e 3e f0 92 36 3e ac 57 76 3e d7 09 a5 be
       0.2778618 0.1782949 0.24056882 -0.3223407
000040 1d 3d 40 be 1b a4 c8 3b 6d 1b 64 3e f4 ef 17 3e
       -0.18773313 0.0061230785 0.22276087 0.14837629
000050 45 be 4b be 9b 0a a3 3d 1a 2f 62 3e b5 4b f3 bb
       -0.19896801 0.07961007 0.2208828 -0.0074247965
000060 53 1c 93 bd 11 5e f3 3e bf 75 bc bd 80 4c 86 3e
       -0.07183137 0.47532704 -0.09202146 0.2623024
000070 f2 88 2a bd 0a 33 b3 bc fb c8 22 3d 0d 55 b8 3d
       -0.041634507 -0.021874923 0.03974245 0.09000597
000080 e4 d9 85 3d 90 3a f4 bb 63 4f 2f be 4c 69 72 3d
       0.065357 -0.0074532703 -0.17120127 0.05918245
000090 c7 47 74 be 54 a3 f2 3d ea 95 02 3e 95 f5 00 3e
       -0.23855506 0.118475586 0.127525 0.12593682
0000a0 ef a0 6c 3e d5 d6 6f be 14 21 a3 3d 37 e7 4b 3e
       0.23108266 -0.23421796 0.079652935 0.1991242
0000b0 a1 8b 14 bd 14 ef c2 be 78 9f 62 3e 06 50 a0 3e
       -0.036265973 -0.38073027 0.22131145 0.31311053
0000c0 2e 1d cd 3d d4 65 f6 3c 0a b0 ba 3d ad 52 36 3d
       0.10015331 0.030077852 0.09115608 0.04451244
0000d0 5c fc fe bd 18 c9 21 3e 84 5c 81 3d 06 93 d3 3d
       -0.124504775 0.15799367 0.06316474 0.10330777
0000e0 f5 f1 dd 3e bf 4c 81 3e 4c d1 17 be 51 f7 84 bd
       0.4334866 0.25253865 -0.14825934 -0.06492484
0000f0 c9 2f b1 3c d4 2a ca 3e b4 87 eb 3e bd 08 e9 be
       0.021629231 0.394858 0.4600197 -0.4551448
000100 64 61 3d 3e 66 c0 f1 3e 0e 0a aa be b3 de db bd
       0.18494183 0.472171 -0.33210796 -0.10735836
000110 d8 ca 92 be 28 61 b0 3e ad 10 a2 3c 72 8c 15 be
       -0.28670382 0.34449124 0.019783342 -0.14604357
000120 ce 5a 2c 3d e5 47 c4 3e 3e f7 21 3e e5 ca 54 be
       0.042078786 0.383361 0.15816972 -0.20780523
000130 1f a3 da bd 20 69 cb 3d 9d 42 ed be 48 80 08 bc
       -0.10675644 0.099321604 -0.46339884 -0.008331366
000140 dc ba fc bb 89 2d 63 3e 8d 00 b7 be d3 f4 9b 3e
       -0.007712705 0.22185339 -0.35742608 0.30460224
000150 4c fa 56 be 07 9d 82 bd 33 13 89 3d e2 fd 4e bd
       -0.20993918 -0.06377607 0.06693115 -0.05053509
000160 fd 22 87 be ba e6 1f bb bb f8 ed bc 2b a1 66 be
       -0.2639388 -0.0024398998 -0.029049268 -0.22522418
000170 82 88 82 3e 7d 4b db be 04 c2 9e be 1f b2 ed 3e
       0.25494772 -0.4283103 -0.31007397 0.46424958
000180 c1 c6 1b be 0b 75 c7 bc b3 fa 95 3d df 71 2a 3e
       -0.15212537 -0.024347803 0.07323208 0.16645001
000190 c1 78 b5 bd ec 26 a6 3d e5 43 b4 3d ff 82 3e bd
       -0.088609226 0.081128925 0.08802012 -0.046511646
0001a0 b4 92 91 be 71 89 9a 3e 2a f7 04 bd 12 1d 73 be
       -0.28432238 0.30182984 -0.032462277 -0.23741558
0001b0 3b 3a 72 be 85 8c 1a bf 7d b9 ba 3d 4e 68 65 bd
       -0.23655026 -0.60370666 0.0911741 -0.056007676
0001c0 12 16 4c 3e 24 3a c5 bd 36 d5 c2 3e c7 bc 94 3e
       0.19930294 -0.0963023 0.38053292 0.29050276
0001d0 cd 14 cb bd 20 30 4f 3e d8 2d 63 3e 91 f5 99 3e
       -0.09916077 0.20233202 0.22185457 0.30070165
0001e0 ae 90 d9 be 66 d9 01 bf 1a 84 25 ba e4 6a 40 3e
       -0.42493194 -0.5072235 -0.0006313935 0.18790776
0001f0 04 af f2 3d 10 58 44 bc 9c b8 c1 3d 01 af 0a be
       0.11849788 -0.011983886 0.094590396 -0.13543321
000200 28 76 94 be 5a 77 48 be f5 f8 6d be a9 49 78 be
       -0.28996396 -0.19576779 -0.23239501 -0.24246849
000210 4c fe 08 3e 47 32 36 be 5e 1c 42 be 17 29 d4 be
       0.13378257 -0.17792617 -0.18956134 -0.414376
000220 bc 0d cb bd cd 6a 4b 3d 04 1b db bd 8f e5 ff 3d
       -0.09914729 0.0496624 -0.10698512 0.12494957
000230 0d 01 1b be ed 25 a0 3b ac 71 c3 be 48 fc b6 3d
       -0.1513712 0.0048873336 -0.38172662 0.089348376
000240 00 12 5e bd 4b 16 e0 3d 26 65 69 be 60 c2 82 3d
       -0.054216385 0.10941752 -0.22792491 0.0638473
000250 a3 47 91 bd 3c 64 a1 be 90 0e 3a 3e bc 09 4e bd
       -0.07093742 -0.31521785 0.18169618 -0.050302252
000260 14 f1 ff 3e c1 95 13 3c a9 51 44 be db 74 95 3e
       0.49988616 0.009007872 -0.19171776 0.29190716
000270 3e f5 2f 3d 03 83 d4 3e 12 d0 a5 3d a0 a6 7a bc
       0.04295849 0.41506204 0.08096327 -0.015298516
000280 7e e8 1c bc 81 f2 17 3d 2b 4a a0 3e 5e 49 0f 3e
       -0.009576915 0.037096504 0.31306586 0.13992831
000290 a9 81 1d bd 81 f7 3c 3d 73 36 75 bd de f2 01 3e
       -0.03845373 0.046134476 -0.05986638 0.12690303
0002a0 35 fa ff 3d da fb 1d be 91 47 ac be fe 1d a0 3d
       0.12498895 -0.15428105 -0.3364835 0.078182206
0002b0 b4 d3 ba 3d 81 02 f2 3d 86 8a e9 bd dc c0 8f be
       0.091224104 0.11816884 -0.114033744 -0.28076828
0002c0 a0 73 9e 3d 67 a7 dc 3d 13 f6 94 be 03 a5 5e be
       0.077368975 0.10774117 -0.2909399 -0.21742634
0002d0 b8 a8 d3 3d a9 8e 54 be ba 64 b7 bd b6 b8 74 bd
       0.10334915 -0.20757546 -0.08954759 -0.059746467
0002e0 84 08 29 3e 7e c8 1a 3e 81 4b 5f be cf 71 c9 3c
       0.16507155 0.15115544 -0.21806146 0.024590401
0002f0 64 8a bb 3d 8f b0 02 be b2 c3 cd 3c 42 76 d8 bd
       0.09157255 -0.12762664 0.025117729 -0.10569431
000300 82 b0 5e bd 1d 0b 90 be 6f 99 8f 3e 82 1b 86 3d
       -0.05436755 -0.2813348 0.28046748 0.065482154
000310 6c ba 6e be 30 0a 19 3e 70 a0 23 bd 69 5b 3b be
       -0.23313302 0.14945292 -0.039947927 -0.18296589
000320 3f 31 ae bd 88 67 c0 bd c7 ab 62 3e 22 87 2e be
       -0.08505487 -0.09394747 0.2213584 -0.17043737
000330 7f 05 db bd 91 20 0c 3c f8 2b 21 3d 97 f2 b3 3e
       -0.10694408 0.008552686 0.039348572 0.3514602
000340 74 cc 79 3e 79 11 76 be 31 e3 b6 3d 4f 46 97 3d
       0.24394399 -0.24030103 0.08930052 0.07386457
000350 04 c0 3c bd 0d 13 4b bd 69 b4 d6 3d 4c 22 16 3e
       -0.046081558 -0.049578715 0.10483629 0.1466152
000360 80 6a d3 3d bf 24 b6 3e 2e a8 c8 3c 8f 9d f0 3e
       0.10323048 0.3557491 0.024494257 0.46995208
000370 7a e7 06 3e ac 35 a3 bd 97 36 07 3f 9b 82 99 bd
       0.13174239 -0.079692215 0.5281767 -0.07495614
000380 2e de ff 3e c8 08 a4 3d 42 6a 24 be fa 33 14 bf
       0.49974197 0.080094874 -0.16056159 -0.5789181
000390 d9 6d c0 3c e6 d8 cd 3d df c2 8c 3e 46 24 38 bd
       0.02348988 0.10051136 0.27492425 -0.044956468
0003a0 71 c2 24 3d 12 4e 62 bd bb e8 8c 3d 32 e1 69 bc
       0.040224496 -0.055250235 0.06880327 -0.014274882
0003b0 f6 52 41 3e 08 87 9c 3e b3 e2 16 3e 03 86 a8 bd
       0.18879303 0.3057177 0.14734916 -0.08228686
0003c0 0d 03 d9 3d 05 fc 12 3e 4c 52 e2 3c 18 dd ab bc
       0.10596285 0.1435395 0.027627133 -0.02097945
0003d0 74 42 02 3f 52 4d 0a 3d 54 61 d2 3c 6c e9 86 bd
       0.5088265 0.033765145 0.025681175 -0.065874904
0003e0 5c 34 c2 3d 07 4f ac 3e 95 70 8f bd 45 d7 71 bb
       0.09482643 0.33654043 -0.07003895 -0.0036901992
0003f0 a3 e4 b9 bc 86 6f 37 be c4 56 6e 3e 4a ba 74 bd
       -0.02269203 -0.17913637 0.23275286 -0.05974797

actor.weight f4 [3, 64]
000000 aa bc 97 3d a9 1f 61 3d 72 63 c6 bc 49 49 e9 be
       0.07409032 0.054961834 -0.024217341 -0.45563725
000010 96 f1 26 be 75 b2 73 3e 85 24 66 bb 92 13 bc 3c
       -0.16303095 0.23798545 -0.0035116982 0.02295855
000020 f0 3d 97 3d f3 e9 dc 3d b5 82 4c 3e d7 bd ef 3d
       0.073848605 0.1078681 0.19971736 0.11706131
000030 5e 9b bb bd ef f0 32 3e 4f bc e1 be 95 29 33 3d
       -0.09160493 0.17474721 -0.4408898 0.043740828
000040 3e 35 b3 bd cb 43 8f 3e 86 af 2c 3e 40 53 95 bd
       -0.087503895 0.2798141 0.16863832 -0.07291269
000050 34 3f c6 be 2f fc 4a 3d 0c d3 a6 bc ac 3a 47 bd
       -0.38720095 0.049556907 -0.020364307 -0.04863994
000060 5b 16 92 bc a0 89 8f be d2 bc 4d be ab 1c 03 bf
       -0.017832926 -0.28034687 -0.2009156 -0.5121562
000070 75 cb 8a be 2c 3c bc 3d f2 40 f9 bd b5 5f 1a 3d
       -0.2710835 0.091911644 -0.121705905 0.03768893
000080 c8 07 90 be c0 c3 2b be 23 91 20 3e 79 8a ae 3e
       -0.28130937 -0.16773891 0.15680365 0.3409002
000090 e8 d8 b1 3e e1 dc a8 3d 7f 0f 0b 3c c0 8d ad bd
       0.347358 0.08245254 0.008487581 -0.08474302
0000a0 49 43 bc 3b 4b 2c 2a be 4c fb 5e 3d 8b 47 4e 3c
       0.0057453257 -0.16618459 0.054438874 0.012590299
0000b0 63 f8 5e 3d 72 0f c6 be e0 f0 16 be a5 d3 19 bd
       0.0544361 -0.3868366 -0.14740324 -0.037555356
0000c0 f5 51 9f 3c 9e 2f 22 be 04 98 12 be 46 6d a7 bc
       0.01944826 -0.15838477 -0.14315802 -0.020437848
0000d0 8f 49 22 be 27 c5 81 3e 88 72 52 3e e6 a9 ee 3d
       -0.15848373 0.25345728 0.20551503 0.11653499
0000e0 78 df 30 3e 30 60 b3 bd 43 d5 c4 3e f7 2c f8 be
       0.17272747 -0.08758581 0.38443956 -0.48471805
0000f0 e9 20 54 b9 e2 4b df 3c 53 13 d0 bd dd 96 b2 be
       -0.00020230155 0.027257863 -0.10159936 -0.34880725
000100 d6 f8 ac bd be 71 8f be 0a f7 95 3e f3 5d 4c 3e
       -0.08445899 -0.28016466 0.29290038 0.19957714
000110 af f4 7b 3e 4f 18 88 be 77 6a 0e bc 95 18 33 be
       0.24605058 -0.26581046 -0.008692375 -0.17489846
000120 f5 a3 8d be 78 9b b0 bb 19 28 73 be fb bf f9 bd
       -0.27664152 -0.005389627 -0.23745765 -0.121948205
000130 89 ae f7 bd 7a fa 85 bd 60 a5 c4 3e c4 a0 dc bd
       -0.12093837 -0.06541915 0.3840742 -0.10772851
000140 fc 0d 93 3d 35 c5 25 be 2b 7f 8c bc d9 b0 2f 3e
       0.07180402 -0.1618851 -0.017150482 0.17157306
000150 dc 14 3e 3d c5 96 4e be 05 d2 84 bd f2 41 1b 3e
       0.04640661 -0.20174702 -0.064853705 0.15161875
000160 90 7c ac 3d ab 2d 6d be 50 ed 59 3e 47 26 e1 3d
       0.08422196 -0.23161952 0.21281934 0.10993629
000170 e1 b1 40 bd a2 e7 72 3e f5 b4 be 3e 1f ca 0e 3c
       -0.04704464 0.23721173 0.37247434 0.008715182
000180 82 f3 28 3e 62 8b 8f 3e 01 a3 9e be 16 85 e2 be
       0.16499141 0.28036028 -0.30983737 -0.44242162
000190 82 ef fb be 1e b0 c5 be 0d c0 9c 3b 00 63 89 bc
       -0.49206167 -0.3861093 0.0047836364 -0.01677084
0001a0 77 d5 7a 3e 9a 72 a9 3e eb 93 83 3e 10 9d b5 3c
       0.24495493 0.33095247 0.2569879 0.02216962
0001b0 04 13 32 3e 65 e9 46 3d 73 77 fc 3d ca 85 c4 3d
       0.17390066 0.048562426 0.12327471 0.09595831
0001c0 fc 28 1f 3c 44 78 ab bc a6 8c 0c be d3 01 34 bd
       0.009714361 -0.02093137 -0.13725528 -0.043947052
0001d0 c7 6c ff 3d 54 4e 26 be 41 38 98 3e 00 03 3b be
       0.124719195 -0.16240817 0.29730418 -0.18262863
0001e0 48 56 4a be b6 ad 0d 3e bc 6b 51 3d 0f 28 e8 bb
       -0.19759476 0.13835797 0.051128134 -0.0070848535
0001f0 22 45 41 be 1c 65 4f bc e1 03 e3 be d5 78 8a 3d
       -0.18874028 -0.012658384 -0.44338897 0.06761328
000200 55 ce b6 3c 4d d2 3e 3d 39 bb 96 bc 51 7c 03 3e
       0.022315184 0.046587277 -0.018399822 0.12840392
000210 5f 48 85 3d 04 3f 18 be cf 90 4e 3d 69 23 96 3d
       0.06507944 -0.14867789 0.05043107 0.07330973
000220 bb 4d 17 3c 5f 3f 6b be cc 94 f6 bd 9a 96 03 bd
       0.009234841 -0.22973393 -0.120400995 -0.032126047
000230 53 f1 3a 3e 0a cd 1c 3d 5c 1a 17 bb 2e 0d 11 bb
       0.1825612 0.038281478 -0.0023056483 -0.00221331
000240 b0 59 5a 3d 18 71 29 be 4d 95 86 bd f8 f4 a9 bc
       0.05330819 -0.16547048 -0.065714456 -0.020746693
000250 d5 fb 0a 3e e1 0a a4 3d 58 ec 90 3d 4f 17 c2 bc
       0.13572629 0.080098875 0.07076329 -0.023692755
000260 f4 5c c8 3d a4 c6 97 3e eb 3d ca 3d 50 91 97 3e
       0.097833544 0.29643738 0.09875091 0.29603052
000270 03 8d a4 3e d8 61 2a be b5 d7 ea bd cd ed a5 bd
       0.32138833 -0.16638887 -0.11466924 -0.081019975
000280 fa 53 3c 3b a7 0a f7 bc 0b 25 e3 3d 10 ca 06 3e
       0.0028736577 -0.030156447 0.1109105 0.13163018
000290 09 07 e8 3d a0 6d e5 3d f0 b0 c4 3d 37 1a 1e 3d
       0.11329467 0.1120255 0.09604061 0.03859922
0002a0 ff cb dc bd 4b ca cb bc e1 f0 d2 bd a1 bd 0f 3e
       -0.10781097 -0.024876734 -0.1029985 0.14037181
0002b0 58 ee 0d bd 05 77 b3 3e d3 4c df bc a8 7d 5a 3d
       -0.03465113 0.35051742 -0.027258312 0.05334249
0002c0 69 ca 0d be 80 d2 23 3d d7 29 11 3e 3e b3 be bd
       -0.13846745 0.03999567 0.14176117 -0.093115315
0002d0 69 68 fe 3d c7 ee ac 3d b0 42 9f be 4d 3b 5d ba
       0.124222584 0.08443981 -0.31105566 -0.00084393175
0002e0 eb 3e 3d 3d 34 a4 bc 3d 69 e5 48 be ce af aa 3e
       0.04620258 0.09211007 -0.19618763 0.33337253
0002f0 3d a5 bb bd f5 8e 56 bb 08 69 af 3e d0 61 2b 3d
       -0.09162376 -0.0032739018 0.3425982 0.04184133

critic.weight f4 [1, 64]
000000 04 5d 59 bd ec 93 0c 3a 88 26 81 bd 63 5d ff 3d
       -0.053067222 0.0005362618 -0.063061774 0.12468984
000010 19 59 0f 3e 18 ab 50 3c 93 7b d0 bb 14 db 92 3d
       0.13998832 0.012736104 -0.0063623874 0.07170692
000020 ec 27 be 3d 37 9b ed bd f4 98 e1 bd 90 ec 4e ba
       0.09284958 -0.116018705 -0.110155016 -0.0007893527
000030 34 d0 42 bc ab 41 9f bd 34 a8 d2 3c 32 aa 98 bd
       -0.01189046 -0.07776197 0.025714971 -0.07454337
000040 58 c9 29 3d 16 8d 0d 3b d3 69 db 3b 49 b0 51 bd
       0.041451782 0.0021598986 0.006695965 -0.05119351
000050 12 ad 3f bd 7f a0 7c bc a3 14 cb 3c e5 3f 87 bd
       -0.046795912 -0.015419125 0.024790114 -0.06603984
000060 44 8d be ba 58 4b 37 3e 82 70 8e 3c 72 24 ef 3d
       -0.001453795 0.17899835 0.017387632 0.11676873
000070 f4 8f fd 3d c6 d6 08 3b 04 f2 ad bd 3d 18 24 3c
       0.123809725 0.0020879968 -0.084934264 0.0100155445
000080 67 c7 07 3c 00 90 b3 3b a7 8d 10 3c a0 13 85 3d
       0.008287287 0.0054798126 0.008822835 0.06497884
000090 8f d6 8a 3d 91 b2 cb 3d 23 ee 05 3e b7 5d 02 be
       0.06779205 0.09946168 0.13079123 -0.12731062
0000a0 8b e8 82 bd a9 7b 7b be 44 11 7d be 18 e5 b1 3d
       -0.0639201 -0.24558891 -0.24713618 0.08686274
0000b0 cf 91 a0 3d 88 ce a1 3d c8 6b 07 be 38 b4 eb bd
       0.07840311 0.07900721 -0.13224709 -0.115089834
0000c0 53 32 a6 bd c3 60 3d 3c d4 ca 26 bd f2 3d 6d 3a
       -0.08115067 0.011558714 -0.040720776 0.0009050063
0000d0 d7 e7 b6 3d 82 1e 99 bd f9 16 d4 bd 48 89 46 bd
       0.08930939 -0.07476522 -0.10355944 -0.048470765
0000e0 5f 87 07 3d 6b 76 80 3c 98 e2 80 be c9 0a 32 3e
       0.033088084 0.015681466 -0.25172877 0.17386927
0000f0 a5 4d 29 3d 87 38 9f 3c aa 5f bb 3e 71 c0 31 bc
       0.041333813 0.019436134 0.36596423 -0.010849104
