model_params_101000/85.0_V3_0.95g_0.0rm_30bz_0.0td_1.0tds_Nonelb_Noneup_64n_50000e_10md_5.0rz_11s.pth (torch, 22912 bytes, 4 tensors)

rnn.weight_ih_l0 f4 [64, 9]
0.33448923 0.29354626 -0.16916156 0.033289444 0.26514032 -0.016978173 -0.65519994 0.13281094
-0.22760847 -0.33355677 -0.52223593 0.06332372 -1.0418837 0.48042166 -0.11064662 0.28297478
0.17920314 -0.15053731 0.02422512 0.42717355 -0.11165424 -0.3098819 0.2099977 0.38277864
-0.040383987 -0.1658645 -0.02577549 0.36192778 0.3459983 -0.16358493 0.38946423 -0.47010618
-0.27638942 0.34351093 0.13681236 0.3546307 0.068020694 0.41745272 -0.09978523 0.1680125
0.32361007 0.13705988 -0.26025513 0.30646184 0.3324477 -0.42311338 -0.41242716 -0.101314895
-0.6448952 -0.15246743 -0.31959218 -0.50069004 -0.30493772 0.52542573 0.5358605 0.26130286
-0.12620242 1.3895172 0.2801945 -0.2516079 -0.34602237 0.14469776 0.4266722 -0.2252464
0.0480889 -0.7914297 -0.35892263 0.3194109 -0.026368652 0.23006336 -0.08601686 0.44487435
0.27521044 -0.041176237 -0.021846388 -0.30910897 -0.33471388 0.03380684 0.10725931 0.27308276
-0.13681707 0.1848755 -0.12284151 -0.13878533 -0.83285797 -0.036514215 0.50507224 0.17527488
0.40024585 0.47969434 0.17470808 0.3510618 -0.91962904 -0.53951627 0.14028892 -0.27040586
0.5253517 -0.20074917 -0.038654 0.0019080539 -0.064654306 0.5374694 1.0117937 -0.41375533
0.3949378 0.61712056 -0.29042354 -0.54222274 -0.14455077 0.38528362 0.31713533 -0.35936597
0.04203469 0.28456342 -0.5791984 -0.43606287 -0.5163546 -0.34209654 0.23469031 -0.13312428
-0.23232515 -0.1044131 -0.4499625 -0.3306844 0.3262878 -0.4763034 0.62353855 0.50315565
-0.028391464 0.24516723 -0.13265921 0.18406956 0.31774428 0.01757989 0.21546529 -0.07103305
-0.43364963 0.45609087 0.22872888 0.6079625 0.5519709 -0.0680509 0.22521159 0.07593803
0.35334414 0.35576123 -0.7070931 0.12763576 0.40538177 0.14300355 0.035436075 0.29749942
0.070586495 -0.7065419 0.021510936 0.1996006 -1.6060344 -0.14214373 -0.0016877442 -0.016857572
0.19786882 -0.43114564 -0.58168525 0.2081714 -0.13721654 -0.09434042 0.3346302 0.39470187
-0.08381504 0.295645 -0.40134737 -0.09350278 0.2399027 -0.4720819 -0.3835957 0.4901279
0.5777355 0.22959585 0.065919876 0.2687345 0.00405921 -0.7707512 -0.2253178 -0.227411
0.3947964 -0.36097464 -0.05354618 0.7128846 -0.19612625 0.27472594 0.2366135 0.26888373
0.5753965 -0.27220002 -0.17132138 -0.046435904 0.38338056 -0.37511545 -0.92919683 0.22543217
-0.22724979 -1.439032 0.037546363 -0.18597342 -0.21500744 -0.45444396 -0.73780656 0.25541443
-0.35916606 -0.31617528 0.4744074 -0.31712648 0.23374073 -0.029949343 -0.18391904 -0.05044905
-0.14162761 -0.10756506 -0.753673 0.34680048 -0.5548819 0.022461522 0.4956999 -0.15078098
-0.30223846 0.49546123 -0.027603168 0.5555272 -1.0058787 0.22135279 -0.5448458 -0.41385576
0.07383604 0.20969117 0.8109614 -0.22354992 0.019187398 2.4477272 -0.7451266 0.9372644
0.36542264 -0.07362377 -0.26014692 0.6515256 -0.82329154 -0.0064860354 1.6148775 -0.28312272
0.4354115 0.14872707 -0.005570567 -0.4133277 0.33244473 0.35392204 0.6454716 0.3721979
00000000: 2c42 ab3e b24b 963e b038 2dbe 835a 083d
00000010: 79c0 873e cf15 8bbc 2fbb 27bf 97ff 073e
00000020: 3212 69be f4c7 aabe 41b1 05bf deaf 813d
00000030: 725c 85bf d4f9 f53e b29a e2bd 12e2 903e
00000040: 0781 373e 7426 1abe c273 c63c 7eb6 da3e
00000050: faaa e4bd d7a8 9ebe a309 573e 90fb c33e
00000060: ae69 25bd 62d8 29be 1f27 d3bc 994e b93e
00000070: b026 b13e cf82 27be db67 c73e c2b1 f0be
00000080: ea82 8dbe aae0 af3e 8a18 0c3e 2892 b53e
00000090: 6f4e 8b3d 5dbc d53e 335c ccbd 780b 2c3e
000000a0: 38b0 a53e 6d59 0c3e 2940 85be 91e8 9c3e
000000b0: 9636 aa3e 51a2 d8be a729 d3be 2f7e cfbd
000000c0: da17 25bf 6c20 1cbe 96a1 a3be 392d 00bf
000000d0: cc20 9cbe 4d82 063f 272e 093f 7dc9 853e
000000e0: 353b 01be b3db b13f a775 8f3e c0d2 80be
000000f0: d829 b1be a62b 143e c774 da3e fea6 66be
00000100: def8 443d 239b 4abf b5c4 b7be d389 a33e
00000110: 1203 d8bc bb95 6b3e 9c29 b0bd 92c6 e33e
00000120: 62e8 8c3e 6aa8 28bd 32f7 b2bc 8843 9ebe
00000130: 9e5f abbe 0b79 0a3d c5aa db3d 81d1 8b3e
00000140: c619 0cbe 0150 3d3e 5494 fbbd be1d 0ebe
00000150: 2e36 55bf ee8f 15bd 6a4c 013f 427b 333e
00000160: 06ed cc3e 7f9a f53e ade6 323e 5fbe b33e
00000170: cf6c 6bbf bd1d 0abf e6a7 0f3e a372 8abe
00000180: 737d 063f 3191 4dbe a853 1ebd aa17 fa3a
00000190: 7a69 84bd 9897 093f 7582 813f bdd7 d3be
000001a0: 4a35 ca3e 9dfb 1d3f 65b2 94be 1ccf 0abf
000001b0: 1e05 14be e543 c53e 905f a23e d1fe b7be
000001c0: 912c 2c3d 4cb2 913e 5946 14bf a243 dfbe
000001d0: d12f 04bf 4727 afbe a852 703e bb51 08be
000001e0: a5e6 6dbe 89d6 d5bd 7c61 e6be 774f a9be
000001f0: 320f a73e 0ade f3be 39a0 1f3f cfce 003f
00000200: 3795 e8bc 1e0d 7b3e d1d7 07be bb7c 3c3e
00000210: 61af a23e b403 903c efa2 5c3e c779 91bd
00000220: 5307 debe be84 e93e e737 6a3e 6ea3 1b3f
00000230: f74d 0d3f 455e 8bbd de9d 663e 6685 9b3d
00000240: 86e9 b43e 5626 b63e 0e04 35bf f3b2 023e
00000250: 338e cf3e 866f 123e 6b25 113d d851 983e
00000260: a78f 903d eedf 34bf b437 b03c 1a64 4c3e
00000270: 8992 cdbf 208e 11be 4c37 ddba e418 8abc
00000280: 209e 4a3e 1fbf dcbe 53e9 14bf e22a 553e
00000290: 7e82 0cbe 8d35 c1bd a654 ab3e 5d16 ca3e
000002a0: 38a7 abbd c85e 973e 677d cdbe 637e bfbd
000002b0: 0ea9 753e b8b4 f1be a866 c4be 0bf2 fa3e
000002c0: 79e6 133f 2d1b 6b3e 0001 873d 9297 893e
000002d0: 1f03 853b f34f 45bf b6b9 66be 6ede 68be
000002e0: c122 ca3e abd1 b8be 3d53 5bbd 9b7f 363f
000002f0: 52d5 48be e1a8 8c3e cf4a 723e 21ab 893e
00000300: 2f4d 133f cd5d 8bbe df6e 2fbe 9333 3ebd
00000310: 754a c43e 220f c0be d8df 6dbf b1d7 663e
00000320: 2bb4 68be 3332 b8bf 37ca 193d d16f 3ebe
00000330: e92a 5cbe e1ac e8be e4e0 3cbf aec5 823e
00000340: 9de4 b7be bae1 a1be 87e5 f23e 675e a2be
00000350: bb59 6f3e 5358 f5bc 4655 3cbe aaa3 4ebd
00000360: d406 11be 124b dcbd b7f0 40bf d58f b13e
00000370: bd0c 0ebf 3a01 b83c 61cc fd3e 5466 1abe
00000380: 00bf 9abe 18ad fd3e 0a20 e2bc 0837 0e3f
00000390: a2c0 80bf 4eaa 623e 047b 0bbf e7e4 d3be
000003a0: 5a37 973d 48b9 563e 2b9b 4f3f 45ea 64be
000003b0: e42e 9d3c 90a7 1c40 9ec0 3ebf 8ff0 6f3f
000003c0: ad18 bb3e 0fc8 96bd fa31 85be 62ca 263f
000003d0: 3cc3 52bf cf88 d4bb 4eb4 ce3f 76f5 90be
000003e0: 42ee de3e e94b 183e 4e89 b6bb b09f d3be
000003f0: 3236 aa3e 4535 b53e a03d 253f b990 be3e

rnn.weight_hh_l0 f4 [64, 64]
0.3272723 0.037326366 -0.2719989 -0.16888334 -0.18950854 0.043985967 0.18823156 0.09028944
0.27729702 0.04812646 0.22281349 -0.41885725 0.18554823 0.09412856 0.35670325 0.26085338
0.04177394 -0.09968668 -0.13937907 -0.014805149 0.14174753 -0.20911635 0.515747 0.19854301
-0.3725373 -0.010880794 -0.42893356 -0.04225668 -0.06102349 0.077783 -0.077504516 -0.16474015
-0.12408956 0.007592248 0.10868637 0.22712316 0.11173926 0.022065686 -0.30333966 -0.11622303
-0.08963336 0.19396925 -0.56946295 0.056723494 -0.25295475 -0.18161388 -0.17672114 -0.20912701
0.31696954 -0.15501848 0.14840369 0.075427875 0.0026959595 0.09299513 0.14629157 0.012432133
0.14563134 -0.15364742 0.24188343 0.090236634 -0.09499347 0.11295282 -0.0628984 -0.3603325
-0.18781672 0.2913076 0.18578283 -0.42730936 -0.080033824 -0.18479241 -0.031378135 -0.07102354
0.0005437117 0.061420806 0.23693345 -0.14646244 -0.33620253 0.061380263 0.06446518 -0.19548927
0.12943088 0.14430596 -0.21519163 -0.09770369 -0.22772145 -0.14477429 0.046875115 -0.17115821
0.19306019 -0.031199796 0.2606671 -0.2930061 0.047304913 -0.03108697 -0.031430326 -0.23019865
-0.22856435 -0.026999833 0.334339 -0.053859953 0.27355954 -0.032697655 0.08478529 0.36064437
0.03460391 -0.36022428 -0.16738588 -0.036039993 0.17029515 -0.0131747285 -0.2951714 -0.20279294
0.26913726 0.11346773 -0.15511933 -0.03929915 -0.22827677 0.075549714 0.051360935 -0.3690595
0.3080415 -0.18735217 -0.22729957 -0.28169802 0.08040346 0.09819565 -0.40053245 -0.012391335
0.07591499 0.1519336 -0.2352254 -0.081077345 -0.09731738 0.16158128 0.023393834 0.15475823
0.12909842 0.1025601 0.05773881 -0.005485558 0.070093974 0.4874272 0.17022024 -0.08616498
0.030660769 0.27140072 5.1350304e-05 0.056350246 -0.08674591 0.01658766 0.036778074 -0.054375958
-0.41219345 -0.010882151 -0.12413663 -0.07137328 -0.36278665 -0.21755856 -0.1442477 -0.21033004
0.189901 -0.45008597 -0.0037389947 0.098748714 -0.06508695 0.075000435 0.33837253 0.0426957
0.17294644 0.12928566 -0.3102641 0.46880352 -0.10684347 -0.082800016 -0.018266246 -0.035036914
0.15725973 0.040455364 -0.002924796 -0.08181534 0.029570883 -0.44036376 0.15318586 0.021921918
-0.10958804 0.014680044 -0.26218203 0.042257622 0.15479822 -0.1541204 -0.004650456 -0.07743813
0.18152992 0.23595518 0.17192705 -0.04420687 0.28697798 -0.12805018 -0.23941521 -0.12791263
-0.070651606 0.011058797 0.039062943 0.08431919 0.4017466 -0.00795796 -0.05825455 0.36117977
0.212907 0.045558162 -0.13702692 -0.18514673 -0.061316244 -0.13542123 -0.031379517 -0.22033864
-0.124623075 0.09768217 0.1593917 0.18576002 0.22223078 0.13908109 0.16270746 0.08205444
-0.0072205933 -0.19244109 0.22193879 0.12763089 -0.0061083795 0.018419087 -0.3049678 -0.10379098
0.02729217 0.21737684 0.28843403 0.05013998 -0.06725697 -0.4078208 0.1396999 0.29891843
-0.18051624 -0.03632597 0.22115499 0.39944464 -0.0155741 -0.41080275 0.15250625 -0.12194288
0.24196425 0.15223996 0.08465157 0.2084233 0.10518074 0.18866788 -0.16044082 -0.011991931
00000000: 3c90 a73e 88e3 183d 7143 8bbe c1ef 2cbe
00000010: 870e 42be a12a 343d c6bf 403e abe9 b83d
00000020: e0f9 8d3e 4020 453d 3829 643e 7574 d6be
00000030: 5b00 3e3e 79c6 c03d cfa1 b63e 938e 853e
00000040: 271b 2b3d 8828 ccbd 63b9 0ebe 4c91 72bc
00000050: 4426 113e 9922 56be ff07 043f dc4e 4b3e
00000060: 36bd bebe 5c45 32bc 2e9d dbbe 5715 2dbd
00000070: c4f3 79bd b24c 9f3d b0ba 9ebd a4b1 28be
00000080: ab22 febd 64c8 f83b f696 de3d f992 683e
00000090: 8ed7 e43d 19c3 b43c 564f 9bbe 5706 eebd
000000a0: b291 b7bd e09f 463e 53c8 11bf e556 683d
000000b0: 4983 81be fdf8 39be 63f6 34be 6425 56be
000000c0: d549 a23e 2abd 1ebe 23f7 173e ee79 9a3d
000000d0: b2ae 303b 3b74 be3d 75cd 153e 25b0 4b3c
000000e0: 6220 153e c055 1dbe 4ab0 773e fccd b83d
000000f0: f08b c2bd cf53 e73d e0d0 80bd 807d b8be
00000100: 0753 40be 4526 953e db3d 3e3e 4bc8 dabe
00000110: c6e8 a3bd 393a 3dbe 5c86 00bd ca74 91bd
00000120: e087 0e3a 6294 7b3d af9e 723e 40fa 15be
00000130: bd22 acbe df69 7b3d 5206 843d 572e 48be
00000140: 8789 043e f1c4 133e 325b 5cbe df18 c8bd
00000150: d02f 69be b63f 14be 1f00 403d 1944 2fbe
00000160: 92b1 453e b796 ffbc 2876 853e e504 96be
00000170: ccc2 413d 1aaa febc 16bd 00bd 32b9 6bbe
00000180: c60c 6abe c12e ddbc 7b2e ab3e 419c 5cbd
00000190: ff0f 8c3e faed 05bd e9a3 ad3d 61a6 b83e
000001a0: d4bc 0d3d 516f b8be 3467 2bbe ac9e 13bd
000001b0: da61 2e3e d1da 57bc b520 97be f4a8 4fbe
000001c0: 5ccc 893e c561 e83d 9ad7 1ebe 25f8 20bd
000001d0: 63c1 69be cfb9 9a3d d85f 523d 5ef5 bcbe
000001e0: 9eb7 9d3e 3fd9 3fbe 38c1 68be b93a 90be
000001f0: 92aa a43d cd1a c93d 9712 cdbe 0705 4bbc
00000200: 5179 9b3d 7b94 1b3e edde 70be e10b a6bd
00000210: 564e c7bd 9075 253e 6da4 bf3c f178 1e3e
00000220: 6032 043e 080b d23d 887f 6c3d 32c0 b3bb
00000230: 6e8d 8f3d 0f90 f93e 374e 2e3e 4477 b0bd
00000240: 4b2c fb3c 09f5 8a3e f860 5738 84cf 663d
00000250: d7a7 b1bd d8e2 873c 9ba4 163d 53b9 5ebd
00000260: 050b d3be 0d4b 32bc 583b febd 272c 92bd
00000270: 2cbf b9be acc7 5ebe abb5 13be c260 57be
00000280: 6875 423e ab71 e6be ec09 75bb c43c ca3d
00000290: 4f4c 85bd d499 993d 2a3f ad3e b0e1 2e3d
000002a0: df18 313e 7663 043e f0da 9ebe 0407 f03e
000002b0: c0d0 dabd 0e93 a9bd 18a3 95bc de82 0fbd
000002c0: b208 213e 86b4 253d efad 3fbb cd8e a7bd
000002d0: a33e f23c 5c77 e1be c1dc 1c3e 9895 b33c
000002e0: b26f e0bd 9184 703c b93c 86be 5416 2d3d
000002f0: 6d83 1e3e bdd1 1dbe da62 98bb e297 9ebd
00000300: fbe2 393e 3c9e 713e a50d 303e 4312 35bd
00000310: c7ee 923e 961f 03be 4329 75be 87fb 02be
00000320: cab1 90bd f52f 353c 7700 203d 8aaf ac3d
00000330: bbb1 cd3e 1a62 02bc 539c 6ebd 8eec b83e
00000340: 4b04 5a3e 329b 3a3d c950 0cbe 1b97 3dbe
00000350: be26 7bbd ddab 0abe cf87 00bd 74a0 61be
00000360: 623a ffbd 970d c83d 9437 233e e037 3e3e
00000370: 7790 633e 466b 0e3e c99c 263e 290c a83d
00000380: ba9a ecbb 470f 45be ec43 633e acb1 023e
00000390: cd28 c8bb a0e3 963c bd24 9cbe 5e90 d4bd
000003a0: d493 df3c 0998 5e3e a0ad 933e 945f 4d3d
000003b0: 06be 89bd e3cd d0be 7e0d 0f3e d60b 993e
000003c0: 40d9 38be 8aca 14bd 7476 623e 0284 cc3e
000003d0: 832a 7fbc bd54 d2be 992a 1c3e 30bd f9bd
000003e0: 7ac5 773e cbe4 1b3e cd5d ad3d eb6c 553e
000003f0: 0069 d73d 2732 413e 994a 24be ce79 44bc

actor.weight f4 [3, 64]
0.37494135 -0.13085318 0.02161187 0.008407534 -0.026054671 0.5297779 -0.19118781 -0.028647747
0.42772865 0.07867391 0.23970653 -0.13222846 0.7221662 0.031662498 -0.4351951 0.2880109
0.2341534 0.1658875 -0.3042078 -0.011236381 0.2591789 -0.15818517 0.32173434 -0.13186064
-0.13398607 0.29402742 -1.036273 0.10040518 -0.15385467 0.19583787 -0.118209735 0.005060106
-0.40442747 0.18967068 -0.18404034 -0.3110356 0.098143555 0.19433828 -0.106049694 0.21306363
0.11653214 0.10408756 -0.89356345 -0.4952482 -0.25162604 -0.21685487 0.13040043 0.339791
-0.14137243 -0.24100988 0.17651212 0.09684833 0.1321358 0.09943989 0.25697058 0.3604638
-0.2165825 -0.017452668 0.23242576 0.1999914 0.09482623 -0.07058913 0.030974066 0.059712395
-0.073498145 -0.22013256 -0.28163913 0.09460056 0.20864058 0.2632006 -0.0052566156 -0.05799179
0.16587584 -0.29633394 -0.35485244 0.057727933 -0.072705664 -0.10829728 -0.16312136 0.0049497564
0.037530262 -0.35668743 -0.016127612 -0.04661085 0.046669826 0.11952057 -0.17974421 0.10671405
0.12751572 -0.30938908 0.06884189 0.432731 0.19727941 0.034462467 -0.08125162 0.48546687
0.21764827 0.014908664 -0.15807573 9.613541e-05 -0.18246485 0.17147478 0.071158804 -0.06626031
0.15897614 0.42668292 0.10002865 -0.1401072 -0.08775094 -0.010395682 0.094158426 0.011513176
-0.3281653 0.19102608 0.34189442 0.15987654 -0.028979281 -0.4396267 -0.20473017 0.30954054
-0.09800858 -0.038715404 0.09651305 -0.09159103 -0.15131202 -0.33586097 0.1252911 -0.081080146
-0.12356555 0.11311138 0.14529546 -0.028919332 -0.039482515 -0.33614802 0.096560866 0.0591457
-0.22938606 0.20118009 0.121185616 -0.0754754 -0.23777498 0.12845464 0.23245057 -0.09064517
-0.050121322 0.09284606 0.054612853 0.0127086025 -0.12427475 -0.030158233 -0.023020737 -0.022582889
-0.014339817 0.017405592 0.25932857 -0.28043967 -0.053782243 -0.123288736 0.072682165 -0.39938903
-0.0773744 -0.07418482 0.06898946 0.12679729 0.09710866 -0.052551713 -0.06698581 -0.23594867
-0.013504644 -0.21648265 0.26025173 0.32445386 0.23251137 0.06314199 -0.19080502 -0.13674785
0.1847402 -0.056151547 -0.27958682 -0.0789232 -0.05385026 0.21647507 0.054158434 -0.3955894
0.17403024 0.054782484 -0.18468103 -0.10266261 -0.027074222 0.21772139 -0.05887453 0.07126517
00000000: 50f8 bf3e 60fe 05be 600b b13c c1bf 093c
00000010: 9b70 d5bc 869f 073f bdc6 43be aeae eabc
00000020: 40ff da3e c91f a13d a175 753e e666 07be
00000030: e2df 383f 89b0 013d e4d1 debe 2a76 933e
00000040: e9c5 6f3e 6ade 293e 20c1 9bbe cc18 38bc
00000050: 19b3 843e 4bfb 21be 5dba a43e 7a06 07be
00000060: a533 09be c38a 963e 98a4 84bf 3ba1 cd3d
00000070: 148c 1dbe b989 483e f217 f2bd 3fcf a53b
00000080: 1e11 cfbe 0839 423e 1275 3cbe 0f40 9fbe
00000090: 7dff c83d 9d00 473e 9530 d9bd 5a2d 5a3e
000000a0: 67a8 ee3d dc2b d53d 93c0 64bf 2c91 fdbe
000000b0: 21d5 80be 340f 5ebe b187 053e 16f9 ad3e
000000c0: efc3 10be 4bcb 76be 98bf 343e 6b58 c63d
000000d0: 9b4e 073e 24a7 cb3d a691 833e b68e b83e
000000e0: cec7 5dbe e6f8 8ebc 0501 6e3e 8cca 4c3e
000000f0: 4134 c23d 0991 90bd 53bd fd3c fc94 743d
00000100: 3286 96bd 6e6a 61be 0133 90be f0bd c13d
00000110: e0a5 553e 3bc2 863e b03f acbb cd88 6dbd
00000120: 5bdb 293e 15b9 97be 38af b5be 2074 6c3d
00000130: b5e6 94bd f7ca ddbd 4909 27be 9131 a23b
00000140: 55b9 193d bc9f b6be 0e1e 84bc 05eb 3ebd
00000150: dc28 3f3d 33c7 f43d de0e 38be e58c da3d
00000160: 7b93 023e 3f68 9ebe fafc 8c3d eb8e dd3e
00000170: 9d03 4a3e 8428 0d3d 4067 a6bd 1d8f f83e
00000180: 30df 5e3e 7843 743c 9bde 21be 4e9c c938
00000190: 11d8 3abe 1697 2f3e b5bb 913d 7cb3 87bd
000001a0: a4ca 223e 2f76 da3e d2db cc3d 4378 0fbe
000001b0: c4b6 b3bd a752 2abc 22d6 c03d c3a1 3c3c
000001c0: 4805 a8be 579c 433e c90c af3e adb6 233e
000001d0: f565 edbc c016 e1be c9a4 51be 197c 9e3e
000001e0: b9b8 c8bd 0b94 1ebd a2a8 c53d 1494 bbbd
000001f0: 8af1 1abe f8f5 abbe 4f4c 003e 590d a6bd
00000200: ef0f fdbd f0a6 e73d 55c8 143e 3ce8 ecbc
00000210: 6bb8 21bd 981b acbe b4c1 c53d c342 723d
00000220: 2ee4 6abe 2702 4e3e 2a30 f83d d992 9abd
00000230: 497b 73be 9d89 033e 8607 6e3e 2da4 b9bd
00000240: 044c 4dbd 1326 be3d bab1 5f3d be37 503c
00000250: c383 febd 660e f7bc fc95 bcbc c0ff b8bc
00000260: 8df1 6abc 2c96 8e3c b7c6 843e ca95 8fbe
00000270: c54a 5cbd ce7e fcbd 63da 943d b87c ccbe
00000280: 7876 9ebd 36ee 97bd 594a 8d3d 26d7 013e
00000290: e8e0 c63d 7740 57bd db2f 89bd 879c 71be
000002a0: 9542 5dbc a1ad 5dbe b73f 853e d11e a63e
000002b0: 7617 6e3e 9650 813d 6462 43be a107 0cbe
000002c0: 892c 3d3e 2aff 65bd 0126 8fbe 7da2 a1bd
000002d0: 1792 5cbd a4ab 5d3e 3cd5 5d3d b28a cabe
000002e0: fc34 323e 9963 603d 061d 3dbe c640 d2bd
000002f0: c2ca ddbc 5bf2 5e3e 6b26 71bd 79f3 913d

critic.weight f4 [1, 64]
-0.09535518 0.01816753 0.018511333 0.08599359 -0.0071758195 -0.20900159 -0.0410618 0.03470931
-0.019685855 0.023191188 -0.019720672 -0.0491086 -0.20011853 0.055572543 0.1263053 -0.023474805
-0.03177969 0.22879258 0.023309473 -0.07158719 -0.0052922075 0.048211858 -0.024765152 -0.070993915
-0.033081163 -0.02092776 0.36508116 -0.27963862 -0.014645456 0.013624778 0.08382185 -0.11579379
-0.06572439 0.012090004 -0.0010768113 -0.032180134 0.03307022 -0.0040435907 0.00778506 0.022758573
-0.01060602 -0.14552405 0.36737067 0.058461286 0.0897593 0.08060039 -0.12692788 -0.024288982
0.0477073 -0.0813369 -0.041238684 -0.042086527 0.07150734 0.01668517 -0.019402804 -0.019437687
0.009598967 0.008544944 -0.06683169 0.0052421633 0.0033125433 0.023217605 0.10898569 -0.022929834
00000000: 9449 c3bd 12d4 943c 14a5 973c 681d b03d
00000010: 2323 ebbb 8304 56be 6b30 28bd 592b 0e3d
00000020: 3b44 a1bc 72fb bd3c 3f8d a1bc 1926 49bd
00000030: dfeb 4cbe 09a0 633d 2d56 013e 3c4e c0bc
00000040: 6c2b 02bd 9a48 6a3e 82f3 be3c 4e9c 92bd
00000050: 416a adbb cc79 453d 4ae0 cabc 4265 91bd
00000060: 1d80 07bd b270 abbc ebeb ba3e cb2c 8fbe
00000070: 7ff3 6fbc 763a 5f3c caaa ab3d 4b25 edbd
00000080: 829a 86bd 2715 463c cb23 8dba 51cf 03bd
00000090: a474 073d 1980 84bb d119 ff3b 3070 ba3c
000000a0: dfc4 2dbc 4204 15be 0218 bc3e 1a75 6f3d
000000b0: b9d3 b73d d111 a53d 62f9 01be b0f9 c6bc
000000c0: bb68 433d f693 a6bd e5e9 28bd ec62 2cbd
000000d0: 7172 923d 56af 883c a1f2 9ebc c93b 9fbc
000000e0: fc44 1d3c 1800 0c3c 0edf 88bd 74c6 ab3b
000000f0: 4117 593b d932 be3c e433 df3d 59d7 bbbc
